ir_version: 9
producer_name: "pytorch"
producer_version: "2.3.1"
domain: ""
graph {
  node {
    output: "Conv_Res_3.bn.running_var"
    name: "node_Conv_Res_3.bn.running_var"
    op_type: "Constant"
    attribute {
      name: "value"
      t {
        dims: 16
        data_type: 1
        name: "Conv_Res_3.bn.running_var"
        raw_data: "…"
      }
      type: TENSOR
    }
  }
  node {
    output: "Conv_Res_3.bn.running_mean"
    name: "node_Conv_Res_3.bn.running_mean"
    op_type: "Constant"
    attribute {
      name: "value"
      t {
        dims: 16
        data_type: 1
        name: "Conv_Res_3.bn.running_mean"
        raw_data: "…"
      }
      type: TENSOR
    }
  }
  node {
    output: "Conv_Res_2.bn.running_var"
    name: "node_Conv_Res_2.bn.running_var"
    op_type: "Constant"
    attribute {
      name: "value"
      t {
        dims: 16
        data_type: 1
        name: "Conv_Res_2.bn.running_var"
        raw_data: "…"
      }
      type: TENSOR
    }
  }
  node {
    output: "Conv_Res_2.bn.running_mean"
    name: "node_Conv_Res_2.bn.running_mean"
    op_type: "Constant"
    attribute {
      name: "value"
      t {
        dims: 16
        data_type: 1
        name: "Conv_Res_2.bn.running_mean"
        raw_data: "…"
      }
      type: TENSOR
    }
  }
  node {
    output: "Conv_Res_1.bn.running_var"
    name: "node_Conv_Res_1.bn.running_var"
    op_type: "Constant"
    attribute {
      name: "value"
      t {
        dims: 32
        data_type: 1
        name: "Conv_Res_1.bn.running_var"
        raw_data: "…"
      }
      type: TENSOR
    }
  }
  node {
    output: "Conv_Res_1.bn.running_mean"
    name: "node_Conv_Res_1.bn.running_mean"
    op_type: "Constant"
    attribute {
      name: "value"
      t {
        dims: 32
        data_type: 1
        name: "Conv_Res_1.bn.running_mean"
        raw_data: "…"
      }
      type: TENSOR
    }
  }
  node {
    output: "Conv_7_2.bn.running_var"
    name: "node_Conv_7_2.bn.running_var"
    op_type: "Constant"
    attribute {
      name: "value"
      t {
        dims: 32
        data_type: 1
        name: "Conv_7_2.bn.running_var"
        raw_data: "…"
      }
      type: TENSOR
    }
  }
  node {
    output: "Conv_7_2.bn.running_mean"
    name: "node_Conv_7_2.bn.running_mean"
    op_type: "Constant"
    attribute {
      name: "value"
      t {
        dims: 32
        data_type: 1
        name: "Conv_7_2.bn.running_mean"
        raw_data: "…"
      }
      type: TENSOR
    }
  }
  node {
    output: "Conv_7_1.bn.running_var"
    name: "node_Conv_7_1.bn.running_var"
    op_type: "Constant"
    attribute {
      name: "value"
      t {
        dims: 16
        data_type: 1
        name: "Conv_7_1.bn.running_var"
        raw_data: "…"
      }
      type: TENSOR
    }
  }
  node {
    output: "Conv_7_1.bn.running_mean"
    name: "node_Conv_7_1.bn.running_mean"
    op_type: "Constant"
    attribute {
      name: "value"
      t {
        dims: 16
        data_type: 1
        name: "Conv_7_1.bn.running_mean"
        raw_data: "…"
      }
      type: TENSOR
    }
  }
  node {
    output: "Conv_12_6.bn.running_var"
    name: "node_Conv_12_6.bn.running_var"
    op_type: "Constant"
    attribute {
      name: "value"
      t {
        dims: 32
        data_type: 1
        name: "Conv_12_6.bn.running_var"
        raw_data: "…"
      }
      type: TENSOR
    }
  }
  node {
    output: "Conv_12_6.bn.running_mean"
    name: "node_Conv_12_6.bn.running_mean"
    op_type: "Constant"
    attribute {
      name: "value"
      t {
        dims: 32
        data_type: 1
        name: "Conv_12_6.bn.running_mean"
        raw_data: "…"
      }
      type: TENSOR
    }
  }
  node {
    output: "Conv_12_5.bn.running_var"
    name: "node_Conv_12_5.bn.running_var"
    op_type: "Constant"
    attribute {
      name: "value"
      t {
        dims: 16
        data_type: 1
        name: "Conv_12_5.bn.running_var"
        raw_data: "…"
      }
      type: TENSOR
    }
  }
  node {
    output: "Conv_12_5.bn.running_mean"
    name: "node_Conv_12_5.bn.running_mean"
    op_type: "Constant"
    attribute {
      name: "value"
      t {
        dims: 16
        data_type: 1
        name: "Conv_12_5.bn.running_mean"
        raw_data: "…"
      }
      type: TENSOR
    }
  }
  node {
    output: "Conv_12_4.bn.running_var"
    name: "node_Conv_12_4.bn.running_var"
    op_type: "Constant"
    attribute {
      name: "value"
      t {
        dims: 32
        data_type: 1
        name: "Conv_12_4.bn.running_var"
        raw_data: "…"
      }
      type: TENSOR
    }
  }
  node {
    output: "Conv_12_4.bn.running_mean"
    name: "node_Conv_12_4.bn.running_mean"
    op_type: "Constant"
    attribute {
      name: "value"
      t {
        dims: 32
        data_type: 1
        name: "Conv_12_4.bn.running_mean"
        raw_data: "…"
      }
      type: TENSOR
    }
  }
  node {
    output: "Conv_12_3.bn.running_var"
    name: "node_Conv_12_3.bn.running_var"
    op_type: "Constant"
    attribute {
      name: "value"
      t {
        dims: 16
        data_type: 1
        name: "Conv_12_3.bn.running_var"
        raw_data: "…"
      }
      type: TENSOR
    }
  }
  node {
    output: "Conv_12_3.bn.running_mean"
    name: "node_Conv_12_3.bn.running_mean"
    op_type: "Constant"
    attribute {
      name: "value"
      t {
        dims: 16
        data_type: 1
        name: "Conv_12_3.bn.running_mean"
        raw_data: "…"
      }
      type: TENSOR
    }
  }
  node {
    output: "Conv_12_2.bn.running_var"
    name: "node_Conv_12_2.bn.running_var"
    op_type: "Constant"
    attribute {
      name: "value"
      t {
        dims: 32
        data_type: 1
        name: "Conv_12_2.bn.running_var"
        raw_data: "…"
      }
      type: TENSOR
    }
  }
  node {
    output: "Conv_12_2.bn.running_mean"
    name: "node_Conv_12_2.bn.running_mean"
    op_type: "Constant"
    attribute {
      name: "value"
      t {
        dims: 32
        data_type: 1
        name: "Conv_12_2.bn.running_mean"
        raw_data: "…"
      }
      type: TENSOR
    }
  }
  node {
    output: "Conv_12_1.bn.running_var"
    name: "node_Conv_12_1.bn.running_var"
    op_type: "Constant"
    attribute {
      name: "value"
      t {
        dims: 16
        data_type: 1
        name: "Conv_12_1.bn.running_var"
        raw_data: "…"
      }
      type: TENSOR
    }
  }
  node {
    output: "Conv_12_1.bn.running_mean"
    name: "node_Conv_12_1.bn.running_mean"
    op_type: "Constant"
    attribute {
      name: "value"
      t {
        dims: 16
        data_type: 1
        name: "Conv_12_1.bn.running_mean"
        raw_data: "…"
      }
      type: TENSOR
    }
  }
  node {
    output: "Conv_24_6.bn.running_var"
    name: "node_Conv_24_6.bn.running_var"
    op_type: "Constant"
    attribute {
      name: "value"
      t {
        dims: 32
        data_type: 1
        name: "Conv_24_6.bn.running_var"
        raw_data: "…"
      }
      type: TENSOR
    }
  }
  node {
    output: "Conv_24_6.bn.running_mean"
    name: "node_Conv_24_6.bn.running_mean"
    op_type: "Constant"
    attribute {
      name: "value"
      t {
        dims: 32
        data_type: 1
        name: "Conv_24_6.bn.running_mean"
        raw_data: "…"
      }
      type: TENSOR
    }
  }
  node {
    output: "Conv_24_5.bn.running_var"
    name: "node_Conv_24_5.bn.running_var"
    op_type: "Constant"
    attribute {
      name: "value"
      t {
        dims: 16
        data_type: 1
        name: "Conv_24_5.bn.running_var"
        raw_data: "…"
      }
      type: TENSOR
    }
  }
  node {
    output: "Conv_24_5.bn.running_mean"
    name: "node_Conv_24_5.bn.running_mean"
    op_type: "Constant"
    attribute {
      name: "value"
      t {
        dims: 16
        data_type: 1
        name: "Conv_24_5.bn.running_mean"
        raw_data: "…"
      }
      type: TENSOR
    }
  }
  node {
    output: "Conv_24_4.bn.running_var"
    name: "node_Conv_24_4.bn.running_var"
    op_type: "Constant"
    attribute {
      name: "value"
      t {
        dims: 32
        data_type: 1
        name: "Conv_24_4.bn.running_var"
        raw_data: "…"
      }
      type: TENSOR
    }
  }
  node {
    output: "Conv_24_4.bn.running_mean"
    name: "node_Conv_24_4.bn.running_mean"
    op_type: "Constant"
    attribute {
      name: "value"
      t {
        dims: 32
        data_type: 1
        name: "Conv_24_4.bn.running_mean"
        raw_data: "…"
      }
      type: TENSOR
    }
  }
  node {
    input: "input"
    input: "onnx::Conv_671"
    output: "/Conv_96/Conv_output_0"
    name: "/Conv_96/Conv"
    op_type: "Conv"
    attribute {
      name: "dilations"
      ints: 1
      ints: 1
      type: INTS
    }
    attribute {
      name: "group"
      i: 1
      type: INT
    }
    attribute {
      name: "kernel_shape"
      ints: 3
      ints: 3
      type: INTS
    }
    attribute {
      name: "pads"
      ints: 1
      ints: 1
      ints: 1
      ints: 1
      type: INTS
    }
    attribute {
      name: "strides"
      ints: 1
      ints: 1
      type: INTS
    }
  }
  node {
    output: "/Conv_24_2/bn/Constant_output_0"
    name: "/Conv_24_2/bn/Constant"
    op_type: "Constant"
    attribute {
      name: "value"
      t {
        dims: 32
        data_type: 1
        name: ""
        raw_data: "…"
      }
      type: TENSOR
    }
  }
  node {
    output: "/Conv_24_2/bn/Constant_1_output_0"
    name: "/Conv_24_2/bn/Constant_1"
    op_type: "Constant"
    attribute {
      name: "value"
      t {
        dims: 32
        data_type: 1
        name: ""
        raw_data: "…"
      }
      type: TENSOR
    }
  }
  node {
    output: "/Conv_24_3/bn/Constant_output_0"
    name: "/Conv_24_3/bn/Constant"
    op_type: "Constant"
    attribute {
      name: "value"
      t {
        dims: 16
        data_type: 1
        name: ""
        raw_data: "…"
      }
      type: TENSOR
    }
  }
  node {
    output: "/Conv_24_3/bn/Constant_1_output_0"
    name: "/Conv_24_3/bn/Constant_1"
    op_type: "Constant"
    attribute {
      name: "value"
      t {
        dims: 16
        data_type: 1
        name: ""
        raw_data: "…"
      }
      type: TENSOR
    }
  }
  node {
    output: "/Conv_24_4/bn/Constant_output_0"
    name: "/Conv_24_4/bn/Constant"
    op_type: "Constant"
    attribute {
      name: "value"
      t {
        dims: 32
        data_type: 1
        name: ""
        raw_data: "…"
      }
      type: TENSOR
    }
  }
  node {
    output: "/Conv_24_4/bn/Constant_1_output_0"
    name: "/Conv_24_4/bn/Constant_1"
    op_type: "Constant"
    attribute {
      name: "value"
      t {
        dims: 32
        data_type: 1
        name: ""
        raw_data: "…"
      }
      type: TENSOR
    }
  }
  node {
    output: "/Conv_24_5/bn/Constant_output_0"
    name: "/Conv_24_5/bn/Constant"
    op_type: "Constant"
    attribute {
      name: "value"
      t {
        dims: 16
        data_type: 1
        name: ""
        raw_data: "…"
      }
      type: TENSOR
    }
  }
  node {
    output: "/Conv_24_5/bn/Constant_1_output_0"
    name: "/Conv_24_5/bn/Constant_1"
    op_type: "Constant"
    attribute {
      name: "value"
      t {
        dims: 16
        data_type: 1
        name: ""
        raw_data: "…"
      }
      type: TENSOR
    }
  }
  node {
    output: "/Conv_24_6/bn/Constant_output_0"
    name: "/Conv_24_6/bn/Constant"
    op_type: "Constant"
    attribute {
      name: "value"
      t {
        dims: 32
        data_type: 1
        name: ""
        raw_data: "…"
      }
      type: TENSOR
    }
  }
  node {
    output: "/Conv_24_6/bn/Constant_1_output_0"
    name: "/Conv_24_6/bn/Constant_1"
    op_type: "Constant"
    attribute {
      name: "value"
      t {
        dims: 32
        data_type: 1
        name: ""
        raw_data: "…"
      }
      type: TENSOR
    }
  }
  node {
    output: "/Conv_12_1/bn/Constant_output_0"
    name: "/Conv_12_1/bn/Constant"
    op_type: "Constant"
    attribute {
      name: "value"
      t {
        dims: 16
        data_type: 1
        name: ""
        raw_data: "…"
      }
      type: TENSOR
    }
  }
  node {
    output: "/Conv_12_1/bn/Constant_1_output_0"
    name: "/Conv_12_1/bn/Constant_1"
    op_type: "Constant"
    attribute {
      name: "value"
      t {
        dims: 16
        data_type: 1
        name: ""
        raw_data: "…"
      }
      type: TENSOR
    }
  }
  node {
    output: "/Conv_12_2/bn/Constant_output_0"
    name: "/Conv_12_2/bn/Constant"
    op_type: "Constant"
    attribute {
      name: "value"
      t {
        dims: 32
        data_type: 1
        name: ""
        raw_data: "…"
      }
      type: TENSOR
    }
  }
  node {
    output: "/Conv_12_2/bn/Constant_1_output_0"
    name: "/Conv_12_2/bn/Constant_1"
    op_type: "Constant"
    attribute {
      name: "value"
      t {
        dims: 32
        data_type: 1
        name: ""
        raw_data: "…"
      }
      type: TENSOR
    }
  }
  node {
    output: "/Conv_12_3/bn/Constant_output_0"
    name: "/Conv_12_3/bn/Constant"
    op_type: "Constant"
    attribute {
      name: "value"
      t {
        dims: 16
        data_type: 1
        name: ""
        raw_data: "…"
      }
      type: TENSOR
    }
  }
  node {
    output: "/Conv_12_3/bn/Constant_1_output_0"
    name: "/Conv_12_3/bn/Constant_1"
    op_type: "Constant"
    attribute {
      name: "value"
      t {
        dims: 16
        data_type: 1
        name: ""
        raw_data: "…"
      }
      type: TENSOR
    }
  }
  node {
    output: "/Conv_12_4/bn/Constant_output_0"
    name: "/Conv_12_4/bn/Constant"
    op_type: "Constant"
    attribute {
      name: "value"
      t {
        dims: 32
        data_type: 1
        name: ""
        raw_data: "…"
      }
      type: TENSOR
    }
  }
  node {
    output: "/Conv_12_4/bn/Constant_1_output_0"
    name: "/Conv_12_4/bn/Constant_1"
    op_type: "Constant"
    attribute {
      name: "value"
      t {
        dims: 32
        data_type: 1
        name: ""
        raw_data: "…"
      }
      type: TENSOR
    }
  }
  node {
    output: "/Conv_12_5/bn/Constant_output_0"
    name: "/Conv_12_5/bn/Constant"
    op_type: "Constant"
    attribute {
      name: "value"
      t {
        dims: 16
        data_type: 1
        name: ""
        raw_data: "…"
      }
      type: TENSOR
    }
  }
  node {
    output: "/Conv_12_5/bn/Constant_1_output_0"
    name: "/Conv_12_5/bn/Constant_1"
    op_type: "Constant"
    attribute {
      name: "value"
      t {
        dims: 16
        data_type: 1
        name: ""
        raw_data: "…"
      }
      type: TENSOR
    }
  }
  node {
    output: "/Conv_12_6/bn/Constant_output_0"
    name: "/Conv_12_6/bn/Constant"
    op_type: "Constant"
    attribute {
      name: "value"
      t {
        dims: 32
        data_type: 1
        name: ""
        raw_data: "…"
      }
      type: TENSOR
    }
  }
  node {
    output: "/Conv_12_6/bn/Constant_1_output_0"
    name: "/Conv_12_6/bn/Constant_1"
    op_type: "Constant"
    attribute {
      name: "value"
      t {
        dims: 32
        data_type: 1
        name: ""
        raw_data: "…"
      }
      type: TENSOR
    }
  }
  node {
    output: "/Conv_7_1/bn/Constant_output_0"
    name: "/Conv_7_1/bn/Constant"
    op_type: "Constant"
    attribute {
      name: "value"
      t {
        dims: 16
        data_type: 1
        name: ""
        raw_data: "…"
      }
      type: TENSOR
    }
  }
  node {
    output: "/Conv_7_1/bn/Constant_1_output_0"
    name: "/Conv_7_1/bn/Constant_1"
    op_type: "Constant"
    attribute {
      name: "value"
      t {
        dims: 16
        data_type: 1
        name: ""
        raw_data: "…"
      }
      type: TENSOR
    }
  }
  node {
    output: "/Conv_7_2/bn/Constant_output_0"
    name: "/Conv_7_2/bn/Constant"
    op_type: "Constant"
    attribute {
      name: "value"
      t {
        dims: 32
        data_type: 1
        name: ""
        raw_data: "…"
      }
      type: TENSOR
    }
  }
  node {
    output: "/Conv_7_2/bn/Constant_1_output_0"
    name: "/Conv_7_2/bn/Constant_1"
    op_type: "Constant"
    attribute {
      name: "value"
      t {
        dims: 32
        data_type: 1
        name: ""
        raw_data: "…"
      }
      type: TENSOR
    }
  }
  node {
    output: "/Conv_Res_1/bn/Constant_output_0"
    name: "/Conv_Res_1/bn/Constant"
    op_type: "Constant"
    attribute {
      name: "value"
      t {
        dims: 32
        data_type: 1
        name: ""
        raw_data: "…"
      }
      type: TENSOR
    }
  }
  node {
    output: "/Conv_Res_1/bn/Constant_1_output_0"
    name: "/Conv_Res_1/bn/Constant_1"
    op_type: "Constant"
    attribute {
      name: "value"
      t {
        dims: 32
        data_type: 1
        name: ""
        raw_data: "…"
      }
      type: TENSOR
    }
  }
  node {
    output: "/Conv_Res_2/bn/Constant_output_0"
    name: "/Conv_Res_2/bn/Constant"
    op_type: "Constant"
    attribute {
      name: "value"
      t {
        dims: 16
        data_type: 1
        name: ""
        raw_data: "…"
      }
      type: TENSOR
    }
  }
  node {
    output: "/Conv_Res_2/bn/Constant_1_output_0"
    name: "/Conv_Res_2/bn/Constant_1"
    op_type: "Constant"
    attribute {
      name: "value"
      t {
        dims: 16
        data_type: 1
        name: ""
        raw_data: "…"
      }
      type: TENSOR
    }
  }
  node {
    output: "/Conv_Res_3/bn/Constant_output_0"
    name: "/Conv_Res_3/bn/Constant"
    op_type: "Constant"
    attribute {
      name: "value"
      t {
        dims: 16
        data_type: 1
        name: ""
        raw_data: "…"
      }
      type: TENSOR
    }
  }
  node {
    output: "/Conv_Res_3/bn/Constant_1_output_0"
    name: "/Conv_Res_3/bn/Constant_1"
    op_type: "Constant"
    attribute {
      name: "value"
      t {
        dims: 16
        data_type: 1
        name: ""
        raw_data: "…"
      }
      type: TENSOR
    }
  }
  node {
    output: "/Constant_output_0"
    name: "/Constant"
    op_type: "Constant"
    attribute {
      name: "value"
      t {
        dims: 1
        data_type: 7
        name: ""
        raw_data: "\003\000\000\000\000\000\000\000"
      }
      type: TENSOR
    }
  }
  node {
    output: "/Constant_1_output_0"
    name: "/Constant_1"
    op_type: "Constant"
    attribute {
      name: "value"
      t {
        dims: 1
        data_type: 7
        name: ""
        raw_data: "\000\000\000\000\000\000\000\000"
      }
      type: TENSOR
    }
  }
  node {
    output: "/Constant_2_output_0"
    name: "/Constant_2"
    op_type: "Constant"
    attribute {
      name: "value"
      t {
        dims: 1
        data_type: 7
        name: ""
        raw_data: "\n\000\000\000\000\000\000\000"
      }
      type: TENSOR
    }
  }
  node {
    output: "/Constant_3_output_0"
    name: "/Constant_3"
    op_type: "Constant"
    attribute {
      name: "value"
      t {
        dims: 1
        data_type: 7
        name: ""
        raw_data: "\001\000\000\000\000\000\000\000"
      }
      type: TENSOR
    }
  }
  node {
    output: "/Constant_4_output_0"
    name: "/Constant_4"
    op_type: "Constant"
    attribute {
      name: "value"
      t {
        dims: 1
        data_type: 7
        name: ""
        raw_data: "\003\000\000\000\000\000\000\000"
      }
      type: TENSOR
    }
  }
  node {
    output: "/Constant_5_output_0"
    name: "/Constant_5"
    op_type: "Constant"
    attribute {
      name: "value"
      t {
        dims: 1
        data_type: 7
        name: ""
        raw_data: "\n\000\000\000\000\000\000\000"
      }
      type: TENSOR
    }
  }
  node {
    output: "/Constant_6_output_0"
    name: "/Constant_6"
    op_type: "Constant"
    attribute {
      name: "value"
      t {
        dims: 1
        data_type: 7
        name: ""
        raw_data: "\377\377\377\377\377\377\377\177"
      }
      type: TENSOR
    }
  }
  node {
    output: "/Constant_7_output_0"
    name: "/Constant_7"
    op_type: "Constant"
    attribute {
      name: "value"
      t {
        dims: 1
        data_type: 7
        name: ""
        raw_data: "\001\000\000\000\000\000\000\000"
      }
      type: TENSOR
    }
  }
  node {
    output: "/Conv_96/Pow_output_0"
    name: "node_/Conv_96/Pow_output_0"
    op_type: "Constant"
    attribute {
      name: "value"
      t {
        data_type: 1
        name: "/Conv_96/Pow_output_0"
        raw_data: "\000\000\200?"
      }
      type: TENSOR
    }
  }
  node {
    output: "/Conv_48/Pow_output_0"
    name: "node_/Conv_48/Pow_output_0"
    op_type: "Constant"
    attribute {
      name: "value"
      t {
        data_type: 1
        name: "/Conv_48/Pow_output_0"
        raw_data: "\000\000\200?"
      }
      type: TENSOR
    }
  }
  node {
    output: "/Conv_24_1/Pow_output_0"
    name: "node_/Conv_24_1/Pow_output_0"
    op_type: "Constant"
    attribute {
      name: "value"
      t {
        data_type: 1
        name: "/Conv_24_1/Pow_output_0"
        raw_data: "\000\000\200?"
      }
      type: TENSOR
    }
  }
  node {
    output: "/Conv_24_2/Pow_output_0"
    name: "node_/Conv_24_2/Pow_output_0"
    op_type: "Constant"
    attribute {
      name: "value"
      t {
        data_type: 1
        name: "/Conv_24_2/Pow_output_0"
        raw_data: "\000\000\200?"
      }
      type: TENSOR
    }
  }
  node {
    output: "/Conv_24_3/Pow_output_0"
    name: "node_/Conv_24_3/Pow_output_0"
    op_type: "Constant"
    attribute {
      name: "value"
      t {
        data_type: 1
        name: "/Conv_24_3/Pow_output_0"
        raw_data: "\000\000\200?"
      }
      type: TENSOR
    }
  }
  node {
    output: "/Conv_24_4/Pow_output_0"
    name: "node_/Conv_24_4/Pow_output_0"
    op_type: "Constant"
    attribute {
      name: "value"
      t {
        data_type: 1
        name: "/Conv_24_4/Pow_output_0"
        raw_data: "\000\000\200?"
      }
      type: TENSOR
    }
  }
  node {
    output: "/Conv_24_5/Pow_output_0"
    name: "node_/Conv_24_5/Pow_output_0"
    op_type: "Constant"
    attribute {
      name: "value"
      t {
        data_type: 1
        name: "/Conv_24_5/Pow_output_0"
        raw_data: "\000\000\200?"
      }
      type: TENSOR
    }
  }
  node {
    output: "/Conv_24_6/Pow_output_0"
    name: "node_/Conv_24_6/Pow_output_0"
    op_type: "Constant"
    attribute {
      name: "value"
      t {
        data_type: 1
        name: "/Conv_24_6/Pow_output_0"
        raw_data: "\000\000\200?"
      }
      type: TENSOR
    }
  }
  node {
    output: "/Conv_12_1/Pow_output_0"
    name: "node_/Conv_12_1/Pow_output_0"
    op_type: "Constant"
    attribute {
      name: "value"
      t {
        data_type: 1
        name: "/Conv_12_1/Pow_output_0"
        raw_data: "\000\000\200?"
      }
      type: TENSOR
    }
  }
  node {
    output: "/Conv_12_2/Pow_output_0"
    name: "node_/Conv_12_2/Pow_output_0"
    op_type: "Constant"
    attribute {
      name: "value"
      t {
        data_type: 1
        name: "/Conv_12_2/Pow_output_0"
        raw_data: "\000\000\200?"
      }
      type: TENSOR
    }
  }
  node {
    output: "/Conv_12_3/Pow_output_0"
    name: "node_/Conv_12_3/Pow_output_0"
    op_type: "Constant"
    attribute {
      name: "value"
      t {
        data_type: 1
        name: "/Conv_12_3/Pow_output_0"
        raw_data: "\000\000\200?"
      }
      type: TENSOR
    }
  }
  node {
    output: "/Conv_12_4/Pow_output_0"
    name: "node_/Conv_12_4/Pow_output_0"
    op_type: "Constant"
    attribute {
      name: "value"
      t {
        data_type: 1
        name: "/Conv_12_4/Pow_output_0"
        raw_data: "\000\000\200?"
      }
      type: TENSOR
    }
  }
  node {
    output: "/Conv_12_5/Pow_output_0"
    name: "node_/Conv_12_5/Pow_output_0"
    op_type: "Constant"
    attribute {
      name: "value"
      t {
        data_type: 1
        name: "/Conv_12_5/Pow_output_0"
        raw_data: "\000\000\200?"
      }
      type: TENSOR
    }
  }
  node {
    output: "/Conv_12_6/Pow_output_0"
    name: "node_/Conv_12_6/Pow_output_0"
    op_type: "Constant"
    attribute {
      name: "value"
      t {
        data_type: 1
        name: "/Conv_12_6/Pow_output_0"
        raw_data: "\000\000\200?"
      }
      type: TENSOR
    }
  }
  node {
    output: "/Conv_7_1/Pow_output_0"
    name: "node_/Conv_7_1/Pow_output_0"
    op_type: "Constant"
    attribute {
      name: "value"
      t {
        data_type: 1
        name: "/Conv_7_1/Pow_output_0"
        raw_data: "\000\000\200?"
      }
      type: TENSOR
    }
  }
  node {
    output: "/Conv_7_2/Pow_output_0"
    name: "node_/Conv_7_2/Pow_output_0"
    op_type: "Constant"
    attribute {
      name: "value"
      t {
        data_type: 1
        name: "/Conv_7_2/Pow_output_0"
        raw_data: "\000\000\200?"
      }
      type: TENSOR
    }
  }
  node {
    output: "/Conv_Res_1/Pow_output_0"
    name: "node_/Conv_Res_1/Pow_output_0"
    op_type: "Constant"
    attribute {
      name: "value"
      t {
        data_type: 1
        name: "/Conv_Res_1/Pow_output_0"
        raw_data: "\000\000\200?"
      }
      type: TENSOR
    }
  }
  node {
    output: "/Conv_Res_2/Pow_output_0"
    name: "node_/Conv_Res_2/Pow_output_0"
    op_type: "Constant"
    attribute {
      name: "value"
      t {
        data_type: 1
        name: "/Conv_Res_2/Pow_output_0"
        raw_data: "\000\000\200?"
      }
      type: TENSOR
    }
  }
  node {
    output: "/Conv_Res_3/Pow_output_0"
    name: "node_/Conv_Res_3/Pow_output_0"
    op_type: "Constant"
    attribute {
      name: "value"
      t {
        data_type: 1
        name: "/Conv_Res_3/Pow_output_0"
        raw_data: "\000\000\200?"
      }
      type: TENSOR
    }
  }
  node {
    output: "/Conv_Res_4/Pow_output_0"
    name: "node_/Conv_Res_4/Pow_output_0"
    op_type: "Constant"
    attribute {
      name: "value"
      t {
        data_type: 1
        name: "/Conv_Res_4/Pow_output_0"
        raw_data: "\000\000\200?"
      }
      type: TENSOR
    }
  }
  node {
    output: "/Conv_96/calc_out_scale/Exp_output_0"
    name: "node_/Conv_96/calc_out_scale/Exp_output_0"
    op_type: "Constant"
    attribute {
      name: "value"
      t {
        dims: 1
        data_type: 1
        name: "/Conv_96/calc_out_scale/Exp_output_0"
        raw_data: "\000\000\200?"
      }
      type: TENSOR
    }
  }
  node {
    output: "/Conv_48/calc_out_scale/Exp_output_0"
    name: "node_/Conv_48/calc_out_scale/Exp_output_0"
    op_type: "Constant"
    attribute {
      name: "value"
      t {
        dims: 1
        data_type: 1
        name: "/Conv_48/calc_out_scale/Exp_output_0"
        raw_data: "\000\000\200?"
      }
      type: TENSOR
    }
  }
  node {
    output: "/Conv_24_1/calc_out_scale/Exp_output_0"
    name: "node_/Conv_24_1/calc_out_scale/Exp_output_0"
    op_type: "Constant"
    attribute {
      name: "value"
      t {
        dims: 1
        data_type: 1
        name: "/Conv_24_1/calc_out_scale/Exp_output_0"
        raw_data: "\000\000\200?"
      }
      type: TENSOR
    }
  }
  node {
    output: "/Conv_24_2/calc_out_scale/Exp_output_0"
    name: "node_/Conv_24_2/calc_out_scale/Exp_output_0"
    op_type: "Constant"
    attribute {
      name: "value"
      t {
        dims: 1
        data_type: 1
        name: "/Conv_24_2/calc_out_scale/Exp_output_0"
        raw_data: "\000\000\200?"
      }
      type: TENSOR
    }
  }
  node {
    output: "/Conv_24_3/calc_out_scale/Exp_output_0"
    name: "node_/Conv_24_3/calc_out_scale/Exp_output_0"
    op_type: "Constant"
    attribute {
      name: "value"
      t {
        dims: 1
        data_type: 1
        name: "/Conv_24_3/calc_out_scale/Exp_output_0"
        raw_data: "\000\000\200?"
      }
      type: TENSOR
    }
  }
  node {
    output: "/Conv_24_4/calc_out_scale/Exp_output_0"
    name: "node_/Conv_24_4/calc_out_scale/Exp_output_0"
    op_type: "Constant"
    attribute {
      name: "value"
      t {
        dims: 1
        data_type: 1
        name: "/Conv_24_4/calc_out_scale/Exp_output_0"
        raw_data: "\000\000\200?"
      }
      type: TENSOR
    }
  }
  node {
    output: "/Conv_24_5/calc_out_scale/Exp_output_0"
    name: "node_/Conv_24_5/calc_out_scale/Exp_output_0"
    op_type: "Constant"
    attribute {
      name: "value"
      t {
        dims: 1
        data_type: 1
        name: "/Conv_24_5/calc_out_scale/Exp_output_0"
        raw_data: "\000\000\200?"
      }
      type: TENSOR
    }
  }
  node {
    output: "/Conv_24_6/calc_out_scale/Exp_output_0"
    name: "node_/Conv_24_6/calc_out_scale/Exp_output_0"
    op_type: "Constant"
    attribute {
      name: "value"
      t {
        dims: 1
        data_type: 1
        name: "/Conv_24_6/calc_out_scale/Exp_output_0"
        raw_data: "\000\000\200?"
      }
      type: TENSOR
    }
  }
  node {
    output: "/Conv_12_1/calc_out_scale/Exp_output_0"
    name: "node_/Conv_12_1/calc_out_scale/Exp_output_0"
    op_type: "Constant"
    attribute {
      name: "value"
      t {
        dims: 1
        data_type: 1
        name: "/Conv_12_1/calc_out_scale/Exp_output_0"
        raw_data: "\000\000\200?"
      }
      type: TENSOR
    }
  }
  node {
    output: "/Conv_12_2/calc_out_scale/Exp_output_0"
    name: "node_/Conv_12_2/calc_out_scale/Exp_output_0"
    op_type: "Constant"
    attribute {
      name: "value"
      t {
        dims: 1
        data_type: 1
        name: "/Conv_12_2/calc_out_scale/Exp_output_0"
        raw_data: "\000\000\200?"
      }
      type: TENSOR
    }
  }
  node {
    output: "/Conv_12_3/calc_out_scale/Exp_output_0"
    name: "node_/Conv_12_3/calc_out_scale/Exp_output_0"
    op_type: "Constant"
    attribute {
      name: "value"
      t {
        dims: 1
        data_type: 1
        name: "/Conv_12_3/calc_out_scale/Exp_output_0"
        raw_data: "\000\000\200?"
      }
      type: TENSOR
    }
  }
  node {
    output: "/Conv_12_4/calc_out_scale/Exp_output_0"
    name: "node_/Conv_12_4/calc_out_scale/Exp_output_0"
    op_type: "Constant"
    attribute {
      name: "value"
      t {
        dims: 1
        data_type: 1
        name: "/Conv_12_4/calc_out_scale/Exp_output_0"
        raw_data: "\000\000\200?"
      }
      type: TENSOR
    }
  }
  node {
    output: "/Conv_12_5/calc_out_scale/Exp_output_0"
    name: "node_/Conv_12_5/calc_out_scale/Exp_output_0"
    op_type: "Constant"
    attribute {
      name: "value"
      t {
        dims: 1
        data_type: 1
        name: "/Conv_12_5/calc_out_scale/Exp_output_0"
        raw_data: "\000\000\200?"
      }
      type: TENSOR
    }
  }
  node {
    output: "/Conv_12_6/calc_out_scale/Exp_output_0"
    name: "node_/Conv_12_6/calc_out_scale/Exp_output_0"
    op_type: "Constant"
    attribute {
      name: "value"
      t {
        dims: 1
        data_type: 1
        name: "/Conv_12_6/calc_out_scale/Exp_output_0"
        raw_data: "\000\000\200?"
      }
      type: TENSOR
    }
  }
  node {
    output: "/Conv_7_1/calc_out_scale/Exp_output_0"
    name: "node_/Conv_7_1/calc_out_scale/Exp_output_0"
    op_type: "Constant"
    attribute {
      name: "value"
      t {
        dims: 1
        data_type: 1
        name: "/Conv_7_1/calc_out_scale/Exp_output_0"
        raw_data: "\000\000\200?"
      }
      type: TENSOR
    }
  }
  node {
    output: "/Conv_7_2/calc_out_scale/Exp_output_0"
    name: "node_/Conv_7_2/calc_out_scale/Exp_output_0"
    op_type: "Constant"
    attribute {
      name: "value"
      t {
        dims: 1
        data_type: 1
        name: "/Conv_7_2/calc_out_scale/Exp_output_0"
        raw_data: "\000\000\200?"
      }
      type: TENSOR
    }
  }
  node {
    output: "/Conv_Res_1/calc_out_scale/Exp_output_0"
    name: "node_/Conv_Res_1/calc_out_scale/Exp_output_0"
    op_type: "Constant"
    attribute {
      name: "value"
      t {
        dims: 1
        data_type: 1
        name: "/Conv_Res_1/calc_out_scale/Exp_output_0"
        raw_data: "\000\000\200?"
      }
      type: TENSOR
    }
  }
  node {
    output: "/Conv_Res_2/calc_out_scale/Exp_output_0"
    name: "node_/Conv_Res_2/calc_out_scale/Exp_output_0"
    op_type: "Constant"
    attribute {
      name: "value"
      t {
        dims: 1
        data_type: 1
        name: "/Conv_Res_2/calc_out_scale/Exp_output_0"
        raw_data: "\000\000\200?"
      }
      type: TENSOR
    }
  }
  node {
    output: "/Conv_Res_3/calc_out_scale/Exp_output_0"
    name: "node_/Conv_Res_3/calc_out_scale/Exp_output_0"
    op_type: "Constant"
    attribute {
      name: "value"
      t {
        dims: 1
        data_type: 1
        name: "/Conv_Res_3/calc_out_scale/Exp_output_0"
        raw_data: "\000\000\200?"
      }
      type: TENSOR
    }
  }
  node {
    input: "/Conv_96/Conv_output_0"
    input: "/Conv_96/calc_out_scale/Exp_output_0"
    output: "/Conv_96/scale/Mul_output_0"
    name: "/Conv_96/scale/Mul"
    op_type: "Mul"
  }
  node {
    input: "/Conv_96/scale/Mul_output_0"
    output: "/Conv_96/activate/Relu_output_0"
    name: "/Conv_96/activate/Relu"
    op_type: "Relu"
  }
  node {
    input: "/Conv_96/activate/Relu_output_0"
    input: "/Conv_96/Pow_output_0"
    output: "/Conv_96/Mul_output_0"
    name: "/Conv_96/Mul"
    op_type: "Mul"
  }
  node {
    input: "/Conv_96/Mul_output_0"
    output: "/Conv_48/pool/MaxPool_output_0"
    name: "/Conv_48/pool/MaxPool"
    op_type: "MaxPool"
    attribute {
      name: "ceil_mode"
      i: 0
      type: INT
    }
    attribute {
      name: "dilations"
      ints: 1
      ints: 1
      type: INTS
    }
    attribute {
      name: "kernel_shape"
      ints: 2
      ints: 2
      type: INTS
    }
    attribute {
      name: "pads"
      ints: 0
      ints: 0
      ints: 0
      ints: 0
      type: INTS
    }
    attribute {
      name: "strides"
      ints: 2
      ints: 2
      type: INTS
    }
  }
  node {
    input: "/Conv_48/pool/MaxPool_output_0"
    input: "onnx::Conv_675"
    output: "/Conv_48/Conv_output_0"
    name: "/Conv_48/Conv"
    op_type: "Conv"
    attribute {
      name: "dilations"
      ints: 1
      ints: 1
      type: INTS
    }
    attribute {
      name: "group"
      i: 1
      type: INT
    }
    attribute {
      name: "kernel_shape"
      ints: 3
      ints: 3
      type: INTS
    }
    attribute {
      name: "pads"
      ints: 1
      ints: 1
      ints: 1
      ints: 1
      type: INTS
    }
    attribute {
      name: "strides"
      ints: 1
      ints: 1
      type: INTS
    }
  }
  node {
    input: "/Conv_48/Conv_output_0"
    input: "/Conv_48/calc_out_scale/Exp_output_0"
    output: "/Conv_48/scale/Mul_output_0"
    name: "/Conv_48/scale/Mul"
    op_type: "Mul"
  }
  node {
    input: "/Conv_48/scale/Mul_output_0"
    output: "/Conv_48/activate/Relu_output_0"
    name: "/Conv_48/activate/Relu"
    op_type: "Relu"
  }
  node {
    input: "/Conv_48/activate/Relu_output_0"
    input: "/Conv_48/Pow_output_0"
    output: "/Conv_48/Mul_output_0"
    name: "/Conv_48/Mul"
    op_type: "Mul"
  }
  node {
    input: "/Conv_48/Mul_output_0"
    output: "/Conv_24_1/pool/MaxPool_output_0"
    name: "/Conv_24_1/pool/MaxPool"
    op_type: "MaxPool"
    attribute {
      name: "ceil_mode"
      i: 0
      type: INT
    }
    attribute {
      name: "dilations"
      ints: 1
      ints: 1
      type: INTS
    }
    attribute {
      name: "kernel_shape"
      ints: 2
      ints: 2
      type: INTS
    }
    attribute {
      name: "pads"
      ints: 0
      ints: 0
      ints: 0
      ints: 0
      type: INTS
    }
    attribute {
      name: "strides"
      ints: 2
      ints: 2
      type: INTS
    }
  }
  node {
    input: "/Conv_24_1/pool/MaxPool_output_0"
    input: "onnx::Conv_679"
    output: "/Conv_24_1/Conv_output_0"
    name: "/Conv_24_1/Conv"
    op_type: "Conv"
    attribute {
      name: "dilations"
      ints: 1
      ints: 1
      type: INTS
    }
    attribute {
      name: "group"
      i: 1
      type: INT
    }
    attribute {
      name: "kernel_shape"
      ints: 1
      ints: 1
      type: INTS
    }
    attribute {
      name: "pads"
      ints: 0
      ints: 0
      ints: 0
      ints: 0
      type: INTS
    }
    attribute {
      name: "strides"
      ints: 1
      ints: 1
      type: INTS
    }
  }
  node {
    input: "/Conv_24_1/Conv_output_0"
    input: "/Conv_24_1/calc_out_scale/Exp_output_0"
    output: "/Conv_24_1/scale/Mul_output_0"
    name: "/Conv_24_1/scale/Mul"
    op_type: "Mul"
  }
  node {
    input: "/Conv_24_1/scale/Mul_output_0"
    output: "/Conv_24_1/activate/Relu_output_0"
    name: "/Conv_24_1/activate/Relu"
    op_type: "Relu"
  }
  node {
    input: "/Conv_24_1/activate/Relu_output_0"
    input: "/Conv_24_1/Pow_output_0"
    output: "/Conv_24_1/Mul_output_0"
    name: "/Conv_24_1/Mul"
    op_type: "Mul"
  }
  node {
    input: "/Conv_24_1/Mul_output_0"
    input: "onnx::Conv_683"
    input: "onnx::Conv_684"
    output: "/Conv_24_2/Conv_output_0"
    name: "/Conv_24_2/Conv"
    op_type: "Conv"
    attribute {
      name: "dilations"
      ints: 1
      ints: 1
      type: INTS
    }
    attribute {
      name: "group"
      i: 1
      type: INT
    }
    attribute {
      name: "kernel_shape"
      ints: 3
      ints: 3
      type: INTS
    }
    attribute {
      name: "pads"
      ints: 1
      ints: 1
      ints: 1
      ints: 1
      type: INTS
    }
    attribute {
      name: "strides"
      ints: 1
      ints: 1
      type: INTS
    }
  }
  node {
    input: "/Conv_24_2/Conv_output_0"
    input: "/Conv_24_2/bn/Constant_output_0"
    input: "/Conv_24_2/bn/Constant_1_output_0"
    input: "Conv_24_2.bn.running_mean"
    input: "Conv_24_2.bn.running_var"
    output: "/Conv_24_2/bn/BatchNormalization_output_0"
    name: "/Conv_24_2/bn/BatchNormalization"
    op_type: "BatchNormalization"
    attribute {
      name: "epsilon"
      f: 9.999999747378752e-06
      type: FLOAT
    }
    attribute {
      name: "momentum"
      f: 0.949999988079071
      type: FLOAT
    }
    attribute {
      name: "training_mode"
      i: 0
      type: INT
    }
  }
  node {
    input: "/Conv_24_2/bn/BatchNormalization_output_0"
    input: "/Conv_24_2/calc_out_scale/Exp_output_0"
    output: "/Conv_24_2/scale/Mul_output_0"
    name: "/Conv_24_2/scale/Mul"
    op_type: "Mul"
  }
  node {
    input: "/Conv_24_2/scale/Mul_output_0"
    output: "/Conv_24_2/activate/Relu_output_0"
    name: "/Conv_24_2/activate/Relu"
    op_type: "Relu"
  }
  node {
    input: "/Conv_24_2/activate/Relu_output_0"
    input: "/Conv_24_2/Pow_output_0"
    output: "/Conv_24_2/Mul_output_0"
    name: "/Conv_24_2/Mul"
    op_type: "Mul"
  }
  node {
    input: "/Conv_24_2/Mul_output_0"
    input: "onnx::Conv_688"
    input: "onnx::Conv_689"
    output: "/Conv_24_3/Conv_output_0"
    name: "/Conv_24_3/Conv"
    op_type: "Conv"
    attribute {
      name: "dilations"
      ints: 1
      ints: 1
      type: INTS
    }
    attribute {
      name: "group"
      i: 1
      type: INT
    }
    attribute {
      name: "kernel_shape"
      ints: 1
      ints: 1
      type: INTS
    }
    attribute {
      name: "pads"
      ints: 0
      ints: 0
      ints: 0
      ints: 0
      type: INTS
    }
    attribute {
      name: "strides"
      ints: 1
      ints: 1
      type: INTS
    }
  }
  node {
    input: "/Conv_24_3/Conv_output_0"
    input: "/Conv_24_3/bn/Constant_output_0"
    input: "/Conv_24_3/bn/Constant_1_output_0"
    input: "Conv_24_3.bn.running_mean"
    input: "Conv_24_3.bn.running_var"
    output: "/Conv_24_3/bn/BatchNormalization_output_0"
    name: "/Conv_24_3/bn/BatchNormalization"
    op_type: "BatchNormalization"
    attribute {
      name: "epsilon"
      f: 9.999999747378752e-06
      type: FLOAT
    }
    attribute {
      name: "momentum"
      f: 0.949999988079071
      type: FLOAT
    }
    attribute {
      name: "training_mode"
      i: 0
      type: INT
    }
  }
  node {
    input: "/Conv_24_3/bn/BatchNormalization_output_0"
    input: "/Conv_24_3/calc_out_scale/Exp_output_0"
    output: "/Conv_24_3/scale/Mul_output_0"
    name: "/Conv_24_3/scale/Mul"
    op_type: "Mul"
  }
  node {
    input: "/Conv_24_3/scale/Mul_output_0"
    output: "/Conv_24_3/activate/Relu_output_0"
    name: "/Conv_24_3/activate/Relu"
    op_type: "Relu"
  }
  node {
    input: "/Conv_24_3/activate/Relu_output_0"
    input: "/Conv_24_3/Pow_output_0"
    output: "/Conv_24_3/Mul_output_0"
    name: "/Conv_24_3/Mul"
    op_type: "Mul"
  }
  node {
    input: "/Conv_24_3/Mul_output_0"
    input: "onnx::Conv_693"
    input: "onnx::Conv_694"
    output: "/Conv_24_4/Conv_output_0"
    name: "/Conv_24_4/Conv"
    op_type: "Conv"
    attribute {
      name: "dilations"
      ints: 1
      ints: 1
      type: INTS
    }
    attribute {
      name: "group"
      i: 1
      type: INT
    }
    attribute {
      name: "kernel_shape"
      ints: 3
      ints: 3
      type: INTS
    }
    attribute {
      name: "pads"
      ints: 1
      ints: 1
      ints: 1
      ints: 1
      type: INTS
    }
    attribute {
      name: "strides"
      ints: 1
      ints: 1
      type: INTS
    }
  }
  node {
    input: "/Conv_24_4/Conv_output_0"
    input: "/Conv_24_4/bn/Constant_output_0"
    input: "/Conv_24_4/bn/Constant_1_output_0"
    input: "Conv_24_4.bn.running_mean"
    input: "Conv_24_4.bn.running_var"
    output: "/Conv_24_4/bn/BatchNormalization_output_0"
    name: "/Conv_24_4/bn/BatchNormalization"
    op_type: "BatchNormalization"
    attribute {
      name: "epsilon"
      f: 9.999999747378752e-06
      type: FLOAT
    }
    attribute {
      name: "momentum"
      f: 0.949999988079071
      type: FLOAT
    }
    attribute {
      name: "training_mode"
      i: 0
      type: INT
    }
  }
  node {
    input: "/Conv_24_4/bn/BatchNormalization_output_0"
    input: "/Conv_24_4/calc_out_scale/Exp_output_0"
    output: "/Conv_24_4/scale/Mul_output_0"
    name: "/Conv_24_4/scale/Mul"
    op_type: "Mul"
  }
  node {
    input: "/Conv_24_4/scale/Mul_output_0"
    output: "/Conv_24_4/activate/Relu_output_0"
    name: "/Conv_24_4/activate/Relu"
    op_type: "Relu"
  }
  node {
    input: "/Conv_24_4/activate/Relu_output_0"
    input: "/Conv_24_4/Pow_output_0"
    output: "/Conv_24_4/Mul_output_0"
    name: "/Conv_24_4/Mul"
    op_type: "Mul"
  }
  node {
    input: "/Conv_24_4/Mul_output_0"
    input: "onnx::Conv_698"
    input: "onnx::Conv_699"
    output: "/Conv_24_5/Conv_output_0"
    name: "/Conv_24_5/Conv"
    op_type: "Conv"
    attribute {
      name: "dilations"
      ints: 1
      ints: 1
      type: INTS
    }
    attribute {
      name: "group"
      i: 1
      type: INT
    }
    attribute {
      name: "kernel_shape"
      ints: 1
      ints: 1
      type: INTS
    }
    attribute {
      name: "pads"
      ints: 0
      ints: 0
      ints: 0
      ints: 0
      type: INTS
    }
    attribute {
      name: "strides"
      ints: 1
      ints: 1
      type: INTS
    }
  }
  node {
    input: "/Conv_24_5/Conv_output_0"
    input: "/Conv_24_5/bn/Constant_output_0"
    input: "/Conv_24_5/bn/Constant_1_output_0"
    input: "Conv_24_5.bn.running_mean"
    input: "Conv_24_5.bn.running_var"
    output: "/Conv_24_5/bn/BatchNormalization_output_0"
    name: "/Conv_24_5/bn/BatchNormalization"
    op_type: "BatchNormalization"
    attribute {
      name: "epsilon"
      f: 9.999999747378752e-06
      type: FLOAT
    }
    attribute {
      name: "momentum"
      f: 0.949999988079071
      type: FLOAT
    }
    attribute {
      name: "training_mode"
      i: 0
      type: INT
    }
  }
  node {
    input: "/Conv_24_5/bn/BatchNormalization_output_0"
    input: "/Conv_24_5/calc_out_scale/Exp_output_0"
    output: "/Conv_24_5/scale/Mul_output_0"
    name: "/Conv_24_5/scale/Mul"
    op_type: "Mul"
  }
  node {
    input: "/Conv_24_5/scale/Mul_output_0"
    output: "/Conv_24_5/activate/Relu_output_0"
    name: "/Conv_24_5/activate/Relu"
    op_type: "Relu"
  }
  node {
    input: "/Conv_24_5/activate/Relu_output_0"
    input: "/Conv_24_5/Pow_output_0"
    output: "/Conv_24_5/Mul_output_0"
    name: "/Conv_24_5/Mul"
    op_type: "Mul"
  }
  node {
    input: "/Conv_24_5/Mul_output_0"
    input: "onnx::Conv_703"
    input: "onnx::Conv_704"
    output: "/Conv_24_6/Conv_output_0"
    name: "/Conv_24_6/Conv"
    op_type: "Conv"
    attribute {
      name: "dilations"
      ints: 1
      ints: 1
      type: INTS
    }
    attribute {
      name: "group"
      i: 1
      type: INT
    }
    attribute {
      name: "kernel_shape"
      ints: 3
      ints: 3
      type: INTS
    }
    attribute {
      name: "pads"
      ints: 1
      ints: 1
      ints: 1
      ints: 1
      type: INTS
    }
    attribute {
      name: "strides"
      ints: 1
      ints: 1
      type: INTS
    }
  }
  node {
    input: "/Conv_24_6/Conv_output_0"
    input: "/Conv_24_6/bn/Constant_output_0"
    input: "/Conv_24_6/bn/Constant_1_output_0"
    input: "Conv_24_6.bn.running_mean"
    input: "Conv_24_6.bn.running_var"
    output: "/Conv_24_6/bn/BatchNormalization_output_0"
    name: "/Conv_24_6/bn/BatchNormalization"
    op_type: "BatchNormalization"
    attribute {
      name: "epsilon"
      f: 9.999999747378752e-06
      type: FLOAT
    }
    attribute {
      name: "momentum"
      f: 0.949999988079071
      type: FLOAT
    }
    attribute {
      name: "training_mode"
      i: 0
      type: INT
    }
  }
  node {
    input: "/Conv_24_6/bn/BatchNormalization_output_0"
    input: "/Conv_24_6/calc_out_scale/Exp_output_0"
    output: "/Conv_24_6/scale/Mul_output_0"
    name: "/Conv_24_6/scale/Mul"
    op_type: "Mul"
  }
  node {
    input: "/Conv_24_6/scale/Mul_output_0"
    output: "/Conv_24_6/activate/Relu_output_0"
    name: "/Conv_24_6/activate/Relu"
    op_type: "Relu"
  }
  node {
    input: "/Conv_24_6/activate/Relu_output_0"
    input: "/Conv_24_6/Pow_output_0"
    output: "/Conv_24_6/Mul_output_0"
    name: "/Conv_24_6/Mul"
    op_type: "Mul"
  }
  node {
    input: "/Conv_24_6/Mul_output_0"
    output: "/Conv_12_1/pool/MaxPool_output_0"
    name: "/Conv_12_1/pool/MaxPool"
    op_type: "MaxPool"
    attribute {
      name: "ceil_mode"
      i: 0
      type: INT
    }
    attribute {
      name: "dilations"
      ints: 1
      ints: 1
      type: INTS
    }
    attribute {
      name: "kernel_shape"
      ints: 2
      ints: 2
      type: INTS
    }
    attribute {
      name: "pads"
      ints: 0
      ints: 0
      ints: 0
      ints: 0
      type: INTS
    }
    attribute {
      name: "strides"
      ints: 2
      ints: 2
      type: INTS
    }
  }
  node {
    input: "/Conv_12_1/pool/MaxPool_output_0"
    input: "onnx::Conv_708"
    input: "onnx::Conv_709"
    output: "/Conv_12_1/Conv_output_0"
    name: "/Conv_12_1/Conv"
    op_type: "Conv"
    attribute {
      name: "dilations"
      ints: 1
      ints: 1
      type: INTS
    }
    attribute {
      name: "group"
      i: 1
      type: INT
    }
    attribute {
      name: "kernel_shape"
      ints: 1
      ints: 1
      type: INTS
    }
    attribute {
      name: "pads"
      ints: 0
      ints: 0
      ints: 0
      ints: 0
      type: INTS
    }
    attribute {
      name: "strides"
      ints: 1
      ints: 1
      type: INTS
    }
  }
  node {
    input: "/Conv_12_1/Conv_output_0"
    input: "/Conv_12_1/bn/Constant_output_0"
    input: "/Conv_12_1/bn/Constant_1_output_0"
    input: "Conv_12_1.bn.running_mean"
    input: "Conv_12_1.bn.running_var"
    output: "/Conv_12_1/bn/BatchNormalization_output_0"
    name: "/Conv_12_1/bn/BatchNormalization"
    op_type: "BatchNormalization"
    attribute {
      name: "epsilon"
      f: 9.999999747378752e-06
      type: FLOAT
    }
    attribute {
      name: "momentum"
      f: 0.949999988079071
      type: FLOAT
    }
    attribute {
      name: "training_mode"
      i: 0
      type: INT
    }
  }
  node {
    input: "/Conv_12_1/bn/BatchNormalization_output_0"
    input: "/Conv_12_1/calc_out_scale/Exp_output_0"
    output: "/Conv_12_1/scale/Mul_output_0"
    name: "/Conv_12_1/scale/Mul"
    op_type: "Mul"
  }
  node {
    input: "/Conv_12_1/scale/Mul_output_0"
    output: "/Conv_12_1/activate/Relu_output_0"
    name: "/Conv_12_1/activate/Relu"
    op_type: "Relu"
  }
  node {
    input: "/Conv_12_1/activate/Relu_output_0"
    input: "/Conv_12_1/Pow_output_0"
    output: "/Conv_12_1/Mul_output_0"
    name: "/Conv_12_1/Mul"
    op_type: "Mul"
  }
  node {
    input: "/Conv_12_1/Mul_output_0"
    input: "onnx::Conv_713"
    input: "onnx::Conv_714"
    output: "/Conv_12_2/Conv_output_0"
    name: "/Conv_12_2/Conv"
    op_type: "Conv"
    attribute {
      name: "dilations"
      ints: 1
      ints: 1
      type: INTS
    }
    attribute {
      name: "group"
      i: 1
      type: INT
    }
    attribute {
      name: "kernel_shape"
      ints: 3
      ints: 3
      type: INTS
    }
    attribute {
      name: "pads"
      ints: 1
      ints: 1
      ints: 1
      ints: 1
      type: INTS
    }
    attribute {
      name: "strides"
      ints: 1
      ints: 1
      type: INTS
    }
  }
  node {
    input: "/Conv_12_2/Conv_output_0"
    input: "/Conv_12_2/bn/Constant_output_0"
    input: "/Conv_12_2/bn/Constant_1_output_0"
    input: "Conv_12_2.bn.running_mean"
    input: "Conv_12_2.bn.running_var"
    output: "/Conv_12_2/bn/BatchNormalization_output_0"
    name: "/Conv_12_2/bn/BatchNormalization"
    op_type: "BatchNormalization"
    attribute {
      name: "epsilon"
      f: 9.999999747378752e-06
      type: FLOAT
    }
    attribute {
      name: "momentum"
      f: 0.949999988079071
      type: FLOAT
    }
    attribute {
      name: "training_mode"
      i: 0
      type: INT
    }
  }
  node {
    input: "/Conv_12_2/bn/BatchNormalization_output_0"
    input: "/Conv_12_2/calc_out_scale/Exp_output_0"
    output: "/Conv_12_2/scale/Mul_output_0"
    name: "/Conv_12_2/scale/Mul"
    op_type: "Mul"
  }
  node {
    input: "/Conv_12_2/scale/Mul_output_0"
    output: "/Conv_12_2/activate/Relu_output_0"
    name: "/Conv_12_2/activate/Relu"
    op_type: "Relu"
  }
  node {
    input: "/Conv_12_2/activate/Relu_output_0"
    input: "/Conv_12_2/Pow_output_0"
    output: "/Conv_12_2/Mul_output_0"
    name: "/Conv_12_2/Mul"
    op_type: "Mul"
  }
  node {
    input: "/Conv_12_2/Mul_output_0"
    input: "onnx::Conv_718"
    input: "onnx::Conv_719"
    output: "/Conv_12_3/Conv_output_0"
    name: "/Conv_12_3/Conv"
    op_type: "Conv"
    attribute {
      name: "dilations"
      ints: 1
      ints: 1
      type: INTS
    }
    attribute {
      name: "group"
      i: 1
      type: INT
    }
    attribute {
      name: "kernel_shape"
      ints: 1
      ints: 1
      type: INTS
    }
    attribute {
      name: "pads"
      ints: 0
      ints: 0
      ints: 0
      ints: 0
      type: INTS
    }
    attribute {
      name: "strides"
      ints: 1
      ints: 1
      type: INTS
    }
  }
  node {
    input: "/Conv_12_3/Conv_output_0"
    input: "/Conv_12_3/bn/Constant_output_0"
    input: "/Conv_12_3/bn/Constant_1_output_0"
    input: "Conv_12_3.bn.running_mean"
    input: "Conv_12_3.bn.running_var"
    output: "/Conv_12_3/bn/BatchNormalization_output_0"
    name: "/Conv_12_3/bn/BatchNormalization"
    op_type: "BatchNormalization"
    attribute {
      name: "epsilon"
      f: 9.999999747378752e-06
      type: FLOAT
    }
    attribute {
      name: "momentum"
      f: 0.949999988079071
      type: FLOAT
    }
    attribute {
      name: "training_mode"
      i: 0
      type: INT
    }
  }
  node {
    input: "/Conv_12_3/bn/BatchNormalization_output_0"
    input: "/Conv_12_3/calc_out_scale/Exp_output_0"
    output: "/Conv_12_3/scale/Mul_output_0"
    name: "/Conv_12_3/scale/Mul"
    op_type: "Mul"
  }
  node {
    input: "/Conv_12_3/scale/Mul_output_0"
    output: "/Conv_12_3/activate/Relu_output_0"
    name: "/Conv_12_3/activate/Relu"
    op_type: "Relu"
  }
  node {
    input: "/Conv_12_3/activate/Relu_output_0"
    input: "/Conv_12_3/Pow_output_0"
    output: "/Conv_12_3/Mul_output_0"
    name: "/Conv_12_3/Mul"
    op_type: "Mul"
  }
  node {
    input: "/Conv_12_3/Mul_output_0"
    input: "onnx::Conv_723"
    input: "onnx::Conv_724"
    output: "/Conv_12_4/Conv_output_0"
    name: "/Conv_12_4/Conv"
    op_type: "Conv"
    attribute {
      name: "dilations"
      ints: 1
      ints: 1
      type: INTS
    }
    attribute {
      name: "group"
      i: 1
      type: INT
    }
    attribute {
      name: "kernel_shape"
      ints: 3
      ints: 3
      type: INTS
    }
    attribute {
      name: "pads"
      ints: 1
      ints: 1
      ints: 1
      ints: 1
      type: INTS
    }
    attribute {
      name: "strides"
      ints: 1
      ints: 1
      type: INTS
    }
  }
  node {
    input: "/Conv_12_4/Conv_output_0"
    input: "/Conv_12_4/bn/Constant_output_0"
    input: "/Conv_12_4/bn/Constant_1_output_0"
    input: "Conv_12_4.bn.running_mean"
    input: "Conv_12_4.bn.running_var"
    output: "/Conv_12_4/bn/BatchNormalization_output_0"
    name: "/Conv_12_4/bn/BatchNormalization"
    op_type: "BatchNormalization"
    attribute {
      name: "epsilon"
      f: 9.999999747378752e-06
      type: FLOAT
    }
    attribute {
      name: "momentum"
      f: 0.949999988079071
      type: FLOAT
    }
    attribute {
      name: "training_mode"
      i: 0
      type: INT
    }
  }
  node {
    input: "/Conv_12_4/bn/BatchNormalization_output_0"
    input: "/Conv_12_4/calc_out_scale/Exp_output_0"
    output: "/Conv_12_4/scale/Mul_output_0"
    name: "/Conv_12_4/scale/Mul"
    op_type: "Mul"
  }
  node {
    input: "/Conv_12_4/scale/Mul_output_0"
    output: "/Conv_12_4/activate/Relu_output_0"
    name: "/Conv_12_4/activate/Relu"
    op_type: "Relu"
  }
  node {
    input: "/Conv_12_4/activate/Relu_output_0"
    input: "/Conv_12_4/Pow_output_0"
    output: "/Conv_12_4/Mul_output_0"
    name: "/Conv_12_4/Mul"
    op_type: "Mul"
  }
  node {
    input: "/Conv_12_4/Mul_output_0"
    input: "onnx::Conv_728"
    input: "onnx::Conv_729"
    output: "/Conv_12_5/Conv_output_0"
    name: "/Conv_12_5/Conv"
    op_type: "Conv"
    attribute {
      name: "dilations"
      ints: 1
      ints: 1
      type: INTS
    }
    attribute {
      name: "group"
      i: 1
      type: INT
    }
    attribute {
      name: "kernel_shape"
      ints: 1
      ints: 1
      type: INTS
    }
    attribute {
      name: "pads"
      ints: 0
      ints: 0
      ints: 0
      ints: 0
      type: INTS
    }
    attribute {
      name: "strides"
      ints: 1
      ints: 1
      type: INTS
    }
  }
  node {
    input: "/Conv_12_5/Conv_output_0"
    input: "/Conv_12_5/bn/Constant_output_0"
    input: "/Conv_12_5/bn/Constant_1_output_0"
    input: "Conv_12_5.bn.running_mean"
    input: "Conv_12_5.bn.running_var"
    output: "/Conv_12_5/bn/BatchNormalization_output_0"
    name: "/Conv_12_5/bn/BatchNormalization"
    op_type: "BatchNormalization"
    attribute {
      name: "epsilon"
      f: 9.999999747378752e-06
      type: FLOAT
    }
    attribute {
      name: "momentum"
      f: 0.949999988079071
      type: FLOAT
    }
    attribute {
      name: "training_mode"
      i: 0
      type: INT
    }
  }
  node {
    input: "/Conv_12_5/bn/BatchNormalization_output_0"
    input: "/Conv_12_5/calc_out_scale/Exp_output_0"
    output: "/Conv_12_5/scale/Mul_output_0"
    name: "/Conv_12_5/scale/Mul"
    op_type: "Mul"
  }
  node {
    input: "/Conv_12_5/scale/Mul_output_0"
    output: "/Conv_12_5/activate/Relu_output_0"
    name: "/Conv_12_5/activate/Relu"
    op_type: "Relu"
  }
  node {
    input: "/Conv_12_5/activate/Relu_output_0"
    input: "/Conv_12_5/Pow_output_0"
    output: "/Conv_12_5/Mul_output_0"
    name: "/Conv_12_5/Mul"
    op_type: "Mul"
  }
  node {
    input: "/Conv_12_5/Mul_output_0"
    input: "onnx::Conv_733"
    input: "onnx::Conv_734"
    output: "/Conv_12_6/Conv_output_0"
    name: "/Conv_12_6/Conv"
    op_type: "Conv"
    attribute {
      name: "dilations"
      ints: 1
      ints: 1
      type: INTS
    }
    attribute {
      name: "group"
      i: 1
      type: INT
    }
    attribute {
      name: "kernel_shape"
      ints: 3
      ints: 3
      type: INTS
    }
    attribute {
      name: "pads"
      ints: 1
      ints: 1
      ints: 1
      ints: 1
      type: INTS
    }
    attribute {
      name: "strides"
      ints: 1
      ints: 1
      type: INTS
    }
  }
  node {
    input: "/Conv_12_6/Conv_output_0"
    input: "/Conv_12_6/bn/Constant_output_0"
    input: "/Conv_12_6/bn/Constant_1_output_0"
    input: "Conv_12_6.bn.running_mean"
    input: "Conv_12_6.bn.running_var"
    output: "/Conv_12_6/bn/BatchNormalization_output_0"
    name: "/Conv_12_6/bn/BatchNormalization"
    op_type: "BatchNormalization"
    attribute {
      name: "epsilon"
      f: 9.999999747378752e-06
      type: FLOAT
    }
    attribute {
      name: "momentum"
      f: 0.949999988079071
      type: FLOAT
    }
    attribute {
      name: "training_mode"
      i: 0
      type: INT
    }
  }
  node {
    input: "/Conv_12_6/bn/BatchNormalization_output_0"
    input: "/Conv_12_6/calc_out_scale/Exp_output_0"
    output: "/Conv_12_6/scale/Mul_output_0"
    name: "/Conv_12_6/scale/Mul"
    op_type: "Mul"
  }
  node {
    input: "/Conv_12_6/scale/Mul_output_0"
    output: "/Conv_12_6/activate/Relu_output_0"
    name: "/Conv_12_6/activate/Relu"
    op_type: "Relu"
  }
  node {
    input: "/Conv_12_6/activate/Relu_output_0"
    input: "/Conv_12_6/Pow_output_0"
    output: "/Conv_12_6/Mul_output_0"
    name: "/Conv_12_6/Mul"
    op_type: "Mul"
  }
  node {
    input: "/Conv_12_6/Mul_output_0"
    input: "onnx::Conv_738"
    input: "onnx::Conv_739"
    output: "/Conv_7_1/Conv_output_0"
    name: "/Conv_7_1/Conv"
    op_type: "Conv"
    attribute {
      name: "dilations"
      ints: 1
      ints: 1
      type: INTS
    }
    attribute {
      name: "group"
      i: 1
      type: INT
    }
    attribute {
      name: "kernel_shape"
      ints: 1
      ints: 1
      type: INTS
    }
    attribute {
      name: "pads"
      ints: 0
      ints: 0
      ints: 0
      ints: 0
      type: INTS
    }
    attribute {
      name: "strides"
      ints: 1
      ints: 1
      type: INTS
    }
  }
  node {
    input: "/Conv_7_1/Conv_output_0"
    input: "/Conv_7_1/bn/Constant_output_0"
    input: "/Conv_7_1/bn/Constant_1_output_0"
    input: "Conv_7_1.bn.running_mean"
    input: "Conv_7_1.bn.running_var"
    output: "/Conv_7_1/bn/BatchNormalization_output_0"
    name: "/Conv_7_1/bn/BatchNormalization"
    op_type: "BatchNormalization"
    attribute {
      name: "epsilon"
      f: 9.999999747378752e-06
      type: FLOAT
    }
    attribute {
      name: "momentum"
      f: 0.949999988079071
      type: FLOAT
    }
    attribute {
      name: "training_mode"
      i: 0
      type: INT
    }
  }
  node {
    input: "/Conv_7_1/bn/BatchNormalization_output_0"
    input: "/Conv_7_1/calc_out_scale/Exp_output_0"
    output: "/Conv_7_1/scale/Mul_output_0"
    name: "/Conv_7_1/scale/Mul"
    op_type: "Mul"
  }
  node {
    input: "/Conv_7_1/scale/Mul_output_0"
    output: "/Conv_7_1/activate/Relu_output_0"
    name: "/Conv_7_1/activate/Relu"
    op_type: "Relu"
  }
  node {
    input: "/Conv_7_1/activate/Relu_output_0"
    input: "/Conv_7_1/Pow_output_0"
    output: "/Conv_7_1/Mul_output_0"
    name: "/Conv_7_1/Mul"
    op_type: "Mul"
  }
  node {
    input: "/Conv_7_1/Mul_output_0"
    input: "onnx::Conv_743"
    input: "onnx::Conv_744"
    output: "/Conv_7_2/Conv_output_0"
    name: "/Conv_7_2/Conv"
    op_type: "Conv"
    attribute {
      name: "dilations"
      ints: 1
      ints: 1
      type: INTS
    }
    attribute {
      name: "group"
      i: 1
      type: INT
    }
    attribute {
      name: "kernel_shape"
      ints: 3
      ints: 3
      type: INTS
    }
    attribute {
      name: "pads"
      ints: 1
      ints: 1
      ints: 1
      ints: 1
      type: INTS
    }
    attribute {
      name: "strides"
      ints: 1
      ints: 1
      type: INTS
    }
  }
  node {
    input: "/Conv_7_2/Conv_output_0"
    input: "/Conv_7_2/bn/Constant_output_0"
    input: "/Conv_7_2/bn/Constant_1_output_0"
    input: "Conv_7_2.bn.running_mean"
    input: "Conv_7_2.bn.running_var"
    output: "/Conv_7_2/bn/BatchNormalization_output_0"
    name: "/Conv_7_2/bn/BatchNormalization"
    op_type: "BatchNormalization"
    attribute {
      name: "epsilon"
      f: 9.999999747378752e-06
      type: FLOAT
    }
    attribute {
      name: "momentum"
      f: 0.949999988079071
      type: FLOAT
    }
    attribute {
      name: "training_mode"
      i: 0
      type: INT
    }
  }
  node {
    input: "/Conv_7_2/bn/BatchNormalization_output_0"
    input: "/Conv_7_2/calc_out_scale/Exp_output_0"
    output: "/Conv_7_2/scale/Mul_output_0"
    name: "/Conv_7_2/scale/Mul"
    op_type: "Mul"
  }
  node {
    input: "/Conv_7_2/scale/Mul_output_0"
    output: "/Conv_7_2/activate/Relu_output_0"
    name: "/Conv_7_2/activate/Relu"
    op_type: "Relu"
  }
  node {
    input: "/Conv_7_2/activate/Relu_output_0"
    input: "/Conv_7_2/Pow_output_0"
    output: "/Conv_7_2/Mul_output_0"
    name: "/Conv_7_2/Mul"
    op_type: "Mul"
  }
  node {
    input: "/Conv_7_2/Mul_output_0"
    input: "onnx::Conv_748"
    input: "onnx::Conv_749"
    output: "/Conv_Res_1/Conv_output_0"
    name: "/Conv_Res_1/Conv"
    op_type: "Conv"
    attribute {
      name: "dilations"
      ints: 1
      ints: 1
      type: INTS
    }
    attribute {
      name: "group"
      i: 1
      type: INT
    }
    attribute {
      name: "kernel_shape"
      ints: 1
      ints: 1
      type: INTS
    }
    attribute {
      name: "pads"
      ints: 0
      ints: 0
      ints: 0
      ints: 0
      type: INTS
    }
    attribute {
      name: "strides"
      ints: 1
      ints: 1
      type: INTS
    }
  }
  node {
    input: "/Conv_Res_1/Conv_output_0"
    input: "/Conv_Res_1/bn/Constant_output_0"
    input: "/Conv_Res_1/bn/Constant_1_output_0"
    input: "Conv_Res_1.bn.running_mean"
    input: "Conv_Res_1.bn.running_var"
    output: "/Conv_Res_1/bn/BatchNormalization_output_0"
    name: "/Conv_Res_1/bn/BatchNormalization"
    op_type: "BatchNormalization"
    attribute {
      name: "epsilon"
      f: 9.999999747378752e-06
      type: FLOAT
    }
    attribute {
      name: "momentum"
      f: 0.949999988079071
      type: FLOAT
    }
    attribute {
      name: "training_mode"
      i: 0
      type: INT
    }
  }
  node {
    input: "/Conv_Res_1/bn/BatchNormalization_output_0"
    input: "/Conv_Res_1/calc_out_scale/Exp_output_0"
    output: "/Conv_Res_1/scale/Mul_output_0"
    name: "/Conv_Res_1/scale/Mul"
    op_type: "Mul"
  }
  node {
    input: "/Conv_Res_1/scale/Mul_output_0"
    output: "/Conv_Res_1/activate/Relu_output_0"
    name: "/Conv_Res_1/activate/Relu"
    op_type: "Relu"
  }
  node {
    input: "/Conv_Res_1/activate/Relu_output_0"
    input: "/Conv_Res_1/Pow_output_0"
    output: "/Conv_Res_1/Mul_output_0"
    name: "/Conv_Res_1/Mul"
    op_type: "Mul"
  }
  node {
    input: "/Conv_Res_1/Mul_output_0"
    input: "onnx::Conv_753"
    input: "onnx::Conv_754"
    output: "/Conv_Res_2/Conv_output_0"
    name: "/Conv_Res_2/Conv"
    op_type: "Conv"
    attribute {
      name: "dilations"
      ints: 1
      ints: 1
      type: INTS
    }
    attribute {
      name: "group"
      i: 1
      type: INT
    }
    attribute {
      name: "kernel_shape"
      ints: 1
      ints: 1
      type: INTS
    }
    attribute {
      name: "pads"
      ints: 0
      ints: 0
      ints: 0
      ints: 0
      type: INTS
    }
    attribute {
      name: "strides"
      ints: 1
      ints: 1
      type: INTS
    }
  }
  node {
    input: "/Conv_Res_2/Conv_output_0"
    input: "/Conv_Res_2/bn/Constant_output_0"
    input: "/Conv_Res_2/bn/Constant_1_output_0"
    input: "Conv_Res_2.bn.running_mean"
    input: "Conv_Res_2.bn.running_var"
    output: "/Conv_Res_2/bn/BatchNormalization_output_0"
    name: "/Conv_Res_2/bn/BatchNormalization"
    op_type: "BatchNormalization"
    attribute {
      name: "epsilon"
      f: 9.999999747378752e-06
      type: FLOAT
    }
    attribute {
      name: "momentum"
      f: 0.949999988079071
      type: FLOAT
    }
    attribute {
      name: "training_mode"
      i: 0
      type: INT
    }
  }
  node {
    input: "/Conv_Res_2/bn/BatchNormalization_output_0"
    input: "/Conv_Res_2/calc_out_scale/Exp_output_0"
    output: "/Conv_Res_2/scale/Mul_output_0"
    name: "/Conv_Res_2/scale/Mul"
    op_type: "Mul"
  }
  node {
    input: "/Conv_Res_2/scale/Mul_output_0"
    output: "/Conv_Res_2/activate/Relu_output_0"
    name: "/Conv_Res_2/activate/Relu"
    op_type: "Relu"
  }
  node {
    input: "/Conv_Res_2/activate/Relu_output_0"
    input: "/Conv_Res_2/Pow_output_0"
    output: "/Conv_Res_2/Mul_output_0"
    name: "/Conv_Res_2/Mul"
    op_type: "Mul"
  }
  node {
    input: "/Conv_Res_2/Mul_output_0"
    input: "onnx::Conv_758"
    input: "onnx::Conv_759"
    output: "/Conv_Res_3/Conv_output_0"
    name: "/Conv_Res_3/Conv"
    op_type: "Conv"
    attribute {
      name: "dilations"
      ints: 1
      ints: 1
      type: INTS
    }
    attribute {
      name: "group"
      i: 1
      type: INT
    }
    attribute {
      name: "kernel_shape"
      ints: 1
      ints: 1
      type: INTS
    }
    attribute {
      name: "pads"
      ints: 0
      ints: 0
      ints: 0
      ints: 0
      type: INTS
    }
    attribute {
      name: "strides"
      ints: 1
      ints: 1
      type: INTS
    }
  }
  node {
    input: "/Conv_Res_3/Conv_output_0"
    input: "/Conv_Res_3/bn/Constant_output_0"
    input: "/Conv_Res_3/bn/Constant_1_output_0"
    input: "Conv_Res_3.bn.running_mean"
    input: "Conv_Res_3.bn.running_var"
    output: "/Conv_Res_3/bn/BatchNormalization_output_0"
    name: "/Conv_Res_3/bn/BatchNormalization"
    op_type: "BatchNormalization"
    attribute {
      name: "epsilon"
      f: 9.999999747378752e-06
      type: FLOAT
    }
    attribute {
      name: "momentum"
      f: 0.949999988079071
      type: FLOAT
    }
    attribute {
      name: "training_mode"
      i: 0
      type: INT
    }
  }
  node {
    input: "/Conv_Res_3/bn/BatchNormalization_output_0"
    input: "/Conv_Res_3/calc_out_scale/Exp_output_0"
    output: "/Conv_Res_3/scale/Mul_output_0"
    name: "/Conv_Res_3/scale/Mul"
    op_type: "Mul"
  }
  node {
    input: "/Conv_Res_3/scale/Mul_output_0"
    output: "/Conv_Res_3/activate/Relu_output_0"
    name: "/Conv_Res_3/activate/Relu"
    op_type: "Relu"
  }
  node {
    input: "/Conv_Res_3/activate/Relu_output_0"
    input: "/Conv_Res_3/Pow_output_0"
    output: "/Conv_Res_3/Mul_output_0"
    name: "/Conv_Res_3/Mul"
    op_type: "Mul"
  }
  node {
    input: "/Conv_Res_3/Mul_output_0"
    input: "onnx::Conv_760"
    input: "onnx::Conv_761"
    output: "/Conv_Res_4/Conv_output_0"
    name: "/Conv_Res_4/Conv"
    op_type: "Conv"
    attribute {
      name: "dilations"
      ints: 1
      ints: 1
      type: INTS
    }
    attribute {
      name: "group"
      i: 1
      type: INT
    }
    attribute {
      name: "kernel_shape"
      ints: 1
      ints: 1
      type: INTS
    }
    attribute {
      name: "pads"
      ints: 0
      ints: 0
      ints: 0
      ints: 0
      type: INTS
    }
    attribute {
      name: "strides"
      ints: 1
      ints: 1
      type: INTS
    }
  }
  node {
    input: "/Conv_Res_4/Conv_output_0"
    input: "/Conv_Res_4/Pow_output_0"
    output: "onnx::Transpose_644"
    name: "/Conv_Res_4/Mul"
    op_type: "Mul"
  }
  node {
    input: "onnx::Transpose_644"
    output: "/Transpose_output_0"
    name: "/Transpose"
    op_type: "Transpose"
    attribute {
      name: "perm"
      ints: 0
      ints: 2
      ints: 3
      ints: 1
      type: INTS
    }
  }
  node {
    input: "/Transpose_output_0"
    input: "/Constant_1_output_0"
    input: "/Constant_2_output_0"
    input: "/Constant_output_0"
    input: "/Constant_3_output_0"
    output: "output"
    name: "/Slice"
    op_type: "Slice"
  }
  node {
    input: "/Transpose_output_0"
    input: "/Constant_5_output_0"
    input: "/Constant_6_output_0"
    input: "/Constant_4_output_0"
    input: "/Constant_7_output_0"
    output: "667"
    name: "/Slice_1"
    op_type: "Slice"
  }
  name: "main_graph"
  input {
    name: "input"
    type {
      tensor_type {
        elem_type: 1
        shape {
          dim {
            dim_value: 1
          }
          dim {
            dim_value: 3
          }
          dim {
            dim_value: 96
          }
          dim {
            dim_value: 96
          }
        }
      }
    }
  }
  output {
    name: "output"
    type {
      tensor_type {
        elem_type: 1
        shape {
          dim {
            dim_value: 1
          }
          dim {
            dim_value: 12
          }
          dim {
            dim_value: 12
          }
          dim {
            dim_value: 10
          }
        }
      }
    }
  }
  output {
    name: "667"
    type {
      tensor_type {
        elem_type: 1
        shape {
          dim {
            dim_value: 1
          }
          dim {
            dim_value: 12
          }
          dim {
            dim_value: 12
          }
          dim {
            dim_value: 2
          }
        }
      }
    }
  }
  output {
    name: "onnx::Transpose_644"
    type {
      tensor_type {
        elem_type: 1
        shape {
          dim {
            dim_value: 1
          }
          dim {
            dim_value: 12
          }
          dim {
            dim_value: 12
          }
          dim {
            dim_value: 12
          }
        }
      }
    }
  }
  value_info {
    name: "Conv_Res_3.bn.running_var"
    type {
      tensor_type {
        elem_type: 1
        shape {
          dim {
            dim_value: 16
          }
        }
      }
    }
  }
  value_info {
    name: "Conv_Res_3.bn.running_mean"
    type {
      tensor_type {
        elem_type: 1
        shape {
          dim {
            dim_value: 16
          }
        }
      }
    }
  }
  value_info {
    name: "Conv_Res_2.bn.running_var"
    type {
      tensor_type {
        elem_type: 1
        shape {
          dim {
            dim_value: 16
          }
        }
      }
    }
  }
  value_info {
    name: "Conv_Res_2.bn.running_mean"
    type {
      tensor_type {
        elem_type: 1
        shape {
          dim {
            dim_value: 16
          }
        }
      }
    }
  }
  value_info {
    name: "Conv_Res_1.bn.running_var"
    type {
      tensor_type {
        elem_type: 1
        shape {
          dim {
            dim_value: 32
          }
        }
      }
    }
  }
  value_info {
    name: "Conv_Res_1.bn.running_mean"
    type {
      tensor_type {
        elem_type: 1
        shape {
          dim {
            dim_value: 32
          }
        }
      }
    }
  }
  value_info {
    name: "Conv_7_2.bn.running_var"
    type {
      tensor_type {
        elem_type: 1
        shape {
          dim {
            dim_value: 32
          }
        }
      }
    }
  }
  value_info {
    name: "Conv_7_2.bn.running_mean"
    type {
      tensor_type {
        elem_type: 1
        shape {
          dim {
            dim_value: 32
          }
        }
      }
    }
  }
  value_info {
    name: "Conv_7_1.bn.running_var"
    type {
      tensor_type {
        elem_type: 1
        shape {
          dim {
            dim_value: 16
          }
        }
      }
    }
  }
  value_info {
    name: "Conv_7_1.bn.running_mean"
    type {
      tensor_type {
        elem_type: 1
        shape {
          dim {
            dim_value: 16
          }
        }
      }
    }
  }
  value_info {
    name: "Conv_12_6.bn.running_var"
    type {
      tensor_type {
        elem_type: 1
        shape {
          dim {
            dim_value: 32
          }
        }
      }
    }
  }
  value_info {
    name: "Conv_12_6.bn.running_mean"
    type {
      tensor_type {
        elem_type: 1
        shape {
          dim {
            dim_value: 32
          }
        }
      }
    }
  }
  value_info {
    name: "Conv_12_5.bn.running_var"
    type {
      tensor_type {
        elem_type: 1
        shape {
          dim {
            dim_value: 16
          }
        }
      }
    }
  }
  value_info {
    name: "Conv_12_5.bn.running_mean"
    type {
      tensor_type {
        elem_type: 1
        shape {
          dim {
            dim_value: 16
          }
        }
      }
    }
  }
  value_info {
    name: "Conv_12_4.bn.running_var"
    type {
      tensor_type {
        elem_type: 1
        shape {
          dim {
            dim_value: 32
          }
        }
      }
    }
  }
  value_info {
    name: "Conv_12_4.bn.running_mean"
    type {
      tensor_type {
        elem_type: 1
        shape {
          dim {
            dim_value: 32
          }
        }
      }
    }
  }
  value_info {
    name: "Conv_12_3.bn.running_var"
    type {
      tensor_type {
        elem_type: 1
        shape {
          dim {
            dim_value: 16
          }
        }
      }
    }
  }
  value_info {
    name: "Conv_12_3.bn.running_mean"
    type {
      tensor_type {
        elem_type: 1
        shape {
          dim {
            dim_value: 16
          }
        }
      }
    }
  }
  value_info {
    name: "Conv_12_2.bn.running_var"
    type {
      tensor_type {
        elem_type: 1
        shape {
          dim {
            dim_value: 32
          }
        }
      }
    }
  }
  value_info {
    name: "Conv_12_2.bn.running_mean"
    type {
      tensor_type {
        elem_type: 1
        shape {
          dim {
            dim_value: 32
          }
        }
      }
    }
  }
  value_info {
    name: "Conv_12_1.bn.running_var"
    type {
      tensor_type {
        elem_type: 1
        shape {
          dim {
            dim_value: 16
          }
        }
      }
    }
  }
  value_info {
    name: "Conv_12_1.bn.running_mean"
    type {
      tensor_type {
        elem_type: 1
        shape {
          dim {
            dim_value: 16
          }
        }
      }
    }
  }
  value_info {
    name: "Conv_24_6.bn.running_var"
    type {
      tensor_type {
        elem_type: 1
        shape {
          dim {
            dim_value: 32
          }
        }
      }
    }
  }
  value_info {
    name: "Conv_24_6.bn.running_mean"
    type {
      tensor_type {
        elem_type: 1
        shape {
          dim {
            dim_value: 32
          }
        }
      }
    }
  }
  value_info {
    name: "Conv_24_5.bn.running_var"
    type {
      tensor_type {
        elem_type: 1
        shape {
          dim {
            dim_value: 16
          }
        }
      }
    }
  }
  value_info {
    name: "Conv_24_5.bn.running_mean"
    type {
      tensor_type {
        elem_type: 1
        shape {
          dim {
            dim_value: 16
          }
        }
      }
    }
  }
  value_info {
    name: "Conv_24_4.bn.running_var"
    type {
      tensor_type {
        elem_type: 1
        shape {
          dim {
            dim_value: 32
          }
        }
      }
    }
  }
  value_info {
    name: "Conv_24_4.bn.running_mean"
    type {
      tensor_type {
        elem_type: 1
        shape {
          dim {
            dim_value: 32
          }
        }
      }
    }
  }
  value_info {
    name: "/Conv_96/Conv_output_0"
    type {
      tensor_type {
        elem_type: 1
        shape {
          dim {
            dim_value: 1
          }
          dim {
            dim_value: 16
          }
          dim {
            dim_value: 96
          }
          dim {
            dim_value: 96
          }
        }
      }
    }
  }
  value_info {
    name: "/Conv_24_2/bn/Constant_output_0"
    type {
      tensor_type {
        elem_type: 1
        shape {
          dim {
            dim_value: 32
          }
        }
      }
    }
  }
  value_info {
    name: "/Conv_24_2/bn/Constant_1_output_0"
    type {
      tensor_type {
        elem_type: 1
        shape {
          dim {
            dim_value: 32
          }
        }
      }
    }
  }
  value_info {
    name: "/Conv_24_3/bn/Constant_output_0"
    type {
      tensor_type {
        elem_type: 1
        shape {
          dim {
            dim_value: 16
          }
        }
      }
    }
  }
  value_info {
    name: "/Conv_24_3/bn/Constant_1_output_0"
    type {
      tensor_type {
        elem_type: 1
        shape {
          dim {
            dim_value: 16
          }
        }
      }
    }
  }
  value_info {
    name: "/Conv_24_4/bn/Constant_output_0"
    type {
      tensor_type {
        elem_type: 1
        shape {
          dim {
            dim_value: 32
          }
        }
      }
    }
  }
  value_info {
    name: "/Conv_24_4/bn/Constant_1_output_0"
    type {
      tensor_type {
        elem_type: 1
        shape {
          dim {
            dim_value: 32
          }
        }
      }
    }
  }
  value_info {
    name: "/Conv_24_5/bn/Constant_output_0"
    type {
      tensor_type {
        elem_type: 1
        shape {
          dim {
            dim_value: 16
          }
        }
      }
    }
  }
  value_info {
    name: "/Conv_24_5/bn/Constant_1_output_0"
    type {
      tensor_type {
        elem_type: 1
        shape {
          dim {
            dim_value: 16
          }
        }
      }
    }
  }
  value_info {
    name: "/Conv_24_6/bn/Constant_output_0"
    type {
      tensor_type {
        elem_type: 1
        shape {
          dim {
            dim_value: 32
          }
        }
      }
    }
  }
  value_info {
    name: "/Conv_24_6/bn/Constant_1_output_0"
    type {
      tensor_type {
        elem_type: 1
        shape {
          dim {
            dim_value: 32
          }
        }
      }
    }
  }
  value_info {
    name: "/Conv_12_1/bn/Constant_output_0"
    type {
      tensor_type {
        elem_type: 1
        shape {
          dim {
            dim_value: 16
          }
        }
      }
    }
  }
  value_info {
    name: "/Conv_12_1/bn/Constant_1_output_0"
    type {
      tensor_type {
        elem_type: 1
        shape {
          dim {
            dim_value: 16
          }
        }
      }
    }
  }
  value_info {
    name: "/Conv_12_2/bn/Constant_output_0"
    type {
      tensor_type {
        elem_type: 1
        shape {
          dim {
            dim_value: 32
          }
        }
      }
    }
  }
  value_info {
    name: "/Conv_12_2/bn/Constant_1_output_0"
    type {
      tensor_type {
        elem_type: 1
        shape {
          dim {
            dim_value: 32
          }
        }
      }
    }
  }
  value_info {
    name: "/Conv_12_3/bn/Constant_output_0"
    type {
      tensor_type {
        elem_type: 1
        shape {
          dim {
            dim_value: 16
          }
        }
      }
    }
  }
  value_info {
    name: "/Conv_12_3/bn/Constant_1_output_0"
    type {
      tensor_type {
        elem_type: 1
        shape {
          dim {
            dim_value: 16
          }
        }
      }
    }
  }
  value_info {
    name: "/Conv_12_4/bn/Constant_output_0"
    type {
      tensor_type {
        elem_type: 1
        shape {
          dim {
            dim_value: 32
          }
        }
      }
    }
  }
  value_info {
    name: "/Conv_12_4/bn/Constant_1_output_0"
    type {
      tensor_type {
        elem_type: 1
        shape {
          dim {
            dim_value: 32
          }
        }
      }
    }
  }
  value_info {
    name: "/Conv_12_5/bn/Constant_output_0"
    type {
      tensor_type {
        elem_type: 1
        shape {
          dim {
            dim_value: 16
          }
        }
      }
    }
  }
  value_info {
    name: "/Conv_12_5/bn/Constant_1_output_0"
    type {
      tensor_type {
        elem_type: 1
        shape {
          dim {
            dim_value: 16
          }
        }
      }
    }
  }
  value_info {
    name: "/Conv_12_6/bn/Constant_output_0"
    type {
      tensor_type {
        elem_type: 1
        shape {
          dim {
            dim_value: 32
          }
        }
      }
    }
  }
  value_info {
    name: "/Conv_12_6/bn/Constant_1_output_0"
    type {
      tensor_type {
        elem_type: 1
        shape {
          dim {
            dim_value: 32
          }
        }
      }
    }
  }
  value_info {
    name: "/Conv_7_1/bn/Constant_output_0"
    type {
      tensor_type {
        elem_type: 1
        shape {
          dim {
            dim_value: 16
          }
        }
      }
    }
  }
  value_info {
    name: "/Conv_7_1/bn/Constant_1_output_0"
    type {
      tensor_type {
        elem_type: 1
        shape {
          dim {
            dim_value: 16
          }
        }
      }
    }
  }
  value_info {
    name: "/Conv_7_2/bn/Constant_output_0"
    type {
      tensor_type {
        elem_type: 1
        shape {
          dim {
            dim_value: 32
          }
        }
      }
    }
  }
  value_info {
    name: "/Conv_7_2/bn/Constant_1_output_0"
    type {
      tensor_type {
        elem_type: 1
        shape {
          dim {
            dim_value: 32
          }
        }
      }
    }
  }
  value_info {
    name: "/Conv_Res_1/bn/Constant_output_0"
    type {
      tensor_type {
        elem_type: 1
        shape {
          dim {
            dim_value: 32
          }
        }
      }
    }
  }
  value_info {
    name: "/Conv_Res_1/bn/Constant_1_output_0"
    type {
      tensor_type {
        elem_type: 1
        shape {
          dim {
            dim_value: 32
          }
        }
      }
    }
  }
  value_info {
    name: "/Conv_Res_2/bn/Constant_output_0"
    type {
      tensor_type {
        elem_type: 1
        shape {
          dim {
            dim_value: 16
          }
        }
      }
    }
  }
  value_info {
    name: "/Conv_Res_2/bn/Constant_1_output_0"
    type {
      tensor_type {
        elem_type: 1
        shape {
          dim {
            dim_value: 16
          }
        }
      }
    }
  }
  value_info {
    name: "/Conv_Res_3/bn/Constant_output_0"
    type {
      tensor_type {
        elem_type: 1
        shape {
          dim {
            dim_value: 16
          }
        }
      }
    }
  }
  value_info {
    name: "/Conv_Res_3/bn/Constant_1_output_0"
    type {
      tensor_type {
        elem_type: 1
        shape {
          dim {
            dim_value: 16
          }
        }
      }
    }
  }
  value_info {
    name: "/Constant_output_0"
    type {
      tensor_type {
        elem_type: 7
        shape {
          dim {
            dim_value: 1
          }
        }
      }
    }
  }
  value_info {
    name: "/Constant_1_output_0"
    type {
      tensor_type {
        elem_type: 7
        shape {
          dim {
            dim_value: 1
          }
        }
      }
    }
  }
  value_info {
    name: "/Constant_2_output_0"
    type {
      tensor_type {
        elem_type: 7
        shape {
          dim {
            dim_value: 1
          }
        }
      }
    }
  }
  value_info {
    name: "/Constant_3_output_0"
    type {
      tensor_type {
        elem_type: 7
        shape {
          dim {
            dim_value: 1
          }
        }
      }
    }
  }
  value_info {
    name: "/Constant_4_output_0"
    type {
      tensor_type {
        elem_type: 7
        shape {
          dim {
            dim_value: 1
          }
        }
      }
    }
  }
  value_info {
    name: "/Constant_5_output_0"
    type {
      tensor_type {
        elem_type: 7
        shape {
          dim {
            dim_value: 1
          }
        }
      }
    }
  }
  value_info {
    name: "/Constant_6_output_0"
    type {
      tensor_type {
        elem_type: 7
        shape {
          dim {
            dim_value: 1
          }
        }
      }
    }
  }
  value_info {
    name: "/Constant_7_output_0"
    type {
      tensor_type {
        elem_type: 7
        shape {
          dim {
            dim_value: 1
          }
        }
      }
    }
  }
  value_info {
    name: "/Conv_96/Pow_output_0"
    type {
      tensor_type {
        elem_type: 1
        shape {
        }
      }
    }
  }
  value_info {
    name: "/Conv_48/Pow_output_0"
    type {
      tensor_type {
        elem_type: 1
        shape {
        }
      }
    }
  }
  value_info {
    name: "/Conv_24_1/Pow_output_0"
    type {
      tensor_type {
        elem_type: 1
        shape {
        }
      }
    }
  }
  value_info {
    name: "/Conv_24_2/Pow_output_0"
    type {
      tensor_type {
        elem_type: 1
        shape {
        }
      }
    }
  }
  value_info {
    name: "/Conv_24_3/Pow_output_0"
    type {
      tensor_type {
        elem_type: 1
        shape {
        }
      }
    }
  }
  value_info {
    name: "/Conv_24_4/Pow_output_0"
    type {
      tensor_type {
        elem_type: 1
        shape {
        }
      }
    }
  }
  value_info {
    name: "/Conv_24_5/Pow_output_0"
    type {
      tensor_type {
        elem_type: 1
        shape {
        }
      }
    }
  }
  value_info {
    name: "/Conv_24_6/Pow_output_0"
    type {
      tensor_type {
        elem_type: 1
        shape {
        }
      }
    }
  }
  value_info {
    name: "/Conv_12_1/Pow_output_0"
    type {
      tensor_type {
        elem_type: 1
        shape {
        }
      }
    }
  }
  value_info {
    name: "/Conv_12_2/Pow_output_0"
    type {
      tensor_type {
        elem_type: 1
        shape {
        }
      }
    }
  }
  value_info {
    name: "/Conv_12_3/Pow_output_0"
    type {
      tensor_type {
        elem_type: 1
        shape {
        }
      }
    }
  }
  value_info {
    name: "/Conv_12_4/Pow_output_0"
    type {
      tensor_type {
        elem_type: 1
        shape {
        }
      }
    }
  }
  value_info {
    name: "/Conv_12_5/Pow_output_0"
    type {
      tensor_type {
        elem_type: 1
        shape {
        }
      }
    }
  }
  value_info {
    name: "/Conv_12_6/Pow_output_0"
    type {
      tensor_type {
        elem_type: 1
        shape {
        }
      }
    }
  }
  value_info {
    name: "/Conv_7_1/Pow_output_0"
    type {
      tensor_type {
        elem_type: 1
        shape {
        }
      }
    }
  }
  value_info {
    name: "/Conv_7_2/Pow_output_0"
    type {
      tensor_type {
        elem_type: 1
        shape {
        }
      }
    }
  }
  value_info {
    name: "/Conv_Res_1/Pow_output_0"
    type {
      tensor_type {
        elem_type: 1
        shape {
        }
      }
    }
  }
  value_info {
    name: "/Conv_Res_2/Pow_output_0"
    type {
      tensor_type {
        elem_type: 1
        shape {
        }
      }
    }
  }
  value_info {
    name: "/Conv_Res_3/Pow_output_0"
    type {
      tensor_type {
        elem_type: 1
        shape {
        }
      }
    }
  }
  value_info {
    name: "/Conv_Res_4/Pow_output_0"
    type {
      tensor_type {
        elem_type: 1
        shape {
        }
      }
    }
  }
  value_info {
    name: "/Conv_96/calc_out_scale/Exp_output_0"
    type {
      tensor_type {
        elem_type: 1
        shape {
          dim {
            dim_value: 1
          }
        }
      }
    }
  }
  value_info {
    name: "/Conv_48/calc_out_scale/Exp_output_0"
    type {
      tensor_type {
        elem_type: 1
        shape {
          dim {
            dim_value: 1
          }
        }
      }
    }
  }
  value_info {
    name: "/Conv_24_1/calc_out_scale/Exp_output_0"
    type {
      tensor_type {
        elem_type: 1
        shape {
          dim {
            dim_value: 1
          }
        }
      }
    }
  }
  value_info {
    name: "/Conv_24_2/calc_out_scale/Exp_output_0"
    type {
      tensor_type {
        elem_type: 1
        shape {
          dim {
            dim_value: 1
          }
        }
      }
    }
  }
  value_info {
    name: "/Conv_24_3/calc_out_scale/Exp_output_0"
    type {
      tensor_type {
        elem_type: 1
        shape {
          dim {
            dim_value: 1
          }
        }
      }
    }
  }
  value_info {
    name: "/Conv_24_4/calc_out_scale/Exp_output_0"
    type {
      tensor_type {
        elem_type: 1
        shape {
          dim {
            dim_value: 1
          }
        }
      }
    }
  }
  value_info {
    name: "/Conv_24_5/calc_out_scale/Exp_output_0"
    type {
      tensor_type {
        elem_type: 1
        shape {
          dim {
            dim_value: 1
          }
        }
      }
    }
  }
  value_info {
    name: "/Conv_24_6/calc_out_scale/Exp_output_0"
    type {
      tensor_type {
        elem_type: 1
        shape {
          dim {
            dim_value: 1
          }
        }
      }
    }
  }
  value_info {
    name: "/Conv_12_1/calc_out_scale/Exp_output_0"
    type {
      tensor_type {
        elem_type: 1
        shape {
          dim {
            dim_value: 1
          }
        }
      }
    }
  }
  value_info {
    name: "/Conv_12_2/calc_out_scale/Exp_output_0"
    type {
      tensor_type {
        elem_type: 1
        shape {
          dim {
            dim_value: 1
          }
        }
      }
    }
  }
  value_info {
    name: "/Conv_12_3/calc_out_scale/Exp_output_0"
    type {
      tensor_type {
        elem_type: 1
        shape {
          dim {
            dim_value: 1
          }
        }
      }
    }
  }
  value_info {
    name: "/Conv_12_4/calc_out_scale/Exp_output_0"
    type {
      tensor_type {
        elem_type: 1
        shape {
          dim {
            dim_value: 1
          }
        }
      }
    }
  }
  value_info {
    name: "/Conv_12_5/calc_out_scale/Exp_output_0"
    type {
      tensor_type {
        elem_type: 1
        shape {
          dim {
            dim_value: 1
          }
        }
      }
    }
  }
  value_info {
    name: "/Conv_12_6/calc_out_scale/Exp_output_0"
    type {
      tensor_type {
        elem_type: 1
        shape {
          dim {
            dim_value: 1
          }
        }
      }
    }
  }
  value_info {
    name: "/Conv_7_1/calc_out_scale/Exp_output_0"
    type {
      tensor_type {
        elem_type: 1
        shape {
          dim {
            dim_value: 1
          }
        }
      }
    }
  }
  value_info {
    name: "/Conv_7_2/calc_out_scale/Exp_output_0"
    type {
      tensor_type {
        elem_type: 1
        shape {
          dim {
            dim_value: 1
          }
        }
      }
    }
  }
  value_info {
    name: "/Conv_Res_1/calc_out_scale/Exp_output_0"
    type {
      tensor_type {
        elem_type: 1
        shape {
          dim {
            dim_value: 1
          }
        }
      }
    }
  }
  value_info {
    name: "/Conv_Res_2/calc_out_scale/Exp_output_0"
    type {
      tensor_type {
        elem_type: 1
        shape {
          dim {
            dim_value: 1
          }
        }
      }
    }
  }
  value_info {
    name: "/Conv_Res_3/calc_out_scale/Exp_output_0"
    type {
      tensor_type {
        elem_type: 1
        shape {
          dim {
            dim_value: 1
          }
        }
      }
    }
  }
  value_info {
    name: "/Conv_96/scale/Mul_output_0"
    type {
      tensor_type {
        elem_type: 1
        shape {
          dim {
            dim_value: 1
          }
          dim {
            dim_value: 16
          }
          dim {
            dim_value: 96
          }
          dim {
            dim_value: 96
          }
        }
      }
    }
  }
  value_info {
    name: "/Conv_96/activate/Relu_output_0"
    type {
      tensor_type {
        elem_type: 1
        shape {
          dim {
            dim_value: 1
          }
          dim {
            dim_value: 16
          }
          dim {
            dim_value: 96
          }
          dim {
            dim_value: 96
          }
        }
      }
    }
  }
  value_info {
    name: "/Conv_96/Mul_output_0"
    type {
      tensor_type {
        elem_type: 1
        shape {
          dim {
            dim_value: 1
          }
          dim {
            dim_value: 16
          }
          dim {
            dim_value: 96
          }
          dim {
            dim_value: 96
          }
        }
      }
    }
  }
  value_info {
    name: "/Conv_48/pool/MaxPool_output_0"
    type {
      tensor_type {
        elem_type: 1
        shape {
          dim {
            dim_value: 1
          }
          dim {
            dim_value: 16
          }
          dim {
            dim_value: 48
          }
          dim {
            dim_value: 48
          }
        }
      }
    }
  }
  value_info {
    name: "/Conv_48/Conv_output_0"
    type {
      tensor_type {
        elem_type: 1
        shape {
          dim {
            dim_value: 1
          }
          dim {
            dim_value: 16
          }
          dim {
            dim_value: 48
          }
          dim {
            dim_value: 48
          }
        }
      }
    }
  }
  value_info {
    name: "/Conv_48/scale/Mul_output_0"
    type {
      tensor_type {
        elem_type: 1
        shape {
          dim {
            dim_value: 1
          }
          dim {
            dim_value: 16
          }
          dim {
            dim_value: 48
          }
          dim {
            dim_value: 48
          }
        }
      }
    }
  }
  value_info {
    name: "/Conv_48/activate/Relu_output_0"
    type {
      tensor_type {
        elem_type: 1
        shape {
          dim {
            dim_value: 1
          }
          dim {
            dim_value: 16
          }
          dim {
            dim_value: 48
          }
          dim {
            dim_value: 48
          }
        }
      }
    }
  }
  value_info {
    name: "/Conv_48/Mul_output_0"
    type {
      tensor_type {
        elem_type: 1
        shape {
          dim {
            dim_value: 1
          }
          dim {
            dim_value: 16
          }
          dim {
            dim_value: 48
          }
          dim {
            dim_value: 48
          }
        }
      }
    }
  }
  value_info {
    name: "/Conv_24_1/pool/MaxPool_output_0"
    type {
      tensor_type {
        elem_type: 1
        shape {
          dim {
            dim_value: 1
          }
          dim {
            dim_value: 16
          }
          dim {
            dim_value: 24
          }
          dim {
            dim_value: 24
          }
        }
      }
    }
  }
  value_info {
    name: "/Conv_24_1/Conv_output_0"
    type {
      tensor_type {
        elem_type: 1
        shape {
          dim {
            dim_value: 1
          }
          dim {
            dim_value: 16
          }
          dim {
            dim_value: 24
          }
          dim {
            dim_value: 24
          }
        }
      }
    }
  }
  value_info {
    name: "/Conv_24_1/scale/Mul_output_0"
    type {
      tensor_type {
        elem_type: 1
        shape {
          dim {
            dim_value: 1
          }
          dim {
            dim_value: 16
          }
          dim {
            dim_value: 24
          }
          dim {
            dim_value: 24
          }
        }
      }
    }
  }
  value_info {
    name: "/Conv_24_1/activate/Relu_output_0"
    type {
      tensor_type {
        elem_type: 1
        shape {
          dim {
            dim_value: 1
          }
          dim {
            dim_value: 16
          }
          dim {
            dim_value: 24
          }
          dim {
            dim_value: 24
          }
        }
      }
    }
  }
  value_info {
    name: "/Conv_24_1/Mul_output_0"
    type {
      tensor_type {
        elem_type: 1
        shape {
          dim {
            dim_value: 1
          }
          dim {
            dim_value: 16
          }
          dim {
            dim_value: 24
          }
          dim {
            dim_value: 24
          }
        }
      }
    }
  }
  value_info {
    name: "/Conv_24_2/Conv_output_0"
    type {
      tensor_type {
        elem_type: 1
        shape {
          dim {
            dim_value: 1
          }
          dim {
            dim_value: 32
          }
          dim {
            dim_value: 24
          }
          dim {
            dim_value: 24
          }
        }
      }
    }
  }
  value_info {
    name: "/Conv_24_2/bn/BatchNormalization_output_0"
    type {
      tensor_type {
        elem_type: 1
        shape {
          dim {
            dim_value: 1
          }
          dim {
            dim_value: 32
          }
          dim {
            dim_value: 24
          }
          dim {
            dim_value: 24
          }
        }
      }
    }
  }
  value_info {
    name: "/Conv_24_2/scale/Mul_output_0"
    type {
      tensor_type {
        elem_type: 1
        shape {
          dim {
            dim_value: 1
          }
          dim {
            dim_value: 32
          }
          dim {
            dim_value: 24
          }
          dim {
            dim_value: 24
          }
        }
      }
    }
  }
  value_info {
    name: "/Conv_24_2/activate/Relu_output_0"
    type {
      tensor_type {
        elem_type: 1
        shape {
          dim {
            dim_value: 1
          }
          dim {
            dim_value: 32
          }
          dim {
            dim_value: 24
          }
          dim {
            dim_value: 24
          }
        }
      }
    }
  }
  value_info {
    name: "/Conv_24_2/Mul_output_0"
    type {
      tensor_type {
        elem_type: 1
        shape {
          dim {
            dim_value: 1
          }
          dim {
            dim_value: 32
          }
          dim {
            dim_value: 24
          }
          dim {
            dim_value: 24
          }
        }
      }
    }
  }
  value_info {
    name: "/Conv_24_3/Conv_output_0"
    type {
      tensor_type {
        elem_type: 1
        shape {
          dim {
            dim_value: 1
          }
          dim {
            dim_value: 16
          }
          dim {
            dim_value: 24
          }
          dim {
            dim_value: 24
          }
        }
      }
    }
  }
  value_info {
    name: "/Conv_24_3/bn/BatchNormalization_output_0"
    type {
      tensor_type {
        elem_type: 1
        shape {
          dim {
            dim_value: 1
          }
          dim {
            dim_value: 16
          }
          dim {
            dim_value: 24
          }
          dim {
            dim_value: 24
          }
        }
      }
    }
  }
  value_info {
    name: "/Conv_24_3/scale/Mul_output_0"
    type {
      tensor_type {
        elem_type: 1
        shape {
          dim {
            dim_value: 1
          }
          dim {
            dim_value: 16
          }
          dim {
            dim_value: 24
          }
          dim {
            dim_value: 24
          }
        }
      }
    }
  }
  value_info {
    name: "/Conv_24_3/activate/Relu_output_0"
    type {
      tensor_type {
        elem_type: 1
        shape {
          dim {
            dim_value: 1
          }
          dim {
            dim_value: 16
          }
          dim {
            dim_value: 24
          }
          dim {
            dim_value: 24
          }
        }
      }
    }
  }
  value_info {
    name: "/Conv_24_3/Mul_output_0"
    type {
      tensor_type {
        elem_type: 1
        shape {
          dim {
            dim_value: 1
          }
          dim {
            dim_value: 16
          }
          dim {
            dim_value: 24
          }
          dim {
            dim_value: 24
          }
        }
      }
    }
  }
  value_info {
    name: "/Conv_24_4/Conv_output_0"
    type {
      tensor_type {
        elem_type: 1
        shape {
          dim {
            dim_value: 1
          }
          dim {
            dim_value: 32
          }
          dim {
            dim_value: 24
          }
          dim {
            dim_value: 24
          }
        }
      }
    }
  }
  value_info {
    name: "/Conv_24_4/bn/BatchNormalization_output_0"
    type {
      tensor_type {
        elem_type: 1
        shape {
          dim {
            dim_value: 1
          }
          dim {
            dim_value: 32
          }
          dim {
            dim_value: 24
          }
          dim {
            dim_value: 24
          }
        }
      }
    }
  }
  value_info {
    name: "/Conv_24_4/scale/Mul_output_0"
    type {
      tensor_type {
        elem_type: 1
        shape {
          dim {
            dim_value: 1
          }
          dim {
            dim_value: 32
          }
          dim {
            dim_value: 24
          }
          dim {
            dim_value: 24
          }
        }
      }
    }
  }
  value_info {
    name: "/Conv_24_4/activate/Relu_output_0"
    type {
      tensor_type {
        elem_type: 1
        shape {
          dim {
            dim_value: 1
          }
          dim {
            dim_value: 32
          }
          dim {
            dim_value: 24
          }
          dim {
            dim_value: 24
          }
        }
      }
    }
  }
  value_info {
    name: "/Conv_24_4/Mul_output_0"
    type {
      tensor_type {
        elem_type: 1
        shape {
          dim {
            dim_value: 1
          }
          dim {
            dim_value: 32
          }
          dim {
            dim_value: 24
          }
          dim {
            dim_value: 24
          }
        }
      }
    }
  }
  value_info {
    name: "/Conv_24_5/Conv_output_0"
    type {
      tensor_type {
        elem_type: 1
        shape {
          dim {
            dim_value: 1
          }
          dim {
            dim_value: 16
          }
          dim {
            dim_value: 24
          }
          dim {
            dim_value: 24
          }
        }
      }
    }
  }
  value_info {
    name: "/Conv_24_5/bn/BatchNormalization_output_0"
    type {
      tensor_type {
        elem_type: 1
        shape {
          dim {
            dim_value: 1
          }
          dim {
            dim_value: 16
          }
          dim {
            dim_value: 24
          }
          dim {
            dim_value: 24
          }
        }
      }
    }
  }
  value_info {
    name: "/Conv_24_5/scale/Mul_output_0"
    type {
      tensor_type {
        elem_type: 1
        shape {
          dim {
            dim_value: 1
          }
          dim {
            dim_value: 16
          }
          dim {
            dim_value: 24
          }
          dim {
            dim_value: 24
          }
        }
      }
    }
  }
  value_info {
    name: "/Conv_24_5/activate/Relu_output_0"
    type {
      tensor_type {
        elem_type: 1
        shape {
          dim {
            dim_value: 1
          }
          dim {
            dim_value: 16
          }
          dim {
            dim_value: 24
          }
          dim {
            dim_value: 24
          }
        }
      }
    }
  }
  value_info {
    name: "/Conv_24_5/Mul_output_0"
    type {
      tensor_type {
        elem_type: 1
        shape {
          dim {
            dim_value: 1
          }
          dim {
            dim_value: 16
          }
          dim {
            dim_value: 24
          }
          dim {
            dim_value: 24
          }
        }
      }
    }
  }
  value_info {
    name: "/Conv_24_6/Conv_output_0"
    type {
      tensor_type {
        elem_type: 1
        shape {
          dim {
            dim_value: 1
          }
          dim {
            dim_value: 32
          }
          dim {
            dim_value: 24
          }
          dim {
            dim_value: 24
          }
        }
      }
    }
  }
  value_info {
    name: "/Conv_24_6/bn/BatchNormalization_output_0"
    type {
      tensor_type {
        elem_type: 1
        shape {
          dim {
            dim_value: 1
          }
          dim {
            dim_value: 32
          }
          dim {
            dim_value: 24
          }
          dim {
            dim_value: 24
          }
        }
      }
    }
  }
  value_info {
    name: "/Conv_24_6/scale/Mul_output_0"
    type {
      tensor_type {
        elem_type: 1
        shape {
          dim {
            dim_value: 1
          }
          dim {
            dim_value: 32
          }
          dim {
            dim_value: 24
          }
          dim {
            dim_value: 24
          }
        }
      }
    }
  }
  value_info {
    name: "/Conv_24_6/activate/Relu_output_0"
    type {
      tensor_type {
        elem_type: 1
        shape {
          dim {
            dim_value: 1
          }
          dim {
            dim_value: 32
          }
          dim {
            dim_value: 24
          }
          dim {
            dim_value: 24
          }
        }
      }
    }
  }
  value_info {
    name: "/Conv_24_6/Mul_output_0"
    type {
      tensor_type {
        elem_type: 1
        shape {
          dim {
            dim_value: 1
          }
          dim {
            dim_value: 32
          }
          dim {
            dim_value: 24
          }
          dim {
            dim_value: 24
          }
        }
      }
    }
  }
  value_info {
    name: "/Conv_12_1/pool/MaxPool_output_0"
    type {
      tensor_type {
        elem_type: 1
        shape {
          dim {
            dim_value: 1
          }
          dim {
            dim_value: 32
          }
          dim {
            dim_value: 12
          }
          dim {
            dim_value: 12
          }
        }
      }
    }
  }
  value_info {
    name: "/Conv_12_1/Conv_output_0"
    type {
      tensor_type {
        elem_type: 1
        shape {
          dim {
            dim_value: 1
          }
          dim {
            dim_value: 16
          }
          dim {
            dim_value: 12
          }
          dim {
            dim_value: 12
          }
        }
      }
    }
  }
  value_info {
    name: "/Conv_12_1/bn/BatchNormalization_output_0"
    type {
      tensor_type {
        elem_type: 1
        shape {
          dim {
            dim_value: 1
          }
          dim {
            dim_value: 16
          }
          dim {
            dim_value: 12
          }
          dim {
            dim_value: 12
          }
        }
      }
    }
  }
  value_info {
    name: "/Conv_12_1/scale/Mul_output_0"
    type {
      tensor_type {
        elem_type: 1
        shape {
          dim {
            dim_value: 1
          }
          dim {
            dim_value: 16
          }
          dim {
            dim_value: 12
          }
          dim {
            dim_value: 12
          }
        }
      }
    }
  }
  value_info {
    name: "/Conv_12_1/activate/Relu_output_0"
    type {
      tensor_type {
        elem_type: 1
        shape {
          dim {
            dim_value: 1
          }
          dim {
            dim_value: 16
          }
          dim {
            dim_value: 12
          }
          dim {
            dim_value: 12
          }
        }
      }
    }
  }
  value_info {
    name: "/Conv_12_1/Mul_output_0"
    type {
      tensor_type {
        elem_type: 1
        shape {
          dim {
            dim_value: 1
          }
          dim {
            dim_value: 16
          }
          dim {
            dim_value: 12
          }
          dim {
            dim_value: 12
          }
        }
      }
    }
  }
  value_info {
    name: "/Conv_12_2/Conv_output_0"
    type {
      tensor_type {
        elem_type: 1
        shape {
          dim {
            dim_value: 1
          }
          dim {
            dim_value: 32
          }
          dim {
            dim_value: 12
          }
          dim {
            dim_value: 12
          }
        }
      }
    }
  }
  value_info {
    name: "/Conv_12_2/bn/BatchNormalization_output_0"
    type {
      tensor_type {
        elem_type: 1
        shape {
          dim {
            dim_value: 1
          }
          dim {
            dim_value: 32
          }
          dim {
            dim_value: 12
          }
          dim {
            dim_value: 12
          }
        }
      }
    }
  }
  value_info {
    name: "/Conv_12_2/scale/Mul_output_0"
    type {
      tensor_type {
        elem_type: 1
        shape {
          dim {
            dim_value: 1
          }
          dim {
            dim_value: 32
          }
          dim {
            dim_value: 12
          }
          dim {
            dim_value: 12
          }
        }
      }
    }
  }
  value_info {
    name: "/Conv_12_2/activate/Relu_output_0"
    type {
      tensor_type {
        elem_type: 1
        shape {
          dim {
            dim_value: 1
          }
          dim {
            dim_value: 32
          }
          dim {
            dim_value: 12
          }
          dim {
            dim_value: 12
          }
        }
      }
    }
  }
  value_info {
    name: "/Conv_12_2/Mul_output_0"
    type {
      tensor_type {
        elem_type: 1
        shape {
          dim {
            dim_value: 1
          }
          dim {
            dim_value: 32
          }
          dim {
            dim_value: 12
          }
          dim {
            dim_value: 12
          }
        }
      }
    }
  }
  value_info {
    name: "/Conv_12_3/Conv_output_0"
    type {
      tensor_type {
        elem_type: 1
        shape {
          dim {
            dim_value: 1
          }
          dim {
            dim_value: 16
          }
          dim {
            dim_value: 12
          }
          dim {
            dim_value: 12
          }
        }
      }
    }
  }
  value_info {
    name: "/Conv_12_3/bn/BatchNormalization_output_0"
    type {
      tensor_type {
        elem_type: 1
        shape {
          dim {
            dim_value: 1
          }
          dim {
            dim_value: 16
          }
          dim {
            dim_value: 12
          }
          dim {
            dim_value: 12
          }
        }
      }
    }
  }
  value_info {
    name: "/Conv_12_3/scale/Mul_output_0"
    type {
      tensor_type {
        elem_type: 1
        shape {
          dim {
            dim_value: 1
          }
          dim {
            dim_value: 16
          }
          dim {
            dim_value: 12
          }
          dim {
            dim_value: 12
          }
        }
      }
    }
  }
  value_info {
    name: "/Conv_12_3/activate/Relu_output_0"
    type {
      tensor_type {
        elem_type: 1
        shape {
          dim {
            dim_value: 1
          }
          dim {
            dim_value: 16
          }
          dim {
            dim_value: 12
          }
          dim {
            dim_value: 12
          }
        }
      }
    }
  }
  value_info {
    name: "/Conv_12_3/Mul_output_0"
    type {
      tensor_type {
        elem_type: 1
        shape {
          dim {
            dim_value: 1
          }
          dim {
            dim_value: 16
          }
          dim {
            dim_value: 12
          }
          dim {
            dim_value: 12
          }
        }
      }
    }
  }
  value_info {
    name: "/Conv_12_4/Conv_output_0"
    type {
      tensor_type {
        elem_type: 1
        shape {
          dim {
            dim_value: 1
          }
          dim {
            dim_value: 32
          }
          dim {
            dim_value: 12
          }
          dim {
            dim_value: 12
          }
        }
      }
    }
  }
  value_info {
    name: "/Conv_12_4/bn/BatchNormalization_output_0"
    type {
      tensor_type {
        elem_type: 1
        shape {
          dim {
            dim_value: 1
          }
          dim {
            dim_value: 32
          }
          dim {
            dim_value: 12
          }
          dim {
            dim_value: 12
          }
        }
      }
    }
  }
  value_info {
    name: "/Conv_12_4/scale/Mul_output_0"
    type {
      tensor_type {
        elem_type: 1
        shape {
          dim {
            dim_value: 1
          }
          dim {
            dim_value: 32
          }
          dim {
            dim_value: 12
          }
          dim {
            dim_value: 12
          }
        }
      }
    }
  }
  value_info {
    name: "/Conv_12_4/activate/Relu_output_0"
    type {
      tensor_type {
        elem_type: 1
        shape {
          dim {
            dim_value: 1
          }
          dim {
            dim_value: 32
          }
          dim {
            dim_value: 12
          }
          dim {
            dim_value: 12
          }
        }
      }
    }
  }
  value_info {
    name: "/Conv_12_4/Mul_output_0"
    type {
      tensor_type {
        elem_type: 1
        shape {
          dim {
            dim_value: 1
          }
          dim {
            dim_value: 32
          }
          dim {
            dim_value: 12
          }
          dim {
            dim_value: 12
          }
        }
      }
    }
  }
  value_info {
    name: "/Conv_12_5/Conv_output_0"
    type {
      tensor_type {
        elem_type: 1
        shape {
          dim {
            dim_value: 1
          }
          dim {
            dim_value: 16
          }
          dim {
            dim_value: 12
          }
          dim {
            dim_value: 12
          }
        }
      }
    }
  }
  value_info {
    name: "/Conv_12_5/bn/BatchNormalization_output_0"
    type {
      tensor_type {
        elem_type: 1
        shape {
          dim {
            dim_value: 1
          }
          dim {
            dim_value: 16
          }
          dim {
            dim_value: 12
          }
          dim {
            dim_value: 12
          }
        }
      }
    }
  }
  value_info {
    name: "/Conv_12_5/scale/Mul_output_0"
    type {
      tensor_type {
        elem_type: 1
        shape {
          dim {
            dim_value: 1
          }
          dim {
            dim_value: 16
          }
          dim {
            dim_value: 12
          }
          dim {
            dim_value: 12
          }
        }
      }
    }
  }
  value_info {
    name: "/Conv_12_5/activate/Relu_output_0"
    type {
      tensor_type {
        elem_type: 1
        shape {
          dim {
            dim_value: 1
          }
          dim {
            dim_value: 16
          }
          dim {
            dim_value: 12
          }
          dim {
            dim_value: 12
          }
        }
      }
    }
  }
  value_info {
    name: "/Conv_12_5/Mul_output_0"
    type {
      tensor_type {
        elem_type: 1
        shape {
          dim {
            dim_value: 1
          }
          dim {
            dim_value: 16
          }
          dim {
            dim_value: 12
          }
          dim {
            dim_value: 12
          }
        }
      }
    }
  }
  value_info {
    name: "/Conv_12_6/Conv_output_0"
    type {
      tensor_type {
        elem_type: 1
        shape {
          dim {
            dim_value: 1
          }
          dim {
            dim_value: 32
          }
          dim {
            dim_value: 12
          }
          dim {
            dim_value: 12
          }
        }
      }
    }
  }
  value_info {
    name: "/Conv_12_6/bn/BatchNormalization_output_0"
    type {
      tensor_type {
        elem_type: 1
        shape {
          dim {
            dim_value: 1
          }
          dim {
            dim_value: 32
          }
          dim {
            dim_value: 12
          }
          dim {
            dim_value: 12
          }
        }
      }
    }
  }
  value_info {
    name: "/Conv_12_6/scale/Mul_output_0"
    type {
      tensor_type {
        elem_type: 1
        shape {
          dim {
            dim_value: 1
          }
          dim {
            dim_value: 32
          }
          dim {
            dim_value: 12
          }
          dim {
            dim_value: 12
          }
        }
      }
    }
  }
  value_info {
    name: "/Conv_12_6/activate/Relu_output_0"
    type {
      tensor_type {
        elem_type: 1
        shape {
          dim {
            dim_value: 1
          }
          dim {
            dim_value: 32
          }
          dim {
            dim_value: 12
          }
          dim {
            dim_value: 12
          }
        }
      }
    }
  }
  value_info {
    name: "/Conv_12_6/Mul_output_0"
    type {
      tensor_type {
        elem_type: 1
        shape {
          dim {
            dim_value: 1
          }
          dim {
            dim_value: 32
          }
          dim {
            dim_value: 12
          }
          dim {
            dim_value: 12
          }
        }
      }
    }
  }
  value_info {
    name: "/Conv_7_1/Conv_output_0"
    type {
      tensor_type {
        elem_type: 1
        shape {
          dim {
            dim_value: 1
          }
          dim {
            dim_value: 16
          }
          dim {
            dim_value: 12
          }
          dim {
            dim_value: 12
          }
        }
      }
    }
  }
  value_info {
    name: "/Conv_7_1/bn/BatchNormalization_output_0"
    type {
      tensor_type {
        elem_type: 1
        shape {
          dim {
            dim_value: 1
          }
          dim {
            dim_value: 16
          }
          dim {
            dim_value: 12
          }
          dim {
            dim_value: 12
          }
        }
      }
    }
  }
  value_info {
    name: "/Conv_7_1/scale/Mul_output_0"
    type {
      tensor_type {
        elem_type: 1
        shape {
          dim {
            dim_value: 1
          }
          dim {
            dim_value: 16
          }
          dim {
            dim_value: 12
          }
          dim {
            dim_value: 12
          }
        }
      }
    }
  }
  value_info {
    name: "/Conv_7_1/activate/Relu_output_0"
    type {
      tensor_type {
        elem_type: 1
        shape {
          dim {
            dim_value: 1
          }
          dim {
            dim_value: 16
          }
          dim {
            dim_value: 12
          }
          dim {
            dim_value: 12
          }
        }
      }
    }
  }
  value_info {
    name: "/Conv_7_1/Mul_output_0"
    type {
      tensor_type {
        elem_type: 1
        shape {
          dim {
            dim_value: 1
          }
          dim {
            dim_value: 16
          }
          dim {
            dim_value: 12
          }
          dim {
            dim_value: 12
          }
        }
      }
    }
  }
  value_info {
    name: "/Conv_7_2/Conv_output_0"
    type {
      tensor_type {
        elem_type: 1
        shape {
          dim {
            dim_value: 1
          }
          dim {
            dim_value: 32
          }
          dim {
            dim_value: 12
          }
          dim {
            dim_value: 12
          }
        }
      }
    }
  }
  value_info {
    name: "/Conv_7_2/bn/BatchNormalization_output_0"
    type {
      tensor_type {
        elem_type: 1
        shape {
          dim {
            dim_value: 1
          }
          dim {
            dim_value: 32
          }
          dim {
            dim_value: 12
          }
          dim {
            dim_value: 12
          }
        }
      }
    }
  }
  value_info {
    name: "/Conv_7_2/scale/Mul_output_0"
    type {
      tensor_type {
        elem_type: 1
        shape {
          dim {
            dim_value: 1
          }
          dim {
            dim_value: 32
          }
          dim {
            dim_value: 12
          }
          dim {
            dim_value: 12
          }
        }
      }
    }
  }
  value_info {
    name: "/Conv_7_2/activate/Relu_output_0"
    type {
      tensor_type {
        elem_type: 1
        shape {
          dim {
            dim_value: 1
          }
          dim {
            dim_value: 32
          }
          dim {
            dim_value: 12
          }
          dim {
            dim_value: 12
          }
        }
      }
    }
  }
  value_info {
    name: "/Conv_7_2/Mul_output_0"
    type {
      tensor_type {
        elem_type: 1
        shape {
          dim {
            dim_value: 1
          }
          dim {
            dim_value: 32
          }
          dim {
            dim_value: 12
          }
          dim {
            dim_value: 12
          }
        }
      }
    }
  }
  value_info {
    name: "/Conv_Res_1/Conv_output_0"
    type {
      tensor_type {
        elem_type: 1
        shape {
          dim {
            dim_value: 1
          }
          dim {
            dim_value: 32
          }
          dim {
            dim_value: 12
          }
          dim {
            dim_value: 12
          }
        }
      }
    }
  }
  value_info {
    name: "/Conv_Res_1/bn/BatchNormalization_output_0"
    type {
      tensor_type {
        elem_type: 1
        shape {
          dim {
            dim_value: 1
          }
          dim {
            dim_value: 32
          }
          dim {
            dim_value: 12
          }
          dim {
            dim_value: 12
          }
        }
      }
    }
  }
  value_info {
    name: "/Conv_Res_1/scale/Mul_output_0"
    type {
      tensor_type {
        elem_type: 1
        shape {
          dim {
            dim_value: 1
          }
          dim {
            dim_value: 32
          }
          dim {
            dim_value: 12
          }
          dim {
            dim_value: 12
          }
        }
      }
    }
  }
  value_info {
    name: "/Conv_Res_1/activate/Relu_output_0"
    type {
      tensor_type {
        elem_type: 1
        shape {
          dim {
            dim_value: 1
          }
          dim {
            dim_value: 32
          }
          dim {
            dim_value: 12
          }
          dim {
            dim_value: 12
          }
        }
      }
    }
  }
  value_info {
    name: "/Conv_Res_1/Mul_output_0"
    type {
      tensor_type {
        elem_type: 1
        shape {
          dim {
            dim_value: 1
          }
          dim {
            dim_value: 32
          }
          dim {
            dim_value: 12
          }
          dim {
            dim_value: 12
          }
        }
      }
    }
  }
  value_info {
    name: "/Conv_Res_2/Conv_output_0"
    type {
      tensor_type {
        elem_type: 1
        shape {
          dim {
            dim_value: 1
          }
          dim {
            dim_value: 16
          }
          dim {
            dim_value: 12
          }
          dim {
            dim_value: 12
          }
        }
      }
    }
  }
  value_info {
    name: "/Conv_Res_2/bn/BatchNormalization_output_0"
    type {
      tensor_type {
        elem_type: 1
        shape {
          dim {
            dim_value: 1
          }
          dim {
            dim_value: 16
          }
          dim {
            dim_value: 12
          }
          dim {
            dim_value: 12
          }
        }
      }
    }
  }
  value_info {
    name: "/Conv_Res_2/scale/Mul_output_0"
    type {
      tensor_type {
        elem_type: 1
        shape {
          dim {
            dim_value: 1
          }
          dim {
            dim_value: 16
          }
          dim {
            dim_value: 12
          }
          dim {
            dim_value: 12
          }
        }
      }
    }
  }
  value_info {
    name: "/Conv_Res_2/activate/Relu_output_0"
    type {
      tensor_type {
        elem_type: 1
        shape {
          dim {
            dim_value: 1
          }
          dim {
            dim_value: 16
          }
          dim {
            dim_value: 12
          }
          dim {
            dim_value: 12
          }
        }
      }
    }
  }
  value_info {
    name: "/Conv_Res_2/Mul_output_0"
    type {
      tensor_type {
        elem_type: 1
        shape {
          dim {
            dim_value: 1
          }
          dim {
            dim_value: 16
          }
          dim {
            dim_value: 12
          }
          dim {
            dim_value: 12
          }
        }
      }
    }
  }
  value_info {
    name: "/Conv_Res_3/Conv_output_0"
    type {
      tensor_type {
        elem_type: 1
        shape {
          dim {
            dim_value: 1
          }
          dim {
            dim_value: 16
          }
          dim {
            dim_value: 12
          }
          dim {
            dim_value: 12
          }
        }
      }
    }
  }
  value_info {
    name: "/Conv_Res_3/bn/BatchNormalization_output_0"
    type {
      tensor_type {
        elem_type: 1
        shape {
          dim {
            dim_value: 1
          }
          dim {
            dim_value: 16
          }
          dim {
            dim_value: 12
          }
          dim {
            dim_value: 12
          }
        }
      }
    }
  }
  value_info {
    name: "/Conv_Res_3/scale/Mul_output_0"
    type {
      tensor_type {
        elem_type: 1
        shape {
          dim {
            dim_value: 1
          }
          dim {
            dim_value: 16
          }
          dim {
            dim_value: 12
          }
          dim {
            dim_value: 12
          }
        }
      }
    }
  }
  value_info {
    name: "/Conv_Res_3/activate/Relu_output_0"
    type {
      tensor_type {
        elem_type: 1
        shape {
          dim {
            dim_value: 1
          }
          dim {
            dim_value: 16
          }
          dim {
            dim_value: 12
          }
          dim {
            dim_value: 12
          }
        }
      }
    }
  }
  value_info {
    name: "/Conv_Res_3/Mul_output_0"
    type {
      tensor_type {
        elem_type: 1
        shape {
          dim {
            dim_value: 1
          }
          dim {
            dim_value: 16
          }
          dim {
            dim_value: 12
          }
          dim {
            dim_value: 12
          }
        }
      }
    }
  }
  value_info {
    name: "/Conv_Res_4/Conv_output_0"
    type {
      tensor_type {
        elem_type: 1
        shape {
          dim {
            dim_value: 1
          }
          dim {
            dim_value: 12
          }
          dim {
            dim_value: 12
          }
          dim {
            dim_value: 12
          }
        }
      }
    }
  }
  value_info {
    name: "/Transpose_output_0"
    type {
      tensor_type {
        elem_type: 1
        shape {
          dim {
            dim_value: 1
          }
          dim {
            dim_value: 12
          }
          dim {
            dim_value: 12
          }
          dim {
            dim_value: 12
          }
        }
      }
    }
  }
}
opset_import {
  version: 19
}
