2025-01-17 15:35:13,859 [INFO] Activator:170 - 


2025-01-17 15:35:13,859 [INFO] Activator:171 - !SESSION log4j initialized
2025-01-17 15:35:18,071 [INFO] McuFinderGlobals:39 - Set McuFinder mode to 2 (CubeIDE integrated)
2025-01-17 15:35:19,422 [INFO] ApplicationProperties:181 - Using Application install path: D:\STM32CubeIDE_1.6.1\STM32CubeIDE\plugins\com.st.stm32cube.common.mx_6.2.1.202103241236
2025-01-17 15:35:19,449 [INFO] DbMcusXml:74 - Set database path to: D:\STM32CubeIDE_1.6.1\STM32CubeIDE\plugins\com.st.stm32cube.common.mx_6.2.1.202103241236\\db\/mcu/
2025-01-17 15:35:19,449 [INFO] DbBoardsPdsc:56 - Set plugin database path to: D:\STM32CubeIDE_1.6.1\STM32CubeIDE\plugins\com.st.stm32cube.common.mx_6.2.1.202103241236\\db\/plugins/boardmanager/
2025-01-17 15:35:19,449 [INFO] DbMcus:258 - Set plugin images path to: D:\STM32CubeIDE_1.6.1\STM32CubeIDE\plugins\com.st.stm32cube.common.mx_6.2.1.202103241236\\db\/plugins/mcufinder/images/
2025-01-17 15:35:19,449 [INFO] DbBoards:264 - Set plugin images path to: D:\STM32CubeIDE_1.6.1\STM32CubeIDE\plugins\com.st.stm32cube.common.mx_6.2.1.202103241236\\db\/plugins/mcufinder/images/
2025-01-17 15:35:19,449 [INFO] DbExamples:333 - Set plugin images path to: D:\STM32CubeIDE_1.6.1\STM32CubeIDE\plugins\com.st.stm32cube.common.mx_6.2.1.202103241236\\db\/plugins/mcufinder/images/
2025-01-17 15:35:19,464 [INFO] DbMcusAds:85 - Set database path to: C:\Users\yh621\.stmcufinder\plugins\mcufinder//mcu/
2025-01-17 15:35:19,464 [INFO] DbMcusDocs:110 - Set database path to: C:\Users\yh621\.stmcufinder\plugins\mcufinder//mcu/
2025-01-17 15:35:19,480 [INFO] DbMcusJson:65 - Set database path to: C:\Users\yh621\.stmcufinder\plugins\mcufinder//mcu/
2025-01-17 15:35:19,480 [INFO] DbBoardsDocs:110 - Set database path to: C:\Users\yh621\.stmcufinder\plugins\mcufinder//mcu/
2025-01-17 15:35:19,480 [INFO] DbBoardsJson:58 - Set database path to: C:\Users\yh621\.stmcufinder\plugins\mcufinder//mcu/
2025-01-17 15:35:19,480 [INFO] CrossReferenceDbSqlite:196 - Set database path to: C:\Users\yh621\.stmcufinder\plugins\mcufinder//mcu/cs/
2025-01-17 15:35:19,480 [INFO] DbExamplesSqlite:690 - Set database path to: C:\Users\yh621\.stmcufinder\plugins\mcufinder//mcu/
2025-01-17 15:35:19,604 [INFO] RulesReader:52 - Compatibility file has been processed (237 Rules)
2025-01-17 15:35:19,726 [INFO] MicroXplorer:622 - Detected Java Version = 11.0.9.1
2025-01-17 15:35:19,726 [INFO] DbMcusXml:74 - Set database path to: D:\STM32CubeIDE_1.6.1\STM32CubeIDE\plugins\com.st.stm32cube.common.mx_6.2.1.202103241236\\db\/mcu/
2025-01-17 15:35:19,726 [INFO] DbBoardsPdsc:56 - Set plugin database path to: D:\STM32CubeIDE_1.6.1\STM32CubeIDE\plugins\com.st.stm32cube.common.mx_6.2.1.202103241236\\db\/plugins/boardmanager/
2025-01-17 15:35:19,726 [INFO] DbMcus:258 - Set plugin images path to: D:\STM32CubeIDE_1.6.1\STM32CubeIDE\plugins\com.st.stm32cube.common.mx_6.2.1.202103241236\\db\/plugins/mcufinder/images/
2025-01-17 15:35:19,726 [INFO] DbBoards:264 - Set plugin images path to: D:\STM32CubeIDE_1.6.1\STM32CubeIDE\plugins\com.st.stm32cube.common.mx_6.2.1.202103241236\\db\/plugins/mcufinder/images/
2025-01-17 15:35:19,726 [INFO] DbExamples:333 - Set plugin images path to: D:\STM32CubeIDE_1.6.1\STM32CubeIDE\plugins\com.st.stm32cube.common.mx_6.2.1.202103241236\\db\/plugins/mcufinder/images/
2025-01-17 15:35:19,726 [WARN] DbFile:35 - Overriding database path with different value: C:\Users\yh621\.stmcufinder\plugins\mcufinder/ => C:\Users\yh621\.stmcufinder\plugins\mcufinder
2025-01-17 15:35:19,726 [INFO] DbMcusAds:85 - Set database path to: C:\Users\yh621\.stmcufinder\plugins\mcufinder//mcu/
2025-01-17 15:35:19,726 [WARN] DbFile:35 - Overriding database path with different value: C:\Users\yh621\.stmcufinder\plugins\mcufinder/ => C:\Users\yh621\.stmcufinder\plugins\mcufinder
2025-01-17 15:35:19,726 [INFO] DbMcusDocs:110 - Set database path to: C:\Users\yh621\.stmcufinder\plugins\mcufinder//mcu/
2025-01-17 15:35:19,726 [WARN] DbFile:35 - Overriding database path with different value: C:\Users\yh621\.stmcufinder\plugins\mcufinder/ => C:\Users\yh621\.stmcufinder\plugins\mcufinder
2025-01-17 15:35:19,726 [INFO] DbMcusJson:65 - Set database path to: C:\Users\yh621\.stmcufinder\plugins\mcufinder//mcu/
2025-01-17 15:35:19,726 [WARN] DbFile:35 - Overriding database path with different value: C:\Users\yh621\.stmcufinder\plugins\mcufinder/ => C:\Users\yh621\.stmcufinder\plugins\mcufinder
2025-01-17 15:35:19,726 [INFO] DbBoardsDocs:110 - Set database path to: C:\Users\yh621\.stmcufinder\plugins\mcufinder//mcu/
2025-01-17 15:35:19,726 [WARN] DbFile:35 - Overriding database path with different value: C:\Users\yh621\.stmcufinder\plugins\mcufinder/ => C:\Users\yh621\.stmcufinder\plugins\mcufinder
2025-01-17 15:35:19,726 [INFO] DbBoardsJson:58 - Set database path to: C:\Users\yh621\.stmcufinder\plugins\mcufinder//mcu/
2025-01-17 15:35:19,726 [WARN] DbFile:35 - Overriding database path with different value: C:\Users\yh621\.stmcufinder\plugins\mcufinder/ => C:\Users\yh621\.stmcufinder\plugins\mcufinder
2025-01-17 15:35:19,726 [WARN] DbFile:35 - Overriding database path with different value: C:\Users\yh621\.stmcufinder\plugins\mcufinder/ => C:\Users\yh621\.stmcufinder\plugins\mcufinder
2025-01-17 15:35:19,726 [INFO] CrossReferenceDbSqlite:196 - Set database path to: C:\Users\yh621\.stmcufinder\plugins\mcufinder//mcu/cs/
2025-01-17 15:35:19,726 [WARN] DbFile:35 - Overriding database path with different value: C:\Users\yh621\.stmcufinder\plugins\mcufinder/ => C:\Users\yh621\.stmcufinder\plugins\mcufinder
2025-01-17 15:35:19,726 [INFO] DbExamplesSqlite:690 - Set database path to: C:\Users\yh621\.stmcufinder\plugins\mcufinder//mcu/
2025-01-17 15:35:19,801 [INFO] MainPanel:204 - HeapMemory: 268435456
2025-01-17 15:35:19,917 [INFO] DbMcusXml:74 - Set database path to: D:\STM32CubeIDE_1.6.1\STM32CubeIDE\plugins\com.st.stm32cube.common.mx_6.2.1.202103241236\\db\/mcu/
2025-01-17 15:35:19,917 [INFO] DbBoardsPdsc:56 - Set plugin database path to: D:\STM32CubeIDE_1.6.1\STM32CubeIDE\plugins\com.st.stm32cube.common.mx_6.2.1.202103241236\\db\/plugins/boardmanager/
2025-01-17 15:35:19,917 [INFO] DbMcus:258 - Set plugin images path to: D:\STM32CubeIDE_1.6.1\STM32CubeIDE\plugins\com.st.stm32cube.common.mx_6.2.1.202103241236\\db\/plugins/mcufinder/images/
2025-01-17 15:35:19,917 [INFO] DbBoards:264 - Set plugin images path to: D:\STM32CubeIDE_1.6.1\STM32CubeIDE\plugins\com.st.stm32cube.common.mx_6.2.1.202103241236\\db\/plugins/mcufinder/images/
2025-01-17 15:35:19,917 [INFO] DbExamples:333 - Set plugin images path to: D:\STM32CubeIDE_1.6.1\STM32CubeIDE\plugins\com.st.stm32cube.common.mx_6.2.1.202103241236\\db\/plugins/mcufinder/images/
2025-01-17 15:35:19,917 [WARN] DbFile:35 - Overriding database path with different value: C:\Users\yh621\.stmcufinder\plugins\mcufinder/ => C:\Users\yh621\.stmcufinder\plugins\mcufinder
2025-01-17 15:35:19,917 [INFO] DbMcusAds:85 - Set database path to: C:\Users\yh621\.stmcufinder\plugins\mcufinder//mcu/
2025-01-17 15:35:19,917 [WARN] DbFile:35 - Overriding database path with different value: C:\Users\yh621\.stmcufinder\plugins\mcufinder/ => C:\Users\yh621\.stmcufinder\plugins\mcufinder
2025-01-17 15:35:19,917 [INFO] DbMcusDocs:110 - Set database path to: C:\Users\yh621\.stmcufinder\plugins\mcufinder//mcu/
2025-01-17 15:35:19,917 [WARN] DbFile:35 - Overriding database path with different value: C:\Users\yh621\.stmcufinder\plugins\mcufinder/ => C:\Users\yh621\.stmcufinder\plugins\mcufinder
2025-01-17 15:35:19,917 [INFO] DbMcusJson:65 - Set database path to: C:\Users\yh621\.stmcufinder\plugins\mcufinder//mcu/
2025-01-17 15:35:19,917 [WARN] DbFile:35 - Overriding database path with different value: C:\Users\yh621\.stmcufinder\plugins\mcufinder/ => C:\Users\yh621\.stmcufinder\plugins\mcufinder
2025-01-17 15:35:19,917 [INFO] DbBoardsDocs:110 - Set database path to: C:\Users\yh621\.stmcufinder\plugins\mcufinder//mcu/
2025-01-17 15:35:19,917 [WARN] DbFile:35 - Overriding database path with different value: C:\Users\yh621\.stmcufinder\plugins\mcufinder/ => C:\Users\yh621\.stmcufinder\plugins\mcufinder
2025-01-17 15:35:19,917 [INFO] DbBoardsJson:58 - Set database path to: C:\Users\yh621\.stmcufinder\plugins\mcufinder//mcu/
2025-01-17 15:35:19,917 [WARN] DbFile:35 - Overriding database path with different value: C:\Users\yh621\.stmcufinder\plugins\mcufinder/ => C:\Users\yh621\.stmcufinder\plugins\mcufinder
2025-01-17 15:35:19,917 [WARN] DbFile:35 - Overriding database path with different value: C:\Users\yh621\.stmcufinder\plugins\mcufinder/ => C:\Users\yh621\.stmcufinder\plugins\mcufinder
2025-01-17 15:35:19,917 [INFO] CrossReferenceDbSqlite:196 - Set database path to: C:\Users\yh621\.stmcufinder\plugins\mcufinder//mcu/cs/
2025-01-17 15:35:19,917 [WARN] DbFile:35 - Overriding database path with different value: C:\Users\yh621\.stmcufinder\plugins\mcufinder/ => C:\Users\yh621\.stmcufinder\plugins\mcufinder
2025-01-17 15:35:19,917 [INFO] DbExamplesSqlite:690 - Set database path to: C:\Users\yh621\.stmcufinder\plugins\mcufinder//mcu/
2025-01-17 15:35:19,933 [INFO] ApplicationProperties:181 - Using Application install path: D:\STM32CubeIDE_1.6.1\STM32CubeIDE\plugins\com.st.stm32cube.common.mx_6.2.1.202103241236
2025-01-17 15:35:19,933 [INFO] PluginManage:178 - Search for loadable plugins [exclusion list=, ]
2025-01-17 15:35:19,933 [INFO] PluginManage:292 - Check plugin analytics
2025-01-17 15:35:20,080 [INFO] AnalyticsPlugin:233 - Accepted Software Licenses: STM32CubeMX.6.2.1,STM32CubeMX.5.6.1,STM32CubeMX.6.6.1,STM32CubeMX.5.3.0,STM32CubeMX.6.5.0
2025-01-17 15:35:20,080 [INFO] AnalyticsPlugin:235 - Accepted CMSIS Pack Licenses: STMicroelectronics.X-CUBE-AI.7.3.0
2025-01-17 15:35:20,085 [INFO] AnalyticsPlugin:237 - Accepted Firmware Licenses: 
2025-01-17 15:35:20,085 [INFO] PluginManage:342 - Loaded plugin analytics (category:tool,tabindex:-1)
2025-01-17 15:35:20,085 [INFO] PluginManage:292 - Check plugin clock
2025-01-17 15:35:20,102 [INFO] PluginManage:342 - Loaded plugin clock (category:base,tabindex:2)
2025-01-17 15:35:20,102 [INFO] PluginManage:292 - Check plugin ddr
2025-01-17 15:35:20,102 [INFO] PluginManage:342 - Loaded plugin ddr (category:tool,tabindex:6)
2025-01-17 15:35:20,102 [INFO] PluginManage:292 - Check plugin filemanager
2025-01-17 15:35:20,229 [INFO] PluginManage:342 - Loaded plugin filemanager (category:base,tabindex:10)
2025-01-17 15:35:20,229 [INFO] PluginManage:292 - Check plugin ipmanager
2025-01-17 15:35:20,229 [INFO] PluginManage:342 - Loaded plugin ipmanager (category:base,tabindex:5)
2025-01-17 15:35:20,229 [INFO] PluginManage:292 - Check plugin pinoutandconfiguration
2025-01-17 15:35:20,260 [INFO] PluginManage:342 - Loaded plugin pinoutandconfiguration (category:base,tabindex:1)
2025-01-17 15:35:20,260 [INFO] PluginManage:292 - Check plugin pinoutconfig
2025-01-17 15:35:20,292 [INFO] PluginManage:342 - Loaded plugin pinoutconfig (category:base,tabindex:0)
2025-01-17 15:35:20,292 [INFO] PluginManage:292 - Check plugin power
2025-01-17 15:35:20,302 [INFO] PluginManage:342 - Loaded plugin power (category:power,tabindex:4)
2025-01-17 15:35:20,302 [INFO] PluginManage:292 - Check plugin projectmanager
2025-01-17 15:35:20,328 [INFO] PluginManage:342 - Loaded plugin projectmanager (category:projectmanager,tabindex:3)
2025-01-17 15:35:20,328 [INFO] PluginManage:292 - Check plugin thirdparty
2025-01-17 15:35:20,603 [INFO] PluginManage:342 - Loaded plugin thirdparty (category:base,tabindex:-1)
2025-01-17 15:35:20,603 [INFO] PluginManage:292 - Check plugin tools
2025-01-17 15:35:20,603 [WARN] IntegrityCheckThread:59 - waiting for thirdparty lock release [integrity check]
2025-01-17 15:35:20,615 [INFO] IntegrityCheckThread:61 - entering critical section [integrity check]
2025-01-17 15:35:20,616 [INFO] ThirdPartyUpdaterWithRetryManager:56 - Updater plugin not ready yet. [1/15]
2025-01-17 15:35:20,703 [INFO] PluginManage:342 - Loaded plugin tools (category:base,tabindex:7)
2025-01-17 15:35:20,703 [INFO] PluginManage:292 - Check plugin tutovideos
2025-01-17 15:35:20,967 [INFO] PluginManage:342 - Loaded plugin tutovideos (category:base,tabindex:-1)
2025-01-17 15:35:20,967 [INFO] PluginManage:292 - Check plugin updater
2025-01-17 15:35:20,985 [INFO] PluginManage:342 - Loaded plugin updater (category:base,tabindex:12)
2025-01-17 15:35:20,985 [INFO] PluginManage:265 - PluginManage : Loaded plugins [13]
2025-01-17 15:35:21,158 [INFO] PinOutPanel:1435 - setPackage(No Configuration,No Configuration)
2025-01-17 15:35:21,235 [INFO] IPUIPlugin:64 - create IPUIPlugin
2025-01-17 15:35:21,235 [INFO] PluginManager:203 - loadIPPluginJar : add adc
2025-01-17 15:35:21,297 [INFO] IPUIPlugin:64 - create IPUIPlugin
2025-01-17 15:35:21,297 [INFO] PluginManager:203 - loadIPPluginJar : add aes
2025-01-17 15:35:21,366 [INFO] IPUIPlugin:64 - create IPUIPlugin
2025-01-17 15:35:21,366 [INFO] PluginManager:203 - loadIPPluginJar : add can
2025-01-17 15:35:21,420 [INFO] IPUIPlugin:64 - create IPUIPlugin
2025-01-17 15:35:21,420 [INFO] PluginManager:203 - loadIPPluginJar : add comp
2025-01-17 15:35:21,482 [INFO] IPUIPlugin:64 - create IPUIPlugin
2025-01-17 15:35:21,482 [INFO] PluginManager:203 - loadIPPluginJar : add cryp
2025-01-17 15:35:21,551 [INFO] IPUIPlugin:64 - create IPUIPlugin
2025-01-17 15:35:21,551 [INFO] PluginManager:203 - loadIPPluginJar : add dfsdm
2025-01-17 15:35:21,567 [INFO] IPUIPlugin:64 - create IPUIPlugin
2025-01-17 15:35:21,567 [INFO] PluginManager:203 - loadIPPluginJar : add dma
2025-01-17 15:35:21,604 [INFO] IPUIPlugin:64 - create IPUIPlugin
2025-01-17 15:35:21,604 [INFO] PluginManager:203 - loadIPPluginJar : add fatfs
2025-01-17 15:35:21,684 [INFO] IPUIPlugin:64 - create IPUIPlugin
2025-01-17 15:35:21,684 [INFO] PluginManager:203 - loadIPPluginJar : add fmc
2025-01-17 15:35:21,705 [INFO] IPUIPlugin:64 - create IPUIPlugin
2025-01-17 15:35:21,705 [INFO] PluginManager:203 - loadIPPluginJar : add freertos
2025-01-17 15:35:21,752 [INFO] IPUIPlugin:64 - create IPUIPlugin
2025-01-17 15:35:21,752 [INFO] PluginManager:203 - loadIPPluginJar : add genericplugin
2025-01-17 15:35:21,905 [INFO] IPUIPlugin:64 - create IPUIPlugin
2025-01-17 15:35:21,905 [INFO] PluginManager:203 - loadIPPluginJar : add gfxmmu
2025-01-17 15:35:22,083 [INFO] IPUIPlugin:64 - create IPUIPlugin
2025-01-17 15:35:22,083 [INFO] PluginManager:203 - loadIPPluginJar : add gic
2025-01-17 15:35:22,106 [INFO] IPUIPlugin:64 - create IPUIPlugin
2025-01-17 15:35:22,106 [INFO] PluginManager:203 - loadIPPluginJar : add gpio
2025-01-17 15:35:22,206 [INFO] IPUIPlugin:64 - create IPUIPlugin
2025-01-17 15:35:22,206 [INFO] PluginManager:203 - loadIPPluginJar : add gtzc
2025-01-17 15:35:22,268 [INFO] IPUIPlugin:64 - create IPUIPlugin
2025-01-17 15:35:22,268 [INFO] PluginManager:203 - loadIPPluginJar : add hash
2025-01-17 15:35:22,353 [INFO] IPUIPlugin:64 - create IPUIPlugin
2025-01-17 15:35:22,353 [INFO] PluginManager:203 - loadIPPluginJar : add i2c
2025-01-17 15:35:22,437 [INFO] IPUIPlugin:64 - create IPUIPlugin
2025-01-17 15:35:22,437 [INFO] PluginManager:203 - loadIPPluginJar : add i2s
2025-01-17 15:35:22,469 [INFO] IPUIPlugin:64 - create IPUIPlugin
2025-01-17 15:35:22,469 [INFO] PluginManager:203 - loadIPPluginJar : add ipddr
2025-01-17 15:35:22,522 [INFO] IPUIPlugin:64 - create IPUIPlugin
2025-01-17 15:35:22,522 [INFO] PluginManager:203 - loadIPPluginJar : add lorawan
2025-01-17 15:35:22,600 [INFO] IPUIPlugin:64 - create IPUIPlugin
2025-01-17 15:35:22,600 [INFO] PluginManager:203 - loadIPPluginJar : add ltdc
2025-01-17 15:35:22,606 [INFO] IPUIPlugin:64 - create IPUIPlugin
2025-01-17 15:35:22,606 [INFO] PluginManager:203 - loadIPPluginJar : add mdma
2025-01-17 15:35:22,622 [INFO] IPUIPlugin:64 - create IPUIPlugin
2025-01-17 15:35:22,622 [INFO] PluginManager:203 - loadIPPluginJar : add nvic
2025-01-17 15:35:22,685 [INFO] IPUIPlugin:64 - create IPUIPlugin
2025-01-17 15:35:22,685 [INFO] PluginManager:203 - loadIPPluginJar : add opamp
2025-01-17 15:35:22,780 [INFO] IPUIPlugin:64 - create IPUIPlugin
2025-01-17 15:35:22,780 [INFO] PluginManager:203 - loadIPPluginJar : add openamp
2025-01-17 15:35:22,854 [INFO] IPUIPlugin:64 - create IPUIPlugin
2025-01-17 15:35:22,854 [INFO] PluginManager:203 - loadIPPluginJar : add pdm2pcm
2025-01-17 15:35:22,870 [INFO] IPUIPlugin:64 - create IPUIPlugin
2025-01-17 15:35:22,870 [INFO] PluginManager:203 - loadIPPluginJar : add plateformsettings
2025-01-17 15:35:22,923 [INFO] IPUIPlugin:64 - create IPUIPlugin
2025-01-17 15:35:22,923 [INFO] PluginManager:203 - loadIPPluginJar : add quadspi
2025-01-17 15:35:22,923 [INFO] IPUIPlugin:64 - create IPUIPlugin
2025-01-17 15:35:22,923 [INFO] PluginManager:203 - loadIPPluginJar : add resmgrutility
2025-01-17 15:35:23,007 [INFO] IPUIPlugin:64 - create IPUIPlugin
2025-01-17 15:35:23,007 [INFO] PluginManager:203 - loadIPPluginJar : add sai
2025-01-17 15:35:23,070 [INFO] IPUIPlugin:64 - create IPUIPlugin
2025-01-17 15:35:23,070 [INFO] PluginManager:203 - loadIPPluginJar : add spi
2025-01-17 15:35:23,139 [INFO] IPUIPlugin:64 - create IPUIPlugin
2025-01-17 15:35:23,139 [INFO] PluginManager:203 - loadIPPluginJar : add stm32_wpan
2025-01-17 15:35:23,186 [INFO] IPUIPlugin:64 - create IPUIPlugin
2025-01-17 15:35:23,186 [INFO] PluginManager:203 - loadIPPluginJar : add tim
2025-01-17 15:35:23,285 [INFO] IPUIPlugin:64 - create IPUIPlugin
2025-01-17 15:35:23,285 [INFO] PluginManager:203 - loadIPPluginJar : add touchsensing
2025-01-17 15:35:23,324 [INFO] IPUIPlugin:64 - create IPUIPlugin
2025-01-17 15:35:23,324 [INFO] PluginManager:203 - loadIPPluginJar : add tracer_emb
2025-01-17 15:35:23,371 [INFO] IPUIPlugin:64 - create IPUIPlugin
2025-01-17 15:35:23,371 [INFO] PluginManager:203 - loadIPPluginJar : add ts
2025-01-17 15:35:23,424 [INFO] IPUIPlugin:64 - create IPUIPlugin
2025-01-17 15:35:23,424 [INFO] PluginManager:203 - loadIPPluginJar : add tsc
2025-01-17 15:35:23,471 [INFO] IPUIPlugin:64 - create IPUIPlugin
2025-01-17 15:35:23,471 [INFO] PluginManager:203 - loadIPPluginJar : add ucpd
2025-01-17 15:35:23,524 [INFO] IPUIPlugin:64 - create IPUIPlugin
2025-01-17 15:35:23,524 [INFO] PluginManager:203 - loadIPPluginJar : add usart
2025-01-17 15:35:23,618 [INFO] ThirdPartyUpdaterWithRetryManager:56 - Updater plugin not ready yet. [2/15]
2025-01-17 15:35:23,809 [FATAL] Updater:284 - Updater called before beeing initialized
2025-01-17 15:35:23,909 [FATAL] Updater:284 - Updater called before beeing initialized
2025-01-17 15:35:23,925 [INFO] DbMcusAds:132 - JSON generation date=Tue Dec 17 16:01:15 GMT 2024 (1734451275143)
2025-01-17 15:35:23,925 [FATAL] Updater:284 - Updater called before beeing initialized
2025-01-17 15:35:24,009 [WARN] DetailPanel:315 - Failed to get advertising image, set to default
2025-01-17 15:35:24,178 [FATAL] Updater:284 - Updater called before beeing initialized
2025-01-17 15:35:24,193 [FATAL] Updater:284 - Updater called before beeing initialized
2025-01-17 15:35:24,193 [FATAL] Updater:284 - Updater called before beeing initialized
2025-01-17 15:35:24,193 [WARN] DetailPanel:315 - Failed to get advertising image, set to default
2025-01-17 15:35:24,193 [FATAL] Updater:284 - Updater called before beeing initialized
2025-01-17 15:35:24,224 [FATAL] Updater:284 - Updater called before beeing initialized
2025-01-17 15:35:24,224 [WARN] ThirdParty:796 - waiting for thirdparty lock release [close project]
2025-01-17 15:35:26,630 [FATAL] Updater:284 - Updater called before beeing initialized
2025-01-17 15:35:26,630 [ERROR] AbstractThirdPartyUpdaterManager:153 - class java.lang.Integer cannot be cast to class java.util.List (java.lang.Integer and java.util.List are in module java.base of loader 'bootstrap')
2025-01-17 15:35:26,630 [INFO] ThirdParty:900 - Integrity check success = false
2025-01-17 15:35:26,630 [INFO] IntegrityCheckThread:75 - exiting critical section [integrity check]
2025-01-17 15:35:26,630 [INFO] IntegrityCheckThread:78 - End integrity checks thread
2025-01-17 15:35:26,630 [INFO] ThirdParty:798 - entering critical section [close project]
2025-01-17 15:35:26,630 [INFO] ThirdParty:809 - exiting critical section [close project]
2025-01-17 15:35:26,635 [INFO] PinOutPanel:1435 - setPackage(No Configuration,No Configuration)
2025-01-17 15:35:26,635 [FATAL] Updater:284 - Updater called before beeing initialized
2025-01-17 15:35:26,635 [ERROR] Updater:1065 - MainUpdater not yet initialized. External WinMGr cannot be set.
2025-01-17 15:35:26,665 [INFO] Updater:1002 - Updater Version found : 6.2.1
2025-01-17 15:35:26,671 [INFO] ApplicationProperties:181 - Using Application install path: D:\STM32CubeIDE_1.6.1\STM32CubeIDE\plugins\com.st.stm32cube.common.mx_6.2.1.202103241236
2025-01-17 15:35:27,079 [INFO] MainUpdater:2661 - connection check result : 10
2025-01-17 15:35:27,079 [INFO] MainUpdater:255 - Updater Check For Update Now.
2025-01-17 15:35:27,079 [INFO] MicroXplorer:472 - Change Database Version : DB.6.0.21
2025-01-17 15:35:27,192 [INFO] CheckServerUpdateThread:102 - End of CheckServer Thread
2025-01-17 15:35:27,225 [INFO] MainUpdater:2661 - connection check result : 10
2025-01-17 15:35:27,797 [INFO] CrossSelectorPresenter:1330 - Cross Selector saved comparison directory: C:\Users\yh621\.stmcufinder\plugins\mcufinder\mcu\cs_comparisons_mx
2025-01-17 15:35:27,797 [INFO] MultiScanPanel:200 - Auto-refresh data requested => check proxy status ongoing
2025-01-17 15:35:27,812 [INFO] FinderPluginLoader:87 - Searching for filters in installed packs
2025-01-17 15:35:27,812 [INFO] FinderPluginLoader:100 - Found C:\Users\yh621\STM32Cube\Repository\Packs\STMicroelectronics\X-CUBE-AI\8.0.1\CubeMX\plugins\ip\ai.8.0.1.jar
2025-01-17 15:35:27,828 [INFO] FinderPluginLoader:100 - Found C:\Users\yh621\STM32Cube\Repository\Packs\STMicroelectronics\X-CUBE-AI\8.0.0\CubeMX\plugins\ip\ai.8.0.0.jar
2025-01-17 15:35:27,828 [INFO] FinderPluginLoader:100 - Found C:\Users\yh621\STM32Cube\Repository\Packs\STMicroelectronics\X-CUBE-AI\7.3.0\CubeMX\plugins\ip\ai.7.3.0.jar
2025-01-17 15:35:27,828 [INFO] FinderPluginLoader:100 - Found C:\Users\yh621\STM32Cube\Repository\Packs\STMicroelectronics\X-CUBE-AI\7.0.0\CubeMX\plugins\ip\ai.7.0.0.jar
2025-01-17 15:35:27,828 [INFO] FinderPluginLoader:100 - Found C:\Users\yh621\STM32Cube\Repository\Packs\STMicroelectronics\X-CUBE-AI\6.0.0\CubeMX\plugins\ip\ai.6.0.0.jar
2025-01-17 15:35:27,828 [INFO] FinderPluginLoader:100 - Found C:\Users\yh621\STM32Cube\Repository\Packs\STMicroelectronics\X-CUBE-AI\5.2.0\CubeMX\plugins\ip\ai.5.2.0.jar
2025-01-17 15:35:27,828 [INFO] FinderPluginLoader:100 - Found C:\Users\yh621\STM32Cube\Repository\Packs\STMicroelectronics\X-CUBE-AI\5.1.2\CubeMX\plugins\ip\ai.5.1.2.jar
2025-01-17 15:35:27,828 [INFO] FinderPluginLoader:110 - Loading ai.8.0.1
2025-01-17 15:35:27,892 [INFO] McuExtendedFiltersManager:89 - Add MCU extended filter: Artificial Intelligence
2025-01-17 15:35:27,896 [INFO] DbMcusXml:100 - Load MCU database from D:\STM32CubeIDE_1.6.1\STM32CubeIDE\plugins\com.st.stm32cube.common.mx_6.2.1.202103241236\\db\/mcu/families.xml
2025-01-17 15:35:28,545 [INFO] DbMcusJson:94 - JSON generation date=Tue Nov 16 16:17:54 GMT 2021 (1637079474)
2025-01-17 15:35:29,087 [INFO] DbMcus:175 - Found 1906 MCUs (1866 are supported by CubeMX, 1920 are visible in CubeMX)
2025-01-17 15:35:29,103 [INFO] ApiDb:251 - Load user favorites file C:\Users\yh621/.stm32cubeide/favorites.mcus.txt: 0 item(s)
2025-01-17 15:35:29,103 [INFO] ApiDb:255 - User favorites MCUs=[]
2025-01-17 15:35:29,103 [INFO] DbMcus:187 - Set 0 / 0 favorites MCUs
2025-01-17 15:35:29,233 [INFO] AInterface:109 - AInterface using toolDir: C:/Users/yh621/STM32Cube/Repository//Packs/STMicroelectronics/X-CUBE-AI/8.0.1/Utilities/windows
2025-01-17 15:35:29,526 [INFO] DetailPanel:310 - Set advertising image to C:/Users/yh621/STM32Cube/Repository/\en.prom-stm32n6-mcu-finder.png
2025-01-17 15:35:29,911 [INFO] DbBoardsPdsc:90 - Found 24 items
2025-01-17 15:35:29,927 [INFO] DbBoardsPdsc:90 - Found 9 items
2025-01-17 15:35:29,947 [INFO] DbBoardsPdsc:90 - Found 33 items
2025-01-17 15:35:29,963 [INFO] DbBoardsPdsc:90 - Found 1 items
2025-01-17 15:35:29,986 [INFO] DbBoardsPdsc:90 - Found 46 items
2025-01-17 15:35:29,999 [INFO] DbBoardsPdsc:90 - Found 41 items
2025-01-17 15:35:30,015 [INFO] DbBoardsPdsc:90 - Found 2 items
2025-01-17 15:35:30,031 [INFO] DbBoardsPdsc:90 - Found 5 items
2025-01-17 15:35:30,031 [WARN] DbBoardsPdsc:254 - Board NUCLEO-WB15CC: unknown feature type=, name=, username=Three user LEDs, n=1
2025-01-17 15:35:30,031 [WARN] DbBoardsPdsc:254 - Board NUCLEO-WB15CC: unknown feature type=, name=, username=One reset and three user push-buttons, n=1
2025-01-17 15:35:30,031 [WARN] DbBoardsPdsc:254 - Board NUCLEO-WB15CC: unknown feature type=, name=, username=Arduino Uno V3 expansion connector, n=1
2025-01-17 15:35:30,031 [WARN] DbBoardsPdsc:254 - Board NUCLEO-WB15CC: unknown feature type=, name=, username=ST morpho extension pin headers for full access to all STM32WB I/Os, n=1
2025-01-17 15:35:30,031 [WARN] DbBoardsPdsc:254 - Board NUCLEO-WB15CC: unknown feature type=, name=, username=Integrated PCB antenna and SMA connector footprint, n=1
2025-01-17 15:35:30,031 [WARN] DbBoardsPdsc:254 - Board NUCLEO-WB15CC: unknown feature type=, name=, username=Flexible power-supply options: ST-LINK, USB VBUS, or external sources, n=1
2025-01-17 15:35:30,031 [WARN] DbBoardsPdsc:254 - Board NUCLEO-WB15CC: unknown feature type=, name=, username=On-board footprint to mount a CR2032 battery socket, n=1
2025-01-17 15:35:30,031 [WARN] DbBoardsPdsc:254 - Board NUCLEO-WB15CC: unknown feature type=, name=, username=On-board ST-LINK/V2-1 debugger/programmer with USB re-enumeration capability: mass storage, Virtual COM port, and debug port, n=1
2025-01-17 15:35:30,031 [WARN] DbBoardsPdsc:254 - Board NUCLEO-WB15CC: unknown feature type=, name=, username=Comprehensive free software libraries and examples available with the STM32CubeWB MCU Package, n=1
2025-01-17 15:35:30,031 [WARN] DbBoardsPdsc:254 - Board NUCLEO-WB15CC: unknown feature type=, name=, username=Support of a wide choice of Integrated Development Environments (IDEs) including IAR Embedded Workbench, MDK-ARM, STM32CubeIDE, and Mbed Studio, n=1
2025-01-17 15:35:30,031 [WARN] DbBoardsPdsc:254 - Board STM32H7B3I-DK: unknown feature type=Audio, name=, username=Audio stereo codec with Headphone Amp (CS42L51-CNZ), n=1
2025-01-17 15:35:30,031 [WARN] DbBoardsPdsc:254 - Board STM32H735G-DK: unknown feature type=Audio, name=, username=Audio stereo codec with Headphone Amp (WM8994ECS/R), n=1
2025-01-17 15:35:30,031 [WARN] DbBoardsPdsc:254 - Board STM32WB5MM-DK: unknown feature type=, name=, username=Time-of-Flight and gesture-detection sensor, n=1
2025-01-17 15:35:30,031 [WARN] DbBoardsPdsc:254 - Board STM32WB5MM-DK: unknown feature type=, name=, username=3 push-buttons (2 users and 1 reset) and 1 touch key button, n=1
2025-01-17 15:35:30,031 [WARN] DbBoardsPdsc:254 - Board STM32WB5MM-DK: unknown feature type=, name=, username=Flexible power-supply options: ST-LINK/V2-1 USB connector, 5 V delivered by ARDUINO® or external connector, USB charger, or USB power, n=1
2025-01-17 15:35:30,031 [WARN] DbBoardsPdsc:254 - Board STM32WB5MM-DK: unknown feature type=, name=, username=On-board ST-LINK/V2-1 debugger/programmer with USB re-enumeration capability: Virtual COM port and debug port, n=1
2025-01-17 15:35:30,031 [WARN] DbBoardsPdsc:254 - Board STM32WB5MM-DK: unknown feature type=, name=, username=Comprehensive free software libraries and examples available with the STM32CubeWB MCU Package, n=1
2025-01-17 15:35:30,031 [WARN] DbBoardsPdsc:254 - Board STM32WB5MM-DK: unknown feature type=, name=, username=Support of a wide choice of Integrated Development Environments (IDEs) including IAR Embedded Workbench®, MDK-ARM, and STM32CubeIDE, n=1
2025-01-17 15:35:30,031 [WARN] DbBoardsPdsc:254 - Board STM32H7B3I-EVAL: unknown feature type=Audio, name=, username=Multi-Channel Audio Codec (CS42L51-CNZ), n=1
2025-01-17 15:35:30,031 [WARN] DbBoardsPdsc:254 - Board STM32H7B3I-EVAL: unknown feature type=Meter, name=, username=Power-metering and Temperature-monitoring with sigma-delta modulators, n=1
2025-01-17 15:35:30,031 [WARN] DbBoardsPdsc:254 - Board STM32H7B3I-EVAL: unknown feature type=Motor, name=, username=Motor Control, n=1
2025-01-17 15:35:30,078 [INFO] DbBoardsJson:87 - JSON generation date=Tue Nov 16 16:17:54 GMT 2021 (1637079474)
2025-01-17 15:35:30,078 [INFO] DbBoards:117 - Found 167 boards (158 are supported by CubeMX)
2025-01-17 15:35:30,094 [INFO] DbBoardsDocs:143 - JSON generation date=Tue Nov 16 16:17:54 GMT 2021 (1637079474)
2025-01-17 15:35:30,094 [INFO] DbBoardsDocs:79 - Found 209 boards documents
2025-01-17 15:35:30,094 [WARN] DbBoards:127 - board B-L475E-IOT01A2 has no document id list !
2025-01-17 15:35:30,094 [WARN] DbBoards:127 - board NUCLEO-H743ZI has no document id list !
2025-01-17 15:35:30,094 [WARN] DbBoards:127 - board NUCLEO-WL55JC2 has no document id list !
2025-01-17 15:35:30,094 [WARN] DbBoards:127 - board P-NUCLEO-WB55-Nucleo has no document id list !
2025-01-17 15:35:30,094 [WARN] DbBoards:127 - board P-NUCLEO-WB55-USBDongle has no document id list !
2025-01-17 15:35:30,094 [WARN] DbBoards:127 - board STEVAL-BFA001V1B has no document id list !
2025-01-17 15:35:30,094 [WARN] DbBoards:127 - board STEVAL-BFA001V2B has no document id list !
2025-01-17 15:35:30,094 [WARN] DbBoards:127 - board STEVAL-IDP005V1 has no document id list !
2025-01-17 15:35:30,094 [WARN] DbBoards:127 - board STEVAL-IDP005V2 has no document id list !
2025-01-17 15:35:30,094 [WARN] DbBoards:127 - board STEVAL-MKSBOX1V1 has no document id list !
2025-01-17 15:35:30,094 [WARN] DbBoards:127 - board STEVAL-STWINKT1 has no document id list !
2025-01-17 15:35:30,094 [WARN] DbBoards:127 - board STEVAL-STWINKT1B has no document id list !
2025-01-17 15:35:30,094 [WARN] DbBoards:127 - board STM32439I-EVAL2 has no document id list !
2025-01-17 15:35:30,094 [WARN] DbBoards:127 - board STM32F401C-DISCO has no document id list !
2025-01-17 15:35:30,094 [WARN] DbBoards:127 - board STM32F769I-DISC1 has no document id list !
2025-01-17 15:35:30,094 [WARN] DbBoards:127 - board STM32G474E-EVAL1 has no document id list !
2025-01-17 15:35:30,094 [WARN] DbBoards:127 - board STM32H743I-EVAL2 has no document id list !
2025-01-17 15:35:30,094 [WARN] DbBoards:127 - board STM32H747I-DISC1 has no document id list !
2025-01-17 15:35:30,094 [WARN] DbBoards:127 - board STM32H753I-EVAL2 has no document id list !
2025-01-17 15:35:30,094 [WARN] DbBoards:127 - board STM32L-DISCOVERY has no document id list !
2025-01-17 15:35:30,226 [ERROR] DbBoards:189 - Image file not found for board B-U585I-IOT02A: D:\STM32CubeIDE_1.6.1\STM32CubeIDE\plugins\com.st.stm32cube.common.mx_6.2.1.202103241236\\db\/plugins/mcufinder/images/boards/B-U585I-IOT02A_small.jpg
2025-01-17 15:35:30,326 [ERROR] DbBoards:189 - Image file not found for board NUCLEO-F413ZH: D:\STM32CubeIDE_1.6.1\STM32CubeIDE\plugins\com.st.stm32cube.common.mx_6.2.1.202103241236\\db\/plugins/mcufinder/images/boards/nucleo-f413zh_small.jpg
2025-01-17 15:35:30,479 [ERROR] DbBoards:189 - Image file not found for board NUCLEO-L552ZE-Q: D:\STM32CubeIDE_1.6.1\STM32CubeIDE\plugins\com.st.stm32cube.common.mx_6.2.1.202103241236\\db\/plugins/mcufinder/images/boards/nucleo_l552ze_q_small.jpg
2025-01-17 15:35:30,479 [ERROR] DbBoards:189 - Image file not found for board NUCLEO-U575ZI-Q: D:\STM32CubeIDE_1.6.1\STM32CubeIDE\plugins\com.st.stm32cube.common.mx_6.2.1.202103241236\\db\/plugins/mcufinder/images/boards/nucleo-u575zi-q_small.jpg
2025-01-17 15:35:30,479 [ERROR] DbBoards:189 - Image file not found for board NUCLEO-WB15CC: D:\STM32CubeIDE_1.6.1\STM32CubeIDE\plugins\com.st.stm32cube.common.mx_6.2.1.202103241236\\db\/plugins/mcufinder/images/boards/nucleo-wb15cc_small.jpg
2025-01-17 15:35:30,479 [ERROR] DbBoards:189 - Image file not found for board NUCLEO-WB55RG: D:\STM32CubeIDE_1.6.1\STM32CubeIDE\plugins\com.st.stm32cube.common.mx_6.2.1.202103241236\\db\/plugins/mcufinder/images/boards/nucleo-wb55rg_small.jpg
2025-01-17 15:35:31,779 [ERROR] DbBoards:189 - Image file not found for board STM32U575I-EV: D:\STM32CubeIDE_1.6.1\STM32CubeIDE\plugins\com.st.stm32cube.common.mx_6.2.1.202103241236\\db\/plugins/mcufinder/images/boards/stm32u575i-ev_small.jpg
2025-01-17 15:35:31,850 [INFO] ApiDb:251 - Load user favorites file C:\Users\yh621/.stm32cubeide/favorites.boards.txt: 0 item(s)
2025-01-17 15:35:31,850 [INFO] ApiDb:255 - User favorites Boards=[]
2025-01-17 15:35:31,850 [INFO] DbBoards:206 - Set 0 / 0 favorites Boards
2025-01-17 15:35:47,595 [INFO] DbMcusDocs:143 - JSON generation date=Tue Nov 16 16:17:54 GMT 2021 (1637079474)
2025-01-17 15:35:47,836 [INFO] DbMcusDocs:79 - Found 682 MCUs documents
2025-01-17 15:35:50,097 [INFO] McuResultTable:743 - Mark MCU STM32H7A3ZITxQ as favorite
2025-01-17 15:36:03,490 [INFO] MainUpdater:2661 - connection check result : 10
2025-01-17 15:36:03,490 [INFO] MainUpdater:2661 - connection check result : 10
2025-01-17 15:36:03,557 [INFO] MicroXplorer:442 - Change Database Path : 
2025-01-17 15:36:03,557 [INFO] MicroXplorer:472 - Change Database Version : DB.6.0.21
2025-01-17 15:36:03,557 [WARN] ThirdParty:796 - waiting for thirdparty lock release [close project]
2025-01-17 15:36:03,557 [INFO] ThirdParty:798 - entering critical section [close project]
2025-01-17 15:36:03,557 [INFO] ThirdParty:809 - exiting critical section [close project]
2025-01-17 15:36:03,562 [INFO] PinOutPanel:1435 - setPackage(No Configuration,No Configuration)
2025-01-17 15:36:03,563 [INFO] UtilMem:74 - Begin LoadConfig() Used Memory: 494107496 Bytes (598736896)
2025-01-17 15:36:03,563 [INFO] MicroXplorer:442 - Change Database Path : 
2025-01-17 15:36:03,563 [INFO] MicroXplorer:472 - Change Database Version : DB.6.0.21
2025-01-17 15:36:03,563 [INFO] OpenFileManager:303 - Change cursor
2025-01-17 15:36:03,579 [WARN] IntegrityCheckThread:59 - waiting for thirdparty lock release [integrity check]
2025-01-17 15:36:03,579 [INFO] IntegrityCheckThread:61 - entering critical section [integrity check]
2025-01-17 15:36:03,735 [ERROR] Engine:519 - C:\Users\yh621\.stm32cubemx\thirdparties\pdsc\STMicroelectronics.FP-SNS-MOTENVWB1.1.4.0.pdsc: PDSC version is not supported
2025-01-17 15:36:03,786 [WARN] PackLoader:226 - Cannot read IP mode file for STMicroelectronics.FP-ATR-ASTRA1.2.0.1
2025-01-17 15:36:03,812 [ERROR] Engine:519 - C:\Users\yh621\.stm32cubemx\thirdparties\pdsc\STMicroelectronics.X-CUBE-SMBUS.2.1.0.pdsc: PDSC version is not supported
2025-01-17 15:36:03,847 [WARN] PackLoader:226 - Cannot read IP mode file for STMicroelectronics.X-CUBE-WB05N.1.1.0
2025-01-17 15:36:03,888 [WARN] PackLoader:226 - Cannot read IP mode file for STMicroelectronics.X-CUBE-AZRTOS-F7.1.1.0
2025-01-17 15:36:03,937 [WARN] PackLoader:226 - Cannot read IP mode file for STMicroelectronics.X-CUBE-AI.7.1.0
2025-01-17 15:36:03,956 [ERROR] Engine:519 - C:\Users\yh621\.stm32cubemx\thirdparties\pdsc\STMicroelectronics.FP-SNS-MOTENV1.4.3.2.pdsc: PDSC version is not supported
2025-01-17 15:36:03,972 [ERROR] Engine:519 - C:\Users\yh621\.stm32cubemx\thirdparties\pdsc\STMicroelectronics.FP-SNS-FLIGHT1.5.0.1.pdsc: PDSC version is not supported
2025-01-17 15:36:03,988 [WARN] PackLoader:226 - Cannot read IP mode file for STMicroelectronics.X-CUBE-BLE1.6.2.3
2025-01-17 15:36:04,003 [WARN] PackLoader:226 - Cannot read IP mode file for STMicroelectronics.X-CUBE-BLE1.6.2.4
2025-01-17 15:36:04,019 [ERROR] Engine:519 - C:\Users\yh621\.stm32cubemx\thirdparties\pdsc\STMicroelectronics.FP-SNS-FLIGHT1.5.0.2.pdsc: PDSC version is not supported
2025-01-17 15:36:04,050 [ERROR] Engine:519 - C:\Users\yh621\.stm32cubemx\thirdparties\pdsc\STMicroelectronics.X-CUBE-DISPLAY.3.0.0.pdsc: PDSC version is not supported
2025-01-17 15:36:04,056 [WARN] PackLoader:226 - Cannot read IP mode file for STMicroelectronics.X-CUBE-BLE1.7.0.0
2025-01-17 15:36:04,087 [WARN] PackLoader:226 - Cannot read IP mode file for STMicroelectronics.X-CUBE-NFC10.1.0.0
2025-01-17 15:36:04,103 [ERROR] Engine:519 - C:\Users\yh621\.stm32cubemx\thirdparties\pdsc\STMicroelectronics.X-CUBE-BLEMGR.4.0.0.pdsc: PDSC version is not supported
2025-01-17 15:36:04,119 [WARN] PackLoader:226 - Cannot read IP mode file for STMicroelectronics.X-CUBE-TOUCHGFX.4.22.0
2025-01-17 15:36:04,134 [WARN] PackLoader:226 - Cannot read IP mode file for STMicroelectronics.X-CUBE-TOUCHGFX.4.22.1
2025-01-17 15:36:04,212 [WARN] PackLoader:226 - Cannot read IP mode file for STMicroelectronics.X-CUBE-MEMS1.9.3.0
2025-01-17 15:36:04,427 [WARN] PackLoader:226 - Cannot read IP mode file for STMicroelectronics.X-CUBE-AI.7.2.0
2025-01-17 15:36:04,439 [ERROR] Engine:519 - C:\Users\yh621\.stm32cubemx\thirdparties\pdsc\STMicroelectronics.FP-SNS-SMARTAG2.1.2.0.pdsc: PDSC version is not supported
2025-01-17 15:36:04,534 [WARN] PackLoader:226 - Cannot read IP mode file for STMicroelectronics.X-CUBE-MEMS1.11.1.0
2025-01-17 15:36:04,757 [INFO] LogOutputStream:76 - [STDOUT_REDIRECT] 1 : Invalid condition id : UX_CORESTACK_Condition cause : null
2025-01-17 15:36:04,757 [INFO] LogOutputStream:76 - [STDOUT_REDIRECT] 1 : Invalid condition id : UX_CORESTACK_Condition cause : null
2025-01-17 15:36:04,757 [INFO] LogOutputStream:76 - [STDOUT_REDIRECT] 1 : Invalid condition id : UX_CORESTACK_Condition cause : null
2025-01-17 15:36:04,757 [INFO] LogOutputStream:76 - [STDOUT_REDIRECT] 1 : Invalid condition id : UX_CORESTACK_Condition cause : null
2025-01-17 15:36:04,757 [INFO] LogOutputStream:76 - [STDOUT_REDIRECT] 1 : Invalid condition id : UX_CORESTACK_Condition cause : null
2025-01-17 15:36:04,772 [WARN] PackLoader:226 - Cannot read IP mode file for STMicroelectronics.X-CUBE-AZRTOS-WL.2.0.0
2025-01-17 15:36:04,788 [ERROR] Engine:519 - C:\Users\yh621\.stm32cubemx\thirdparties\pdsc\STMicroelectronics.FP-SNS-MOTENV1.5.0.0.pdsc: PDSC version is not supported
2025-01-17 15:36:04,804 [WARN] PackLoader:226 - Cannot read IP mode file for wolfSSL.I-CUBE-wolfMQTT.1.19.0
2025-01-17 15:36:04,819 [WARN] PackLoader:226 - Cannot read IP mode file for WES.I-CUBE-Cesium.1.3.0
2025-01-17 15:36:04,851 [WARN] PackLoader:226 - Cannot read IP mode file for STMicroelectronics.X-CUBE-BLE2.3.3.0
2025-01-17 15:36:04,872 [WARN] PackLoader:226 - Cannot read IP mode file for STMicroelectronics.X-CUBE-DISPLAY.2.2.0
2025-01-17 15:36:04,904 [WARN] PackLoader:226 - Cannot read IP mode file for STMicroelectronics.X-CUBE-TOF1.3.2.0
2025-01-17 15:36:04,935 [WARN] PackLoader:226 - Cannot read IP mode file for STMicroelectronics.X-CUBE-ISPU.1.0.0
2025-01-17 15:36:04,973 [WARN] PackLoader:226 - Cannot read IP mode file for STMicroelectronics.X-CUBE-NFC9.1.0.0
2025-01-17 15:36:05,020 [WARN] PackLoader:226 - Cannot read IP mode file for STMicroelectronics.X-CUBE-AZRTOS-H7.2.1.0
2025-01-17 15:36:05,051 [WARN] PackLoader:226 - Cannot read IP mode file for STMicroelectronics.X-CUBE-TOUCHGFX.4.21.1
2025-01-17 15:36:05,057 [WARN] PackLoader:226 - Cannot read IP mode file for STMicroelectronics.X-CUBE-TOUCHGFX.4.21.0
2025-01-17 15:36:05,073 [WARN] PackLoader:226 - Cannot read IP mode file for STMicroelectronics.X-CUBE-TOUCHGFX.4.21.3
2025-01-17 15:36:05,120 [WARN] PackLoader:226 - Cannot read IP mode file for STMicroelectronics.X-CUBE-MEMS1.9.4.0
2025-01-17 15:36:05,493 [WARN] PackLoader:226 - Cannot read IP mode file for STMicroelectronics.X-CUBE-ALGOBUILD.1.3.0
2025-01-17 15:36:05,539 [WARN] PackLoader:226 - Cannot read IP mode file for STMicroelectronics.X-CUBE-AZRTOS-G0.1.1.0
2025-01-17 15:36:05,574 [WARN] PackLoader:226 - Cannot read IP mode file for STMicroelectronics.X-CUBE-SAFEA1.1.2.2
2025-01-17 15:36:05,590 [WARN] PackLoader:226 - Cannot read IP mode file for STMicroelectronics.X-CUBE-NFC4.3.0.0
2025-01-17 15:36:05,658 [WARN] PackLoader:226 - Cannot read IP mode file for SEGGER.I-CUBE-embOS.1.2.1
2025-01-17 15:36:05,711 [ERROR] Engine:519 - C:\Users\yh621\.stm32cubemx\thirdparties\pdsc\EmbeddedOffice.I-CUBE-FS-RTOS.1.0.1.pdsc: PDSC version is not supported
2025-01-17 15:36:05,727 [ERROR] Engine:519 - C:\Users\yh621\.stm32cubemx\thirdparties\pdsc\STMicroelectronics.X-CUBE-BLEMGR.3.0.0.pdsc: PDSC version is not supported
2025-01-17 15:36:05,742 [WARN] PackLoader:226 - Cannot read IP mode file for STMicroelectronics.X-CUBE-BLEMGR.1.3.0
2025-01-17 15:36:05,758 [ERROR] Engine:519 - C:\Users\yh621\.stm32cubemx\thirdparties\pdsc\STMicroelectronics.X-CUBE-TCPP.4.2.0.pdsc: PDSC version is not supported
2025-01-17 15:36:05,774 [ERROR] Engine:519 - C:\Users\yh621\.stm32cubemx\thirdparties\pdsc\RealThread.X-CUBE-RT-Thread_Nano.4.1.1.pdsc: PDSC version is not supported
2025-01-17 15:36:05,790 [WARN] PackLoader:226 - Cannot read IP mode file for STMicroelectronics.FP-ATR-SIGFOX1.3.2.0
2025-01-17 15:36:05,805 [ERROR] Engine:519 - C:\Users\yh621\.stm32cubemx\thirdparties\pdsc\quantropi.X-CUBE-qispace-sdk-base.1.9.3.pdsc: PDSC version is not supported
2025-01-17 15:36:05,821 [WARN] PackLoader:226 - Cannot read IP mode file for STMicroelectronics.X-CUBE-EEPRMA1.5.1.0
2025-01-17 15:36:05,837 [WARN] PackLoader:226 - Cannot read IP mode file for emotas.I-CUBE-CANOPEN.1.1.2
2025-01-17 15:36:05,837 [WARN] PackLoader:226 - Cannot read IP mode file for STMicroelectronics.X-CUBE-TOUCHGFX.4.20.0
2025-01-17 15:36:05,890 [WARN] PackLoader:226 - Cannot read IP mode file for STMicroelectronics.X-CUBE-MEMS1.9.5.0
2025-01-17 15:36:06,090 [WARN] PackLoader:226 - Cannot read IP mode file for SEGGER.I-CUBE-embOS.1.3.1
2025-01-17 15:36:06,159 [WARN] PackLoader:226 - Cannot read IP mode file for STMicroelectronics.X-CUBE-ALGOBUILD.1.4.0
2025-01-17 15:36:06,213 [WARN] PackLoader:226 - Cannot read IP mode file for SEGGER.I-CUBE-embOS.1.3.0
2025-01-17 15:36:06,270 [WARN] PackLoader:226 - Cannot read IP mode file for STMicroelectronics.X-CUBE-AI.9.1.0
2025-01-17 15:36:06,303 [WARN] PackLoader:226 - Cannot read IP mode file for STMicroelectronics.X-CUBE-GNSS1.6.0.0
2025-01-17 15:36:06,334 [WARN] PackLoader:226 - Cannot read IP mode file for STMicroelectronics.X-CUBE-AZRTOS-F4.1.1.0
2025-01-17 15:36:06,360 [WARN] PackLoader:226 - Cannot read IP mode file for STMicroelectronics.X-CUBE-ISPU.2.1.0
2025-01-17 15:36:06,375 [WARN] PackLoader:226 - Cannot read IP mode file for STMicroelectronics.X-CUBE-BLEMGR.1.2.0
2025-01-17 15:36:06,391 [WARN] PackLoader:226 - Cannot read IP mode file for STMicroelectronics.X-CUBE-AZRTOS-L5.2.0.0
2025-01-17 15:36:06,460 [WARN] PackLoader:226 - Cannot read IP mode file for STMicroelectronics.X-CUBE-MEMS1.9.6.0
2025-01-17 15:36:06,619 [WARN] PackLoader:226 - Cannot read IP mode file for STMicroelectronics.X-CUBE-EEPRMA1.4.2.0
2025-01-17 15:36:06,635 [WARN] PackLoader:226 - Cannot read IP mode file for STMicroelectronics.X-CUBE-NFC6.3.1.0
2025-01-17 15:36:06,660 [ERROR] Engine:519 - C:\Users\yh621\.stm32cubemx\thirdparties\pdsc\ITTIA_DB.I-CUBE-ITTIADB.8.8.0.pdsc: PDSC version is not supported
2025-01-17 15:36:06,676 [WARN] PackLoader:226 - Cannot read IP mode file for emotas.I-CUBE-CANOPEN.1.1.3
2025-01-17 15:36:06,692 [WARN] PackLoader:226 - Cannot read IP mode file for STMicroelectronics.X-CUBE-BLEMGR.2.0.0
2025-01-17 15:36:06,708 [ERROR] Engine:519 - C:\Users\yh621\.stm32cubemx\thirdparties\pdsc\STMicroelectronics.X-CUBE-DPower.1.2.0.pdsc: PDSC version is not supported
2025-01-17 15:36:06,723 [WARN] PackLoader:226 - Cannot read IP mode file for STMicroelectronics.X-CUBE-NFC4.2.0.5
2025-01-17 15:36:06,755 [WARN] PackLoader:226 - Cannot read IP mode file for STMicroelectronics.X-CUBE-NFC4.2.0.4
2025-01-17 15:36:06,793 [WARN] ConditionMgr:437 - getConditionDescription Invalid condition id : UX DEVICE CLASS RTOS Condition cause : null
2025-01-17 15:36:06,793 [WARN] ConditionMgr:437 - getConditionDescription Invalid condition id : UX DEVICE CLASS RTOS Condition cause : null
2025-01-17 15:36:06,793 [WARN] PackLoader:226 - Cannot read IP mode file for STMicroelectronics.X-CUBE-AZRTOS-H7.3.1.0
2025-01-17 15:36:06,793 [WARN] ConditionMgr:1040 - genDependencies : Invalid condition id : UX DEVICE CLASS RTOS Condition cause : null
2025-01-17 15:36:06,793 [WARN] ConditionMgr:1040 - genDependencies : Invalid condition id : UX DEVICE CLASS RTOS Condition cause : null
2025-01-17 15:36:06,793 [WARN] ConditionMgr:1040 - genDependencies : Invalid condition id : UX DEVICE CLASS RTOS Condition cause : null
2025-01-17 15:36:06,793 [WARN] ConditionMgr:1040 - genDependencies : Invalid condition id : UX DEVICE CLASS RTOS Condition cause : null
2025-01-17 15:36:06,793 [WARN] ConditionMgr:1040 - genDependencies : Invalid condition id : UX DEVICE CLASS RTOS Condition cause : null
2025-01-17 15:36:06,810 [ERROR] Engine:519 - STMicroelectronics.X-CUBE-AI.7.3.0: Software pack already exists
2025-01-17 15:36:06,826 [WARN] PackLoader:226 - Cannot read IP mode file for wolfSSL.I-CUBE-wolfSSL.5.5.4
2025-01-17 15:36:06,841 [WARN] PackLoader:226 - Cannot read IP mode file for wolfSSL.I-CUBE-wolfSSL.5.5.1
2025-01-17 15:36:06,857 [ERROR] Engine:519 - C:\Users\yh621\.stm32cubemx\thirdparties\pdsc\STMicroelectronics.X-CUBE-FREERTOS.1.3.0.pdsc: PDSC version is not supported
2025-01-17 15:36:06,873 [WARN] PackLoader:226 - Cannot read IP mode file for STMicroelectronics.X-CUBE-NFC7.1.0.1
2025-01-17 15:36:06,882 [WARN] PackLoader:226 - Cannot read IP mode file for STMicroelectronics.X-CUBE-NFC7.1.0.0
2025-01-17 15:36:06,903 [WARN] PackLoader:226 - Cannot read IP mode file for STMicroelectronics.X-CUBE-NFC6.3.0.0
2025-01-17 15:36:06,923 [WARN] PackLoader:226 - Cannot read IP mode file for STMicroelectronics.X-CUBE-EEPRMA1.4.1.0
2025-01-17 15:36:06,941 [WARN] PackLoader:226 - Cannot read IP mode file for STMicroelectronics.X-CUBE-AI.8.1.0
2025-01-17 15:36:07,099 [WARN] ConditionMgr:437 - getConditionDescription Invalid condition id : LAN8742 Phy interface Condition cause : null
2025-01-17 15:36:07,099 [WARN] PackLoader:226 - Cannot read IP mode file for STMicroelectronics.X-CUBE-AZRTOS-L4.2.0.0
2025-01-17 15:36:07,099 [WARN] ConditionMgr:1040 - genDependencies : Invalid condition id : LAN8742 Phy interface Condition cause : null
2025-01-17 15:36:07,099 [WARN] ConditionMgr:1040 - genDependencies : Invalid condition id : LAN8742 Phy interface Condition cause : null
2025-01-17 15:36:07,099 [WARN] ConditionMgr:1040 - genDependencies : Invalid condition id : LAN8742 Phy interface Condition cause : null
2025-01-17 15:36:07,115 [WARN] PackLoader:226 - Cannot read IP mode file for STMicroelectronics.X-CUBE-SFXS2LP1.4.0.0
2025-01-17 15:36:07,131 [ERROR] Engine:519 - STMicroelectronics.X-CUBE-AI.7.3.0: Software pack already exists
2025-01-17 15:36:07,162 [WARN] PackLoader:226 - Cannot read IP mode file for STMicroelectronics.X-CUBE-AZRTOS-H7.3.0.0
2025-01-17 15:36:07,177 [WARN] PackLoader:226 - Cannot read IP mode file for STMicroelectronics.X-CUBE-ISPU.1.1.0
2025-01-17 15:36:07,199 [WARN] PackLoader:226 - Cannot read IP mode file for STMicroelectronics.X-CUBE-AZRTOS-H7.3.3.0
2025-01-17 15:36:07,215 [WARN] PackLoader:226 - Cannot read IP mode file for RoweBots.I-CUBE-UNISONRTOS.5.5.0-4
2025-01-17 15:36:07,365 [WARN] ConditionMgr:437 - getConditionDescription Invalid condition id : UX DEVICE CLASS RTOS Condition cause : null
2025-01-17 15:36:07,365 [WARN] ConditionMgr:437 - getConditionDescription Invalid condition id : UX DEVICE CLASS RTOS Condition cause : null
2025-01-17 15:36:07,367 [WARN] PackLoader:226 - Cannot read IP mode file for STMicroelectronics.X-CUBE-AZRTOS-WB.2.0.0
2025-01-17 15:36:07,367 [WARN] ConditionMgr:1040 - genDependencies : Invalid condition id : UX DEVICE CLASS RTOS Condition cause : null
2025-01-17 15:36:07,367 [WARN] ConditionMgr:1040 - genDependencies : Invalid condition id : UX DEVICE CLASS RTOS Condition cause : null
2025-01-17 15:36:07,367 [WARN] ConditionMgr:1040 - genDependencies : Invalid condition id : UX DEVICE CLASS RTOS Condition cause : null
2025-01-17 15:36:07,367 [WARN] ConditionMgr:1040 - genDependencies : Invalid condition id : UX DEVICE CLASS RTOS Condition cause : null
2025-01-17 15:36:07,367 [WARN] ConditionMgr:1040 - genDependencies : Invalid condition id : UX DEVICE CLASS RTOS Condition cause : null
2025-01-17 15:36:07,397 [ERROR] Engine:519 - C:\Users\yh621\.stm32cubemx\thirdparties\pdsc\STMicroelectronics.X-CUBE-FREERTOS.1.0.0.pdsc: PDSC version is not supported
2025-01-17 15:36:07,407 [ERROR] Engine:519 - C:\Users\yh621\.stm32cubemx\thirdparties\pdsc\STMicroelectronics.X-CUBE-FREERTOS.1.0.1.pdsc: PDSC version is not supported
2025-01-17 15:36:07,427 [WARN] PackLoader:226 - Cannot read IP mode file for STMicroelectronics.X-CUBE-GNSS1.7.0.1
2025-01-17 15:36:07,438 [ERROR] Engine:519 - C:\Users\yh621\.stm32cubemx\thirdparties\pdsc\STMicroelectronics.FP-SNS-STBOX1.2.0.0.pdsc: PDSC version is not supported
2025-01-17 15:36:07,468 [WARN] PackLoader:226 - Cannot read IP mode file for STMicroelectronics.X-CUBE-AZRTOS-L5.1.1.0
2025-01-17 15:36:07,570 [WARN] PackLoader:226 - Cannot read IP mode file for STMicroelectronics.X-CUBE-SUBG2.5.0.0
2025-01-17 15:36:07,588 [ERROR] Engine:519 - C:\Users\yh621\.stm32cubemx\thirdparties\pdsc\Cesanta.I-CUBE-Mongoose.7.13.0.pdsc: PDSC version is not supported
2025-01-17 15:36:07,600 [ERROR] Engine:519 - C:\Users\yh621\.stm32cubemx\thirdparties\pdsc\STMicroelectronics.X-CUBE-TOF1.3.3.1.pdsc: PDSC version is not supported
2025-01-17 15:36:07,629 [WARN] PackLoader:226 - Cannot read IP mode file for STMicroelectronics.X-CUBE-AZRTOS-G4.2.0.0
2025-01-17 15:36:07,649 [WARN] PackLoader:226 - Cannot read IP mode file for STMicroelectronics.X-CUBE-TOF1.3.3.0
2025-01-17 15:36:07,669 [WARN] PackLoader:226 - Cannot read IP mode file for STMicroelectronics.FP-ATR-ASTRA1.1.1.1
2025-01-17 15:36:07,706 [ERROR] Engine:519 - C:\Users\yh621\.stm32cubemx\thirdparties\pdsc\Infineon.AIROC-Wi-Fi-Bluetooth-STM32.1.5.1.pdsc: PDSC version is not supported
2025-01-17 15:36:07,722 [ERROR] Engine:519 - C:\Users\yh621\.stm32cubemx\thirdparties\pdsc\STMicroelectronics.FP-SNS-MOTENVWB1.1.3.0.pdsc: PDSC version is not supported
2025-01-17 15:36:07,747 [WARN] PackLoader:226 - Cannot read IP mode file for STMicroelectronics.X-CUBE-AZRTOS-G4.1.0.0
2025-01-17 15:36:07,800 [WARN] PackLoader:226 - Cannot read IP mode file for STMicroelectronics.X-CUBE-AZRTOS-L4.1.0.0
2025-01-17 15:36:07,822 [ERROR] Engine:519 - C:\Users\yh621\.stm32cubemx\thirdparties\pdsc\STMicroelectronics.X-CUBE-IPS.3.1.0.pdsc: PDSC version is not supported
2025-01-17 15:36:07,840 [ERROR] Engine:519 - C:\Users\yh621\.stm32cubemx\thirdparties\pdsc\STMicroelectronics.X-CUBE-ALS.1.0.2.pdsc: PDSC version is not supported
2025-01-17 15:36:07,913 [WARN] PackLoader:226 - Cannot read IP mode file for STMicroelectronics.X-CUBE-MEMS1.10.0.0
2025-01-17 15:36:08,057 [ERROR] Engine:519 - C:\Users\yh621\.stm32cubemx\thirdparties\pdsc\STMicroelectronics.X-CUBE-FREERTOS.1.1.0.pdsc: PDSC version is not supported
2025-01-17 15:36:08,091 [WARN] PackLoader:226 - Cannot read IP mode file for STMicroelectronics.X-CUBE-TOUCHGFX.4.24.2
2025-01-17 15:36:08,107 [WARN] PackLoader:226 - Cannot read IP mode file for STMicroelectronics.X-CUBE-AZRTOS-WL.1.0.0
2025-01-17 15:36:08,122 [WARN] PackLoader:226 - Cannot read IP mode file for wolfSSL.I-CUBE-wolfTPM.3.4.0
2025-01-17 15:36:08,142 [WARN] PackLoader:226 - Cannot read IP mode file for portGmbH.I-Cube-SoM-uGOAL.1.1.0
2025-01-17 15:36:08,157 [WARN] PackLoader:226 - Cannot read IP mode file for STMicroelectronics.X-CUBE-ALS.1.0.1
2025-01-17 15:36:08,263 [WARN] PackLoader:226 - Cannot read IP mode file for STMicroelectronics.X-CUBE-AZRTOS-WB.1.1.0
2025-01-17 15:36:08,295 [WARN] PackLoader:226 - Cannot read IP mode file for STMicroelectronics.X-CUBE-AZRTOS-L5.1.0.0
2025-01-17 15:36:08,311 [WARN] PackLoader:226 - Cannot read IP mode file for STMicroelectronics.X-CUBE-EEPRMA1.3.1.1
2025-01-17 15:36:08,342 [WARN] PackLoader:226 - Cannot read IP mode file for STMicroelectronics.X-CUBE-AZRTOS-H7RS.1.0.0
2025-01-17 15:36:08,357 [WARN] PackLoader:226 - Cannot read IP mode file for STMicroelectronics.FP-ATR-ASTRA1.2.0.0
2025-01-17 15:36:08,373 [ERROR] Engine:519 - C:\Users\yh621\.stm32cubemx\thirdparties\pdsc\STMicroelectronics.X-CUBE-TOF1.3.4.2.pdsc: PDSC version is not supported
2025-01-17 15:36:08,389 [ERROR] Engine:519 - C:\Users\yh621\.stm32cubemx\thirdparties\pdsc\STMicroelectronics.X-CUBE-TOF1.3.4.0.pdsc: PDSC version is not supported
2025-01-17 15:36:08,404 [WARN] PackLoader:226 - Cannot read IP mode file for wolfSSL.I-CUBE-wolfSSH.1.4.17
2025-01-17 15:36:08,404 [INFO] ThirdParty:900 - Integrity check success = true
2025-01-17 15:36:08,404 [INFO] IntegrityCheckThread:75 - exiting critical section [integrity check]
2025-01-17 15:36:08,404 [INFO] IntegrityCheckThread:78 - End integrity checks thread
2025-01-17 15:36:13,603 [INFO] Context:587 - Trying to add GPIOservice into a context  which must be forbidden
2025-01-17 15:36:15,045 [INFO] ImportTextPane:162 - (OptionalMessage_ERROR) Unable to find key (Mcu.ThirdPartyNb) in loaded IOC file
2025-01-17 15:36:15,045 [INFO] ImportTextPane:162 - (OptionalMessage_ERROR) Unable to find key (Mcu.PinsNb) in loaded IOC file
2025-01-17 15:36:15,045 [INFO] ImportTextPane:162 - (OptionalMessage_ERROR) Unable to find key (Mcu.IPNb) in loaded IOC file
2025-01-17 15:36:15,205 [WARN] ApiManager:294 - Cannot register API 'Board Extension:GNSS1A1' from pack STMicroelectronics.X-CUBE-GNSS1.6.0.0: no header file found
2025-01-17 15:36:15,205 [WARN] ApiManager:294 - Cannot register API 'Board Support:Custom' from pack STMicroelectronics.X-CUBE-GNSS1.6.0.0: no header file found
2025-01-17 15:36:15,205 [WARN] ApiManager:294 - Cannot register API 'Data Exchange:lib_gnss' from pack STMicroelectronics.X-CUBE-GNSS1.6.0.0: no header file found
2025-01-17 15:36:15,207 [WARN] ApiManager:294 - Cannot register API 'Wireless:STM32WB05N' from pack STMicroelectronics.X-CUBE-WB05N.1.1.0: no header file found
2025-01-17 15:36:15,482 [WARN] ApiManager:294 - Cannot register API 'Board Extension:IKS01A3' from pack STMicroelectronics.X-CUBE-MEMS1.9.6.0: no header file found
2025-01-17 15:36:15,482 [WARN] ApiManager:294 - Cannot register API 'Board Extension:IKS01A2' from pack STMicroelectronics.X-CUBE-MEMS1.9.6.0: no header file found
2025-01-17 15:36:15,482 [WARN] ApiManager:294 - Cannot register API 'Board Extension:IKS02A1' from pack STMicroelectronics.X-CUBE-MEMS1.9.6.0: no header file found
2025-01-17 15:36:15,498 [WARN] ApiManager:294 - Cannot register API 'Board Extension:EEPRMA2' from pack STMicroelectronics.X-CUBE-EEPRMA1.4.2.0: no header file found
2025-01-17 15:36:15,498 [WARN] ApiManager:294 - Cannot register API 'Board Extension:PGEEZ1' from pack STMicroelectronics.X-CUBE-EEPRMA1.4.2.0: no header file found
2025-01-17 15:36:15,498 [WARN] ApiManager:294 - Cannot register API 'Board Part:M24' from pack STMicroelectronics.X-CUBE-EEPRMA1.4.2.0: no header file found
2025-01-17 15:36:15,498 [WARN] ApiManager:294 - Cannot register API 'Board Part:M95' from pack STMicroelectronics.X-CUBE-EEPRMA1.4.2.0: no header file found
2025-01-17 15:36:15,498 [WARN] ApiManager:294 - Cannot register API 'Board Part:M95P32' from pack STMicroelectronics.X-CUBE-EEPRMA1.4.2.0: no header file found
2025-01-17 15:36:15,498 [WARN] ApiManager:294 - Cannot register API 'PGEEZ1:SPI' from pack STMicroelectronics.X-CUBE-EEPRMA1.4.2.0: no header file found
2025-01-17 15:36:15,498 [WARN] ApiManager:294 - Cannot register API 'PGEEZ1:QDSPI' from pack STMicroelectronics.X-CUBE-EEPRMA1.4.2.0: no header file found
2025-01-17 15:36:15,498 [WARN] ApiManager:294 - Cannot register API 'Board Extension:NFC06A1' from pack STMicroelectronics.X-CUBE-NFC6.3.1.0: no header file found
2025-01-17 15:36:15,498 [WARN] ApiManager:294 - Cannot register API 'Board Extension:NFC08A1' from pack STMicroelectronics.X-CUBE-NFC6.3.1.0: no header file found
2025-01-17 15:36:15,498 [WARN] ApiManager:294 - Cannot register API 'Wireless:BlueNRG-MS' from pack STMicroelectronics.X-CUBE-BLE1.6.2.3: no header file found
2025-01-17 15:36:15,498 [WARN] ApiManager:294 - Cannot register API 'Wireless:BlueNRG-MS' from pack STMicroelectronics.X-CUBE-BLE1.6.2.4: no header file found
2025-01-17 15:36:15,498 [INFO] RtosManager:470 - Registered RTOS mode: class=CMSIS, group=RTOS, mode=CMSIS_V1, owner=FREERTOS
2025-01-17 15:36:15,498 [INFO] RtosManager:470 - Registered RTOS mode: class=CMSIS, group=RTOS2, mode=CMSIS_V2, owner=FREERTOS
2025-01-17 15:36:15,498 [INFO] RtosManager:470 - Registered RTOS mode: class=RTOS, group=Core, mode=CMSIS_V1, owner=FREERTOS
2025-01-17 15:36:15,498 [INFO] RtosManager:470 - Registered RTOS mode: class=RTOS, group=Core, mode=CMSIS_V2, owner=FREERTOS
2025-01-17 15:36:15,498 [WARN] ModelIntegratedComponent:182 - Missing modes for component STMicroelectronics:FreeRTOS:0.0.1:STMicroelectronics:RTOS:FreeRTOS:Core:::10.2.0:
2025-01-17 15:36:15,514 [WARN] ApiManager:294 - Cannot register API 'Board Extension:NFC04A1' from pack STMicroelectronics.X-CUBE-NFC4.2.0.5: no header file found
2025-01-17 15:36:15,514 [WARN] ApiManager:294 - Cannot register API 'Board Extension:NFC04A1' from pack STMicroelectronics.X-CUBE-NFC4.2.0.4: no header file found
2025-01-17 15:36:15,514 [WARN] ApiManager:294 - Cannot register API 'Wireless:BlueNRG-MS' from pack STMicroelectronics.X-CUBE-BLE1.7.0.0: no header file found
2025-01-17 15:36:15,514 [WARN] ApiManager:294 - Cannot register API 'Board Extension:NFC10A1' from pack STMicroelectronics.X-CUBE-NFC10.1.0.0: no header file found
2025-01-17 15:36:15,514 [WARN] ModelIntegratedComponent:51 - No mode defined for component null
2025-01-17 15:36:15,514 [WARN] ModelIntegratedComponent:51 - No mode defined for component null
2025-01-17 15:36:15,514 [WARN] ModelIntegratedComponent:51 - No mode defined for component null
2025-01-17 15:36:15,514 [WARN] ModelIntegratedComponent:51 - No mode defined for component null
2025-01-17 15:36:15,514 [WARN] ModelIntegratedComponent:51 - No mode defined for component null
2025-01-17 15:36:15,528 [WARN] ModelIntegratedComponent:51 - No mode defined for component null
2025-01-17 15:36:15,528 [WARN] ModelIntegratedComponent:51 - No mode defined for component null
2025-01-17 15:36:15,528 [WARN] ModelIntegratedComponent:51 - No mode defined for component null
2025-01-17 15:36:15,528 [WARN] ModelIntegratedComponent:51 - No mode defined for component null
2025-01-17 15:36:15,528 [WARN] ModelIntegratedComponent:51 - No mode defined for component null
2025-01-17 15:36:15,528 [WARN] ModelIntegratedComponent:51 - No mode defined for component null
2025-01-17 15:36:15,528 [WARN] ModelIntegratedComponent:51 - No mode defined for component null
2025-01-17 15:36:15,528 [WARN] ModelIntegratedComponent:51 - No mode defined for component null
2025-01-17 15:36:15,528 [WARN] ModelIntegratedComponent:51 - No mode defined for component null
2025-01-17 15:36:15,528 [WARN] ModelIntegratedComponent:51 - No mode defined for component null
2025-01-17 15:36:15,528 [WARN] ModelIntegratedComponent:51 - No mode defined for component null
2025-01-17 15:36:15,528 [WARN] ModelIntegratedComponent:51 - No mode defined for component null
2025-01-17 15:36:15,528 [WARN] ModelIntegratedComponent:51 - No mode defined for component null
2025-01-17 15:36:15,528 [WARN] ModelIntegratedComponent:51 - No mode defined for component null
2025-01-17 15:36:15,528 [WARN] ModelIntegratedComponent:51 - No mode defined for component null
2025-01-17 15:36:15,528 [WARN] ModelIntegratedComponent:51 - No mode defined for component null
2025-01-17 15:36:15,528 [WARN] ModelIntegratedComponent:51 - No mode defined for component null
2025-01-17 15:36:15,528 [WARN] ModelIntegratedComponent:51 - No mode defined for component null
2025-01-17 15:36:15,528 [WARN] ModelIntegratedComponent:51 - No mode defined for component null
2025-01-17 15:36:15,528 [WARN] ModelIntegratedComponent:51 - No mode defined for component null
2025-01-17 15:36:15,528 [WARN] ModelIntegratedComponent:51 - No mode defined for component null
2025-01-17 15:36:15,528 [WARN] ModelIntegratedComponent:51 - No mode defined for component null
2025-01-17 15:36:15,528 [WARN] ApiManager:294 - Cannot register API 'Board Extension:NFC07A1' from pack STMicroelectronics.X-CUBE-NFC7.1.0.1: no header file found
2025-01-17 15:36:15,528 [WARN] ApiManager:294 - Cannot register API 'Board Extension:NFC07A1' from pack STMicroelectronics.X-CUBE-NFC7.1.0.0: no header file found
2025-01-17 15:36:15,528 [WARN] ApiManager:294 - Cannot register API 'Board Extension:NFC06A1' from pack STMicroelectronics.X-CUBE-NFC6.3.0.0: no header file found
2025-01-17 15:36:15,528 [WARN] ApiManager:294 - Cannot register API 'Board Extension:NFC08A1' from pack STMicroelectronics.X-CUBE-NFC6.3.0.0: no header file found
2025-01-17 15:36:15,711 [WARN] ApiManager:294 - Cannot register API 'Board Extension:IKS01A3' from pack STMicroelectronics.X-CUBE-MEMS1.9.3.0: no header file found
2025-01-17 15:36:15,711 [WARN] ApiManager:294 - Cannot register API 'Board Extension:IKS01A2' from pack STMicroelectronics.X-CUBE-MEMS1.9.3.0: no header file found
2025-01-17 15:36:15,711 [WARN] ApiManager:294 - Cannot register API 'Board Extension:IKS02A1' from pack STMicroelectronics.X-CUBE-MEMS1.9.3.0: no header file found
2025-01-17 15:36:15,721 [WARN] ApiManager:294 - Cannot register API 'Board Extension:EEPRMA1' from pack STMicroelectronics.X-CUBE-EEPRMA1.4.1.0: no header file found
2025-01-17 15:36:15,721 [WARN] ApiManager:294 - Cannot register API 'Board Extension:EEPRMA2' from pack STMicroelectronics.X-CUBE-EEPRMA1.4.1.0: no header file found
2025-01-17 15:36:15,721 [WARN] ApiManager:294 - Cannot register API 'Board Extension:PGEEZ1' from pack STMicroelectronics.X-CUBE-EEPRMA1.4.1.0: no header file found
2025-01-17 15:36:15,721 [WARN] ApiManager:294 - Cannot register API 'Board Part:M24' from pack STMicroelectronics.X-CUBE-EEPRMA1.4.1.0: no header file found
2025-01-17 15:36:15,721 [WARN] ApiManager:294 - Cannot register API 'Board Part:M95' from pack STMicroelectronics.X-CUBE-EEPRMA1.4.1.0: no header file found
2025-01-17 15:36:15,721 [WARN] ApiManager:294 - Cannot register API 'Board Part:M95P32' from pack STMicroelectronics.X-CUBE-EEPRMA1.4.1.0: no header file found
2025-01-17 15:36:15,721 [WARN] ApiManager:294 - Cannot register API 'PGEEZ1:SPI' from pack STMicroelectronics.X-CUBE-EEPRMA1.4.1.0: no header file found
2025-01-17 15:36:15,721 [WARN] ApiManager:294 - Cannot register API 'PGEEZ1:QDSPI' from pack STMicroelectronics.X-CUBE-EEPRMA1.4.1.0: no header file found
2025-01-17 15:36:15,880 [WARN] ApiManager:294 - Cannot register API 'Board Extension:IKS01A3' from pack STMicroelectronics.X-CUBE-MEMS1.11.1.0: no header file found
2025-01-17 15:36:15,880 [WARN] ApiManager:294 - Cannot register API 'Board Extension:IKS02A1' from pack STMicroelectronics.X-CUBE-MEMS1.11.1.0: no header file found
2025-01-17 15:36:15,880 [WARN] ApiManager:294 - Cannot register API 'Board Extension:IKS4A1' from pack STMicroelectronics.X-CUBE-MEMS1.11.1.0: no header file found
2025-01-17 15:36:15,896 [WARN] ApiManager:294 - Cannot register API 'Board Extension:S2868A1' from pack STMicroelectronics.X-CUBE-SFXS2LP1.4.0.0: no header file found
2025-01-17 15:36:15,896 [WARN] ApiManager:294 - Cannot register API 'Board Extension:S2868A2' from pack STMicroelectronics.X-CUBE-SFXS2LP1.4.0.0: no header file found
2025-01-17 15:36:15,896 [WARN] ApiManager:294 - Cannot register API 'Board Extension:S2915A1' from pack STMicroelectronics.X-CUBE-SFXS2LP1.4.0.0: no header file found
2025-01-17 15:36:15,896 [WARN] ApiManager:294 - Cannot register API 'Wireless:BlueNRG-2' from pack STMicroelectronics.X-CUBE-BLE2.3.3.0: no header file found
2025-01-17 15:36:15,896 [WARN] ApiManager:294 - Cannot register API 'Board Extension:NFC09A1' from pack STMicroelectronics.X-CUBE-NFC9.1.0.0: no header file found
2025-01-17 15:36:15,912 [WARN] ApiManager:294 - Cannot register API 'Board Extension:GNSS1A1' from pack STMicroelectronics.X-CUBE-GNSS1.7.0.1: no header file found
2025-01-17 15:36:15,912 [WARN] ApiManager:294 - Cannot register API 'Board Support:Custom' from pack STMicroelectronics.X-CUBE-GNSS1.7.0.1: no header file found
2025-01-17 15:36:15,912 [WARN] ApiManager:294 - Cannot register API 'Data Exchange:lib_gnss' from pack STMicroelectronics.X-CUBE-GNSS1.7.0.1: no header file found
2025-01-17 15:36:16,180 [WARN] ApiManager:294 - Cannot register API 'Board Extension:IKS01A3' from pack STMicroelectronics.X-CUBE-MEMS1.9.4.0: no header file found
2025-01-17 15:36:16,180 [WARN] ApiManager:294 - Cannot register API 'Board Extension:IKS01A2' from pack STMicroelectronics.X-CUBE-MEMS1.9.4.0: no header file found
2025-01-17 15:36:16,180 [WARN] ApiManager:294 - Cannot register API 'Board Extension:IKS02A1' from pack STMicroelectronics.X-CUBE-MEMS1.9.4.0: no header file found
2025-01-17 15:36:16,181 [WARN] ApiManager:294 - Cannot register API 'Board Extension:STSAFEA1' from pack STMicroelectronics.X-CUBE-SAFEA1.1.2.2: no header file found
2025-01-17 15:36:16,181 [WARN] ApiManager:294 - Cannot register API 'Board Part:STSAFEA110' from pack STMicroelectronics.X-CUBE-SAFEA1.1.2.2: no header file found
2025-01-17 15:36:16,181 [WARN] ApiManager:294 - Cannot register API 'Security:ST_Cryptolib' from pack STMicroelectronics.X-CUBE-SAFEA1.1.2.2: no header file found
2025-01-17 15:36:16,181 [WARN] ApiManager:294 - Cannot register API 'Security:MbedTLS' from pack STMicroelectronics.X-CUBE-SAFEA1.1.2.2: no header file found
2025-01-17 15:36:16,181 [WARN] ApiManager:294 - Cannot register API 'Board Extension:NFC04A1' from pack STMicroelectronics.X-CUBE-NFC4.3.0.0: no header file found
2025-01-17 15:36:16,197 [WARN] ApiManager:294 - Cannot register API 'Board Extension:S2868A1' from pack STMicroelectronics.X-CUBE-SUBG2.5.0.0: no header file found
2025-01-17 15:36:16,197 [WARN] ApiManager:294 - Cannot register API 'Board Extension:S2868A2' from pack STMicroelectronics.X-CUBE-SUBG2.5.0.0: no header file found
2025-01-17 15:36:16,197 [WARN] ApiManager:294 - Cannot register API 'Board Extension:S2915A1' from pack STMicroelectronics.X-CUBE-SUBG2.5.0.0: no header file found
2025-01-17 15:36:16,218 [WARN] ApiManager:294 - Cannot register API 'Board Extension:EEPRMA2' from pack STMicroelectronics.X-CUBE-EEPRMA1.5.1.0: no header file found
2025-01-17 15:36:16,218 [WARN] ApiManager:294 - Cannot register API 'Board Extension:PGEEZ1' from pack STMicroelectronics.X-CUBE-EEPRMA1.5.1.0: no header file found
2025-01-17 15:36:16,218 [WARN] ApiManager:294 - Cannot register API 'Board Extension:EEICA1' from pack STMicroelectronics.X-CUBE-EEPRMA1.5.1.0: no header file found
2025-01-17 15:36:16,218 [WARN] ApiManager:294 - Cannot register API 'Board Part:M24' from pack STMicroelectronics.X-CUBE-EEPRMA1.5.1.0: no header file found
2025-01-17 15:36:16,218 [WARN] ApiManager:294 - Cannot register API 'Board Part:M95' from pack STMicroelectronics.X-CUBE-EEPRMA1.5.1.0: no header file found
2025-01-17 15:36:16,218 [WARN] ApiManager:294 - Cannot register API 'Board Part:M95P32' from pack STMicroelectronics.X-CUBE-EEPRMA1.5.1.0: no header file found
2025-01-17 15:36:16,218 [WARN] ApiManager:294 - Cannot register API 'Board Part:M24256E-F' from pack STMicroelectronics.X-CUBE-EEPRMA1.5.1.0: no header file found
2025-01-17 15:36:16,218 [WARN] ApiManager:294 - Cannot register API 'Board Part:M24M01E-F' from pack STMicroelectronics.X-CUBE-EEPRMA1.5.1.0: no header file found
2025-01-17 15:36:16,218 [WARN] ApiManager:294 - Cannot register API 'PGEEZ1:SPI' from pack STMicroelectronics.X-CUBE-EEPRMA1.5.1.0: no header file found
2025-01-17 15:36:16,218 [WARN] ApiManager:294 - Cannot register API 'PGEEZ1:QDSPI' from pack STMicroelectronics.X-CUBE-EEPRMA1.5.1.0: no header file found
2025-01-17 15:36:16,461 [WARN] ApiManager:294 - Cannot register API 'Board Extension:IKS01A3' from pack STMicroelectronics.X-CUBE-MEMS1.10.0.0: no header file found
2025-01-17 15:36:16,461 [WARN] ApiManager:294 - Cannot register API 'Board Extension:IKS02A1' from pack STMicroelectronics.X-CUBE-MEMS1.10.0.0: no header file found
2025-01-17 15:36:16,461 [WARN] ApiManager:294 - Cannot register API 'Board Extension:IKS4A1' from pack STMicroelectronics.X-CUBE-MEMS1.10.0.0: no header file found
2025-01-17 15:36:16,632 [WARN] ApiManager:294 - Cannot register API 'Board Extension:IKS01A3' from pack STMicroelectronics.X-CUBE-MEMS1.9.5.0: no header file found
2025-01-17 15:36:16,632 [WARN] ApiManager:294 - Cannot register API 'Board Extension:IKS01A2' from pack STMicroelectronics.X-CUBE-MEMS1.9.5.0: no header file found
2025-01-17 15:36:16,632 [WARN] ApiManager:294 - Cannot register API 'Board Extension:IKS02A1' from pack STMicroelectronics.X-CUBE-MEMS1.9.5.0: no header file found
2025-01-17 15:36:16,647 [WARN] ApiManager:294 - Cannot register API 'Board Extension:EEPRMA1' from pack STMicroelectronics.X-CUBE-EEPRMA1.3.1.1: no header file found
2025-01-17 15:36:16,647 [WARN] ApiManager:294 - Cannot register API 'Board Extension:EEPRMA2' from pack STMicroelectronics.X-CUBE-EEPRMA1.3.1.1: no header file found
2025-01-17 15:36:50,126 [INFO] UtilMem:74 - End LoadConfig() Used Memory: 977851216 Bytes (1063256064)
2025-01-17 15:36:50,154 [WARN] ThirdParty:762 - waiting for thirdparty lock release [change project]
2025-01-17 15:36:50,154 [INFO] ThirdParty:764 - entering critical section [change project]
2025-01-17 15:36:50,154 [INFO] ThirdParty:952 - CMSIS Pack Vendor :STMicroelectronics X-CUBE-GNSS1 6.0.0
2025-01-17 15:36:50,154 [INFO] ThirdParty:952 - CMSIS Pack Vendor :STMicroelectronics USB_HOST 2.0.0
2025-01-17 15:36:50,154 [INFO] ThirdParty:952 - CMSIS Pack Vendor :STMicroelectronics X-CUBE-AZRTOS-F4 1.1.0
2025-01-17 15:36:50,154 [INFO] ThirdParty:952 - CMSIS Pack Vendor :STMicroelectronics FP-ATR-ASTRA1 2.0.1
2025-01-17 15:36:50,154 [INFO] ThirdParty:952 - CMSIS Pack Vendor :STMicroelectronics X-CUBE-WB05N 1.1.0
2025-01-17 15:36:50,154 [INFO] ThirdParty:952 - CMSIS Pack Vendor :STMicroelectronics X-CUBE-ISPU 2.1.0
2025-01-17 15:36:50,154 [INFO] ThirdParty:952 - CMSIS Pack Vendor :STMicroelectronics X-CUBE-BLEMGR 1.2.0
2025-01-17 15:36:50,154 [INFO] ThirdParty:952 - CMSIS Pack Vendor :STMicroelectronics X-CUBE-AZRTOS-F7 1.1.0
2025-01-17 15:36:50,154 [INFO] ThirdParty:952 - CMSIS Pack Vendor :STMicroelectronics X-CUBE-AZRTOS-L5 2.0.0
2025-01-17 15:36:50,154 [INFO] ThirdParty:952 - CMSIS Pack Vendor :STMicroelectronics USB_DEVICE 2.0.0
2025-01-17 15:36:50,154 [INFO] ThirdParty:952 - CMSIS Pack Vendor :STMicroelectronics X-CUBE-MEMS1 9.6.0
2025-01-17 15:36:50,154 [INFO] ThirdParty:952 - CMSIS Pack Vendor :STMicroelectronics X-CUBE-EEPRMA1 4.2.0
2025-01-17 15:36:50,154 [INFO] ThirdParty:952 - CMSIS Pack Vendor :STMicroelectronics X-CUBE-NFC6 3.1.0
2025-01-17 15:36:50,154 [INFO] ThirdParty:952 - CMSIS Pack Vendor :STMicroelectronics X-CUBE-AI 7.1.0
2025-01-17 15:36:50,154 [INFO] ThirdParty:952 - CMSIS Pack Vendor :STMicroelectronics X-CUBE-BLE1 6.2.3
2025-01-17 15:36:50,154 [INFO] ThirdParty:952 - CMSIS Pack Vendor :STMicroelectronics X-CUBE-BLE1 6.2.4
2025-01-17 15:36:50,154 [INFO] ThirdParty:952 - CMSIS Pack Vendor :STMicroelectronics FreeRTOS 0.0.1
2025-01-17 15:36:50,154 [INFO] ThirdParty:952 - CMSIS Pack Vendor :emotas I-CUBE-CANOPEN 1.1.3
2025-01-17 15:36:50,154 [INFO] ThirdParty:952 - CMSIS Pack Vendor :STMicroelectronics X-CUBE-BLEMGR 2.0.0
2025-01-17 15:36:50,154 [INFO] ThirdParty:952 - CMSIS Pack Vendor :STMicroelectronics X-CUBE-NFC4 2.0.5
2025-01-17 15:36:50,154 [INFO] ThirdParty:952 - CMSIS Pack Vendor :STMicroelectronics X-CUBE-NFC4 2.0.4
2025-01-17 15:36:50,154 [INFO] ThirdParty:952 - CMSIS Pack Vendor :STMicroelectronics X-CUBE-AZRTOS-H7 3.1.0
2025-01-17 15:36:50,154 [INFO] ThirdParty:952 - CMSIS Pack Vendor :STMicroelectronics PDM2PCM 3.3.0
2025-01-17 15:36:50,154 [INFO] ThirdParty:952 - CMSIS Pack Vendor :STMicroelectronics X-CUBE-BLE1 7.0.0
2025-01-17 15:36:50,154 [INFO] ThirdParty:952 - CMSIS Pack Vendor :STMicroelectronics X-CUBE-NFC10 1.0.0
2025-01-17 15:36:50,154 [INFO] ThirdParty:952 - CMSIS Pack Vendor :wolfSSL I-CUBE-wolfSSL 5.5.4
2025-01-17 15:36:50,154 [INFO] ThirdParty:952 - CMSIS Pack Vendor :wolfSSL I-CUBE-wolfSSL 5.5.1
2025-01-17 15:36:50,154 [INFO] ThirdParty:952 - CMSIS Pack Vendor :STMicroelectronics HAL Drivers 0.0.0
2025-01-17 15:36:50,154 [INFO] ThirdParty:952 - CMSIS Pack Vendor :STMicroelectronics X-CUBE-TOUCHGFX 4.22.0
2025-01-17 15:36:50,154 [INFO] ThirdParty:952 - CMSIS Pack Vendor :STMicroelectronics X-CUBE-NFC7 1.0.1
2025-01-17 15:36:50,154 [INFO] ThirdParty:952 - CMSIS Pack Vendor :STMicroelectronics MBEDTLS 2.14.1
2025-01-17 15:36:50,154 [INFO] ThirdParty:952 - CMSIS Pack Vendor :STMicroelectronics X-CUBE-NFC7 1.0.0
2025-01-17 15:36:50,154 [INFO] ThirdParty:952 - CMSIS Pack Vendor :STMicroelectronics X-CUBE-TOUCHGFX 4.22.1
2025-01-17 15:36:50,154 [INFO] ThirdParty:952 - CMSIS Pack Vendor :STMicroelectronics X-CUBE-NFC6 3.0.0
2025-01-17 15:36:50,154 [INFO] ThirdParty:952 - CMSIS Pack Vendor :STMicroelectronics X-CUBE-MEMS1 9.3.0
2025-01-17 15:36:50,154 [INFO] ThirdParty:952 - CMSIS Pack Vendor :STMicroelectronics X-CUBE-EEPRMA1 4.1.0
2025-01-17 15:36:50,154 [INFO] ThirdParty:952 - CMSIS Pack Vendor :STMicroelectronics X-CUBE-AI 7.2.0
2025-01-17 15:36:50,154 [INFO] ThirdParty:952 - CMSIS Pack Vendor :STMicroelectronics X-CUBE-MEMS1 11.1.0
2025-01-17 15:36:50,154 [INFO] ThirdParty:952 - CMSIS Pack Vendor :STMicroelectronics X-CUBE-AZRTOS-WL 2.0.0
2025-01-17 15:36:50,154 [INFO] ThirdParty:952 - CMSIS Pack Vendor :STMicroelectronics USB_DEVICE 1.0.0
2025-01-17 15:36:50,154 [INFO] ThirdParty:952 - CMSIS Pack Vendor :STMicroelectronics X-CUBE-AI 8.1.0
2025-01-17 15:36:50,154 [INFO] ThirdParty:952 - CMSIS Pack Vendor :STMicroelectronics X-CUBE-AI 6.0.0
2025-01-17 15:36:50,154 [INFO] ThirdParty:952 - CMSIS Pack Vendor :wolfSSL I-CUBE-wolfMQTT 1.19.0
2025-01-17 15:36:50,154 [INFO] ThirdParty:952 - CMSIS Pack Vendor :STMicroelectronics X-CUBE-AZRTOS-L4 2.0.0
2025-01-17 15:36:50,154 [INFO] ThirdParty:952 - CMSIS Pack Vendor :WES I-CUBE-Cesium 1.3.0
2025-01-17 15:36:50,154 [INFO] ThirdParty:952 - CMSIS Pack Vendor :STMicroelectronics lwIP 2.1.2
2025-01-17 15:36:50,154 [INFO] ThirdParty:952 - CMSIS Pack Vendor :STMicroelectronics X-CUBE-SFXS2LP1 4.0.0
2025-01-17 15:36:50,154 [INFO] ThirdParty:952 - CMSIS Pack Vendor :STMicroelectronics X-CUBE-BLE2 3.3.0
2025-01-17 15:36:50,154 [INFO] ThirdParty:952 - CMSIS Pack Vendor :STMicroelectronics X-CUBE-DISPLAY 2.2.0
2025-01-17 15:36:50,154 [INFO] ThirdParty:952 - CMSIS Pack Vendor :STMicroelectronics X-CUBE-TOF1 3.2.0
2025-01-17 15:36:50,154 [INFO] ThirdParty:952 - CMSIS Pack Vendor :STMicroelectronics PDM2PCM 3.2.0
2025-01-17 15:36:50,154 [INFO] ThirdParty:952 - CMSIS Pack Vendor :STMicroelectronics X-CUBE-AZRTOS-H7 3.0.0
2025-01-17 15:36:50,154 [INFO] ThirdParty:952 - CMSIS Pack Vendor :STMicroelectronics X-CUBE-ISPU 1.0.0
2025-01-17 15:36:50,154 [INFO] ThirdParty:952 - CMSIS Pack Vendor :STMicroelectronics X-CUBE-ISPU 1.1.0
2025-01-17 15:36:50,154 [INFO] ThirdParty:952 - CMSIS Pack Vendor :STMicroelectronics X-CUBE-AZRTOS-H7 3.3.0
2025-01-17 15:36:50,154 [INFO] ThirdParty:952 - CMSIS Pack Vendor :RoweBots I-CUBE-UNISONRTOS 5.5.0-4
2025-01-17 15:36:50,154 [INFO] ThirdParty:952 - CMSIS Pack Vendor :STMicroelectronics X-CUBE-NFC9 1.0.0
2025-01-17 15:36:50,154 [INFO] ThirdParty:952 - CMSIS Pack Vendor :STMicroelectronics X-CUBE-AZRTOS-H7 2.1.0
2025-01-17 15:36:50,154 [INFO] ThirdParty:952 - CMSIS Pack Vendor :STMicroelectronics USB_DEVICE 3.0.0
2025-01-17 15:36:50,154 [INFO] ThirdParty:952 - CMSIS Pack Vendor :STMicroelectronics X-CUBE-AI 8.0.0
2025-01-17 15:36:50,154 [INFO] ThirdParty:952 - CMSIS Pack Vendor :STMicroelectronics X-CUBE-AZRTOS-WB 2.0.0
2025-01-17 15:36:50,154 [INFO] ThirdParty:952 - CMSIS Pack Vendor :STMicroelectronics X-CUBE-TOUCHGFX 4.21.1
2025-01-17 15:36:50,154 [INFO] ThirdParty:952 - CMSIS Pack Vendor :STMicroelectronics X-CUBE-TOUCHGFX 4.21.0
2025-01-17 15:36:50,154 [INFO] ThirdParty:952 - CMSIS Pack Vendor :STMicroelectronics X-CUBE-GNSS1 7.0.1
2025-01-17 15:36:50,154 [INFO] ThirdParty:952 - CMSIS Pack Vendor :STMicroelectronics X-CUBE-TOUCHGFX 4.21.3
2025-01-17 15:36:50,154 [INFO] ThirdParty:952 - CMSIS Pack Vendor :STMicroelectronics X-CUBE-MEMS1 9.4.0
2025-01-17 15:36:50,154 [INFO] ThirdParty:952 - CMSIS Pack Vendor :STMicroelectronics X-CUBE-AI 7.3.0
2025-01-17 15:36:50,154 [INFO] ThirdParty:952 - CMSIS Pack Vendor :STMicroelectronics X-CUBE-ALGOBUILD 1.3.0
2025-01-17 15:36:50,154 [INFO] ThirdParty:952 - CMSIS Pack Vendor :STMicroelectronics X-CUBE-AZRTOS-L5 1.1.0
2025-01-17 15:36:50,154 [INFO] ThirdParty:952 - CMSIS Pack Vendor :STMicroelectronics X-CUBE-AZRTOS-G0 1.1.0
2025-01-17 15:36:50,154 [INFO] ThirdParty:952 - CMSIS Pack Vendor :STMicroelectronics X-CUBE-AI 8.0.1
2025-01-17 15:36:50,154 [INFO] ThirdParty:952 - CMSIS Pack Vendor :STMicroelectronics X-CUBE-SAFEA1 1.2.2
2025-01-17 15:36:50,154 [INFO] ThirdParty:952 - CMSIS Pack Vendor :STMicroelectronics X-CUBE-NFC4 3.0.0
2025-01-17 15:36:50,154 [INFO] ThirdParty:952 - CMSIS Pack Vendor :STMicroelectronics X-CUBE-SUBG2 5.0.0
2025-01-17 15:36:50,154 [INFO] ThirdParty:952 - CMSIS Pack Vendor :SEGGER I-CUBE-embOS 1.2.1
2025-01-17 15:36:50,154 [INFO] ThirdParty:952 - CMSIS Pack Vendor :STMicroelectronics lwIP 2.0.3
2025-01-17 15:36:50,154 [INFO] ThirdParty:952 - CMSIS Pack Vendor :STMicroelectronics USB_HOST 1.0.0
2025-01-17 15:36:50,154 [INFO] ThirdParty:952 - CMSIS Pack Vendor :STMicroelectronics X-CUBE-AZRTOS-G4 2.0.0
2025-01-17 15:36:50,154 [INFO] ThirdParty:952 - CMSIS Pack Vendor :STMicroelectronics PDM2PCM 3.1.0
2025-01-17 15:36:50,154 [INFO] ThirdParty:952 - CMSIS Pack Vendor :STMicroelectronics X-CUBE-TOF1 3.3.0
2025-01-17 15:36:50,154 [INFO] ThirdParty:952 - CMSIS Pack Vendor :STMicroelectronics FP-ATR-ASTRA1 1.1.1
2025-01-17 15:36:50,154 [INFO] ThirdParty:952 - CMSIS Pack Vendor :STMicroelectronics X-CUBE-BLEMGR 1.3.0
2025-01-17 15:36:50,154 [INFO] ThirdParty:952 - CMSIS Pack Vendor :STMicroelectronics FP-ATR-SIGFOX1 3.2.0
2025-01-17 15:36:50,154 [INFO] ThirdParty:952 - CMSIS Pack Vendor :STMicroelectronics X-CUBE-AZRTOS-G4 1.0.0
2025-01-17 15:36:50,154 [INFO] ThirdParty:952 - CMSIS Pack Vendor :STMicroelectronics X-CUBE-AZRTOS-L4 1.0.0
2025-01-17 15:36:50,154 [INFO] ThirdParty:952 - CMSIS Pack Vendor :STMicroelectronics X-CUBE-EEPRMA1 5.1.0
2025-01-17 15:36:50,154 [INFO] ThirdParty:952 - CMSIS Pack Vendor :STMicroelectronics MBEDTLS 2.16.2
2025-01-17 15:36:50,154 [INFO] ThirdParty:952 - CMSIS Pack Vendor :emotas I-CUBE-CANOPEN 1.1.2
2025-01-17 15:36:50,154 [INFO] ThirdParty:952 - CMSIS Pack Vendor :STMicroelectronics X-CUBE-TOUCHGFX 4.20.0
2025-01-17 15:36:50,154 [INFO] ThirdParty:952 - CMSIS Pack Vendor :STMicroelectronics X-CUBE-MEMS1 10.0.0
2025-01-17 15:36:50,154 [INFO] ThirdParty:952 - CMSIS Pack Vendor :STMicroelectronics X-CUBE-TOUCHGFX 4.24.2
2025-01-17 15:36:50,154 [INFO] ThirdParty:952 - CMSIS Pack Vendor :STMicroelectronics X-CUBE-AZRTOS-WL 1.0.0
2025-01-17 15:36:50,154 [INFO] ThirdParty:952 - CMSIS Pack Vendor :wolfSSL I-CUBE-wolfTPM 3.4.0
2025-01-17 15:36:50,154 [INFO] ThirdParty:952 - CMSIS Pack Vendor :portGmbH I-Cube-SoM-uGOAL 1.1.0
2025-01-17 15:36:50,154 [INFO] ThirdParty:952 - CMSIS Pack Vendor :STMicroelectronics X-CUBE-ALS 1.0.1
2025-01-17 15:36:50,154 [INFO] ThirdParty:952 - CMSIS Pack Vendor :STMicroelectronics X-CUBE-MEMS1 9.5.0
2025-01-17 15:36:50,154 [INFO] ThirdParty:952 - CMSIS Pack Vendor :STMicroelectronics X-CUBE-AI 7.0.0
2025-01-17 15:36:50,154 [INFO] ThirdParty:952 - CMSIS Pack Vendor :STMicroelectronics X-CUBE-AZRTOS-WB 1.1.0
2025-01-17 15:36:50,154 [INFO] ThirdParty:952 - CMSIS Pack Vendor :SEGGER I-CUBE-embOS 1.3.1
2025-01-17 15:36:50,154 [INFO] ThirdParty:952 - CMSIS Pack Vendor :STMicroelectronics X-CUBE-ALGOBUILD 1.4.0
2025-01-17 15:36:50,154 [INFO] ThirdParty:952 - CMSIS Pack Vendor :STMicroelectronics X-CUBE-AZRTOS-L5 1.0.0
2025-01-17 15:36:50,154 [INFO] ThirdParty:952 - CMSIS Pack Vendor :SEGGER I-CUBE-embOS 1.3.0
2025-01-17 15:36:50,154 [INFO] ThirdParty:952 - CMSIS Pack Vendor :STMicroelectronics X-CUBE-EEPRMA1 3.1.1
2025-01-17 15:36:50,154 [INFO] ThirdParty:952 - CMSIS Pack Vendor :STMicroelectronics X-CUBE-AZRTOS-H7RS 1.0.0
2025-01-17 15:36:50,154 [INFO] ThirdParty:952 - CMSIS Pack Vendor :STMicroelectronics FP-ATR-ASTRA1 2.0.0
2025-01-17 15:36:50,154 [INFO] ThirdParty:952 - CMSIS Pack Vendor :STMicroelectronics X-CUBE-AI 9.1.0
2025-01-17 15:36:50,154 [INFO] ThirdParty:952 - CMSIS Pack Vendor :wolfSSL I-CUBE-wolfSSH 1.4.17
2025-01-17 15:36:50,154 [INFO] ThirdParty:770 - exiting critical section [change project]
2025-01-17 15:36:50,801 [INFO] PinOutPanel:1435 - setPackage(No Configuration,No Configuration)
2025-01-17 15:36:50,802 [INFO] PinOutPanel:1435 - setPackage(STM32H7A3ZITxQ,LQFP144)
2025-01-17 15:36:52,073 [INFO] UtilMem:74 - Before build in PCC Used Memory: 1025060912 Bytes (1070596096)
2025-01-17 15:36:53,655 [INFO] SharedServices:72 - Folder for power plug-in: C:/Users/yh621/.stm32cubemx/plugins/power
2025-01-17 15:36:53,727 [INFO] SharedServices:72 - Folder for power plug-in: C:/Users/yh621/.stm32cubemx/plugins/power
2025-01-17 15:36:54,005 [INFO] SharedServices:72 - Folder for power plug-in: C:/Users/yh621/.stm32cubemx/plugins/power
2025-01-17 15:36:54,020 [INFO] SharedServices:72 - Folder for power plug-in: C:/Users/yh621/.stm32cubemx/plugins/power
2025-01-17 15:36:54,268 [INFO] UtilMem:74 - After build in PCC Used Memory: 1005250432 Bytes (1073741824)
2025-01-17 15:36:54,340 [INFO] IPUIPlugin:64 - create IPUIPlugin
2025-01-17 15:36:54,340 [INFO] IPUIPlugin:64 - create IPUIPlugin
2025-01-17 15:36:54,340 [INFO] IPUIPlugin:64 - create IPUIPlugin
2025-01-17 15:36:54,340 [INFO] IPUIPlugin:64 - create IPUIPlugin
2025-01-17 15:36:54,340 [INFO] IPUIPlugin:64 - create IPUIPlugin
2025-01-17 15:36:54,340 [INFO] IPUIPlugin:64 - create IPUIPlugin
2025-01-17 15:36:54,340 [INFO] IPUIPlugin:64 - create IPUIPlugin
2025-01-17 15:36:54,340 [INFO] IPUIPlugin:64 - create IPUIPlugin
2025-01-17 15:36:54,340 [INFO] IPUIPlugin:64 - create IPUIPlugin
2025-01-17 15:36:54,340 [INFO] IPUIPlugin:64 - create IPUIPlugin
2025-01-17 15:36:54,340 [INFO] IPUIPlugin:64 - create IPUIPlugin
2025-01-17 15:36:54,340 [INFO] IPUIPlugin:64 - create IPUIPlugin
2025-01-17 15:36:54,340 [INFO] IPUIPlugin:64 - create IPUIPlugin
2025-01-17 15:36:54,340 [INFO] IPUIPlugin:64 - create IPUIPlugin
2025-01-17 15:36:54,340 [INFO] IPUIPlugin:64 - create IPUIPlugin
2025-01-17 15:36:54,340 [INFO] IPUIPlugin:64 - create IPUIPlugin
2025-01-17 15:36:54,340 [INFO] IPUIPlugin:64 - create IPUIPlugin
2025-01-17 15:36:54,340 [INFO] IPUIPlugin:64 - create IPUIPlugin
2025-01-17 15:36:54,340 [INFO] IPUIPlugin:64 - create IPUIPlugin
2025-01-17 15:36:54,340 [INFO] IPUIPlugin:64 - create IPUIPlugin
2025-01-17 15:36:54,340 [INFO] IPUIPlugin:64 - create IPUIPlugin
2025-01-17 15:36:54,340 [INFO] IPUIPlugin:64 - create IPUIPlugin
2025-01-17 15:36:54,340 [INFO] IPUIPlugin:64 - create IPUIPlugin
2025-01-17 15:36:54,340 [INFO] IPUIPlugin:64 - create IPUIPlugin
2025-01-17 15:36:54,340 [INFO] IPUIPlugin:64 - create IPUIPlugin
2025-01-17 15:36:54,340 [INFO] IPUIPlugin:64 - create IPUIPlugin
2025-01-17 15:36:54,340 [INFO] IPUIPlugin:64 - create IPUIPlugin
2025-01-17 15:36:54,340 [INFO] IPUIPlugin:64 - create IPUIPlugin
2025-01-17 15:36:54,340 [INFO] IPUIPlugin:64 - create IPUIPlugin
2025-01-17 15:36:54,340 [INFO] IPUIPlugin:64 - create IPUIPlugin
2025-01-17 15:36:54,340 [INFO] IPUIPlugin:64 - create IPUIPlugin
2025-01-17 15:36:54,340 [INFO] IPUIPlugin:64 - create IPUIPlugin
2025-01-17 15:36:54,340 [INFO] IPUIPlugin:64 - create IPUIPlugin
2025-01-17 15:36:54,340 [INFO] IPUIPlugin:64 - create IPUIPlugin
2025-01-17 15:36:54,340 [INFO] IPUIPlugin:64 - create IPUIPlugin
2025-01-17 15:36:54,340 [INFO] IPUIPlugin:64 - create IPUIPlugin
2025-01-17 15:36:54,356 [INFO] IPUIPlugin:64 - create IPUIPlugin
2025-01-17 15:36:54,356 [INFO] IPUIPlugin:64 - create IPUIPlugin
2025-01-17 15:36:54,356 [INFO] IPUIPlugin:64 - create IPUIPlugin
2025-01-17 15:36:54,356 [INFO] IPUIPlugin:64 - create IPUIPlugin
2025-01-17 15:36:54,356 [INFO] IPUIPlugin:64 - create IPUIPlugin
2025-01-17 15:36:54,356 [INFO] IPUIPlugin:64 - create IPUIPlugin
2025-01-17 15:36:54,356 [INFO] IPUIPlugin:64 - create IPUIPlugin
2025-01-17 15:36:54,356 [INFO] IPUIPlugin:64 - create IPUIPlugin
2025-01-17 15:36:54,356 [INFO] IPUIPlugin:64 - create IPUIPlugin
2025-01-17 15:36:54,356 [INFO] IPUIPlugin:64 - create IPUIPlugin
2025-01-17 15:36:54,356 [INFO] IPUIPlugin:64 - create IPUIPlugin
2025-01-17 15:36:54,356 [INFO] IPUIPlugin:64 - create IPUIPlugin
2025-01-17 15:36:54,356 [INFO] IPUIPlugin:64 - create IPUIPlugin
2025-01-17 15:36:54,356 [INFO] IPUIPlugin:64 - create IPUIPlugin
2025-01-17 15:36:54,356 [INFO] IPUIPlugin:64 - create IPUIPlugin
2025-01-17 15:36:54,356 [INFO] IPUIPlugin:64 - create IPUIPlugin
2025-01-17 15:36:54,356 [INFO] IPUIPlugin:64 - create IPUIPlugin
2025-01-17 15:36:54,356 [INFO] IPUIPlugin:64 - create IPUIPlugin
2025-01-17 15:36:54,356 [INFO] IPUIPlugin:64 - create IPUIPlugin
2025-01-17 15:36:54,372 [INFO] IPUIPlugin:64 - create IPUIPlugin
2025-01-17 15:36:54,372 [INFO] IPUIPlugin:64 - create IPUIPlugin
2025-01-17 15:36:54,372 [INFO] IPUIPlugin:64 - create IPUIPlugin
2025-01-17 15:36:54,372 [INFO] IPUIPlugin:64 - create IPUIPlugin
2025-01-17 15:36:54,372 [INFO] IPUIPlugin:64 - create IPUIPlugin
2025-01-17 15:36:54,372 [INFO] IPUIPlugin:64 - create IPUIPlugin
2025-01-17 15:36:54,372 [INFO] IPUIPlugin:64 - create IPUIPlugin
2025-01-17 15:36:54,385 [INFO] IPUIPlugin:64 - create IPUIPlugin
2025-01-17 15:36:54,385 [INFO] IPUIPlugin:64 - create IPUIPlugin
2025-01-17 15:36:54,385 [INFO] IPUIPlugin:64 - create IPUIPlugin
2025-01-17 15:36:54,385 [INFO] IPUIPlugin:64 - create IPUIPlugin
2025-01-17 15:36:54,385 [INFO] IPUIPlugin:64 - create IPUIPlugin
2025-01-17 15:36:54,385 [INFO] IPUIPlugin:64 - create IPUIPlugin
2025-01-17 15:36:54,385 [INFO] IPUIPlugin:64 - create IPUIPlugin
2025-01-17 15:36:54,385 [INFO] IPUIPlugin:64 - create IPUIPlugin
2025-01-17 15:36:54,385 [INFO] IPUIPlugin:64 - create IPUIPlugin
2025-01-17 15:36:54,385 [INFO] IPUIPlugin:64 - create IPUIPlugin
2025-01-17 15:36:54,385 [INFO] IPUIPlugin:64 - create IPUIPlugin
2025-01-17 15:36:54,385 [INFO] IPUIPlugin:64 - create IPUIPlugin
2025-01-17 15:36:54,385 [INFO] IPUIPlugin:64 - create IPUIPlugin
2025-01-17 15:36:54,385 [INFO] IPUIPlugin:64 - create IPUIPlugin
2025-01-17 15:36:54,385 [INFO] IPUIPlugin:64 - create IPUIPlugin
2025-01-17 15:36:54,385 [INFO] IPUIPlugin:64 - create IPUIPlugin
2025-01-17 15:36:54,385 [INFO] IPUIPlugin:64 - create IPUIPlugin
2025-01-17 15:36:54,385 [INFO] IPUIPlugin:64 - create IPUIPlugin
2025-01-17 15:36:54,385 [INFO] IPUIPlugin:64 - create IPUIPlugin
2025-01-17 15:36:54,385 [INFO] IPUIPlugin:64 - create IPUIPlugin
2025-01-17 15:36:54,401 [INFO] IPUIPlugin:64 - create IPUIPlugin
2025-01-17 15:36:54,401 [INFO] IPUIPlugin:64 - create IPUIPlugin
2025-01-17 15:36:54,401 [INFO] IPUIPlugin:64 - create IPUIPlugin
2025-01-17 15:36:54,401 [INFO] IPUIPlugin:64 - create IPUIPlugin
2025-01-17 15:36:54,401 [INFO] IPUIPlugin:64 - create IPUIPlugin
2025-01-17 15:36:54,401 [INFO] IPUIPlugin:64 - create IPUIPlugin
2025-01-17 15:36:54,401 [INFO] IPUIPlugin:64 - create IPUIPlugin
2025-01-17 15:36:54,401 [INFO] IPUIPlugin:64 - create IPUIPlugin
2025-01-17 15:36:54,401 [INFO] IPUIPlugin:64 - create IPUIPlugin
2025-01-17 15:36:54,401 [INFO] IPUIPlugin:64 - create IPUIPlugin
2025-01-17 15:36:54,401 [INFO] IPUIPlugin:64 - create IPUIPlugin
2025-01-17 15:36:54,417 [INFO] IPUIPlugin:64 - create IPUIPlugin
2025-01-17 15:36:54,417 [INFO] IPUIPlugin:64 - create IPUIPlugin
2025-01-17 15:36:54,417 [INFO] IPUIPlugin:64 - create IPUIPlugin
2025-01-17 15:36:54,417 [INFO] IPUIPlugin:64 - create IPUIPlugin
2025-01-17 15:36:54,417 [INFO] IPUIPlugin:64 - create IPUIPlugin
2025-01-17 15:36:54,501 [INFO] ApiDbMcu:458 - Load IP Config File for PDM2PCM
2025-01-17 15:36:54,532 [INFO] LogOutputStream:76 - [STDOUT_REDIRECT] toolchainItems.length=====1
2025-01-17 15:36:54,617 [INFO] OpenFileManager:323 - Restore cursor
2025-01-17 15:36:55,958 [INFO] UtilMem:74 - End SaveConfig() Used Memory: 1004371440 Bytes (1073741824)
2025-01-17 15:36:56,948 [INFO] UtilMem:74 - End SaveConfig() Used Memory: 953258896 Bytes (1073741824)
2025-01-17 15:36:57,308 [INFO] BlockDiagram:2735 - set Specific Code input for plugin: RCC
2025-01-17 15:36:57,308 [INFO] BlockDiagram:2735 - set Specific Code input for plugin: SYS
2025-01-17 15:36:57,308 [INFO] BlockDiagram:2735 - set Specific Code input for plugin: NVIC
2025-01-17 15:36:57,308 [INFO] CodeGenerator:641 - code generatio: config db path: D:\STM32CubeIDE_1.6.1\STM32CubeIDE\plugins\com.st.stm32cube.common.mx_6.2.1.202103241236\\db\
2025-01-17 15:36:57,953 [INFO] CodeEngine:229 - oldGeneratedFile, C:\Users\yh621\STM32CubeIDE\josh_cnn_stm32h\aa\MXTmpFiles\license.tmp_save
2025-01-17 15:36:58,317 [INFO] CodeEngine:247 - Generated code: C:\Users\yh621\STM32CubeIDE\josh_cnn_stm32h\aa\MXTmpFiles\license.tmp
2025-01-17 15:36:58,531 [INFO] LogOutputStream:76 - [STDOUT_REDIRECT] Command line
2025-01-17 15:36:58,557 [INFO] CodeEngine:229 - oldGeneratedFile, C:\Users\yh621\STM32CubeIDE\josh_cnn_stm32h\aa\MXTmpFiles\cortex.tmp_save
2025-01-17 15:36:58,628 [INFO] CodeEngine:247 - Generated code: C:\Users\yh621\STM32CubeIDE\josh_cnn_stm32h\aa\MXTmpFiles\cortex.tmp
2025-01-17 15:36:58,659 [INFO] CodeEngine:229 - oldGeneratedFile, C:\Users\yh621\STM32CubeIDE\josh_cnn_stm32h\aa\Core\Src\stm32h7xx_it.c_save
2025-01-17 15:36:58,792 [INFO] CodeEngine:247 - Generated code: C:\Users\yh621\STM32CubeIDE\josh_cnn_stm32h\aa\Core\Src\stm32h7xx_it.c
2025-01-17 15:36:58,797 [INFO] CodeEngine:229 - oldGeneratedFile, C:\Users\yh621\STM32CubeIDE\josh_cnn_stm32h\aa\Core\Inc\stm32h7xx_it.h_save
2025-01-17 15:36:58,885 [INFO] CodeEngine:247 - Generated code: C:\Users\yh621\STM32CubeIDE\josh_cnn_stm32h\aa\Core\Inc\stm32h7xx_it.h
2025-01-17 15:36:58,960 [INFO] CodeEngine:229 - oldGeneratedFile, C:\Users\yh621\STM32CubeIDE\josh_cnn_stm32h\aa\Core\Src\stm32h7xx_hal_msp.c_save
2025-01-17 15:36:59,089 [INFO] CodeEngine:247 - Generated code: C:\Users\yh621\STM32CubeIDE\josh_cnn_stm32h\aa\Core\Src\stm32h7xx_hal_msp.c
2025-01-17 15:36:59,098 [INFO] CodeEngine:229 - oldGeneratedFile, C:\Users\yh621\STM32CubeIDE\josh_cnn_stm32h\aa\MXTmpFiles\system.tmp_save
2025-01-17 15:36:59,145 [INFO] CodeEngine:247 - Generated code: C:\Users\yh621\STM32CubeIDE\josh_cnn_stm32h\aa\MXTmpFiles\system.tmp
2025-01-17 15:36:59,176 [INFO] CodeEngine:229 - oldGeneratedFile, C:\Users\yh621\STM32CubeIDE\josh_cnn_stm32h\aa\Core\Inc\stm32h7xx_hal_conf.h_save
2025-01-17 15:36:59,244 [INFO] CodeEngine:247 - Generated code: C:\Users\yh621\STM32CubeIDE\josh_cnn_stm32h\aa\Core\Inc\stm32h7xx_hal_conf.h
2025-01-17 15:36:59,361 [INFO] CodeEngine:229 - oldGeneratedFile, C:\Users\yh621\STM32CubeIDE\josh_cnn_stm32h\aa\Core\Inc\main.h_save
2025-01-17 15:36:59,461 [INFO] CodeEngine:247 - Generated code: C:\Users\yh621\STM32CubeIDE\josh_cnn_stm32h\aa\Core\Inc\main.h
2025-01-17 15:36:59,477 [INFO] CodeEngine:229 - oldGeneratedFile, C:\Users\yh621\STM32CubeIDE\josh_cnn_stm32h\aa\Core\Src\main.c_save
2025-01-17 15:36:59,633 [INFO] CodeEngine:247 - Generated code: C:\Users\yh621\STM32CubeIDE\josh_cnn_stm32h\aa\Core\Src\main.c
2025-01-17 15:37:01,213 [INFO] ProjectBuilder:2460 - Time for Copy HAL[1] : 158mS.
2025-01-17 15:37:01,217 [INFO] ProjectBuilder:3418 - Project Generator version: 3.13.0-B3
2025-01-17 15:37:02,301 [INFO] ConfigFileManager:1242 - The Die is : DIE480
2025-01-17 15:37:02,333 [INFO] ApiDbMcu:458 - Load IP Config File for FATFS
2025-01-17 15:37:02,375 [INFO] ApiDbMcu:458 - Load IP Config File for FREERTOS
2025-01-17 15:37:02,391 [INFO] ApiDbMcu:458 - Load IP Config File for LIBJPEG
2025-01-17 15:37:02,455 [INFO] ApiDbMcu:458 - Load IP Config File for MBEDTLS
2025-01-17 15:37:02,508 [INFO] ApiDbMcu:458 - Load IP Config File for USB_DEVICE
2025-01-17 15:37:02,539 [INFO] ApiDbMcu:458 - Load IP Config File for USB_HOST
2025-01-17 15:37:09,243 [INFO] ProjectBuilder:3584 - Time for Generating toolchain IDE Files: 8026mS.
2025-01-17 15:37:09,243 [INFO] ProjectBuilder:2339 - Time for Copy CMSIS : 0mS.
2025-01-17 15:37:09,243 [INFO] ProjectBuilder:2339 - Time for Copy CMSIS : 0mS.
2025-01-17 15:37:10,642 [INFO] ApiDb:276 - Save user favorites file C:\Users\yh621/.stm32cubeide/favorites.mcus.txt: 1 item(s)
2025-01-17 15:37:10,642 [INFO] ApiDb:280 - User favorites MCUs=[STM32H7A3ZITxQ]
2025-01-17 15:38:52,961 [FATAL] LogicalParser:300 - Exception caught
java.util.ConcurrentModificationException
	at java.base/java.util.LinkedHashMap$LinkedHashIterator.nextNode(Unknown Source)
	at java.base/java.util.LinkedHashMap$LinkedKeyIterator.next(Unknown Source)
	at com.st.microxplorer.mcu.IP.getParameterValue(IP.java:3158)
	at com.st.microxplorer.mcu.RefParameterSemaphore.getValue(RefParameterSemaphore.java:57)
	at com.st.microxplorer.util.MXSemaphore.getValue(MXSemaphore.java:74)
	at com.st.microxplorer.util.LogicalParser.getUpdatedSem(LogicalParser.java:213)
	at com.st.microxplorer.util.LogicalParser.evaluate(LogicalParser.java:396)
	at com.st.microxplorer.util.LogicalParser.checkCondition(LogicalParser.java:298)
	at com.st.microxplorer.mcu.RefParameter.isInUse(RefParameter.java:344)
	at com.st.microxplorer.mcu.IP.getParameter(IP.java:4505)
	at com.st.microxplorer.mcu.IP.getParameterValueForParser(IP.java:3422)
	at com.st.microxplorer.util.LogicalParser.evaluate(LogicalParser.java:468)
	at com.st.microxplorer.util.LogicalParser.checkCondition(LogicalParser.java:298)
	at com.st.microxplorer.mcu.RefParameter.isInUse(RefParameter.java:344)
	at com.st.microxplorer.mcu.IP.getParameter(IP.java:4505)
	at com.st.microxplorer.mcu.IP.getParameterValueForParser(IP.java:3422)
	at com.st.microxplorer.util.LogicalParser.evaluate(LogicalParser.java:468)
	at com.st.microxplorer.util.LogicalParser.checkCondition(LogicalParser.java:298)
	at com.st.microxplorer.mcu.RefParameter.isInUse(RefParameter.java:344)
	at com.st.microxplorer.mcu.IP.getParameter(IP.java:4505)
	at com.st.microxplorer.mcu.IP.isParamavailable(IP.java:2895)
	at com.st.microxplorer.mcu.IP.isParameterConfigured(IP.java:2918)
	at com.st.microxplorer.mcu.IP.isAllParamsConfigured(IP.java:2825)
	at com.st.microxplorer.plugins.ipmanager.generictreatment.model.ParamManager.setConfigurationState(ParamManager.java:679)
	at com.st.microxplorer.plugins.ipmanager.generictreatment.model.ParamManager.setConfigurationState(ParamManager.java:668)
	at com.st.microxplorer.plugins.ip.genericplugin.GenericPlugin.setConfigurationState(GenericPlugin.java:73)
	at com.st.microxplorer.plugins.ipmanager.gui.IPsOverviews.setConfigState(IPsOverviews.java:2728)
	at com.st.microxplorer.plugins.ipmanager.gui.BlockDiagram.updateIPConfigState(BlockDiagram.java:1425)
	at com.st.microxplorer.plugins.ipmanager.gui.BlockDiagram.propertyChange(BlockDiagram.java:1274)
	at java.desktop/java.beans.PropertyChangeSupport.fire(Unknown Source)
	at java.desktop/java.beans.PropertyChangeSupport.firePropertyChange(Unknown Source)
	at java.desktop/java.beans.PropertyChangeSupport.firePropertyChange(Unknown Source)
	at com.st.microxplorer.util.MXPropertyChangeSupport.firePropertyChange(MXPropertyChangeSupport.java:45)
	at com.st.microxplorer.mxsystem.MxSystem.MxFirePropertyChange(MxSystem.java:196)
	at com.st.microxplorer.plugins.ip.usart.Usart.propertyChange(Usart.java:79)
	at java.desktop/java.beans.PropertyChangeSupport.fire(Unknown Source)
	at java.desktop/java.beans.PropertyChangeSupport.firePropertyChange(Unknown Source)
	at java.desktop/java.beans.PropertyChangeSupport.firePropertyChange(Unknown Source)
	at com.st.microxplorer.util.MXPropertyChangeSupport.firePropertyChange(MXPropertyChangeSupport.java:45)
	at com.st.microxplorer.mxsystem.MxSystem.MxFirePropertyChange(MxSystem.java:196)
	at com.st.microxplorer.plugins.clock.ClockTreeView$5.doInBackground(ClockTreeView.java:450)
	at com.st.microxplorer.plugins.clock.ClockTreeView$5.doInBackground(ClockTreeView.java:447)
	at java.desktop/javax.swing.SwingWorker$1.call(Unknown Source)
	at java.base/java.util.concurrent.FutureTask.run(Unknown Source)
	at java.desktop/javax.swing.SwingWorker.run(Unknown Source)
	at java.base/java.util.concurrent.ThreadPoolExecutor.runWorker(Unknown Source)
	at java.base/java.util.concurrent.ThreadPoolExecutor$Worker.run(Unknown Source)
	at java.base/java.lang.Thread.run(Unknown Source)
2025-01-17 15:38:52,977 [FATAL] LogicalParser:300 - Exception caught
java.util.ConcurrentModificationException
	at java.base/java.util.LinkedHashMap$LinkedHashIterator.nextNode(Unknown Source)
	at java.base/java.util.LinkedHashMap$LinkedKeyIterator.next(Unknown Source)
	at com.st.microxplorer.mcu.IP.getParameterValue(IP.java:3158)
	at com.st.microxplorer.mcu.RefParameterSemaphore.getValue(RefParameterSemaphore.java:57)
	at com.st.microxplorer.util.MXSemaphore.getValue(MXSemaphore.java:74)
	at com.st.microxplorer.util.LogicalParser.getUpdatedSem(LogicalParser.java:213)
	at com.st.microxplorer.util.LogicalParser.evaluate(LogicalParser.java:396)
	at com.st.microxplorer.util.LogicalParser.checkCondition(LogicalParser.java:298)
	at com.st.microxplorer.mcu.RefParameter.isInUse(RefParameter.java:344)
	at com.st.microxplorer.mcu.IP.getParameter(IP.java:4505)
	at com.st.microxplorer.mcu.IP.getParameterValueForParser(IP.java:3422)
	at com.st.microxplorer.util.LogicalParser.evaluate(LogicalParser.java:468)
	at com.st.microxplorer.util.LogicalParser.checkCondition(LogicalParser.java:298)
	at com.st.microxplorer.mcu.RefParameter.isInUse(RefParameter.java:344)
	at com.st.microxplorer.mcu.IP.getParameter(IP.java:4505)
	at com.st.microxplorer.mcu.IP.isParamavailable(IP.java:2895)
	at com.st.microxplorer.mcu.IP.isParameterConfigured(IP.java:2918)
	at com.st.microxplorer.mcu.IP.isAllParamsConfigured(IP.java:2825)
	at com.st.microxplorer.plugins.ipmanager.generictreatment.model.ParamManager.setConfigurationState(ParamManager.java:679)
	at com.st.microxplorer.plugins.ipmanager.generictreatment.model.ParamManager.setConfigurationState(ParamManager.java:668)
	at com.st.microxplorer.plugins.ip.genericplugin.GenericPlugin.setConfigurationState(GenericPlugin.java:73)
	at com.st.microxplorer.plugins.ipmanager.gui.IPsOverviews.setConfigState(IPsOverviews.java:2728)
	at com.st.microxplorer.plugins.ipmanager.gui.BlockDiagram.updateIPConfigState(BlockDiagram.java:1425)
	at com.st.microxplorer.plugins.ipmanager.gui.BlockDiagram.propertyChange(BlockDiagram.java:1274)
	at java.desktop/java.beans.PropertyChangeSupport.fire(Unknown Source)
	at java.desktop/java.beans.PropertyChangeSupport.firePropertyChange(Unknown Source)
	at java.desktop/java.beans.PropertyChangeSupport.firePropertyChange(Unknown Source)
	at com.st.microxplorer.util.MXPropertyChangeSupport.firePropertyChange(MXPropertyChangeSupport.java:45)
	at com.st.microxplorer.mxsystem.MxSystem.MxFirePropertyChange(MxSystem.java:196)
	at com.st.microxplorer.plugins.ip.usart.Usart.propertyChange(Usart.java:79)
	at java.desktop/java.beans.PropertyChangeSupport.fire(Unknown Source)
	at java.desktop/java.beans.PropertyChangeSupport.firePropertyChange(Unknown Source)
	at java.desktop/java.beans.PropertyChangeSupport.firePropertyChange(Unknown Source)
	at com.st.microxplorer.util.MXPropertyChangeSupport.firePropertyChange(MXPropertyChangeSupport.java:45)
	at com.st.microxplorer.mxsystem.MxSystem.MxFirePropertyChange(MxSystem.java:196)
	at com.st.microxplorer.plugins.clock.ClockTreeView$5.doInBackground(ClockTreeView.java:450)
	at com.st.microxplorer.plugins.clock.ClockTreeView$5.doInBackground(ClockTreeView.java:447)
	at java.desktop/javax.swing.SwingWorker$1.call(Unknown Source)
	at java.base/java.util.concurrent.FutureTask.run(Unknown Source)
	at java.desktop/javax.swing.SwingWorker.run(Unknown Source)
	at java.base/java.util.concurrent.ThreadPoolExecutor.runWorker(Unknown Source)
	at java.base/java.util.concurrent.ThreadPoolExecutor$Worker.run(Unknown Source)
	at java.base/java.lang.Thread.run(Unknown Source)
2025-01-17 15:38:53,000 [WARN] IP:2088 - MCO1OutPutEnable not found: check if there is a RefParameter without a condition.
2025-01-17 15:38:53,031 [FATAL] LogicalParser:300 - Exception caught
java.util.ConcurrentModificationException
	at java.base/java.util.LinkedHashMap$LinkedHashIterator.nextNode(Unknown Source)
	at java.base/java.util.LinkedHashMap$LinkedKeyIterator.next(Unknown Source)
	at com.st.microxplorer.mcu.IP.getParameterValue(IP.java:3158)
	at com.st.microxplorer.mcu.RefParameterSemaphore.getValue(RefParameterSemaphore.java:57)
	at com.st.microxplorer.util.MXSemaphore.getValue(MXSemaphore.java:74)
	at com.st.microxplorer.util.LogicalParser.getUpdatedSem(LogicalParser.java:213)
	at com.st.microxplorer.util.LogicalParser.evaluate(LogicalParser.java:396)
	at com.st.microxplorer.util.LogicalParser.checkCondition(LogicalParser.java:298)
	at com.st.microxplorer.mcu.RefParameter.isInUse(RefParameter.java:344)
	at com.st.microxplorer.mcu.IP.getParameter(IP.java:4505)
	at com.st.microxplorer.mcu.IP.getParameterValueForParser(IP.java:3422)
	at com.st.microxplorer.util.LogicalParser.evaluate(LogicalParser.java:468)
	at com.st.microxplorer.util.LogicalParser.checkCondition(LogicalParser.java:298)
	at com.st.microxplorer.mcu.RefParameter.isInUse(RefParameter.java:344)
	at com.st.microxplorer.mcu.IP.getParameter(IP.java:4505)
	at com.st.microxplorer.mcu.IP.getParameterValueForParser(IP.java:3422)
	at com.st.microxplorer.util.LogicalParser.evaluate(LogicalParser.java:468)
	at com.st.microxplorer.util.LogicalParser.checkCondition(LogicalParser.java:298)
	at com.st.microxplorer.mcu.RefParameter.isInUse(RefParameter.java:344)
	at com.st.microxplorer.mcu.IP.getParameter(IP.java:4505)
	at com.st.microxplorer.mcu.IP.getRefParameters(IP.java:1989)
	at com.st.microxplorer.mcu.IP.getAllRequiredRefParameters(IP.java:3924)
	at com.st.microxplorer.mcu.RCCService.getAllRequiredRefParameters(RCCService.java:283)
	at com.st.microxplorer.plugins.clock.model.ClockTree.refreshErronousElementList(ClockTree.java:234)
	at com.st.microxplorer.plugins.clock.model.ClockTree.updateElementsState(ClockTree.java:357)
	at com.st.microxplorer.plugins.clock.ClockConfigurationView.clockRefresh(ClockConfigurationView.java:442)
	at com.st.microxplorer.plugins.clock.ClockConfigurationView.activatePlugin(ClockConfigurationView.java:384)
	at com.st.microxplorer.maingui.MainPanel$1.stateChanged(MainPanel.java:303)
	at java.desktop/javax.swing.JTabbedPane.fireStateChanged(Unknown Source)
	at java.desktop/javax.swing.JTabbedPane$ModelListener.stateChanged(Unknown Source)
	at java.desktop/javax.swing.DefaultSingleSelectionModel.fireStateChanged(Unknown Source)
	at java.desktop/javax.swing.DefaultSingleSelectionModel.setSelectedIndex(Unknown Source)
	at java.desktop/javax.swing.JTabbedPane.setSelectedIndexImpl(Unknown Source)
	at java.desktop/javax.swing.JTabbedPane.setSelectedIndex(Unknown Source)
	at java.desktop/javax.swing.plaf.basic.BasicTabbedPaneUI$Handler.mousePressed(Unknown Source)
	at java.desktop/java.awt.AWTEventMulticaster.mousePressed(Unknown Source)
	at java.desktop/java.awt.Component.processMouseEvent(Unknown Source)
	at java.desktop/javax.swing.JComponent.processMouseEvent(Unknown Source)
	at java.desktop/java.awt.Component.processEvent(Unknown Source)
	at java.desktop/java.awt.Container.processEvent(Unknown Source)
	at java.desktop/java.awt.Component.dispatchEventImpl(Unknown Source)
	at java.desktop/java.awt.Container.dispatchEventImpl(Unknown Source)
	at java.desktop/java.awt.Component.dispatchEvent(Unknown Source)
	at java.desktop/java.awt.LightweightDispatcher.retargetMouseEvent(Unknown Source)
	at java.desktop/java.awt.LightweightDispatcher.processMouseEvent(Unknown Source)
	at java.desktop/java.awt.LightweightDispatcher.dispatchEvent(Unknown Source)
	at java.desktop/java.awt.Container.dispatchEventImpl(Unknown Source)
	at java.desktop/java.awt.Component.dispatchEvent(Unknown Source)
	at java.desktop/java.awt.EventQueue.dispatchEventImpl(Unknown Source)
	at java.desktop/java.awt.EventQueue$4.run(Unknown Source)
	at java.desktop/java.awt.EventQueue$4.run(Unknown Source)
	at java.base/java.security.AccessController.doPrivileged(Native Method)
	at java.base/java.security.ProtectionDomain$JavaSecurityAccessImpl.doIntersectionPrivilege(Unknown Source)
	at java.base/java.security.ProtectionDomain$JavaSecurityAccessImpl.doIntersectionPrivilege(Unknown Source)
	at java.desktop/java.awt.EventQueue$5.run(Unknown Source)
	at java.desktop/java.awt.EventQueue$5.run(Unknown Source)
	at java.base/java.security.AccessController.doPrivileged(Native Method)
	at java.base/java.security.ProtectionDomain$JavaSecurityAccessImpl.doIntersectionPrivilege(Unknown Source)
	at java.desktop/java.awt.EventQueue.dispatchEvent(Unknown Source)
	at java.desktop/java.awt.EventDispatchThread.pumpOneEventForFilters(Unknown Source)
	at java.desktop/java.awt.EventDispatchThread.pumpEventsForFilter(Unknown Source)
	at java.desktop/java.awt.EventDispatchThread.pumpEventsForHierarchy(Unknown Source)
	at java.desktop/java.awt.EventDispatchThread.pumpEvents(Unknown Source)
	at java.desktop/java.awt.EventDispatchThread.pumpEvents(Unknown Source)
	at java.desktop/java.awt.EventDispatchThread.run(Unknown Source)
2025-01-17 15:38:53,036 [WARN] IP:2088 - USART16910Enable not found: check if there is a RefParameter without a condition.
2025-01-17 15:38:53,043 [WARN] IP:2088 - PLL1_VCO_SEL not found: check if there is a RefParameter without a condition.
2025-01-17 15:39:48,453 [INFO] ApiDbMcu:458 - Load IP Config File for STMicroelectronics.X-CUBE-AI.8.0.1
2025-01-17 15:39:48,645 [INFO] IPUIPlugin:64 - create IPUIPlugin
2025-01-17 15:39:48,669 [INFO] PluginManager:203 - loadIPPluginJar : add ai.8.0.1
2025-01-17 15:39:48,940 [INFO] IPUIPlugin:64 - create IPUIPlugin
2025-01-17 15:39:53,450 [INFO] Middleware:501 - instanceName : STMicroelectronics.X-CUBE-AI.8.0.1 bspName : COM Port check condition success for : !SEMDeviceJjApplicationJjApplicationTemplate
2025-01-17 15:39:53,450 [INFO] Middleware:501 - instanceName : STMicroelectronics.X-CUBE-AI.8.0.1 bspName : COM Port check condition success for : !SEMDeviceJjApplicationJjApplicationTemplate
2025-01-17 15:39:53,450 [INFO] Middleware:501 - instanceName : STMicroelectronics.X-CUBE-AI.8.0.1 bspName : COM Port check condition success for : !SEMDeviceJjApplicationJjApplicationTemplate
2025-01-17 15:39:53,517 [INFO] Middleware:501 - instanceName : STMicroelectronics.X-CUBE-AI.8.0.1 bspName : COM Port check condition success for : !SEMDeviceJjApplicationJjApplicationTemplate
2025-01-17 15:39:53,517 [INFO] Middleware:501 - instanceName : STMicroelectronics.X-CUBE-AI.8.0.1 bspName : COM Port check condition success for : !SEMDeviceJjApplicationJjApplicationTemplate
2025-01-17 15:39:53,517 [INFO] Middleware:501 - instanceName : STMicroelectronics.X-CUBE-AI.8.0.1 bspName : COM Port check condition success for : !SEMDeviceJjApplicationJjApplicationTemplate
2025-01-17 15:39:53,764 [INFO] AIMainUI:1259 - Restoring parameters from IP...
2025-01-17 15:39:53,777 [INFO] AIMainUI:1378 - No old model detected
2025-01-17 15:39:53,793 [INFO] AI:946 - getUI adding AI com.st.microxplorer.plugins.ip.ai.AI@3448a810 on STMicroelectronics.X-CUBE-AI.8.0.1
2025-01-17 15:39:53,793 [INFO] Middleware:501 - instanceName : STMicroelectronics.X-CUBE-AI.8.0.1 bspName : COM Port check condition success for : !SEMDeviceJjApplicationJjApplicationTemplate
2025-01-17 15:39:53,793 [INFO] Middleware:501 - instanceName : STMicroelectronics.X-CUBE-AI.8.0.1 bspName : COM Port check condition success for : !SEMDeviceJjApplicationJjApplicationTemplate
2025-01-17 15:39:53,793 [INFO] Middleware:501 - instanceName : STMicroelectronics.X-CUBE-AI.8.0.1 bspName : COM Port check condition success for : !SEMDeviceJjApplicationJjApplicationTemplate
2025-01-17 15:39:54,826 [INFO] Middleware:501 - instanceName : STMicroelectronics.X-CUBE-AI.8.0.1 bspName : COM Port check condition success for : !SEMDeviceJjApplicationJjApplicationTemplate
2025-01-17 15:39:54,826 [INFO] Middleware:501 - instanceName : STMicroelectronics.X-CUBE-AI.8.0.1 bspName : COM Port check condition success for : !SEMDeviceJjApplicationJjApplicationTemplate
2025-01-17 15:39:54,826 [INFO] Middleware:501 - instanceName : STMicroelectronics.X-CUBE-AI.8.0.1 bspName : COM Port check condition success for : !SEMDeviceJjApplicationJjApplicationTemplate
2025-01-17 15:39:54,842 [INFO] AI:946 - getUI adding AI com.st.microxplorer.plugins.ip.ai.AI@3448a810 on STMicroelectronics.X-CUBE-AI.8.0.1
2025-01-17 15:39:54,842 [INFO] Middleware:501 - instanceName : STMicroelectronics.X-CUBE-AI.8.0.1 bspName : COM Port check condition success for : !SEMDeviceJjApplicationJjApplicationTemplate
2025-01-17 15:39:54,842 [INFO] Middleware:501 - instanceName : STMicroelectronics.X-CUBE-AI.8.0.1 bspName : COM Port check condition success for : !SEMDeviceJjApplicationJjApplicationTemplate
2025-01-17 15:39:54,842 [INFO] Middleware:501 - instanceName : STMicroelectronics.X-CUBE-AI.8.0.1 bspName : COM Port check condition success for : !SEMDeviceJjApplicationJjApplicationTemplate
2025-01-17 15:39:55,504 [INFO] BoardParameter:82 - Mode not set IP=RCC mode=BYPASS Clock Source
2025-01-17 15:39:56,211 [INFO] Middleware:501 - instanceName : STMicroelectronics.X-CUBE-AI.8.0.1 bspName : COM Port check condition success for : !SEMDeviceJjApplicationJjApplicationTemplate
2025-01-17 15:39:56,211 [INFO] Middleware:501 - instanceName : STMicroelectronics.X-CUBE-AI.8.0.1 bspName : COM Port check condition success for : !SEMDeviceJjApplicationJjApplicationTemplate
2025-01-17 15:39:56,211 [INFO] Middleware:501 - instanceName : STMicroelectronics.X-CUBE-AI.8.0.1 bspName : COM Port check condition success for : !SEMDeviceJjApplicationJjApplicationTemplate
2025-01-17 15:39:56,391 [INFO] AI:946 - getUI adding AI com.st.microxplorer.plugins.ip.ai.AI@3448a810 on STMicroelectronics.X-CUBE-AI.8.0.1
2025-01-17 15:39:56,391 [INFO] Middleware:501 - instanceName : STMicroelectronics.X-CUBE-AI.8.0.1 bspName : COM Port check condition success for : !SEMDeviceJjApplicationJjApplicationTemplate
2025-01-17 15:39:56,391 [INFO] Middleware:501 - instanceName : STMicroelectronics.X-CUBE-AI.8.0.1 bspName : COM Port check condition success for : !SEMDeviceJjApplicationJjApplicationTemplate
2025-01-17 15:39:56,391 [INFO] Middleware:501 - instanceName : STMicroelectronics.X-CUBE-AI.8.0.1 bspName : COM Port check condition success for : !SEMDeviceJjApplicationJjApplicationTemplate
2025-01-17 15:39:56,841 [INFO] Middleware:501 - instanceName : STMicroelectronics.X-CUBE-AI.8.0.1 bspName : COM Port check condition success for : !SEMDeviceJjApplicationJjApplicationTemplate
2025-01-17 15:39:56,841 [INFO] Middleware:501 - instanceName : STMicroelectronics.X-CUBE-AI.8.0.1 bspName : COM Port check condition success for : !SEMDeviceJjApplicationJjApplicationTemplate
2025-01-17 15:39:56,841 [INFO] Middleware:501 - instanceName : STMicroelectronics.X-CUBE-AI.8.0.1 bspName : COM Port check condition success for : !SEMDeviceJjApplicationJjApplicationTemplate
2025-01-17 15:40:01,379 [INFO] AInterface:109 - AInterface using toolDir: C:/Users/yh621/STM32Cube/Repository/Packs/STMicroelectronics/X-CUBE-AI/8.0.1/Utilities/windows
2025-01-17 15:40:01,426 [INFO] AIModelDetailledView:2080 - Analysis status: -
2025-01-17 15:40:01,426 [INFO] AIModelDetailledView:861 - Selected model: Keras
2025-01-17 15:40:04,181 [INFO] AIModelDetailledView:861 - Selected model: TFLite
2025-01-17 15:40:17,493 [INFO] AInterface:235 - ModelName:network; files:[D:\josh\CNN_Cifar100_integer_quant.tflite]; type:TFLite; compression:None
2025-01-17 15:40:17,496 [INFO] AInterface:506 - workspaceTempDir: C:\Users\yh621\AppData\Local\Temp\mxAI_workspace149087217925001391341380806263101
2025-01-17 15:40:17,508 [INFO] AInterface:1042 - Setting Env: C:/Users/yh621/STM32Cube/Repository/Packs/STMicroelectronics/X-CUBE-AI/8.0.1/Utilities/windows
2025-01-17 15:40:18,169 [INFO] STM32CubeIDEBuilder:257 - Looking for gnu-tools-for-stm32 tools/bin/arm-none-eabi-gcc.exe in D:\STM32CubeIDE_1.6.1\STM32CubeIDE
2025-01-17 15:40:18,169 [INFO] STM32CubeIDEBuilder:283 - checking D:\STM32CubeIDE_1.6.1\STM32CubeIDE\plugins\com.st.stm32cube.ide.mcu.externaltools.gnu-tools-for-stm32.9-2020-q2-update.win32_1.5.0.202011040924\tools\bin\arm-none-eabi-gcc.exe
2025-01-17 15:40:18,169 [INFO] STM32CubeIDEBuilder:286 - ret=D:\STM32CubeIDE_1.6.1\STM32CubeIDE\plugins\com.st.stm32cube.ide.mcu.externaltools.gnu-tools-for-stm32.9-2020-q2-update.win32_1.5.0.202011040924\tools\bin\arm-none-eabi-gcc.exe
2025-01-17 15:40:18,169 [INFO] STM32CubeIDEBuilder:300 - returning D:\STM32CubeIDE_1.6.1\STM32CubeIDE\plugins\com.st.stm32cube.ide.mcu.externaltools.gnu-tools-for-stm32.9-2020-q2-update.win32_1.5.0.202011040924\tools\bin\arm-none-eabi-gcc.exe
2025-01-17 15:40:18,169 [INFO] AInterface:1099 - Custom PATH variable: C:/Users/yh621/STM32Cube/Repository/Packs/STMicroelectronics/X-CUBE-AI/8.0.1/Utilities/windows;C:/Users/yh621/STM32Cube/Repository/Packs/STMicroelectronics/X-CUBE-AI/8.0.1/Utilities/windows/mingw64/bin;C:/Users/yh621/STM32Cube/Repository/Packs/STMicroelectronics/X-CUBE-AI/8.0.1/Utilities/windows/mingw64/libexec/gcc/x86_64-w64-mingw32/7.3.0;C:/Users/yh621/STM32Cube/Repository/Packs/STMicroelectronics/X-CUBE-AI/8.0.1/Utilities/windows/node/bin;D:\STM32CubeIDE_1.6.1\STM32CubeIDE\plugins\com.st.stm32cube.ide.mcu.externaltools.gnu-tools-for-stm32.9-2020-q2-update.win32_1.5.0.202011040924\tools\bin
2025-01-17 15:40:18,169 [INFO] CmdLine:100 - Command: C:/Users/yh621/STM32Cube/Repository/Packs/STMicroelectronics/X-CUBE-AI/8.0.1/Utilities/windows/stm32ai analyze --name network -m D:/josh/CNN_Cifar100_integer_quant.tflite --type tflite --compression none --verbosity 1 --workspace C:\Users\yh621\AppData\Local\Temp\mxAI_workspace149087217925001391341380806263101 --output C:\Users\yh621\.stm32cubemx\network_output --allocate-inputs --series stm32h7 --allocate-outputs 
2025-01-17 15:40:18,169 [INFO] AIModelDetailledView:2080 - Analysis status: pending
2025-01-17 15:41:33,136 [INFO] CmdLine:67 - Neural Network Tools for STM32AI v1.7.0 (STM.ai v8.0.1-19451)
2025-01-17 15:41:34,732 [INFO] CmdLine:67 - Applied 0 of 0 optimizations
2025-01-17 15:41:35,539 [INFO] CmdLine:67 -  
2025-01-17 15:41:35,539 [INFO] CmdLine:67 -  Exec/report summary (analyze)
2025-01-17 15:41:35,539 [INFO] CmdLine:67 -  -----------------------------------------------------------------------------------------------------------
2025-01-17 15:41:35,539 [INFO] CmdLine:67 -  model file         :   D:\josh\CNN_Cifar100_integer_quant.tflite                                           
2025-01-17 15:41:35,539 [INFO] CmdLine:67 -  type               :   tflite                                                                              
2025-01-17 15:41:35,539 [INFO] CmdLine:67 -  c_name             :   network                                                                             
2025-01-17 15:41:35,539 [INFO] CmdLine:67 -  compression        :   none                                                                                
2025-01-17 15:41:35,539 [INFO] CmdLine:67 -  options            :   allocate-inputs, allocate-outputs                                                   
2025-01-17 15:41:35,539 [INFO] CmdLine:67 -  optimization       :   balanced                                                                            
2025-01-17 15:41:35,539 [INFO] CmdLine:67 -  target/series      :   stm32h7                                                                             
2025-01-17 15:41:35,539 [INFO] CmdLine:67 -  workspace dir      :   C:\Users\yh621\AppData\Local\Temp\mxAI_workspace149087217925001391341380806263101   
2025-01-17 15:41:35,539 [INFO] CmdLine:67 -  output dir         :   C:\Users\yh621\.stm32cubemx\network_output                                          
2025-01-17 15:41:35,539 [INFO] CmdLine:67 -  model_fmt          :   ss/sa                                                                               
2025-01-17 15:41:35,539 [INFO] CmdLine:67 -  model_name         :   CNN_Cifar100_integer_quant                                                          
2025-01-17 15:41:35,539 [INFO] CmdLine:67 -  model_hash         :   172fded3d78c2eb2c925ec077923631a                                                    
2025-01-17 15:41:35,539 [INFO] CmdLine:67 -  params #           :   348,772 items (343.33 KiB)                                                          
2025-01-17 15:41:35,539 [INFO] CmdLine:67 -  -----------------------------------------------------------------------------------------------------------
2025-01-17 15:41:35,539 [INFO] CmdLine:67 -  input 1/1          :   'serving_default_x_10' (domain:activations/**default**)                             
2025-01-17 15:41:35,539 [INFO] CmdLine:67 -                     :   3072 items, 12.00 KiB, ai_float, float, (1,32,32,3)                                 
2025-01-17 15:41:35,539 [INFO] CmdLine:67 -  output 1/1         :   'conversion_58' (domain:activations/**default**)                                    
2025-01-17 15:41:35,539 [INFO] CmdLine:67 -                     :   100 items, 400 B, ai_float, float, (1,1,1,100)                                      
2025-01-17 15:41:35,539 [INFO] CmdLine:67 -  macc               :   37,785,196                                                                          
2025-01-17 15:41:35,539 [INFO] CmdLine:67 -  weights (ro)       :   351,568 B (343.33 KiB) (1 segment) / -1,043,520(-74.8%) vs float model              
2025-01-17 15:41:35,539 [INFO] CmdLine:67 -  activations (rw)   :   327,680 B (320.00 KiB) (1 segment) *                                                
2025-01-17 15:41:35,539 [INFO] CmdLine:67 -  ram (total)        :   327,680 B (320.00 KiB) = 327,680 + 0 + 0                                            
2025-01-17 15:41:35,547 [INFO] CmdLine:67 -  -----------------------------------------------------------------------------------------------------------
2025-01-17 15:41:35,547 [INFO] CmdLine:67 -  (*) 'input'/'output' buffers can be used from the activations buffer
2025-01-17 15:41:37,763 [INFO] CmdLine:67 -  Model name - CNN_Cifar100_integer_quant ['serving_default_x_10'] ['conversion_58']
2025-01-17 15:41:37,763 [INFO] CmdLine:67 -  ------ ---------------------------- ---------------------- --------------- ------------ ----------------------
2025-01-17 15:41:37,763 [INFO] CmdLine:67 -  m_id   layer (original)             oshape                 param/size              macc           connected to
2025-01-17 15:41:37,763 [INFO] CmdLine:67 -  ------ ---------------------------- ---------------------- --------------- ------------ ----------------------
2025-01-17 15:41:37,763 [INFO] CmdLine:67 -  0      serving_default_x_10 ()      [b:1,h:32,w:32,c:3]
2025-01-17 15:41:37,763 [INFO] CmdLine:67 -         conversion_0 (QUANTIZE)      [b:1,h:32,w:32,c:3]                           6,144   serving_default_x_10
2025-01-17 15:41:37,763 [INFO] CmdLine:67 -  ------ ---------------------------- ---------------------- --------------- ------------ ----------------------
2025-01-17 15:41:37,763 [INFO] CmdLine:67 -  1      conv2d_1 (CONV_2D)           [b:1,h:32,w:32,c:64]   1,792/1,984        1,769,536           conversion_0
2025-01-17 15:41:37,763 [INFO] CmdLine:67 -  ------ ---------------------------- ---------------------- --------------- ------------ ----------------------
2025-01-17 15:41:37,763 [INFO] CmdLine:67 -  2      conversion_2 (DEQUANTIZE)    [b:1,h:32,w:32,c:64]                        131,072               conv2d_1
2025-01-17 15:41:37,763 [INFO] CmdLine:67 -  ------ ---------------------------- ---------------------- --------------- ------------ ----------------------
2025-01-17 15:41:37,763 [INFO] CmdLine:67 -  3      nl_3 (FLOOR)                 [b:1,h:32,w:32,c:64]                        131,072           conversion_2
2025-01-17 15:41:37,763 [INFO] CmdLine:67 -  ------ ---------------------------- ---------------------- --------------- ------------ ----------------------
2025-01-17 15:41:37,763 [INFO] CmdLine:67 -  4      conversion_4 (QUANTIZE)      [b:1,h:32,w:32,c:64]                        131,072                   nl_3
2025-01-17 15:41:37,763 [INFO] CmdLine:67 -  ------ ---------------------------- ---------------------- --------------- ------------ ----------------------
2025-01-17 15:41:37,763 [INFO] CmdLine:67 -  5      nl_5 (RELU)                  [b:1,h:32,w:32,c:64]                         65,536           conversion_4
2025-01-17 15:41:37,763 [INFO] CmdLine:67 -  ------ ---------------------------- ---------------------- --------------- ------------ ----------------------
2025-01-17 15:41:37,763 [INFO] CmdLine:67 -  6      conv2d_6 (CONV_2D)           [b:1,h:32,w:32,c:32]   2,080/2,176        2,097,184                   nl_5
2025-01-17 15:41:37,779 [INFO] CmdLine:67 -  ------ ---------------------------- ---------------------- --------------- ------------ ----------------------
2025-01-17 15:41:37,779 [INFO] CmdLine:67 -  7      conversion_7 (DEQUANTIZE)    [b:1,h:32,w:32,c:32]                         65,536               conv2d_6
2025-01-17 15:41:37,779 [INFO] CmdLine:67 -  ------ ---------------------------- ---------------------- --------------- ------------ ----------------------
2025-01-17 15:41:37,779 [INFO] CmdLine:67 -  8      nl_8 (FLOOR)                 [b:1,h:32,w:32,c:32]                         65,536           conversion_7
2025-01-17 15:41:37,779 [INFO] CmdLine:67 -  ------ ---------------------------- ---------------------- --------------- ------------ ----------------------
2025-01-17 15:41:37,779 [INFO] CmdLine:67 -  9      conversion_9 (QUANTIZE)      [b:1,h:32,w:32,c:32]                         65,536                   nl_8
2025-01-17 15:41:37,779 [INFO] CmdLine:67 -  ------ ---------------------------- ---------------------- --------------- ------------ ----------------------
2025-01-17 15:41:37,779 [INFO] CmdLine:67 -  10     nl_10 (RELU)                 [b:1,h:32,w:32,c:32]                         32,768           conversion_9
2025-01-17 15:41:37,779 [INFO] CmdLine:67 -  ------ ---------------------------- ---------------------- --------------- ------------ ----------------------
2025-01-17 15:41:37,779 [INFO] CmdLine:67 -  11     conv2d_11 (CONV_2D)          [b:1,h:32,w:32,c:64]   18,496/18,688     18,874,432                  nl_10
2025-01-17 15:41:37,779 [INFO] CmdLine:67 -  ------ ---------------------------- ---------------------- --------------- ------------ ----------------------
2025-01-17 15:41:37,779 [INFO] CmdLine:67 -  12     conversion_12 (DEQUANTIZE)   [b:1,h:32,w:32,c:64]                        131,072              conv2d_11
2025-01-17 15:41:37,779 [INFO] CmdLine:67 -  ------ ---------------------------- ---------------------- --------------- ------------ ----------------------
2025-01-17 15:41:37,779 [INFO] CmdLine:67 -  13     nl_13 (FLOOR)                [b:1,h:32,w:32,c:64]                        131,072          conversion_12
2025-01-17 15:41:37,779 [INFO] CmdLine:67 -  ------ ---------------------------- ---------------------- --------------- ------------ ----------------------
2025-01-17 15:41:37,779 [INFO] CmdLine:67 -  14     conversion_14 (QUANTIZE)     [b:1,h:32,w:32,c:64]                        131,072                  nl_13
2025-01-17 15:41:37,779 [INFO] CmdLine:67 -  ------ ---------------------------- ---------------------- --------------- ------------ ----------------------
2025-01-17 15:41:37,779 [INFO] CmdLine:67 -  15     nl_15 (RELU)                 [b:1,h:32,w:32,c:64]                         65,536          conversion_14
2025-01-17 15:41:37,779 [INFO] CmdLine:67 -  ------ ---------------------------- ---------------------- --------------- ------------ ----------------------
2025-01-17 15:41:37,779 [INFO] CmdLine:67 -  16     pool_16 (MAX_POOL_2D)        [b:1,h:16,w:16,c:64]                         65,536                  nl_15
2025-01-17 15:41:37,779 [INFO] CmdLine:67 -  ------ ---------------------------- ---------------------- --------------- ------------ ----------------------
2025-01-17 15:41:37,779 [INFO] CmdLine:67 -  17     conv2d_17 (CONV_2D)          [b:1,h:16,w:16,c:32]   18,464/18,560      4,718,624                pool_16
2025-01-17 15:41:37,779 [INFO] CmdLine:67 -  ------ ---------------------------- ---------------------- --------------- ------------ ----------------------
2025-01-17 15:41:37,779 [INFO] CmdLine:67 -  18     conversion_18 (DEQUANTIZE)   [b:1,h:16,w:16,c:32]                         16,384              conv2d_17
2025-01-17 15:41:37,779 [INFO] CmdLine:67 -  ------ ---------------------------- ---------------------- --------------- ------------ ----------------------
2025-01-17 15:41:37,779 [INFO] CmdLine:67 -  19     nl_19 (FLOOR)                [b:1,h:16,w:16,c:32]                         16,384          conversion_18
2025-01-17 15:41:37,779 [INFO] CmdLine:67 -  ------ ---------------------------- ---------------------- --------------- ------------ ----------------------
2025-01-17 15:41:37,779 [INFO] CmdLine:67 -  20     conversion_20 (QUANTIZE)     [b:1,h:16,w:16,c:32]                         16,384                  nl_19
2025-01-17 15:41:37,779 [INFO] CmdLine:67 -  ------ ---------------------------- ---------------------- --------------- ------------ ----------------------
2025-01-17 15:41:37,779 [INFO] CmdLine:67 -  21     nl_21 (RELU)                 [b:1,h:16,w:16,c:32]                          8,192          conversion_20
2025-01-17 15:41:37,779 [INFO] CmdLine:67 -  ------ ---------------------------- ---------------------- --------------- ------------ ----------------------
2025-01-17 15:41:37,779 [INFO] CmdLine:67 -  22     conv2d_22 (CONV_2D)          [b:1,h:16,w:16,c:64]   2,112/2,304          524,352                  nl_21
2025-01-17 15:41:37,779 [INFO] CmdLine:67 -  ------ ---------------------------- ---------------------- --------------- ------------ ----------------------
2025-01-17 15:41:37,779 [INFO] CmdLine:67 -  23     conversion_23 (DEQUANTIZE)   [b:1,h:16,w:16,c:64]                         32,768              conv2d_22
2025-01-17 15:41:37,779 [INFO] CmdLine:67 -  ------ ---------------------------- ---------------------- --------------- ------------ ----------------------
2025-01-17 15:41:37,779 [INFO] CmdLine:67 -  24     nl_24 (FLOOR)                [b:1,h:16,w:16,c:64]                         32,768          conversion_23
2025-01-17 15:41:37,779 [INFO] CmdLine:67 -  ------ ---------------------------- ---------------------- --------------- ------------ ----------------------
2025-01-17 15:41:37,779 [INFO] CmdLine:67 -  25     conversion_25 (QUANTIZE)     [b:1,h:16,w:16,c:64]                         32,768                  nl_24
2025-01-17 15:41:37,779 [INFO] CmdLine:67 -  ------ ---------------------------- ---------------------- --------------- ------------ ----------------------
2025-01-17 15:41:37,779 [INFO] CmdLine:67 -  26     nl_26 (RELU)                 [b:1,h:16,w:16,c:64]                         16,384          conversion_25
2025-01-17 15:41:37,779 [INFO] CmdLine:67 -  ------ ---------------------------- ---------------------- --------------- ------------ ----------------------
2025-01-17 15:41:37,779 [INFO] CmdLine:67 -  27     pool_27 (MAX_POOL_2D)        [b:1,h:8,w:8,c:64]                           16,384                  nl_26
2025-01-17 15:41:37,779 [INFO] CmdLine:67 -  ------ ---------------------------- ---------------------- --------------- ------------ ----------------------
2025-01-17 15:41:37,779 [INFO] CmdLine:67 -  28     conv2d_28 (CONV_2D)          [b:1,h:8,w:8,c:128]    73,856/74,240      4,718,720                pool_27
2025-01-17 15:41:37,779 [INFO] CmdLine:67 -  ------ ---------------------------- ---------------------- --------------- ------------ ----------------------
2025-01-17 15:41:37,795 [INFO] CmdLine:67 -  29     conversion_29 (DEQUANTIZE)   [b:1,h:8,w:8,c:128]                          16,384              conv2d_28
2025-01-17 15:41:37,795 [INFO] CmdLine:67 -  ------ ---------------------------- ---------------------- --------------- ------------ ----------------------
2025-01-17 15:41:37,795 [INFO] CmdLine:67 -  30     nl_30 (FLOOR)                [b:1,h:8,w:8,c:128]                          16,384          conversion_29
2025-01-17 15:41:37,795 [INFO] CmdLine:67 -  ------ ---------------------------- ---------------------- --------------- ------------ ----------------------
2025-01-17 15:41:37,795 [INFO] CmdLine:67 -  31     conversion_31 (QUANTIZE)     [b:1,h:8,w:8,c:128]                          16,384                  nl_30
2025-01-17 15:41:37,797 [INFO] CmdLine:67 -  ------ ---------------------------- ---------------------- --------------- ------------ ----------------------
2025-01-17 15:41:37,797 [INFO] CmdLine:67 -  32     nl_32 (RELU)                 [b:1,h:8,w:8,c:128]                           8,192          conversion_31
2025-01-17 15:41:37,797 [INFO] CmdLine:67 -  ------ ---------------------------- ---------------------- --------------- ------------ ----------------------
2025-01-17 15:41:37,797 [INFO] CmdLine:67 -  33     conv2d_33 (CONV_2D)          [b:1,h:8,w:8,c:128]    16,512/16,896      1,048,704                  nl_32
2025-01-17 15:41:37,797 [INFO] CmdLine:67 -  ------ ---------------------------- ---------------------- --------------- ------------ ----------------------
2025-01-17 15:41:37,797 [INFO] CmdLine:67 -  34     conversion_34 (DEQUANTIZE)   [b:1,h:8,w:8,c:128]                          16,384              conv2d_33
2025-01-17 15:41:37,797 [INFO] CmdLine:67 -  ------ ---------------------------- ---------------------- --------------- ------------ ----------------------
2025-01-17 15:41:37,797 [INFO] CmdLine:67 -  35     nl_35 (FLOOR)                [b:1,h:8,w:8,c:128]                          16,384          conversion_34
2025-01-17 15:41:37,797 [INFO] CmdLine:67 -  ------ ---------------------------- ---------------------- --------------- ------------ ----------------------
2025-01-17 15:41:37,804 [INFO] CmdLine:67 -  36     conversion_36 (QUANTIZE)     [b:1,h:8,w:8,c:128]                          16,384                  nl_35
2025-01-17 15:41:37,804 [INFO] CmdLine:67 -  ------ ---------------------------- ---------------------- --------------- ------------ ----------------------
2025-01-17 15:41:37,804 [INFO] CmdLine:67 -  37     nl_37 (RELU)                 [b:1,h:8,w:8,c:128]                           8,192          conversion_36
2025-01-17 15:41:37,804 [INFO] CmdLine:67 -  ------ ---------------------------- ---------------------- --------------- ------------ ----------------------
2025-01-17 15:41:37,804 [INFO] CmdLine:67 -  38     pool_38 (MAX_POOL_2D)        [b:1,h:4,w:4,c:128]                           8,192                  nl_37
2025-01-17 15:41:37,804 [INFO] CmdLine:67 -  ------ ---------------------------- ---------------------- --------------- ------------ ----------------------
2025-01-17 15:41:37,804 [INFO] CmdLine:67 -  39     conv2d_39 (CONV_2D)          [b:1,h:4,w:4,c:64]     73,792/73,984      1,179,712                pool_38
2025-01-17 15:41:37,804 [INFO] CmdLine:67 -  ------ ---------------------------- ---------------------- --------------- ------------ ----------------------
2025-01-17 15:41:37,804 [INFO] CmdLine:67 -  40     conversion_40 (DEQUANTIZE)   [b:1,h:4,w:4,c:64]                            2,048              conv2d_39
2025-01-17 15:41:37,804 [INFO] CmdLine:67 -  ------ ---------------------------- ---------------------- --------------- ------------ ----------------------
2025-01-17 15:41:37,804 [INFO] CmdLine:67 -  41     nl_41 (FLOOR)                [b:1,h:4,w:4,c:64]                            2,048          conversion_40
2025-01-17 15:41:37,804 [INFO] CmdLine:67 -  ------ ---------------------------- ---------------------- --------------- ------------ ----------------------
2025-01-17 15:41:37,804 [INFO] CmdLine:67 -  42     conversion_42 (QUANTIZE)     [b:1,h:4,w:4,c:64]                            2,048                  nl_41
2025-01-17 15:41:37,804 [INFO] CmdLine:67 -  ------ ---------------------------- ---------------------- --------------- ------------ ----------------------
2025-01-17 15:41:37,804 [INFO] CmdLine:67 -  43     nl_43 (RELU)                 [b:1,h:4,w:4,c:64]                            1,024          conversion_42
2025-01-17 15:41:37,804 [INFO] CmdLine:67 -  ------ ---------------------------- ---------------------- --------------- ------------ ----------------------
2025-01-17 15:41:37,804 [INFO] CmdLine:67 -  44     conv2d_44 (CONV_2D)          [b:1,h:4,w:4,c:128]    73,856/74,240      1,179,776                  nl_43
2025-01-17 15:41:37,804 [INFO] CmdLine:67 -  ------ ---------------------------- ---------------------- --------------- ------------ ----------------------
2025-01-17 15:41:37,804 [INFO] CmdLine:67 -  45     conversion_45 (DEQUANTIZE)   [b:1,h:4,w:4,c:128]                           4,096              conv2d_44
2025-01-17 15:41:37,804 [INFO] CmdLine:67 -  ------ ---------------------------- ---------------------- --------------- ------------ ----------------------
2025-01-17 15:41:37,804 [INFO] CmdLine:67 -  46     nl_46 (FLOOR)                [b:1,h:4,w:4,c:128]                           4,096          conversion_45
2025-01-17 15:41:37,804 [INFO] CmdLine:67 -  ------ ---------------------------- ---------------------- --------------- ------------ ----------------------
2025-01-17 15:41:37,804 [INFO] CmdLine:67 -  47     conversion_47 (QUANTIZE)     [b:1,h:4,w:4,c:128]                           4,096                  nl_46
2025-01-17 15:41:37,804 [INFO] CmdLine:67 -  ------ ---------------------------- ---------------------- --------------- ------------ ----------------------
2025-01-17 15:41:37,804 [INFO] CmdLine:67 -  48     nl_48 (RELU)                 [b:1,h:4,w:4,c:128]                           2,048          conversion_47
2025-01-17 15:41:37,804 [INFO] CmdLine:67 -  ------ ---------------------------- ---------------------- --------------- ------------ ----------------------
2025-01-17 15:41:37,804 [INFO] CmdLine:67 -  49     pool_49 (MAX_POOL_2D)        [b:1,h:2,w:2,c:128]                           2,048                  nl_48
2025-01-17 15:41:37,804 [INFO] CmdLine:67 -  ------ ---------------------------- ---------------------- --------------- ------------ ----------------------
2025-01-17 15:41:37,804 [INFO] CmdLine:67 -  50     conv2d_50 (CONV_2D)          [b:1,h:2,w:2,c:128]    16,512/16,896         65,664                pool_49
2025-01-17 15:41:37,804 [INFO] CmdLine:67 -  ------ ---------------------------- ---------------------- --------------- ------------ ----------------------
2025-01-17 15:41:37,804 [INFO] CmdLine:67 -  51     conversion_51 (DEQUANTIZE)   [b:1,h:2,w:2,c:128]                           1,024              conv2d_50
2025-01-17 15:41:37,804 [INFO] CmdLine:67 -  ------ ---------------------------- ---------------------- --------------- ------------ ----------------------
2025-01-17 15:41:37,820 [INFO] CmdLine:67 -  52     nl_52 (FLOOR)                [b:1,h:2,w:2,c:128]                           1,024          conversion_51
2025-01-17 15:41:37,820 [INFO] CmdLine:67 -  ------ ---------------------------- ---------------------- --------------- ------------ ----------------------
2025-01-17 15:41:37,820 [INFO] CmdLine:67 -  53     conversion_53 (QUANTIZE)     [b:1,h:2,w:2,c:128]                           1,024                  nl_52
2025-01-17 15:41:37,820 [INFO] CmdLine:67 -  ------ ---------------------------- ---------------------- --------------- ------------ ----------------------
2025-01-17 15:41:37,821 [INFO] CmdLine:67 -  54     nl_54 (RELU)                 [b:1,h:2,w:2,c:128]                             512          conversion_53
2025-01-17 15:41:37,822 [INFO] CmdLine:67 -  ------ ---------------------------- ---------------------- --------------- ------------ ----------------------
2025-01-17 15:41:37,822 [INFO] CmdLine:67 -  55     transpose_55 (TRANSPOSE)     [b:1,h:128,w:2,c:2]                                                  nl_54
2025-01-17 15:41:37,822 [INFO] CmdLine:67 -  ------ ---------------------------- ---------------------- --------------- ------------ ----------------------
2025-01-17 15:41:37,822 [INFO] CmdLine:67 -  56     reshape_56 (RESHAPE)         [b:1,c:512]                                                   transpose_55
2025-01-17 15:41:37,823 [INFO] CmdLine:67 -  ------ ---------------------------- ---------------------- --------------- ------------ ----------------------
2025-01-17 15:41:37,823 [INFO] CmdLine:67 -  57     dense_57 (FULLY_CONNECTED)   [b:1,c:100]            51,300/51,600         51,300             reshape_56
2025-01-17 15:41:37,823 [INFO] CmdLine:67 -  ------ ---------------------------- ---------------------- --------------- ------------ ----------------------
2025-01-17 15:41:37,824 [INFO] CmdLine:67 -  58     conversion_58 (DEQUANTIZE)   [b:1,c:100]                                     200               dense_57
2025-01-17 15:41:37,824 [INFO] CmdLine:67 -  ------ ---------------------------- ---------------------- --------------- ------------ ----------------------
2025-01-17 15:41:37,824 [INFO] CmdLine:67 -  model/c-model: macc=37,785,196/37,785,196  weights=351,568/351,568  activations=--/327,680 io=--/0
2025-01-17 15:41:37,824 [INFO] CmdLine:67 -  Number of operations per c-layer
2025-01-17 15:41:37,824 [INFO] CmdLine:67 -  ------- ------ --------------------------- ------------ -------------
2025-01-17 15:41:37,824 [INFO] CmdLine:67 -  c_id    m_id   name (type)                          #op          type
2025-01-17 15:41:37,824 [INFO] CmdLine:67 -  ------- ------ --------------------------- ------------ -------------
2025-01-17 15:41:37,824 [INFO] CmdLine:67 -  0       0      conversion_0 (converter)           6,144   smul_f32_s8
2025-01-17 15:41:37,824 [INFO] CmdLine:67 -  1       1      conv2d_1 (conv2d)              1,769,536    smul_s8_s8
2025-01-17 15:41:37,824 [INFO] CmdLine:67 -  2       2      conversion_2 (converter)         131,072   smul_s8_f32
2025-01-17 15:41:37,824 [INFO] CmdLine:67 -  3       3      nl_3 (nl)                        131,072    op_f32_f32
2025-01-17 15:41:37,824 [INFO] CmdLine:67 -  4       4      conversion_4 (converter)         131,072   smul_f32_s8
2025-01-17 15:41:37,824 [INFO] CmdLine:67 -  5       5      nl_5 (nl)                         65,536      op_s8_s8
2025-01-17 15:41:37,824 [INFO] CmdLine:67 -  6       6      conv2d_6 (conv2d)              2,097,184    smul_s8_s8
2025-01-17 15:41:37,824 [INFO] CmdLine:67 -  7       7      conversion_7 (converter)          65,536   smul_s8_f32
2025-01-17 15:41:37,824 [INFO] CmdLine:67 -  8       8      nl_8 (nl)                         65,536    op_f32_f32
2025-01-17 15:41:37,824 [INFO] CmdLine:67 -  9       9      conversion_9 (converter)          65,536   smul_f32_s8
2025-01-17 15:41:37,824 [INFO] CmdLine:67 -  10      10     nl_10 (nl)                        32,768      op_s8_s8
2025-01-17 15:41:37,824 [INFO] CmdLine:67 -  11      11     conv2d_11 (conv2d)            18,874,432    smul_s8_s8
2025-01-17 15:41:37,824 [INFO] CmdLine:67 -  12      12     conversion_12 (converter)        131,072   smul_s8_f32
2025-01-17 15:41:37,824 [INFO] CmdLine:67 -  13      13     nl_13 (nl)                       131,072    op_f32_f32
2025-01-17 15:41:37,824 [INFO] CmdLine:67 -  14      14     conversion_14 (converter)        131,072   smul_f32_s8
2025-01-17 15:41:37,824 [INFO] CmdLine:67 -  15      15     nl_15 (nl)                        65,536      op_s8_s8
2025-01-17 15:41:37,824 [INFO] CmdLine:67 -  16      16     pool_16 (pool)                    65,536      op_s8_s8
2025-01-17 15:41:37,824 [INFO] CmdLine:67 -  17      17     conv2d_17 (conv2d)             4,718,624    smul_s8_s8
2025-01-17 15:41:37,824 [INFO] CmdLine:67 -  18      18     conversion_18 (converter)         16,384   smul_s8_f32
2025-01-17 15:41:37,824 [INFO] CmdLine:67 -  19      19     nl_19 (nl)                        16,384    op_f32_f32
2025-01-17 15:41:37,824 [INFO] CmdLine:67 -  20      20     conversion_20 (converter)         16,384   smul_f32_s8
2025-01-17 15:41:37,824 [INFO] CmdLine:67 -  21      21     nl_21 (nl)                         8,192      op_s8_s8
2025-01-17 15:41:37,824 [INFO] CmdLine:67 -  22      22     conv2d_22 (conv2d)               524,352    smul_s8_s8
2025-01-17 15:41:37,824 [INFO] CmdLine:67 -  23      23     conversion_23 (converter)         32,768   smul_s8_f32
2025-01-17 15:41:37,824 [INFO] CmdLine:67 -  24      24     nl_24 (nl)                        32,768    op_f32_f32
2025-01-17 15:41:37,824 [INFO] CmdLine:67 -  25      25     conversion_25 (converter)         32,768   smul_f32_s8
2025-01-17 15:41:37,824 [INFO] CmdLine:67 -  26      26     nl_26 (nl)                        16,384      op_s8_s8
2025-01-17 15:41:37,824 [INFO] CmdLine:67 -  27      27     pool_27 (pool)                    16,384      op_s8_s8
2025-01-17 15:41:37,824 [INFO] CmdLine:67 -  28      28     conv2d_28 (conv2d)             4,718,720    smul_s8_s8
2025-01-17 15:41:37,824 [INFO] CmdLine:67 -  29      29     conversion_29 (converter)         16,384   smul_s8_f32
2025-01-17 15:41:37,824 [INFO] CmdLine:67 -  30      30     nl_30 (nl)                        16,384    op_f32_f32
2025-01-17 15:41:37,824 [INFO] CmdLine:67 -  31      31     conversion_31 (converter)         16,384   smul_f32_s8
2025-01-17 15:41:37,824 [INFO] CmdLine:67 -  32      32     nl_32 (nl)                         8,192      op_s8_s8
2025-01-17 15:41:37,824 [INFO] CmdLine:67 -  33      33     conv2d_33 (conv2d)             1,048,704    smul_s8_s8
2025-01-17 15:41:37,824 [INFO] CmdLine:67 -  34      34     conversion_34 (converter)         16,384   smul_s8_f32
2025-01-17 15:41:37,824 [INFO] CmdLine:67 -  35      35     nl_35 (nl)                        16,384    op_f32_f32
2025-01-17 15:41:37,824 [INFO] CmdLine:67 -  36      36     conversion_36 (converter)         16,384   smul_f32_s8
2025-01-17 15:41:37,824 [INFO] CmdLine:67 -  37      37     nl_37 (nl)                         8,192      op_s8_s8
2025-01-17 15:41:37,824 [INFO] CmdLine:67 -  38      38     pool_38 (pool)                     8,192      op_s8_s8
2025-01-17 15:41:37,824 [INFO] CmdLine:67 -  39      39     conv2d_39 (conv2d)             1,179,712    smul_s8_s8
2025-01-17 15:41:37,824 [INFO] CmdLine:67 -  40      40     conversion_40 (converter)          2,048   smul_s8_f32
2025-01-17 15:41:37,824 [INFO] CmdLine:67 -  41      41     nl_41 (nl)                         2,048    op_f32_f32
2025-01-17 15:41:37,824 [INFO] CmdLine:67 -  42      42     conversion_42 (converter)          2,048   smul_f32_s8
2025-01-17 15:41:37,824 [INFO] CmdLine:67 -  43      43     nl_43 (nl)                         1,024      op_s8_s8
2025-01-17 15:41:37,824 [INFO] CmdLine:67 -  44      44     conv2d_44 (conv2d)             1,179,776    smul_s8_s8
2025-01-17 15:41:37,824 [INFO] CmdLine:67 -  45      45     conversion_45 (converter)          4,096   smul_s8_f32
2025-01-17 15:41:37,824 [INFO] CmdLine:67 -  46      46     nl_46 (nl)                         4,096    op_f32_f32
2025-01-17 15:41:37,824 [INFO] CmdLine:67 -  47      47     conversion_47 (converter)          4,096   smul_f32_s8
2025-01-17 15:41:37,824 [INFO] CmdLine:67 -  48      48     nl_48 (nl)                         2,048      op_s8_s8
2025-01-17 15:41:37,824 [INFO] CmdLine:67 -  49      49     pool_49 (pool)                     2,048      op_s8_s8
2025-01-17 15:41:37,824 [INFO] CmdLine:67 -  50      50     conv2d_50 (conv2d)                65,664    smul_s8_s8
2025-01-17 15:41:37,824 [INFO] CmdLine:67 -  51      51     conversion_51 (converter)          1,024   smul_s8_f32
2025-01-17 15:41:37,824 [INFO] CmdLine:67 -  52      52     nl_52 (nl)                         1,024    op_f32_f32
2025-01-17 15:41:37,824 [INFO] CmdLine:67 -  53      53     conversion_53 (converter)          1,024   smul_f32_s8
2025-01-17 15:41:37,824 [INFO] CmdLine:67 -  54      54     nl_54 (nl)                           512      op_s8_s8
2025-01-17 15:41:37,824 [INFO] CmdLine:67 -  55      55     transpose_55 (transpose)               0    smul_s8_s8
2025-01-17 15:41:37,824 [INFO] CmdLine:67 -  56      57     dense_57 (dense)                  51,300    smul_s8_s8
2025-01-17 15:41:37,824 [INFO] CmdLine:67 -  57      58     conversion_58 (converter)            200   smul_s8_f32
2025-01-17 15:41:37,824 [INFO] CmdLine:67 -  ------- ------ --------------------------- ------------ -------------
2025-01-17 15:41:37,824 [INFO] CmdLine:67 -  total                                        37,785,196
2025-01-17 15:41:37,824 [INFO] CmdLine:67 -  Number of operation types
2025-01-17 15:41:37,824 [INFO] CmdLine:67 -  ---------------- ------------ -----------
2025-01-17 15:41:37,824 [INFO] CmdLine:67 -  operation type              #           %
2025-01-17 15:41:37,824 [INFO] CmdLine:67 -  ---------------- ------------ -----------
2025-01-17 15:41:37,840 [INFO] CmdLine:67 -  smul_f32_s8           422,912        1.1%
2025-01-17 15:41:37,840 [INFO] CmdLine:67 -  smul_s8_s8         36,228,004       95.9%
2025-01-17 15:41:37,840 [INFO] CmdLine:67 -  smul_s8_f32           416,968        1.1%
2025-01-17 15:41:37,840 [INFO] CmdLine:67 -  op_f32_f32            416,768        1.1%
2025-01-17 15:41:37,841 [INFO] CmdLine:67 -  op_s8_s8              300,544        0.8%
2025-01-17 15:41:37,842 [INFO] CmdLine:67 -  Complexity report (model)
2025-01-17 15:41:37,842 [INFO] CmdLine:67 -  ------ ---------------------- ------------------------- ------------------------- ------
2025-01-17 15:41:37,842 [INFO] CmdLine:67 -  m_id   name                   c_macc                    c_rom                     c_id
2025-01-17 15:41:37,843 [INFO] CmdLine:67 -  ------ ---------------------- ------------------------- ------------------------- ------
2025-01-17 15:41:37,843 [INFO] CmdLine:67 -  0      serving_default_x_10   |                  0.0%   |                  0.0%   [0]
2025-01-17 15:41:37,843 [INFO] CmdLine:67 -  1      conv2d_1               ||                 4.7%   |                  0.6%   [1]
2025-01-17 15:41:37,843 [INFO] CmdLine:67 -  2      conversion_2           |                  0.3%   |                  0.0%   [2]
2025-01-17 15:41:37,843 [INFO] CmdLine:67 -  3      nl_3                   |                  0.3%   |                  0.0%   [3]
2025-01-17 15:41:37,843 [INFO] CmdLine:67 -  4      conversion_4           |                  0.3%   |                  0.0%   [4]
2025-01-17 15:41:37,843 [INFO] CmdLine:67 -  5      nl_5                   |                  0.2%   |                  0.0%   [5]
2025-01-17 15:41:37,843 [INFO] CmdLine:67 -  6      conv2d_6               ||                 5.6%   |                  0.6%   [6]
2025-01-17 15:41:37,843 [INFO] CmdLine:67 -  7      conversion_7           |                  0.2%   |                  0.0%   [7]
2025-01-17 15:41:37,843 [INFO] CmdLine:67 -  8      nl_8                   |                  0.2%   |                  0.0%   [8]
2025-01-17 15:41:37,843 [INFO] CmdLine:67 -  9      conversion_9           |                  0.2%   |                  0.0%   [9]
2025-01-17 15:41:37,843 [INFO] CmdLine:67 -  10     nl_10                  |                  0.1%   |                  0.0%   [10]
2025-01-17 15:41:37,843 [INFO] CmdLine:67 -  11     conv2d_11              ||||||||||||||||  50.0%   ||||               5.3%   [11]
2025-01-17 15:41:37,843 [INFO] CmdLine:67 -  12     conversion_12          |                  0.3%   |                  0.0%   [12]
2025-01-17 15:41:37,843 [INFO] CmdLine:67 -  13     nl_13                  |                  0.3%   |                  0.0%   [13]
2025-01-17 15:41:37,843 [INFO] CmdLine:67 -  14     conversion_14          |                  0.3%   |                  0.0%   [14]
2025-01-17 15:41:37,843 [INFO] CmdLine:67 -  15     nl_15                  |                  0.2%   |                  0.0%   [15]
2025-01-17 15:41:37,843 [INFO] CmdLine:67 -  16     pool_16                |                  0.2%   |                  0.0%   [16]
2025-01-17 15:41:37,843 [INFO] CmdLine:67 -  17     conv2d_17              ||||              12.5%   ||||               5.3%   [17]
2025-01-17 15:41:37,843 [INFO] CmdLine:67 -  18     conversion_18          |                  0.0%   |                  0.0%   [18]
2025-01-17 15:41:37,843 [INFO] CmdLine:67 -  19     nl_19                  |                  0.0%   |                  0.0%   [19]
2025-01-17 15:41:37,843 [INFO] CmdLine:67 -  20     conversion_20          |                  0.0%   |                  0.0%   [20]
2025-01-17 15:41:37,843 [INFO] CmdLine:67 -  21     nl_21                  |                  0.0%   |                  0.0%   [21]
…
2025-01-17 15:42:53,529 [INFO] CmdLine:67 -  ------ ---------------------------- ---------------------- --------------- ------------ ----------------------
2025-01-17 15:42:53,529 [INFO] CmdLine:67 -  26     nl_26 (RELU)                 [b:1,h:16,w:16,c:64]                         16,384          conversion_25
2025-01-17 15:42:53,529 [INFO] CmdLine:67 -  ------ ---------------------------- ---------------------- --------------- ------------ ----------------------
2025-01-17 15:42:53,529 [INFO] CmdLine:67 -  27     pool_27 (MAX_POOL_2D)        [b:1,h:8,w:8,c:64]                           16,384                  nl_26
2025-01-17 15:42:53,529 [INFO] CmdLine:67 -  ------ ---------------------------- ---------------------- --------------- ------------ ----------------------
2025-01-17 15:42:53,529 [INFO] CmdLine:67 -  28     conv2d_28 (CONV_2D)          [b:1,h:8,w:8,c:128]    73,856/74,240      4,718,720                pool_27
2025-01-17 15:42:53,529 [INFO] CmdLine:67 -  ------ ---------------------------- ---------------------- --------------- ------------ ----------------------
2025-01-17 15:42:53,529 [INFO] CmdLine:67 -  29     conversion_29 (DEQUANTIZE)   [b:1,h:8,w:8,c:128]                          16,384              conv2d_28
2025-01-17 15:42:53,529 [INFO] CmdLine:67 -  ------ ---------------------------- ---------------------- --------------- ------------ ----------------------
2025-01-17 15:42:53,529 [INFO] CmdLine:67 -  30     nl_30 (FLOOR)                [b:1,h:8,w:8,c:128]                          16,384          conversion_29
2025-01-17 15:42:53,529 [INFO] CmdLine:67 -  ------ ---------------------------- ---------------------- --------------- ------------ ----------------------
2025-01-17 15:42:53,529 [INFO] CmdLine:67 -  31     conversion_31 (QUANTIZE)     [b:1,h:8,w:8,c:128]                          16,384                  nl_30
2025-01-17 15:42:53,529 [INFO] CmdLine:67 -  ------ ---------------------------- ---------------------- --------------- ------------ ----------------------
2025-01-17 15:42:53,529 [INFO] CmdLine:67 -  32     nl_32 (RELU)                 [b:1,h:8,w:8,c:128]                           8,192          conversion_31
2025-01-17 15:42:53,529 [INFO] CmdLine:67 -  ------ ---------------------------- ---------------------- --------------- ------------ ----------------------
2025-01-17 15:42:53,529 [INFO] CmdLine:67 -  33     conv2d_33 (CONV_2D)          [b:1,h:8,w:8,c:128]    16,512/16,896      1,048,704                  nl_32
2025-01-17 15:42:53,529 [INFO] CmdLine:67 -  ------ ---------------------------- ---------------------- --------------- ------------ ----------------------
2025-01-17 15:42:53,529 [INFO] CmdLine:67 -  34     conversion_34 (DEQUANTIZE)   [b:1,h:8,w:8,c:128]                          16,384              conv2d_33
2025-01-17 15:42:53,529 [INFO] CmdLine:67 -  ------ ---------------------------- ---------------------- --------------- ------------ ----------------------
2025-01-17 15:42:53,529 [INFO] CmdLine:67 -  35     nl_35 (FLOOR)                [b:1,h:8,w:8,c:128]                          16,384          conversion_34
2025-01-17 15:42:53,529 [INFO] CmdLine:67 -  ------ ---------------------------- ---------------------- --------------- ------------ ----------------------
2025-01-17 15:42:53,529 [INFO] CmdLine:67 -  36     conversion_36 (QUANTIZE)     [b:1,h:8,w:8,c:128]                          16,384                  nl_35
2025-01-17 15:42:53,529 [INFO] CmdLine:67 -  ------ ---------------------------- ---------------------- --------------- ------------ ----------------------
2025-01-17 15:42:53,545 [INFO] CmdLine:67 -  37     nl_37 (RELU)                 [b:1,h:8,w:8,c:128]                           8,192          conversion_36
2025-01-17 15:42:53,545 [INFO] CmdLine:67 -  ------ ---------------------------- ---------------------- --------------- ------------ ----------------------
2025-01-17 15:42:53,545 [INFO] CmdLine:67 -  38     pool_38 (MAX_POOL_2D)        [b:1,h:4,w:4,c:128]                           8,192                  nl_37
2025-01-17 15:42:53,545 [INFO] CmdLine:67 -  ------ ---------------------------- ---------------------- --------------- ------------ ----------------------
2025-01-17 15:42:53,545 [INFO] CmdLine:67 -  39     conv2d_39 (CONV_2D)          [b:1,h:4,w:4,c:64]     73,792/73,984      1,179,712                pool_38
2025-01-17 15:42:53,545 [INFO] CmdLine:67 -  ------ ---------------------------- ---------------------- --------------- ------------ ----------------------
2025-01-17 15:42:53,545 [INFO] CmdLine:67 -  40     conversion_40 (DEQUANTIZE)   [b:1,h:4,w:4,c:64]                            2,048              conv2d_39
2025-01-17 15:42:53,545 [INFO] CmdLine:67 -  ------ ---------------------------- ---------------------- --------------- ------------ ----------------------
2025-01-17 15:42:53,545 [INFO] CmdLine:67 -  41     nl_41 (FLOOR)                [b:1,h:4,w:4,c:64]                            2,048          conversion_40
2025-01-17 15:42:53,545 [INFO] CmdLine:67 -  ------ ---------------------------- ---------------------- --------------- ------------ ----------------------
2025-01-17 15:42:53,545 [INFO] CmdLine:67 -  42     conversion_42 (QUANTIZE)     [b:1,h:4,w:4,c:64]                            2,048                  nl_41
2025-01-17 15:42:53,545 [INFO] CmdLine:67 -  ------ ---------------------------- ---------------------- --------------- ------------ ----------------------
2025-01-17 15:42:53,545 [INFO] CmdLine:67 -  43     nl_43 (RELU)                 [b:1,h:4,w:4,c:64]                            1,024          conversion_42
2025-01-17 15:42:53,545 [INFO] CmdLine:67 -  ------ ---------------------------- ---------------------- --------------- ------------ ----------------------
2025-01-17 15:42:53,545 [INFO] CmdLine:67 -  44     conv2d_44 (CONV_2D)          [b:1,h:4,w:4,c:128]    73,856/74,240      1,179,776                  nl_43
2025-01-17 15:42:53,545 [INFO] CmdLine:67 -  ------ ---------------------------- ---------------------- --------------- ------------ ----------------------
2025-01-17 15:42:53,545 [INFO] CmdLine:67 -  45     conversion_45 (DEQUANTIZE)   [b:1,h:4,w:4,c:128]                           4,096              conv2d_44
2025-01-17 15:42:53,545 [INFO] CmdLine:67 -  ------ ---------------------------- ---------------------- --------------- ------------ ----------------------
2025-01-17 15:42:53,545 [INFO] CmdLine:67 -  46     nl_46 (FLOOR)                [b:1,h:4,w:4,c:128]                           4,096          conversion_45
2025-01-17 15:42:53,545 [INFO] CmdLine:67 -  ------ ---------------------------- ---------------------- --------------- ------------ ----------------------
2025-01-17 15:42:53,545 [INFO] CmdLine:67 -  47     conversion_47 (QUANTIZE)     [b:1,h:4,w:4,c:128]                           4,096                  nl_46
2025-01-17 15:42:53,545 [INFO] CmdLine:67 -  ------ ---------------------------- ---------------------- --------------- ------------ ----------------------
2025-01-17 15:42:53,545 [INFO] CmdLine:67 -  48     nl_48 (RELU)                 [b:1,h:4,w:4,c:128]                           2,048          conversion_47
2025-01-17 15:42:53,545 [INFO] CmdLine:67 -  ------ ---------------------------- ---------------------- --------------- ------------ ----------------------
2025-01-17 15:42:53,545 [INFO] CmdLine:67 -  49     pool_49 (MAX_POOL_2D)        [b:1,h:2,w:2,c:128]                           2,048                  nl_48
2025-01-17 15:42:53,545 [INFO] CmdLine:67 -  ------ ---------------------------- ---------------------- --------------- ------------ ----------------------
2025-01-17 15:42:53,545 [INFO] CmdLine:67 -  50     conv2d_50 (CONV_2D)          [b:1,h:2,w:2,c:128]    16,512/16,896         65,664                pool_49
2025-01-17 15:42:53,545 [INFO] CmdLine:67 -  ------ ---------------------------- ---------------------- --------------- ------------ ----------------------
2025-01-17 15:42:53,545 [INFO] CmdLine:67 -  51     conversion_51 (DEQUANTIZE)   [b:1,h:2,w:2,c:128]                           1,024              conv2d_50
2025-01-17 15:42:53,545 [INFO] CmdLine:67 -  ------ ---------------------------- ---------------------- --------------- ------------ ----------------------
2025-01-17 15:42:53,545 [INFO] CmdLine:67 -  52     nl_52 (FLOOR)                [b:1,h:2,w:2,c:128]                           1,024          conversion_51
2025-01-17 15:42:53,545 [INFO] CmdLine:67 -  ------ ---------------------------- ---------------------- --------------- ------------ ----------------------
2025-01-17 15:42:53,545 [INFO] CmdLine:67 -  53     conversion_53 (QUANTIZE)     [b:1,h:2,w:2,c:128]                           1,024                  nl_52
2025-01-17 15:42:53,545 [INFO] CmdLine:67 -  ------ ---------------------------- ---------------------- --------------- ------------ ----------------------
2025-01-17 15:42:53,545 [INFO] CmdLine:67 -  54     nl_54 (RELU)                 [b:1,h:2,w:2,c:128]                             512          conversion_53
2025-01-17 15:42:53,545 [INFO] CmdLine:67 -  ------ ---------------------------- ---------------------- --------------- ------------ ----------------------
2025-01-17 15:42:53,553 [INFO] CmdLine:67 -  55     transpose_55 (TRANSPOSE)     [b:1,h:128,w:2,c:2]                                                  nl_54
2025-01-17 15:42:53,553 [INFO] CmdLine:67 -  ------ ---------------------------- ---------------------- --------------- ------------ ----------------------
2025-01-17 15:42:53,553 [INFO] CmdLine:67 -  56     reshape_56 (RESHAPE)         [b:1,c:512]                                                   transpose_55
2025-01-17 15:42:53,553 [INFO] CmdLine:67 -  ------ ---------------------------- ---------------------- --------------- ------------ ----------------------
2025-01-17 15:42:53,553 [INFO] CmdLine:67 -  57     dense_57 (FULLY_CONNECTED)   [b:1,c:100]            51,300/51,600         51,300             reshape_56
2025-01-17 15:42:53,553 [INFO] CmdLine:67 -  ------ ---------------------------- ---------------------- --------------- ------------ ----------------------
2025-01-17 15:42:53,553 [INFO] CmdLine:67 -  58     conversion_58 (DEQUANTIZE)   [b:1,c:100]                                     200               dense_57
2025-01-17 15:42:53,553 [INFO] CmdLine:67 -  ------ ---------------------------- ---------------------- --------------- ------------ ----------------------
2025-01-17 15:42:53,553 [INFO] CmdLine:67 -  model/c-model: macc=37,785,196/37,785,196  weights=351,568/351,568  activations=--/327,680 io=--/0
2025-01-17 15:42:53,553 [INFO] CmdLine:67 -  Number of operations per c-layer
2025-01-17 15:42:53,553 [INFO] CmdLine:67 -  ------- ------ --------------------------- ------------ -------------
2025-01-17 15:42:53,553 [INFO] CmdLine:67 -  c_id    m_id   name (type)                          #op          type
2025-01-17 15:42:53,553 [INFO] CmdLine:67 -  ------- ------ --------------------------- ------------ -------------
2025-01-17 15:42:53,553 [INFO] CmdLine:67 -  0       0      conversion_0 (converter)           6,144   smul_f32_s8
2025-01-17 15:42:53,553 [INFO] CmdLine:67 -  1       1      conv2d_1 (conv2d)              1,769,536    smul_s8_s8
2025-01-17 15:42:53,553 [INFO] CmdLine:67 -  2       2      conversion_2 (converter)         131,072   smul_s8_f32
2025-01-17 15:42:53,553 [INFO] CmdLine:67 -  3       3      nl_3 (nl)                        131,072    op_f32_f32
2025-01-17 15:42:53,553 [INFO] CmdLine:67 -  4       4      conversion_4 (converter)         131,072   smul_f32_s8
2025-01-17 15:42:53,553 [INFO] CmdLine:67 -  5       5      nl_5 (nl)                         65,536      op_s8_s8
2025-01-17 15:42:53,553 [INFO] CmdLine:67 -  6       6      conv2d_6 (conv2d)              2,097,184    smul_s8_s8
2025-01-17 15:42:53,553 [INFO] CmdLine:67 -  7       7      conversion_7 (converter)          65,536   smul_s8_f32
2025-01-17 15:42:53,553 [INFO] CmdLine:67 -  8       8      nl_8 (nl)                         65,536    op_f32_f32
2025-01-17 15:42:53,553 [INFO] CmdLine:67 -  9       9      conversion_9 (converter)          65,536   smul_f32_s8
2025-01-17 15:42:53,553 [INFO] CmdLine:67 -  10      10     nl_10 (nl)                        32,768      op_s8_s8
2025-01-17 15:42:53,553 [INFO] CmdLine:67 -  11      11     conv2d_11 (conv2d)            18,874,432    smul_s8_s8
2025-01-17 15:42:53,553 [INFO] CmdLine:67 -  12      12     conversion_12 (converter)        131,072   smul_s8_f32
2025-01-17 15:42:53,553 [INFO] CmdLine:67 -  13      13     nl_13 (nl)                       131,072    op_f32_f32
2025-01-17 15:42:53,553 [INFO] CmdLine:67 -  14      14     conversion_14 (converter)        131,072   smul_f32_s8
2025-01-17 15:42:53,553 [INFO] CmdLine:67 -  15      15     nl_15 (nl)                        65,536      op_s8_s8
2025-01-17 15:42:53,553 [INFO] CmdLine:67 -  16      16     pool_16 (pool)                    65,536      op_s8_s8
2025-01-17 15:42:53,553 [INFO] CmdLine:67 -  17      17     conv2d_17 (conv2d)             4,718,624    smul_s8_s8
2025-01-17 15:42:53,553 [INFO] CmdLine:67 -  18      18     conversion_18 (converter)         16,384   smul_s8_f32
2025-01-17 15:42:53,553 [INFO] CmdLine:67 -  19      19     nl_19 (nl)                        16,384    op_f32_f32
2025-01-17 15:42:53,553 [INFO] CmdLine:67 -  20      20     conversion_20 (converter)         16,384   smul_f32_s8
2025-01-17 15:42:53,553 [INFO] CmdLine:67 -  21      21     nl_21 (nl)                         8,192      op_s8_s8
2025-01-17 15:42:53,553 [INFO] CmdLine:67 -  22      22     conv2d_22 (conv2d)               524,352    smul_s8_s8
2025-01-17 15:42:53,553 [INFO] CmdLine:67 -  23      23     conversion_23 (converter)         32,768   smul_s8_f32
2025-01-17 15:42:53,553 [INFO] CmdLine:67 -  24      24     nl_24 (nl)                        32,768    op_f32_f32
2025-01-17 15:42:53,553 [INFO] CmdLine:67 -  25      25     conversion_25 (converter)         32,768   smul_f32_s8
2025-01-17 15:42:53,553 [INFO] CmdLine:67 -  26      26     nl_26 (nl)                        16,384      op_s8_s8
2025-01-17 15:42:53,553 [INFO] CmdLine:67 -  27      27     pool_27 (pool)                    16,384      op_s8_s8
2025-01-17 15:42:53,553 [INFO] CmdLine:67 -  28      28     conv2d_28 (conv2d)             4,718,720    smul_s8_s8
2025-01-17 15:42:53,553 [INFO] CmdLine:67 -  29      29     conversion_29 (converter)         16,384   smul_s8_f32
2025-01-17 15:42:53,553 [INFO] CmdLine:67 -  30      30     nl_30 (nl)                        16,384    op_f32_f32
2025-01-17 15:42:53,553 [INFO] CmdLine:67 -  31      31     conversion_31 (converter)         16,384   smul_f32_s8
2025-01-17 15:42:53,553 [INFO] CmdLine:67 -  32      32     nl_32 (nl)                         8,192      op_s8_s8
2025-01-17 15:42:53,553 [INFO] CmdLine:67 -  33      33     conv2d_33 (conv2d)             1,048,704    smul_s8_s8
2025-01-17 15:42:53,553 [INFO] CmdLine:67 -  34      34     conversion_34 (converter)         16,384   smul_s8_f32
2025-01-17 15:42:53,553 [INFO] CmdLine:67 -  35      35     nl_35 (nl)                        16,384    op_f32_f32
2025-01-17 15:42:53,553 [INFO] CmdLine:67 -  36      36     conversion_36 (converter)         16,384   smul_f32_s8
2025-01-17 15:42:53,553 [INFO] CmdLine:67 -  37      37     nl_37 (nl)                         8,192      op_s8_s8
2025-01-17 15:42:53,553 [INFO] CmdLine:67 -  38      38     pool_38 (pool)                     8,192      op_s8_s8
2025-01-17 15:42:53,553 [INFO] CmdLine:67 -  39      39     conv2d_39 (conv2d)             1,179,712    smul_s8_s8
2025-01-17 15:42:53,553 [INFO] CmdLine:67 -  40      40     conversion_40 (converter)          2,048   smul_s8_f32
2025-01-17 15:42:53,553 [INFO] CmdLine:67 -  41      41     nl_41 (nl)                         2,048    op_f32_f32
2025-01-17 15:42:53,553 [INFO] CmdLine:67 -  42      42     conversion_42 (converter)          2,048   smul_f32_s8
2025-01-17 15:42:53,553 [INFO] CmdLine:67 -  43      43     nl_43 (nl)                         1,024      op_s8_s8
2025-01-17 15:42:53,553 [INFO] CmdLine:67 -  44      44     conv2d_44 (conv2d)             1,179,776    smul_s8_s8
2025-01-17 15:42:53,553 [INFO] CmdLine:67 -  45      45     conversion_45 (converter)          4,096   smul_s8_f32
2025-01-17 15:42:53,553 [INFO] CmdLine:67 -  46      46     nl_46 (nl)                         4,096    op_f32_f32
2025-01-17 15:42:53,553 [INFO] CmdLine:67 -  47      47     conversion_47 (converter)          4,096   smul_f32_s8
2025-01-17 15:42:53,553 [INFO] CmdLine:67 -  48      48     nl_48 (nl)                         2,048      op_s8_s8
2025-01-17 15:42:53,553 [INFO] CmdLine:67 -  49      49     pool_49 (pool)                     2,048      op_s8_s8
2025-01-17 15:42:53,553 [INFO] CmdLine:67 -  50      50     conv2d_50 (conv2d)                65,664    smul_s8_s8
2025-01-17 15:42:53,553 [INFO] CmdLine:67 -  51      51     conversion_51 (converter)          1,024   smul_s8_f32
2025-01-17 15:42:53,553 [INFO] CmdLine:67 -  52      52     nl_52 (nl)                         1,024    op_f32_f32
2025-01-17 15:42:53,553 [INFO] CmdLine:67 -  53      53     conversion_53 (converter)          1,024   smul_f32_s8
2025-01-17 15:42:53,553 [INFO] CmdLine:67 -  54      54     nl_54 (nl)                           512      op_s8_s8
2025-01-17 15:42:53,553 [INFO] CmdLine:67 -  55      55     transpose_55 (transpose)               0    smul_s8_s8
2025-01-17 15:42:53,553 [INFO] CmdLine:67 -  56      57     dense_57 (dense)                  51,300    smul_s8_s8
2025-01-17 15:42:53,553 [INFO] CmdLine:67 -  57      58     conversion_58 (converter)            200   smul_s8_f32
2025-01-17 15:42:53,553 [INFO] CmdLine:67 -  ------- ------ --------------------------- ------------ -------------
2025-01-17 15:42:53,553 [INFO] CmdLine:67 -  total                                        37,785,196
2025-01-17 15:42:53,553 [INFO] CmdLine:67 -  Number of operation types
2025-01-17 15:42:53,553 [INFO] CmdLine:67 -  ---------------- ------------ -----------
2025-01-17 15:42:53,553 [INFO] CmdLine:67 -  operation type              #           %
2025-01-17 15:42:53,553 [INFO] CmdLine:67 -  ---------------- ------------ -----------
2025-01-17 15:42:53,553 [INFO] CmdLine:67 -  smul_f32_s8           422,912        1.1%
2025-01-17 15:42:53,553 [INFO] CmdLine:67 -  smul_s8_s8         36,228,004       95.9%
2025-01-17 15:42:53,553 [INFO] CmdLine:67 -  smul_s8_f32           416,968        1.1%
2025-01-17 15:42:53,553 [INFO] CmdLine:67 -  op_f32_f32            416,768        1.1%
2025-01-17 15:42:53,553 [INFO] CmdLine:67 -  op_s8_s8              300,544        0.8%
2025-01-17 15:42:53,553 [INFO] CmdLine:67 -  Complexity report (model)
2025-01-17 15:42:53,553 [INFO] CmdLine:67 -  ------ ---------------------- ------------------------- ------------------------- ------
2025-01-17 15:42:53,553 [INFO] CmdLine:67 -  m_id   name                   c_macc                    c_rom                     c_id
2025-01-17 15:42:53,553 [INFO] CmdLine:67 -  ------ ---------------------- ------------------------- ------------------------- ------
2025-01-17 15:42:53,553 [INFO] CmdLine:67 -  0      serving_default_x_10   |                  0.0%   |                  0.0%   [0]
2025-01-17 15:42:53,553 [INFO] CmdLine:67 -  1      conv2d_1               ||                 4.7%   |                  0.6%   [1]
2025-01-17 15:42:53,553 [INFO] CmdLine:67 -  2      conversion_2           |                  0.3%   |                  0.0%   [2]
2025-01-17 15:42:53,553 [INFO] CmdLine:67 -  3      nl_3                   |                  0.3%   |                  0.0%   [3]
2025-01-17 15:42:53,553 [INFO] CmdLine:67 -  4      conversion_4           |                  0.3%   |                  0.0%   [4]
2025-01-17 15:42:53,553 [INFO] CmdLine:67 -  5      nl_5                   |                  0.2%   |                  0.0%   [5]
2025-01-17 15:42:53,553 [INFO] CmdLine:67 -  6      conv2d_6               ||                 5.6%   |                  0.6%   [6]
2025-01-17 15:42:53,553 [INFO] CmdLine:67 -  7      conversion_7           |                  0.2%   |                  0.0%   [7]
2025-01-17 15:42:53,553 [INFO] CmdLine:67 -  8      nl_8                   |                  0.2%   |                  0.0%   [8]
2025-01-17 15:42:53,553 [INFO] CmdLine:67 -  9      conversion_9           |                  0.2%   |                  0.0%   [9]
2025-01-17 15:42:53,553 [INFO] CmdLine:67 -  10     nl_10                  |                  0.1%   |                  0.0%   [10]
2025-01-17 15:42:53,553 [INFO] CmdLine:67 -  11     conv2d_11              ||||||||||||||||  50.0%   ||||               5.3%   [11]
2025-01-17 15:42:53,553 [INFO] CmdLine:67 -  12     conversion_12          |                  0.3%   |                  0.0%   [12]
2025-01-17 15:42:53,553 [INFO] CmdLine:67 -  13     nl_13                  |                  0.3%   |                  0.0%   [13]
2025-01-17 15:42:53,553 [INFO] CmdLine:67 -  14     conversion_14          |                  0.3%   |                  0.0%   [14]
2025-01-17 15:42:53,553 [INFO] CmdLine:67 -  15     nl_15                  |                  0.2%   |                  0.0%   [15]
2025-01-17 15:42:53,553 [INFO] CmdLine:67 -  16     pool_16                |                  0.2%   |                  0.0%   [16]
2025-01-17 15:42:53,569 [INFO] CmdLine:67 -  17     conv2d_17              ||||              12.5%   ||||               5.3%   [17]
2025-01-17 15:42:53,569 [INFO] CmdLine:67 -  18     conversion_18          |                  0.0%   |                  0.0%   [18]
2025-01-17 15:42:53,569 [INFO] CmdLine:67 -  19     nl_19                  |                  0.0%   |                  0.0%   [19]
2025-01-17 15:42:53,569 [INFO] CmdLine:67 -  20     conversion_20          |                  0.0%   |                  0.0%   [20]
2025-01-17 15:42:53,569 [INFO] CmdLine:67 -  21     nl_21                  |                  0.0%   |                  0.0%   [21]
2025-01-17 15:42:53,569 [INFO] CmdLine:67 -  22     conv2d_22              |                  1.4%   |                  0.7%   [22]
2025-01-17 15:42:53,569 [INFO] CmdLine:67 -  23     conversion_23          |                  0.1%   |                  0.0%   [23]
2025-01-17 15:42:53,569 [INFO] CmdLine:67 -  24     nl_24                  |                  0.1%   |                  0.0%   [24]
2025-01-17 15:42:53,569 [INFO] CmdLine:67 -  25     conversion_25          |                  0.1%   |                  0.0%   [25]
2025-01-17 15:42:53,569 [INFO] CmdLine:67 -  26     nl_26                  |                  0.0%   |                  0.0%   [26]
2025-01-17 15:42:53,569 [INFO] CmdLine:67 -  27     pool_27                |                  0.0%   |                  0.0%   [27]
2025-01-17 15:42:53,569 [INFO] CmdLine:67 -  28     conv2d_28              ||||              12.5%   ||||||||||||||||  21.1%   [28]
2025-01-17 15:42:53,569 [INFO] CmdLine:67 -  29     conversion_29          |                  0.0%   |                  0.0%   [29]
2025-01-17 15:42:53,569 [INFO] CmdLine:67 -  30     nl_30                  |                  0.0%   |                  0.0%   [30]
2025-01-17 15:42:53,569 [INFO] CmdLine:67 -  31     conversion_31          |                  0.0%   |                  0.0%   [31]
2025-01-17 15:42:53,569 [INFO] CmdLine:67 -  32     nl_32                  |                  0.0%   |                  0.0%   [32]
2025-01-17 15:42:53,569 [INFO] CmdLine:67 -  33     conv2d_33              |                  2.8%   ||||               4.8%   [33]
2025-01-17 15:42:53,569 [INFO] CmdLine:67 -  34     conversion_34          |                  0.0%   |                  0.0%   [34]
2025-01-17 15:42:53,569 [INFO] CmdLine:67 -  35     nl_35                  |                  0.0%   |                  0.0%   [35]
2025-01-17 15:42:53,569 [INFO] CmdLine:67 -  36     conversion_36          |                  0.0%   |                  0.0%   [36]
2025-01-17 15:42:53,569 [INFO] CmdLine:67 -  37     nl_37                  |                  0.0%   |                  0.0%   [37]
2025-01-17 15:42:53,569 [INFO] CmdLine:67 -  38     pool_38                |                  0.0%   |                  0.0%   [38]
2025-01-17 15:42:53,569 [INFO] CmdLine:67 -  39     conv2d_39              |                  3.1%   |||||||||||||||   21.0%   [39]
2025-01-17 15:42:53,569 [INFO] CmdLine:67 -  40     conversion_40          |                  0.0%   |                  0.0%   [40]
2025-01-17 15:42:53,569 [INFO] CmdLine:67 -  41     nl_41                  |                  0.0%   |                  0.0%   [41]
2025-01-17 15:42:53,569 [INFO] CmdLine:67 -  42     conversion_42          |                  0.0%   |                  0.0%   [42]
2025-01-17 15:42:53,569 [INFO] CmdLine:67 -  43     nl_43                  |                  0.0%   |                  0.0%   [43]
2025-01-17 15:42:53,569 [INFO] CmdLine:67 -  44     conv2d_44              |                  3.1%   ||||||||||||||||  21.1%   [44]
2025-01-17 15:42:53,569 [INFO] CmdLine:67 -  45     conversion_45          |                  0.0%   |                  0.0%   [45]
2025-01-17 15:42:53,569 [INFO] CmdLine:67 -  46     nl_46                  |                  0.0%   |                  0.0%   [46]
2025-01-17 15:42:53,569 [INFO] CmdLine:67 -  47     conversion_47          |                  0.0%   |                  0.0%   [47]
2025-01-17 15:42:53,569 [INFO] CmdLine:67 -  48     nl_48                  |                  0.0%   |                  0.0%   [48]
2025-01-17 15:42:53,569 [INFO] CmdLine:67 -  49     pool_49                |                  0.0%   |                  0.0%   [49]
2025-01-17 15:42:53,569 [INFO] CmdLine:67 -  50     conv2d_50              |                  0.2%   ||||               4.8%   [50]
2025-01-17 15:42:53,569 [INFO] CmdLine:67 -  51     conversion_51          |                  0.0%   |                  0.0%   [51]
2025-01-17 15:42:53,569 [INFO] CmdLine:67 -  52     nl_52                  |                  0.0%   |                  0.0%   [52]
2025-01-17 15:42:53,569 [INFO] CmdLine:67 -  53     conversion_53          |                  0.0%   |                  0.0%   [53]
2025-01-17 15:42:53,569 [INFO] CmdLine:67 -  54     nl_54                  |                  0.0%   |                  0.0%   [54]
2025-01-17 15:42:53,569 [INFO] CmdLine:67 -  55     transpose_55           |                  0.0%   |                  0.0%   [55]
2025-01-17 15:42:53,569 [INFO] CmdLine:67 -  57     dense_57               |                  0.1%   |||||||||||       14.7%   [56]
2025-01-17 15:42:53,569 [INFO] CmdLine:67 -  58     conversion_58          |                  0.0%   |                  0.0%   [57]
2025-01-17 15:42:53,569 [INFO] CmdLine:67 -  ------ ---------------------- ------------------------- ------------------------- ------
2025-01-17 15:42:53,569 [INFO] CmdLine:67 -  macc=37,785,196 weights=351,568 act=327,680 ram_io=0
2025-01-17 15:42:53,569 [INFO] CmdLine:67 -  Requested memory size per segment ("stm32h7" series)
2025-01-17 15:42:53,569 [INFO] CmdLine:67 -  ----------------------------- -------- --------- -------- ---------
2025-01-17 15:42:53,569 [INFO] CmdLine:67 -  module                            text    rodata     data       bss
2025-01-17 15:42:53,569 [INFO] CmdLine:67 -  ----------------------------- -------- --------- -------- ---------
2025-01-17 15:42:53,569 [INFO] CmdLine:67 -  NetworkRuntime801_CM7_GCC.a     32,232         0        0         0
2025-01-17 15:42:53,569 [INFO] CmdLine:67 -  network.o                        1,776     4,192   13,084       616
2025-01-17 15:42:53,569 [INFO] CmdLine:67 -  network_data.o                      52        16       88         0
2025-01-17 15:42:53,569 [INFO] CmdLine:67 -  lib (toolchain)*                 1,004       624        0         0
2025-01-17 15:42:53,569 [INFO] CmdLine:67 -  ----------------------------- -------- --------- -------- ---------
2025-01-17 15:42:53,569 [INFO] CmdLine:67 -  RT total**                      35,064     4,832   13,172       616
2025-01-17 15:42:53,569 [INFO] CmdLine:67 -  ----------------------------- -------- --------- -------- ---------
2025-01-17 15:42:53,569 [INFO] CmdLine:67 -  *weights*                            0   351,568        0         0
2025-01-17 15:42:53,584 [INFO] CmdLine:67 -  *activations*                        0         0        0   327,680
2025-01-17 15:42:53,584 [INFO] CmdLine:67 -  *io*                                 0         0        0         0
2025-01-17 15:42:53,584 [INFO] CmdLine:67 -  ----------------------------- -------- --------- -------- ---------
2025-01-17 15:42:53,584 [INFO] CmdLine:67 -  TOTAL                           35,064   356,400   13,172   328,296
2025-01-17 15:42:53,584 [INFO] CmdLine:67 -  ----------------------------- -------- --------- -------- ---------
2025-01-17 15:42:53,584 [INFO] CmdLine:67 -  *  toolchain objects (libm/libgcc*)
2025-01-17 15:42:53,584 [INFO] CmdLine:67 -  ** RT - AI runtime objects (kernels+infrastructure)
2025-01-17 15:42:53,584 [INFO] CmdLine:67 -   Summary per memory device type
2025-01-17 15:42:53,584 [INFO] CmdLine:67 -   ----------------------------------------------
2025-01-17 15:42:53,584 [INFO] CmdLine:67 -   .\device       FLASH       %       RAM      %
2025-01-17 15:42:53,584 [INFO] CmdLine:67 -   ----------------------------------------------
2025-01-17 15:42:53,584 [INFO] CmdLine:67 -   RT total      53,068   13.1%    13,788   4.0%
2025-01-17 15:42:53,584 [INFO] CmdLine:67 -   ----------------------------------------------
2025-01-17 15:42:53,584 [INFO] CmdLine:67 -   TOTAL        404,636           341,468
2025-01-17 15:42:53,584 [INFO] CmdLine:67 -   ----------------------------------------------
2025-01-17 15:42:53,584 [INFO] CmdLine:67 - Creating txt report file C:\Users\yh621\.stm32cubemx\network_output\network_analyze_report.txt
2025-01-17 15:42:53,645 [INFO] CmdLine:67 - elapsed time (analyze): 3.710s
2025-01-17 15:42:54,067 [INFO] CmdLine:132 - stm32ai exit with status: 0
2025-01-17 15:42:54,123 [INFO] AInterface:594 - Successfully load: network
2025-01-17 15:42:54,145 [INFO] AIModelDetailledView:2409 - Analyze complete on AI model
2025-01-17 15:42:54,160 [INFO] AIModelDetailledView:2080 - Analysis status: done
2025-01-17 15:42:56,176 [INFO] UtilMem:74 - End SaveConfig() Used Memory: 1017277664 Bytes (1073741824)
2025-01-17 15:43:00,153 [INFO] UtilMem:74 - End SaveConfig() Used Memory: 1040613696 Bytes (1073741824)
2025-01-17 15:43:01,142 [INFO] BlockDiagram:2735 - set Specific Code input for plugin: RCC
2025-01-17 15:43:01,142 [INFO] BlockDiagram:2735 - set Specific Code input for plugin: USART
2025-01-17 15:43:01,142 [INFO] BlockDiagram:2735 - set Specific Code input for plugin: SYS
2025-01-17 15:43:01,142 [INFO] BlockDiagram:2735 - set Specific Code input for plugin: STMicroelectronics.X-CUBE-AI.8.0.1
2025-01-17 15:43:01,142 [INFO] BlockDiagram:2735 - set Specific Code input for plugin: CRC
2025-01-17 15:43:01,142 [INFO] BlockDiagram:2735 - set Specific Code input for plugin: NVIC
2025-01-17 15:43:01,142 [INFO] BlockDiagram:2735 - set Specific Code input for plugin: GPIO
2025-01-17 15:43:01,142 [ERROR] ThirdPartyIpManager:536 - Invalid RefComponent liste
2025-01-17 15:43:01,142 [ERROR] ThirdPartyIpManager:536 - Invalid RefComponent liste
2025-01-17 15:43:01,142 [ERROR] ThirdPartyIpManager:536 - Invalid RefComponent liste
2025-01-17 15:43:01,142 [ERROR] ThirdPartyIpManager:536 - Invalid RefComponent liste
2025-01-17 15:43:01,142 [ERROR] ThirdPartyIpManager:536 - Invalid RefComponent liste
2025-01-17 15:43:01,142 [ERROR] ThirdPartyIpManager:536 - Invalid RefComponent liste
2025-01-17 15:43:01,142 [ERROR] ThirdPartyIpManager:536 - Invalid RefComponent liste
2025-01-17 15:43:01,142 [ERROR] ThirdPartyIpManager:536 - Invalid RefComponent liste
2025-01-17 15:43:01,142 [ERROR] ThirdPartyIpManager:536 - Invalid RefComponent liste
2025-01-17 15:43:01,142 [ERROR] ThirdPartyIpManager:536 - Invalid RefComponent liste
2025-01-17 15:43:01,142 [ERROR] ThirdPartyIpManager:536 - Invalid RefComponent liste
2025-01-17 15:43:01,142 [ERROR] ThirdPartyIpManager:536 - Invalid RefComponent liste
2025-01-17 15:43:01,142 [ERROR] ThirdPartyIpManager:536 - Invalid RefComponent liste
2025-01-17 15:43:01,142 [ERROR] ThirdPartyIpManager:536 - Invalid RefComponent liste
2025-01-17 15:43:01,142 [ERROR] ThirdPartyIpManager:536 - Invalid RefComponent liste
2025-01-17 15:43:01,142 [ERROR] ThirdPartyIpManager:536 - Invalid RefComponent liste
2025-01-17 15:43:01,142 [ERROR] ThirdPartyIpManager:536 - Invalid RefComponent liste
2025-01-17 15:43:01,142 [ERROR] ThirdPartyIpManager:536 - Invalid RefComponent liste
2025-01-17 15:43:01,142 [ERROR] ThirdPartyIpManager:536 - Invalid RefComponent liste
2025-01-17 15:43:01,142 [ERROR] ThirdPartyIpManager:536 - Invalid RefComponent liste
2025-01-17 15:43:01,142 [ERROR] ThirdPartyIpManager:536 - Invalid RefComponent liste
2025-01-17 15:43:01,142 [ERROR] ThirdPartyIpManager:536 - Invalid RefComponent liste
2025-01-17 15:43:01,142 [INFO] CodeGenerator:641 - code generatio: config db path: D:\STM32CubeIDE_1.6.1\STM32CubeIDE\plugins\com.st.stm32cube.common.mx_6.2.1.202103241236\\db\
2025-01-17 15:43:02,591 [INFO] IP:3321 - RTE Config file name : RTE_Component
2025-01-17 15:43:02,591 [INFO] IP:3339 - RTE template : RTE_Components.ftl
2025-01-17 15:43:02,614 [INFO] CodeEngine:229 - oldGeneratedFile, C:\Users\yh621\STM32CubeIDE\josh_cnn_stm32h\aa\MXTmpFiles\license.tmp_save
2025-01-17 15:43:02,712 [INFO] CodeEngine:247 - Generated code: C:\Users\yh621\STM32CubeIDE\josh_cnn_stm32h\aa\MXTmpFiles\license.tmp
2025-01-17 15:43:02,793 [INFO] CodeEngine:229 - oldGeneratedFile, C:\Users\yh621\STM32CubeIDE\josh_cnn_stm32h\aa\MXTmpFiles\gpio.tmp_save
2025-01-17 15:43:02,875 [INFO] CodeEngine:247 - Generated code: C:\Users\yh621\STM32CubeIDE\josh_cnn_stm32h\aa\MXTmpFiles\gpio.tmp
2025-01-17 15:43:03,266 [INFO] LogOutputStream:76 - [STDOUT_REDIRECT] Command line
2025-01-17 15:43:03,279 [INFO] CodeEngine:229 - oldGeneratedFile, C:\Users\yh621\STM32CubeIDE\josh_cnn_stm32h\aa\MXTmpFiles\cortex.tmp_save
2025-01-17 15:43:03,347 [INFO] CodeEngine:247 - Generated code: C:\Users\yh621\STM32CubeIDE\josh_cnn_stm32h\aa\MXTmpFiles\cortex.tmp
2025-01-17 15:43:03,350 [INFO] LogOutputStream:76 - [STDOUT_REDIRECT] Command line
2025-01-17 15:43:03,350 [INFO] LogOutputStream:76 - [STDOUT_REDIRECT] Command line
2025-01-17 15:43:03,356 [INFO] Middleware:1263 - No code input for Bsp Dependency
2025-01-17 15:43:03,357 [INFO] LogOutputStream:76 - [STDOUT_REDIRECT] Command line
2025-01-17 15:43:03,388 [INFO] CodeEngine:229 - oldGeneratedFile, C:\Users\yh621\STM32CubeIDE\josh_cnn_stm32h\aa\Core\Src\stm32h7xx_it.c_save
2025-01-17 15:43:03,526 [INFO] CodeEngine:247 - Generated code: C:\Users\yh621\STM32CubeIDE\josh_cnn_stm32h\aa\Core\Src\stm32h7xx_it.c
2025-01-17 15:43:03,538 [INFO] CodeEngine:229 - oldGeneratedFile, C:\Users\yh621\STM32CubeIDE\josh_cnn_stm32h\aa\Core\Inc\stm32h7xx_it.h_save
2025-01-17 15:43:03,626 [INFO] CodeEngine:247 - Generated code: C:\Users\yh621\STM32CubeIDE\josh_cnn_stm32h\aa\Core\Inc\stm32h7xx_it.h
2025-01-17 15:43:04,296 [INFO] CodeEngine:229 - oldGeneratedFile, C:\Users\yh621\STM32CubeIDE\josh_cnn_stm32h\aa\Core\Src\stm32h7xx_hal_msp.c_save
2025-01-17 15:43:04,425 [INFO] CodeEngine:247 - Generated code: C:\Users\yh621\STM32CubeIDE\josh_cnn_stm32h\aa\Core\Src\stm32h7xx_hal_msp.c
2025-01-17 15:43:04,425 [INFO] CodeEngine:229 - oldGeneratedFile, C:\Users\yh621\STM32CubeIDE\josh_cnn_stm32h\aa\MXTmpFiles\system.tmp_save
2025-01-17 15:43:04,506 [INFO] CodeEngine:247 - Generated code: C:\Users\yh621\STM32CubeIDE\josh_cnn_stm32h\aa\MXTmpFiles\system.tmp
2025-01-17 15:43:04,531 [INFO] CodeEngine:229 - oldGeneratedFile, C:\Users\yh621\STM32CubeIDE\josh_cnn_stm32h\aa\Core\Inc\stm32h7xx_hal_conf.h_save
2025-01-17 15:43:04,622 [INFO] CodeEngine:247 - Generated code: C:\Users\yh621\STM32CubeIDE\josh_cnn_stm32h\aa\Core\Inc\stm32h7xx_hal_conf.h
2025-01-17 15:43:04,722 [INFO] CodeEngine:229 - oldGeneratedFile, C:\Users\yh621\STM32CubeIDE\josh_cnn_stm32h\aa\Core\Inc\main.h_save
2025-01-17 15:43:04,854 [INFO] CodeEngine:247 - Generated code: C:\Users\yh621\STM32CubeIDE\josh_cnn_stm32h\aa\Core\Inc\main.h
2025-01-17 15:43:04,877 [INFO] CodeEngine:229 - oldGeneratedFile, C:\Users\yh621\STM32CubeIDE\josh_cnn_stm32h\aa\Core\Src\main.c_save
2025-01-17 15:43:05,060 [INFO] CodeEngine:247 - Generated code: C:\Users\yh621\STM32CubeIDE\josh_cnn_stm32h\aa\Core\Src\main.c
2025-01-17 15:43:06,057 [INFO] AInterface:298 - ModelName:network; files:[D:\josh\CNN_Cifar100_integer_quant.tflite]; type:TFLite; compression:None
2025-01-17 15:43:06,057 [INFO] AInterface:506 - workspaceTempDir: C:\Users\yh621\AppData\Local\Temp\mxAI_workspace150772894580006315424063954306613
2025-01-17 15:43:06,057 [INFO] AInterface:1042 - Setting Env: C:/Users/yh621/STM32Cube/Repository/Packs/STMicroelectronics/X-CUBE-AI/8.0.1/Utilities/windows
2025-01-17 15:43:06,057 [INFO] AInterface:1099 - Custom PATH variable: C:/Users/yh621/STM32Cube/Repository/Packs/STMicroelectronics/X-CUBE-AI/8.0.1/Utilities/windows;C:/Users/yh621/STM32Cube/Repository/Packs/STMicroelectronics/X-CUBE-AI/8.0.1/Utilities/windows/mingw64/bin;C:/Users/yh621/STM32Cube/Repository/Packs/STMicroelectronics/X-CUBE-AI/8.0.1/Utilities/windows/mingw64/libexec/gcc/x86_64-w64-mingw32/7.3.0;C:/Users/yh621/STM32Cube/Repository/Packs/STMicroelectronics/X-CUBE-AI/8.0.1/Utilities/windows/node/bin
2025-01-17 15:43:06,057 [INFO] CmdLine:100 - Command: C:/Users/yh621/STM32Cube/Repository/Packs/STMicroelectronics/X-CUBE-AI/8.0.1/Utilities/windows/stm32ai generate --name network -m D:/josh/CNN_Cifar100_integer_quant.tflite --type tflite --compression none --verbosity 1 --workspace C:\Users\yh621\AppData\Local\Temp\mxAI_workspace150772894580006315424063954306613 --output C:\Users\yh621\.stm32cubemx\network_output --allocate-inputs --series stm32h7 --allocate-outputs 
2025-01-17 15:43:06,057 [INFO] AIModelDetailledView:2080 - Analysis status: pending
2025-01-17 15:43:11,937 [INFO] CmdLine:67 - Neural Network Tools for STM32AI v1.7.0 (STM.ai v8.0.1-19451)
2025-01-17 15:43:13,618 [INFO] CmdLine:67 - Applied 0 of 0 optimizations
2025-01-17 15:43:14,294 [INFO] CmdLine:67 -  
2025-01-17 15:43:14,294 [INFO] CmdLine:67 -  Exec/report summary (generate)
2025-01-17 15:43:14,294 [INFO] CmdLine:67 -  -----------------------------------------------------------------------------------------------------------
2025-01-17 15:43:14,294 [INFO] CmdLine:67 -  model file         :   D:\josh\CNN_Cifar100_integer_quant.tflite                                           
2025-01-17 15:43:14,294 [INFO] CmdLine:67 -  type               :   tflite                                                                              
2025-01-17 15:43:14,294 [INFO] CmdLine:67 -  c_name             :   network                                                                             
2025-01-17 15:43:14,294 [INFO] CmdLine:67 -  compression        :   none                                                                                
2025-01-17 15:43:14,294 [INFO] CmdLine:67 -  options            :   allocate-inputs, allocate-outputs                                                   
2025-01-17 15:43:14,294 [INFO] CmdLine:67 -  optimization       :   balanced                                                                            
2025-01-17 15:43:14,294 [INFO] CmdLine:67 -  target/series      :   stm32h7                                                                             
2025-01-17 15:43:14,294 [INFO] CmdLine:67 -  workspace dir      :   C:\Users\yh621\AppData\Local\Temp\mxAI_workspace150772894580006315424063954306613   
2025-01-17 15:43:14,294 [INFO] CmdLine:67 -  output dir         :   C:\Users\yh621\.stm32cubemx\network_output                                          
2025-01-17 15:43:14,294 [INFO] CmdLine:67 -  model_fmt          :   ss/sa                                                                               
2025-01-17 15:43:14,294 [INFO] CmdLine:67 -  model_name         :   CNN_Cifar100_integer_quant                                                          
2025-01-17 15:43:14,294 [INFO] CmdLine:67 -  model_hash         :   172fded3d78c2eb2c925ec077923631a                                                    
2025-01-17 15:43:14,294 [INFO] CmdLine:67 -  params #           :   348,772 items (343.33 KiB)                                                          
2025-01-17 15:43:14,294 [INFO] CmdLine:67 -  -----------------------------------------------------------------------------------------------------------
2025-01-17 15:43:14,294 [INFO] CmdLine:67 -  input 1/1          :   'serving_default_x_10' (domain:activations/**default**)                             
2025-01-17 15:43:14,294 [INFO] CmdLine:67 -                     :   3072 items, 12.00 KiB, ai_float, float, (1,32,32,3)                                 
2025-01-17 15:43:14,294 [INFO] CmdLine:67 -  output 1/1         :   'conversion_58' (domain:activations/**default**)                                    
2025-01-17 15:43:14,294 [INFO] CmdLine:67 -                     :   100 items, 400 B, ai_float, float, (1,1,1,100)                                      
2025-01-17 15:43:14,294 [INFO] CmdLine:67 -  macc               :   37,785,196                                                                          
2025-01-17 15:43:14,294 [INFO] CmdLine:67 -  weights (ro)       :   351,568 B (343.33 KiB) (1 segment) / -1,043,520(-74.8%) vs float model              
2025-01-17 15:43:14,294 [INFO] CmdLine:67 -  activations (rw)   :   327,680 B (320.00 KiB) (1 segment) *                                                
2025-01-17 15:43:14,294 [INFO] CmdLine:67 -  ram (total)        :   327,680 B (320.00 KiB) = 327,680 + 0 + 0                                            
2025-01-17 15:43:14,294 [INFO] CmdLine:67 -  -----------------------------------------------------------------------------------------------------------
2025-01-17 15:43:14,294 [INFO] CmdLine:67 -  (*) 'input'/'output' buffers can be used from the activations buffer
2025-01-17 15:43:14,322 [INFO] CmdLine:67 -  Unable to evaluate the requested AI memory size.
2025-01-17 15:43:14,322 [INFO] CmdLine:67 -  -> Compiler "gcc:arm-none-eabi-gcc" is not supported/available..
2025-01-17 15:43:14,345 [INFO] CmdLine:67 -  Generated files (7)
2025-01-17 15:43:14,345 [INFO] CmdLine:67 -  ------------------------------------------------------------------
2025-01-17 15:43:14,345 [INFO] CmdLine:67 -  C:\Users\yh621\.stm32cubemx\network_output\network_config.h
2025-01-17 15:43:14,345 [INFO] CmdLine:67 -  C:\Users\yh621\.stm32cubemx\network_output\network.h
2025-01-17 15:43:14,345 [INFO] CmdLine:67 -  C:\Users\yh621\.stm32cubemx\network_output\network.c
2025-01-17 15:43:14,345 [INFO] CmdLine:67 -  C:\Users\yh621\.stm32cubemx\network_output\network_data_params.h
2025-01-17 15:43:14,345 [INFO] CmdLine:67 -  C:\Users\yh621\.stm32cubemx\network_output\network_data_params.c
2025-01-17 15:43:14,345 [INFO] CmdLine:67 -  C:\Users\yh621\.stm32cubemx\network_output\network_data.h
2025-01-17 15:43:14,345 [INFO] CmdLine:67 -  C:\Users\yh621\.stm32cubemx\network_output\network_data.c
2025-01-17 15:43:14,345 [INFO] CmdLine:67 - Creating txt report file C:\Users\yh621\.stm32cubemx\network_output\network_generate_report.txt
2025-01-17 15:43:14,754 [INFO] CmdLine:67 - elapsed time (generate): 2.816s
2025-01-17 15:43:15,184 [INFO] CmdLine:132 - stm32ai exit with status: 0
2025-01-17 15:43:15,245 [INFO] AInterface:594 - Successfully load: network
2025-01-17 15:43:15,276 [INFO] AIModelDetailledView:2080 - Analysis status: done
2025-01-17 15:43:17,206 [INFO] ProjectBuilder:2460 - Time for Copy HAL[1] : 205mS.
2025-01-17 15:43:17,206 [ERROR] Middleware:2942 - Invalid RefComponent liste
2025-01-17 15:43:17,206 [ERROR] Middleware:2942 - Invalid RefComponent liste
2025-01-17 15:43:17,206 [ERROR] Middleware:2942 - Invalid RefComponent liste
2025-01-17 15:43:17,206 [ERROR] Middleware:2942 - Invalid RefComponent liste
2025-01-17 15:43:17,206 [ERROR] Middleware:2942 - Invalid RefComponent liste
2025-01-17 15:43:17,206 [ERROR] Middleware:2942 - Invalid RefComponent liste
2025-01-17 15:43:17,206 [ERROR] Middleware:2942 - Invalid RefComponent liste
2025-01-17 15:43:17,206 [ERROR] Middleware:2942 - Invalid RefComponent liste
2025-01-17 15:43:17,206 [ERROR] Middleware:2942 - Invalid RefComponent liste
2025-01-17 15:43:17,206 [ERROR] Middleware:2942 - Invalid RefComponent liste
2025-01-17 15:43:17,206 [ERROR] Middleware:2942 - Invalid RefComponent liste
2025-01-17 15:43:17,206 [ERROR] Middleware:2942 - Invalid RefComponent liste
2025-01-17 15:43:17,206 [ERROR] Middleware:2942 - Invalid RefComponent liste
2025-01-17 15:43:17,206 [ERROR] Middleware:2942 - Invalid RefComponent liste
2025-01-17 15:43:17,206 [ERROR] Middleware:2942 - Invalid RefComponent liste
2025-01-17 15:43:17,206 [ERROR] Middleware:2942 - Invalid RefComponent liste
2025-01-17 15:43:17,206 [ERROR] Middleware:2942 - Invalid RefComponent liste
2025-01-17 15:43:17,206 [ERROR] Middleware:2942 - Invalid RefComponent liste
2025-01-17 15:43:17,206 [ERROR] Middleware:2942 - Invalid RefComponent liste
2025-01-17 15:43:17,206 [ERROR] Middleware:2942 - Invalid RefComponent liste
2025-01-17 15:43:17,206 [ERROR] Middleware:2942 - Invalid RefComponent liste
2025-01-17 15:43:17,206 [ERROR] Middleware:2942 - Invalid RefComponent liste
2025-01-17 15:43:17,206 [ERROR] Middleware:2942 - Invalid RefComponent liste
2025-01-17 15:43:17,206 [ERROR] Middleware:2942 - Invalid RefComponent liste
2025-01-17 15:43:17,206 [ERROR] Middleware:2942 - Invalid RefComponent liste
2025-01-17 15:43:17,206 [ERROR] Middleware:2942 - Invalid RefComponent liste
2025-01-17 15:43:17,206 [ERROR] Middleware:2942 - Invalid RefComponent liste
2025-01-17 15:43:17,206 [ERROR] Middleware:2942 - Invalid RefComponent liste
2025-01-17 15:43:17,206 [ERROR] Middleware:2942 - Invalid RefComponent liste
2025-01-17 15:43:17,206 [ERROR] Middleware:2942 - Invalid RefComponent liste
2025-01-17 15:43:17,206 [ERROR] Middleware:2942 - Invalid RefComponent liste
2025-01-17 15:43:17,206 [ERROR] Middleware:2942 - Invalid RefComponent liste
2025-01-17 15:43:17,206 [ERROR] Middleware:2942 - Invalid RefComponent liste
2025-01-17 15:43:17,206 [ERROR] Middleware:2942 - Invalid RefComponent liste
2025-01-17 15:43:17,206 [ERROR] Middleware:2942 - Invalid RefComponent liste
2025-01-17 15:43:17,206 [ERROR] Middleware:2942 - Invalid RefComponent liste
2025-01-17 15:43:17,206 [ERROR] Middleware:2942 - Invalid RefComponent liste
2025-01-17 15:43:17,206 [ERROR] Middleware:2942 - Invalid RefComponent liste
2025-01-17 15:43:17,206 [ERROR] Middleware:2942 - Invalid RefComponent liste
2025-01-17 15:43:17,206 [ERROR] Middleware:2942 - Invalid RefComponent liste
2025-01-17 15:43:17,206 [ERROR] Middleware:2942 - Invalid RefComponent liste
2025-01-17 15:43:17,206 [ERROR] Middleware:2942 - Invalid RefComponent liste
2025-01-17 15:43:17,212 [ERROR] Middleware:2942 - Invalid RefComponent liste
2025-01-17 15:43:17,212 [ERROR] Middleware:2942 - Invalid RefComponent liste
2025-01-17 15:43:17,212 [ERROR] ThirdPartyIpManager:536 - Invalid RefComponent liste
2025-01-17 15:43:17,212 [ERROR] ThirdPartyIpManager:536 - Invalid RefComponent liste
2025-01-17 15:43:17,212 [ERROR] ThirdPartyIpManager:536 - Invalid RefComponent liste
2025-01-17 15:43:17,212 [ERROR] ThirdPartyIpManager:536 - Invalid RefComponent liste
2025-01-17 15:43:17,212 [ERROR] ThirdPartyIpManager:536 - Invalid RefComponent liste
2025-01-17 15:43:17,212 [ERROR] ThirdPartyIpManager:536 - Invalid RefComponent liste
2025-01-17 15:43:17,212 [ERROR] ThirdPartyIpManager:536 - Invalid RefComponent liste
2025-01-17 15:43:17,212 [ERROR] ThirdPartyIpManager:536 - Invalid RefComponent liste
2025-01-17 15:43:17,212 [ERROR] ThirdPartyIpManager:536 - Invalid RefComponent liste
2025-01-17 15:43:17,212 [ERROR] ThirdPartyIpManager:536 - Invalid RefComponent liste
2025-01-17 15:43:17,212 [ERROR] ThirdPartyIpManager:536 - Invalid RefComponent liste
2025-01-17 15:43:17,212 [ERROR] ThirdPartyIpManager:536 - Invalid RefComponent liste
2025-01-17 15:43:17,212 [ERROR] ThirdPartyIpManager:536 - Invalid RefComponent liste
2025-01-17 15:43:17,212 [ERROR] ThirdPartyIpManager:536 - Invalid RefComponent liste
2025-01-17 15:43:17,212 [ERROR] ThirdPartyIpManager:536 - Invalid RefComponent liste
2025-01-17 15:43:17,212 [ERROR] ThirdPartyIpManager:536 - Invalid RefComponent liste
2025-01-17 15:43:17,212 [ERROR] ThirdPartyIpManager:536 - Invalid RefComponent liste
2025-01-17 15:43:17,212 [ERROR] ThirdPartyIpManager:536 - Invalid RefComponent liste
2025-01-17 15:43:17,214 [ERROR] ThirdPartyIpManager:536 - Invalid RefComponent liste
2025-01-17 15:43:17,214 [ERROR] ThirdPartyIpManager:536 - Invalid RefComponent liste
2025-01-17 15:43:17,214 [ERROR] ThirdPartyIpManager:536 - Invalid RefComponent liste
2025-01-17 15:43:17,214 [ERROR] ThirdPartyIpManager:536 - Invalid RefComponent liste
2025-01-17 15:43:17,214 [INFO] ProjectBuilder:3418 - Project Generator version: 3.13.0-B3
2025-01-17 15:43:18,901 [INFO] ConfigFileManager:1242 - The Die is : DIE480
2025-01-17 15:43:26,324 [INFO] ProjectBuilder:3584 - Time for Generating toolchain IDE Files: 9110mS.
2025-01-17 15:43:26,326 [INFO] ProjectBuilder:2339 - Time for Copy CMSIS : 0mS.
2025-01-17 15:43:26,343 [INFO] ProjectBuilder:2339 - Time for Copy CMSIS : 0mS.
2025-01-17 16:19:47,763 [INFO] Activator:170 - 


2025-01-17 16:19:47,763 [INFO] Activator:171 - !SESSION log4j initialized
