2025-02-18 16:43:32,143 [INFO] Activator:170 - 


2025-02-18 16:43:32,145 [INFO] Activator:171 - !SESSION log4j initialized
2025-02-18 16:43:43,792 [INFO] McuFinderGlobals:39 - Set McuFinder mode to 2 (CubeIDE integrated)
2025-02-18 16:43:44,231 [INFO] ApplicationProperties:181 - Using Application install path: D:\STM32CubeIDE_1.6.1\STM32CubeIDE\plugins\com.st.stm32cube.common.mx_6.2.1.202103241236
2025-02-18 16:43:44,247 [INFO] DbMcusXml:74 - Set database path to: D:\STM32CubeIDE_1.6.1\STM32CubeIDE\plugins\com.st.stm32cube.common.mx_6.2.1.202103241236\\db\/mcu/
2025-02-18 16:43:44,262 [INFO] DbBoardsPdsc:56 - Set plugin database path to: D:\STM32CubeIDE_1.6.1\STM32CubeIDE\plugins\com.st.stm32cube.common.mx_6.2.1.202103241236\\db\/plugins/boardmanager/
2025-02-18 16:43:44,262 [INFO] DbMcus:258 - Set plugin images path to: D:\STM32CubeIDE_1.6.1\STM32CubeIDE\plugins\com.st.stm32cube.common.mx_6.2.1.202103241236\\db\/plugins/mcufinder/images/
2025-02-18 16:43:44,262 [INFO] DbBoards:264 - Set plugin images path to: D:\STM32CubeIDE_1.6.1\STM32CubeIDE\plugins\com.st.stm32cube.common.mx_6.2.1.202103241236\\db\/plugins/mcufinder/images/
2025-02-18 16:43:44,262 [INFO] DbExamples:333 - Set plugin images path to: D:\STM32CubeIDE_1.6.1\STM32CubeIDE\plugins\com.st.stm32cube.common.mx_6.2.1.202103241236\\db\/plugins/mcufinder/images/
2025-02-18 16:43:44,278 [INFO] DbMcusAds:85 - Set database path to: C:\Users\yh621\.stmcufinder\plugins\mcufinder//mcu/
2025-02-18 16:43:44,278 [INFO] DbMcusDocs:110 - Set database path to: C:\Users\yh621\.stmcufinder\plugins\mcufinder//mcu/
2025-02-18 16:43:44,278 [INFO] DbMcusJson:65 - Set database path to: C:\Users\yh621\.stmcufinder\plugins\mcufinder//mcu/
2025-02-18 16:43:44,278 [INFO] DbBoardsDocs:110 - Set database path to: C:\Users\yh621\.stmcufinder\plugins\mcufinder//mcu/
2025-02-18 16:43:44,294 [INFO] DbBoardsJson:58 - Set database path to: C:\Users\yh621\.stmcufinder\plugins\mcufinder//mcu/
2025-02-18 16:43:44,294 [INFO] CrossReferenceDbSqlite:196 - Set database path to: C:\Users\yh621\.stmcufinder\plugins\mcufinder//mcu/cs/
2025-02-18 16:43:44,294 [INFO] DbExamplesSqlite:690 - Set database path to: C:\Users\yh621\.stmcufinder\plugins\mcufinder//mcu/
2025-02-18 16:43:44,380 [INFO] RulesReader:52 - Compatibility file has been processed (237 Rules)
2025-02-18 16:43:44,469 [INFO] MicroXplorer:622 - Detected Java Version = 11.0.9.1
2025-02-18 16:43:44,469 [INFO] DbMcusXml:74 - Set database path to: D:\STM32CubeIDE_1.6.1\STM32CubeIDE\plugins\com.st.stm32cube.common.mx_6.2.1.202103241236\\db\/mcu/
2025-02-18 16:43:44,469 [INFO] DbBoardsPdsc:56 - Set plugin database path to: D:\STM32CubeIDE_1.6.1\STM32CubeIDE\plugins\com.st.stm32cube.common.mx_6.2.1.202103241236\\db\/plugins/boardmanager/
2025-02-18 16:43:44,469 [INFO] DbMcus:258 - Set plugin images path to: D:\STM32CubeIDE_1.6.1\STM32CubeIDE\plugins\com.st.stm32cube.common.mx_6.2.1.202103241236\\db\/plugins/mcufinder/images/
2025-02-18 16:43:44,469 [INFO] DbBoards:264 - Set plugin images path to: D:\STM32CubeIDE_1.6.1\STM32CubeIDE\plugins\com.st.stm32cube.common.mx_6.2.1.202103241236\\db\/plugins/mcufinder/images/
2025-02-18 16:43:44,469 [INFO] DbExamples:333 - Set plugin images path to: D:\STM32CubeIDE_1.6.1\STM32CubeIDE\plugins\com.st.stm32cube.common.mx_6.2.1.202103241236\\db\/plugins/mcufinder/images/
2025-02-18 16:43:44,469 [WARN] DbFile:35 - Overriding database path with different value: C:\Users\yh621\.stmcufinder\plugins\mcufinder/ => C:\Users\yh621\.stmcufinder\plugins\mcufinder
2025-02-18 16:43:44,469 [INFO] DbMcusAds:85 - Set database path to: C:\Users\yh621\.stmcufinder\plugins\mcufinder//mcu/
2025-02-18 16:43:44,469 [WARN] DbFile:35 - Overriding database path with different value: C:\Users\yh621\.stmcufinder\plugins\mcufinder/ => C:\Users\yh621\.stmcufinder\plugins\mcufinder
2025-02-18 16:43:44,469 [INFO] DbMcusDocs:110 - Set database path to: C:\Users\yh621\.stmcufinder\plugins\mcufinder//mcu/
2025-02-18 16:43:44,469 [WARN] DbFile:35 - Overriding database path with different value: C:\Users\yh621\.stmcufinder\plugins\mcufinder/ => C:\Users\yh621\.stmcufinder\plugins\mcufinder
2025-02-18 16:43:44,469 [INFO] DbMcusJson:65 - Set database path to: C:\Users\yh621\.stmcufinder\plugins\mcufinder//mcu/
2025-02-18 16:43:44,469 [WARN] DbFile:35 - Overriding database path with different value: C:\Users\yh621\.stmcufinder\plugins\mcufinder/ => C:\Users\yh621\.stmcufinder\plugins\mcufinder
2025-02-18 16:43:44,469 [INFO] DbBoardsDocs:110 - Set database path to: C:\Users\yh621\.stmcufinder\plugins\mcufinder//mcu/
2025-02-18 16:43:44,469 [WARN] DbFile:35 - Overriding database path with different value: C:\Users\yh621\.stmcufinder\plugins\mcufinder/ => C:\Users\yh621\.stmcufinder\plugins\mcufinder
2025-02-18 16:43:44,469 [INFO] DbBoardsJson:58 - Set database path to: C:\Users\yh621\.stmcufinder\plugins\mcufinder//mcu/
2025-02-18 16:43:44,469 [WARN] DbFile:35 - Overriding database path with different value: C:\Users\yh621\.stmcufinder\plugins\mcufinder/ => C:\Users\yh621\.stmcufinder\plugins\mcufinder
2025-02-18 16:43:44,469 [WARN] DbFile:35 - Overriding database path with different value: C:\Users\yh621\.stmcufinder\plugins\mcufinder/ => C:\Users\yh621\.stmcufinder\plugins\mcufinder
2025-02-18 16:43:44,469 [INFO] CrossReferenceDbSqlite:196 - Set database path to: C:\Users\yh621\.stmcufinder\plugins\mcufinder//mcu/cs/
2025-02-18 16:43:44,469 [WARN] DbFile:35 - Overriding database path with different value: C:\Users\yh621\.stmcufinder\plugins\mcufinder/ => C:\Users\yh621\.stmcufinder\plugins\mcufinder
2025-02-18 16:43:44,469 [INFO] DbExamplesSqlite:690 - Set database path to: C:\Users\yh621\.stmcufinder\plugins\mcufinder//mcu/
2025-02-18 16:43:44,547 [INFO] MainPanel:204 - HeapMemory: 268435456
2025-02-18 16:43:44,636 [INFO] DbMcusXml:74 - Set database path to: D:\STM32CubeIDE_1.6.1\STM32CubeIDE\plugins\com.st.stm32cube.common.mx_6.2.1.202103241236\\db\/mcu/
2025-02-18 16:43:44,636 [INFO] DbBoardsPdsc:56 - Set plugin database path to: D:\STM32CubeIDE_1.6.1\STM32CubeIDE\plugins\com.st.stm32cube.common.mx_6.2.1.202103241236\\db\/plugins/boardmanager/
2025-02-18 16:43:44,636 [INFO] DbMcus:258 - Set plugin images path to: D:\STM32CubeIDE_1.6.1\STM32CubeIDE\plugins\com.st.stm32cube.common.mx_6.2.1.202103241236\\db\/plugins/mcufinder/images/
2025-02-18 16:43:44,636 [INFO] DbBoards:264 - Set plugin images path to: D:\STM32CubeIDE_1.6.1\STM32CubeIDE\plugins\com.st.stm32cube.common.mx_6.2.1.202103241236\\db\/plugins/mcufinder/images/
2025-02-18 16:43:44,636 [INFO] DbExamples:333 - Set plugin images path to: D:\STM32CubeIDE_1.6.1\STM32CubeIDE\plugins\com.st.stm32cube.common.mx_6.2.1.202103241236\\db\/plugins/mcufinder/images/
2025-02-18 16:43:44,636 [WARN] DbFile:35 - Overriding database path with different value: C:\Users\yh621\.stmcufinder\plugins\mcufinder/ => C:\Users\yh621\.stmcufinder\plugins\mcufinder
2025-02-18 16:43:44,636 [INFO] DbMcusAds:85 - Set database path to: C:\Users\yh621\.stmcufinder\plugins\mcufinder//mcu/
2025-02-18 16:43:44,636 [WARN] DbFile:35 - Overriding database path with different value: C:\Users\yh621\.stmcufinder\plugins\mcufinder/ => C:\Users\yh621\.stmcufinder\plugins\mcufinder
2025-02-18 16:43:44,636 [INFO] DbMcusDocs:110 - Set database path to: C:\Users\yh621\.stmcufinder\plugins\mcufinder//mcu/
2025-02-18 16:43:44,636 [WARN] DbFile:35 - Overriding database path with different value: C:\Users\yh621\.stmcufinder\plugins\mcufinder/ => C:\Users\yh621\.stmcufinder\plugins\mcufinder
2025-02-18 16:43:44,636 [INFO] DbMcusJson:65 - Set database path to: C:\Users\yh621\.stmcufinder\plugins\mcufinder//mcu/
2025-02-18 16:43:44,636 [WARN] DbFile:35 - Overriding database path with different value: C:\Users\yh621\.stmcufinder\plugins\mcufinder/ => C:\Users\yh621\.stmcufinder\plugins\mcufinder
2025-02-18 16:43:44,636 [INFO] DbBoardsDocs:110 - Set database path to: C:\Users\yh621\.stmcufinder\plugins\mcufinder//mcu/
2025-02-18 16:43:44,636 [WARN] DbFile:35 - Overriding database path with different value: C:\Users\yh621\.stmcufinder\plugins\mcufinder/ => C:\Users\yh621\.stmcufinder\plugins\mcufinder
2025-02-18 16:43:44,636 [INFO] DbBoardsJson:58 - Set database path to: C:\Users\yh621\.stmcufinder\plugins\mcufinder//mcu/
2025-02-18 16:43:44,636 [WARN] DbFile:35 - Overriding database path with different value: C:\Users\yh621\.stmcufinder\plugins\mcufinder/ => C:\Users\yh621\.stmcufinder\plugins\mcufinder
2025-02-18 16:43:44,636 [WARN] DbFile:35 - Overriding database path with different value: C:\Users\yh621\.stmcufinder\plugins\mcufinder/ => C:\Users\yh621\.stmcufinder\plugins\mcufinder
2025-02-18 16:43:44,636 [INFO] CrossReferenceDbSqlite:196 - Set database path to: C:\Users\yh621\.stmcufinder\plugins\mcufinder//mcu/cs/
2025-02-18 16:43:44,636 [WARN] DbFile:35 - Overriding database path with different value: C:\Users\yh621\.stmcufinder\plugins\mcufinder/ => C:\Users\yh621\.stmcufinder\plugins\mcufinder
2025-02-18 16:43:44,636 [INFO] DbExamplesSqlite:690 - Set database path to: C:\Users\yh621\.stmcufinder\plugins\mcufinder//mcu/
2025-02-18 16:43:44,667 [INFO] ApplicationProperties:181 - Using Application install path: D:\STM32CubeIDE_1.6.1\STM32CubeIDE\plugins\com.st.stm32cube.common.mx_6.2.1.202103241236
2025-02-18 16:43:44,667 [INFO] PluginManage:178 - Search for loadable plugins [exclusion list=, ]
2025-02-18 16:43:44,667 [INFO] PluginManage:292 - Check plugin analytics
2025-02-18 16:43:44,817 [INFO] AnalyticsPlugin:233 - Accepted Software Licenses: STM32CubeMX.6.2.1,STM32CubeMX.5.6.1,STM32CubeMX.6.6.1,STM32CubeMX.5.3.0,STM32CubeMX.6.5.0
2025-02-18 16:43:44,817 [INFO] AnalyticsPlugin:235 - Accepted CMSIS Pack Licenses: STMicroelectronics.X-CUBE-AI.7.3.0
2025-02-18 16:43:44,817 [INFO] AnalyticsPlugin:237 - Accepted Firmware Licenses: 
2025-02-18 16:43:44,817 [INFO] PluginManage:342 - Loaded plugin analytics (category:tool,tabindex:-1)
2025-02-18 16:43:44,817 [INFO] PluginManage:292 - Check plugin clock
2025-02-18 16:43:44,842 [INFO] PluginManage:342 - Loaded plugin clock (category:base,tabindex:2)
2025-02-18 16:43:44,842 [INFO] PluginManage:292 - Check plugin ddr
2025-02-18 16:43:44,842 [INFO] PluginManage:342 - Loaded plugin ddr (category:tool,tabindex:6)
2025-02-18 16:43:44,842 [INFO] PluginManage:292 - Check plugin filemanager
2025-02-18 16:43:44,933 [INFO] PluginManage:342 - Loaded plugin filemanager (category:base,tabindex:10)
2025-02-18 16:43:44,933 [INFO] PluginManage:292 - Check plugin ipmanager
2025-02-18 16:43:44,933 [INFO] PluginManage:342 - Loaded plugin ipmanager (category:base,tabindex:5)
2025-02-18 16:43:44,933 [INFO] PluginManage:292 - Check plugin pinoutandconfiguration
2025-02-18 16:43:44,948 [INFO] PluginManage:342 - Loaded plugin pinoutandconfiguration (category:base,tabindex:1)
2025-02-18 16:43:44,948 [INFO] PluginManage:292 - Check plugin pinoutconfig
2025-02-18 16:43:44,979 [INFO] PluginManage:342 - Loaded plugin pinoutconfig (category:base,tabindex:0)
2025-02-18 16:43:44,979 [INFO] PluginManage:292 - Check plugin power
2025-02-18 16:43:45,002 [INFO] PluginManage:342 - Loaded plugin power (category:power,tabindex:4)
2025-02-18 16:43:45,002 [INFO] PluginManage:292 - Check plugin projectmanager
2025-02-18 16:43:45,017 [INFO] PluginManage:342 - Loaded plugin projectmanager (category:projectmanager,tabindex:3)
2025-02-18 16:43:45,017 [INFO] PluginManage:292 - Check plugin thirdparty
2025-02-18 16:43:45,265 [INFO] PluginManage:342 - Loaded plugin thirdparty (category:base,tabindex:-1)
2025-02-18 16:43:45,265 [INFO] PluginManage:292 - Check plugin tools
2025-02-18 16:43:45,265 [WARN] IntegrityCheckThread:59 - waiting for thirdparty lock release [integrity check]
2025-02-18 16:43:45,280 [INFO] IntegrityCheckThread:61 - entering critical section [integrity check]
2025-02-18 16:43:45,280 [INFO] ThirdPartyUpdaterWithRetryManager:56 - Updater plugin not ready yet. [1/15]
2025-02-18 16:43:45,403 [INFO] PluginManage:342 - Loaded plugin tools (category:base,tabindex:7)
2025-02-18 16:43:45,403 [INFO] PluginManage:292 - Check plugin tutovideos
2025-02-18 16:43:45,663 [INFO] PluginManage:342 - Loaded plugin tutovideos (category:base,tabindex:-1)
2025-02-18 16:43:45,663 [INFO] PluginManage:292 - Check plugin updater
2025-02-18 16:43:45,677 [INFO] PluginManage:342 - Loaded plugin updater (category:base,tabindex:12)
2025-02-18 16:43:45,677 [INFO] PluginManage:265 - PluginManage : Loaded plugins [13]
2025-02-18 16:43:45,836 [INFO] PinOutPanel:1435 - setPackage(No Configuration,No Configuration)
2025-02-18 16:43:45,919 [INFO] IPUIPlugin:64 - create IPUIPlugin
2025-02-18 16:43:45,919 [INFO] PluginManager:203 - loadIPPluginJar : add adc
2025-02-18 16:43:45,970 [INFO] IPUIPlugin:64 - create IPUIPlugin
2025-02-18 16:43:45,970 [INFO] PluginManager:203 - loadIPPluginJar : add aes
2025-02-18 16:43:46,019 [INFO] IPUIPlugin:64 - create IPUIPlugin
2025-02-18 16:43:46,019 [INFO] PluginManager:203 - loadIPPluginJar : add can
2025-02-18 16:43:46,066 [INFO] IPUIPlugin:64 - create IPUIPlugin
2025-02-18 16:43:46,066 [INFO] PluginManager:203 - loadIPPluginJar : add comp
2025-02-18 16:43:46,140 [INFO] IPUIPlugin:64 - create IPUIPlugin
2025-02-18 16:43:46,140 [INFO] PluginManager:203 - loadIPPluginJar : add cryp
2025-02-18 16:43:46,204 [INFO] IPUIPlugin:64 - create IPUIPlugin
2025-02-18 16:43:46,204 [INFO] PluginManager:203 - loadIPPluginJar : add dfsdm
2025-02-18 16:43:46,220 [INFO] IPUIPlugin:64 - create IPUIPlugin
2025-02-18 16:43:46,220 [INFO] PluginManager:203 - loadIPPluginJar : add dma
2025-02-18 16:43:46,267 [INFO] IPUIPlugin:64 - create IPUIPlugin
2025-02-18 16:43:46,267 [INFO] PluginManager:203 - loadIPPluginJar : add fatfs
2025-02-18 16:43:46,351 [INFO] IPUIPlugin:64 - create IPUIPlugin
2025-02-18 16:43:46,351 [INFO] PluginManager:203 - loadIPPluginJar : add fmc
2025-02-18 16:43:46,367 [INFO] IPUIPlugin:64 - create IPUIPlugin
2025-02-18 16:43:46,367 [INFO] PluginManager:203 - loadIPPluginJar : add freertos
2025-02-18 16:43:46,404 [INFO] IPUIPlugin:64 - create IPUIPlugin
2025-02-18 16:43:46,404 [INFO] PluginManager:203 - loadIPPluginJar : add genericplugin
2025-02-18 16:43:46,535 [INFO] IPUIPlugin:64 - create IPUIPlugin
2025-02-18 16:43:46,535 [INFO] PluginManager:203 - loadIPPluginJar : add gfxmmu
2025-02-18 16:43:46,717 [INFO] IPUIPlugin:64 - create IPUIPlugin
2025-02-18 16:43:46,717 [INFO] PluginManager:203 - loadIPPluginJar : add gic
2025-02-18 16:43:46,725 [INFO] IPUIPlugin:64 - create IPUIPlugin
2025-02-18 16:43:46,725 [INFO] PluginManager:203 - loadIPPluginJar : add gpio
2025-02-18 16:43:46,814 [INFO] IPUIPlugin:64 - create IPUIPlugin
2025-02-18 16:43:46,814 [INFO] PluginManager:203 - loadIPPluginJar : add gtzc
2025-02-18 16:43:46,867 [INFO] IPUIPlugin:64 - create IPUIPlugin
2025-02-18 16:43:46,867 [INFO] PluginManager:203 - loadIPPluginJar : add hash
2025-02-18 16:43:46,951 [INFO] IPUIPlugin:64 - create IPUIPlugin
2025-02-18 16:43:46,951 [INFO] PluginManager:203 - loadIPPluginJar : add i2c
2025-02-18 16:43:47,016 [INFO] IPUIPlugin:64 - create IPUIPlugin
2025-02-18 16:43:47,016 [INFO] PluginManager:203 - loadIPPluginJar : add i2s
2025-02-18 16:43:47,035 [INFO] IPUIPlugin:64 - create IPUIPlugin
2025-02-18 16:43:47,035 [INFO] PluginManager:203 - loadIPPluginJar : add ipddr
2025-02-18 16:43:47,098 [INFO] IPUIPlugin:64 - create IPUIPlugin
2025-02-18 16:43:47,098 [INFO] PluginManager:203 - loadIPPluginJar : add lorawan
2025-02-18 16:43:47,167 [INFO] IPUIPlugin:64 - create IPUIPlugin
2025-02-18 16:43:47,167 [INFO] PluginManager:203 - loadIPPluginJar : add ltdc
2025-02-18 16:43:47,182 [INFO] IPUIPlugin:64 - create IPUIPlugin
2025-02-18 16:43:47,182 [INFO] PluginManager:203 - loadIPPluginJar : add mdma
2025-02-18 16:43:47,198 [INFO] IPUIPlugin:64 - create IPUIPlugin
2025-02-18 16:43:47,198 [INFO] PluginManager:203 - loadIPPluginJar : add nvic
2025-02-18 16:43:47,283 [INFO] IPUIPlugin:64 - create IPUIPlugin
2025-02-18 16:43:47,283 [INFO] PluginManager:203 - loadIPPluginJar : add opamp
2025-02-18 16:43:47,383 [INFO] IPUIPlugin:64 - create IPUIPlugin
2025-02-18 16:43:47,383 [INFO] PluginManager:203 - loadIPPluginJar : add openamp
2025-02-18 16:43:47,436 [INFO] IPUIPlugin:64 - create IPUIPlugin
2025-02-18 16:43:47,436 [INFO] PluginManager:203 - loadIPPluginJar : add pdm2pcm
2025-02-18 16:43:47,452 [INFO] IPUIPlugin:64 - create IPUIPlugin
2025-02-18 16:43:47,452 [INFO] PluginManager:203 - loadIPPluginJar : add plateformsettings
2025-02-18 16:43:47,499 [INFO] IPUIPlugin:64 - create IPUIPlugin
2025-02-18 16:43:47,499 [INFO] PluginManager:203 - loadIPPluginJar : add quadspi
2025-02-18 16:43:47,520 [INFO] IPUIPlugin:64 - create IPUIPlugin
2025-02-18 16:43:47,520 [INFO] PluginManager:203 - loadIPPluginJar : add resmgrutility
2025-02-18 16:43:47,584 [INFO] IPUIPlugin:64 - create IPUIPlugin
2025-02-18 16:43:47,584 [INFO] PluginManager:203 - loadIPPluginJar : add sai
2025-02-18 16:43:47,653 [INFO] IPUIPlugin:64 - create IPUIPlugin
2025-02-18 16:43:47,653 [INFO] PluginManager:203 - loadIPPluginJar : add spi
2025-02-18 16:43:47,715 [INFO] IPUIPlugin:64 - create IPUIPlugin
2025-02-18 16:43:47,715 [INFO] PluginManager:203 - loadIPPluginJar : add stm32_wpan
2025-02-18 16:43:47,753 [INFO] IPUIPlugin:64 - create IPUIPlugin
2025-02-18 16:43:47,769 [INFO] PluginManager:203 - loadIPPluginJar : add tim
2025-02-18 16:43:47,858 [INFO] IPUIPlugin:64 - create IPUIPlugin
2025-02-18 16:43:47,858 [INFO] PluginManager:203 - loadIPPluginJar : add touchsensing
2025-02-18 16:43:47,890 [INFO] IPUIPlugin:64 - create IPUIPlugin
2025-02-18 16:43:47,890 [INFO] PluginManager:203 - loadIPPluginJar : add tracer_emb
2025-02-18 16:43:47,938 [INFO] IPUIPlugin:64 - create IPUIPlugin
2025-02-18 16:43:47,938 [INFO] PluginManager:203 - loadIPPluginJar : add ts
2025-02-18 16:43:47,985 [INFO] IPUIPlugin:64 - create IPUIPlugin
2025-02-18 16:43:47,985 [INFO] PluginManager:203 - loadIPPluginJar : add tsc
2025-02-18 16:43:48,032 [INFO] IPUIPlugin:64 - create IPUIPlugin
2025-02-18 16:43:48,032 [INFO] PluginManager:203 - loadIPPluginJar : add ucpd
2025-02-18 16:43:48,101 [INFO] IPUIPlugin:64 - create IPUIPlugin
2025-02-18 16:43:48,101 [INFO] PluginManager:203 - loadIPPluginJar : add usart
2025-02-18 16:43:48,293 [INFO] ThirdPartyUpdaterWithRetryManager:56 - Updater plugin not ready yet. [2/15]
2025-02-18 16:43:48,415 [FATAL] Updater:284 - Updater called before beeing initialized
2025-02-18 16:43:48,514 [FATAL] Updater:284 - Updater called before beeing initialized
2025-02-18 16:43:48,514 [INFO] DbMcusAds:132 - JSON generation date=Tue Dec 17 16:01:15 GMT 2024 (1734451275111)
2025-02-18 16:43:48,514 [FATAL] Updater:284 - Updater called before beeing initialized
2025-02-18 16:43:48,601 [WARN] DetailPanel:315 - Failed to get advertising image, set to default
2025-02-18 16:43:48,739 [FATAL] Updater:284 - Updater called before beeing initialized
2025-02-18 16:43:48,739 [FATAL] Updater:284 - Updater called before beeing initialized
2025-02-18 16:43:48,739 [FATAL] Updater:284 - Updater called before beeing initialized
2025-02-18 16:43:48,739 [WARN] DetailPanel:315 - Failed to get advertising image, set to default
2025-02-18 16:43:48,739 [FATAL] Updater:284 - Updater called before beeing initialized
2025-02-18 16:43:48,776 [FATAL] Updater:284 - Updater called before beeing initialized
2025-02-18 16:43:48,776 [WARN] ThirdParty:796 - waiting for thirdparty lock release [close project]
2025-02-18 16:43:51,311 [FATAL] Updater:284 - Updater called before beeing initialized
2025-02-18 16:43:51,311 [ERROR] AbstractThirdPartyUpdaterManager:153 - class java.lang.Integer cannot be cast to class java.util.List (java.lang.Integer and java.util.List are in module java.base of loader 'bootstrap')
2025-02-18 16:43:51,311 [INFO] ThirdParty:900 - Integrity check success = false
2025-02-18 16:43:51,311 [INFO] IntegrityCheckThread:75 - exiting critical section [integrity check]
2025-02-18 16:43:51,311 [INFO] IntegrityCheckThread:78 - End integrity checks thread
2025-02-18 16:43:51,312 [INFO] ThirdParty:798 - entering critical section [close project]
2025-02-18 16:43:51,312 [INFO] ThirdParty:809 - exiting critical section [close project]
2025-02-18 16:43:51,316 [INFO] PinOutPanel:1435 - setPackage(No Configuration,No Configuration)
2025-02-18 16:43:51,316 [FATAL] Updater:284 - Updater called before beeing initialized
2025-02-18 16:43:51,332 [ERROR] Updater:1065 - MainUpdater not yet initialized. External WinMGr cannot be set.
2025-02-18 16:43:51,332 [INFO] Updater:1002 - Updater Version found : 6.2.1
2025-02-18 16:43:51,348 [INFO] ApplicationProperties:181 - Using Application install path: D:\STM32CubeIDE_1.6.1\STM32CubeIDE\plugins\com.st.stm32cube.common.mx_6.2.1.202103241236
2025-02-18 16:43:51,684 [INFO] MainUpdater:2661 - connection check result : 10
2025-02-18 16:43:51,684 [INFO] MainUpdater:255 - Updater Check For Update Now.
2025-02-18 16:43:51,684 [INFO] MicroXplorer:472 - Change Database Version : DB.6.0.21
2025-02-18 16:43:51,782 [INFO] CheckServerUpdateThread:102 - End of CheckServer Thread
2025-02-18 16:43:51,830 [INFO] MainUpdater:2661 - connection check result : 10
2025-02-18 16:43:52,381 [INFO] CrossSelectorPresenter:1330 - Cross Selector saved comparison directory: C:\Users\yh621\.stmcufinder\plugins\mcufinder\mcu\cs_comparisons_mx
2025-02-18 16:43:52,381 [INFO] MultiScanPanel:200 - Auto-refresh data requested => check proxy status ongoing
2025-02-18 16:43:52,381 [INFO] FinderPluginLoader:87 - Searching for filters in installed packs
2025-02-18 16:43:52,397 [INFO] FinderPluginLoader:100 - Found C:\Users\yh621\STM32Cube\Repository\Packs\STMicroelectronics\X-CUBE-AI\8.0.1\CubeMX\plugins\ip\ai.8.0.1.jar
2025-02-18 16:43:52,397 [INFO] FinderPluginLoader:100 - Found C:\Users\yh621\STM32Cube\Repository\Packs\STMicroelectronics\X-CUBE-AI\8.0.0\CubeMX\plugins\ip\ai.8.0.0.jar
2025-02-18 16:43:52,397 [INFO] FinderPluginLoader:100 - Found C:\Users\yh621\STM32Cube\Repository\Packs\STMicroelectronics\X-CUBE-AI\7.3.0\CubeMX\plugins\ip\ai.7.3.0.jar
2025-02-18 16:43:52,397 [INFO] FinderPluginLoader:100 - Found C:\Users\yh621\STM32Cube\Repository\Packs\STMicroelectronics\X-CUBE-AI\7.0.0\CubeMX\plugins\ip\ai.7.0.0.jar
2025-02-18 16:43:52,397 [INFO] FinderPluginLoader:100 - Found C:\Users\yh621\STM32Cube\Repository\Packs\STMicroelectronics\X-CUBE-AI\6.0.0\CubeMX\plugins\ip\ai.6.0.0.jar
2025-02-18 16:43:52,397 [INFO] FinderPluginLoader:100 - Found C:\Users\yh621\STM32Cube\Repository\Packs\STMicroelectronics\X-CUBE-AI\5.2.0\CubeMX\plugins\ip\ai.5.2.0.jar
2025-02-18 16:43:52,397 [INFO] FinderPluginLoader:100 - Found C:\Users\yh621\STM32Cube\Repository\Packs\STMicroelectronics\X-CUBE-AI\5.1.2\CubeMX\plugins\ip\ai.5.1.2.jar
2025-02-18 16:43:52,397 [INFO] FinderPluginLoader:110 - Loading ai.8.0.1
2025-02-18 16:43:52,466 [INFO] McuExtendedFiltersManager:89 - Add MCU extended filter: Artificial Intelligence
2025-02-18 16:43:52,482 [INFO] DbMcusXml:100 - Load MCU database from D:\STM32CubeIDE_1.6.1\STM32CubeIDE\plugins\com.st.stm32cube.common.mx_6.2.1.202103241236\\db\/mcu/families.xml
2025-02-18 16:43:53,127 [INFO] DbMcusJson:94 - JSON generation date=Tue Nov 16 16:17:54 GMT 2021 (1637079474)
2025-02-18 16:43:53,684 [INFO] DbMcus:175 - Found 1906 MCUs (1866 are supported by CubeMX, 1920 are visible in CubeMX)
2025-02-18 16:43:53,701 [INFO] ApiDb:251 - Load user favorites file C:\Users\yh621/.stm32cubeide/favorites.mcus.txt: 1 item(s)
2025-02-18 16:43:53,701 [INFO] ApiDb:255 - User favorites MCUs=[STM32H7A3ZITxQ]
2025-02-18 16:43:53,717 [INFO] DbMcus:187 - Set 1 / 1 favorites MCUs
2025-02-18 16:43:53,838 [INFO] AInterface:109 - AInterface using toolDir: C:/Users/yh621/STM32Cube/Repository//Packs/STMicroelectronics/X-CUBE-AI/8.0.1/Utilities/windows
2025-02-18 16:43:54,127 [INFO] DetailPanel:310 - Set advertising image to C:/Users/yh621/STM32Cube/Repository/\en.prom-stm32n6-mcu-finder.png
2025-02-18 16:43:54,485 [INFO] DbBoardsPdsc:90 - Found 24 items
2025-02-18 16:43:54,501 [INFO] DbBoardsPdsc:90 - Found 9 items
2025-02-18 16:43:54,517 [INFO] DbBoardsPdsc:90 - Found 33 items
2025-02-18 16:43:54,517 [INFO] DbBoardsPdsc:90 - Found 1 items
2025-02-18 16:43:54,548 [INFO] DbBoardsPdsc:90 - Found 46 items
2025-02-18 16:43:54,555 [INFO] DbBoardsPdsc:90 - Found 41 items
2025-02-18 16:43:54,570 [INFO] DbBoardsPdsc:90 - Found 2 items
2025-02-18 16:43:54,586 [INFO] DbBoardsPdsc:90 - Found 5 items
2025-02-18 16:43:54,586 [WARN] DbBoardsPdsc:254 - Board NUCLEO-WB15CC: unknown feature type=, name=, username=Three user LEDs, n=1
2025-02-18 16:43:54,586 [WARN] DbBoardsPdsc:254 - Board NUCLEO-WB15CC: unknown feature type=, name=, username=One reset and three user push-buttons, n=1
2025-02-18 16:43:54,586 [WARN] DbBoardsPdsc:254 - Board NUCLEO-WB15CC: unknown feature type=, name=, username=Arduino Uno V3 expansion connector, n=1
2025-02-18 16:43:54,586 [WARN] DbBoardsPdsc:254 - Board NUCLEO-WB15CC: unknown feature type=, name=, username=ST morpho extension pin headers for full access to all STM32WB I/Os, n=1
2025-02-18 16:43:54,586 [WARN] DbBoardsPdsc:254 - Board NUCLEO-WB15CC: unknown feature type=, name=, username=Integrated PCB antenna and SMA connector footprint, n=1
2025-02-18 16:43:54,586 [WARN] DbBoardsPdsc:254 - Board NUCLEO-WB15CC: unknown feature type=, name=, username=Flexible power-supply options: ST-LINK, USB VBUS, or external sources, n=1
2025-02-18 16:43:54,586 [WARN] DbBoardsPdsc:254 - Board NUCLEO-WB15CC: unknown feature type=, name=, username=On-board footprint to mount a CR2032 battery socket, n=1
2025-02-18 16:43:54,586 [WARN] DbBoardsPdsc:254 - Board NUCLEO-WB15CC: unknown feature type=, name=, username=On-board ST-LINK/V2-1 debugger/programmer with USB re-enumeration capability: mass storage, Virtual COM port, and debug port, n=1
2025-02-18 16:43:54,586 [WARN] DbBoardsPdsc:254 - Board NUCLEO-WB15CC: unknown feature type=, name=, username=Comprehensive free software libraries and examples available with the STM32CubeWB MCU Package, n=1
2025-02-18 16:43:54,586 [WARN] DbBoardsPdsc:254 - Board NUCLEO-WB15CC: unknown feature type=, name=, username=Support of a wide choice of Integrated Development Environments (IDEs) including IAR Embedded Workbench, MDK-ARM, STM32CubeIDE, and Mbed Studio, n=1
2025-02-18 16:43:54,586 [WARN] DbBoardsPdsc:254 - Board STM32H7B3I-DK: unknown feature type=Audio, name=, username=Audio stereo codec with Headphone Amp (CS42L51-CNZ), n=1
2025-02-18 16:43:54,586 [WARN] DbBoardsPdsc:254 - Board STM32H735G-DK: unknown feature type=Audio, name=, username=Audio stereo codec with Headphone Amp (WM8994ECS/R), n=1
2025-02-18 16:43:54,586 [WARN] DbBoardsPdsc:254 - Board STM32WB5MM-DK: unknown feature type=, name=, username=Time-of-Flight and gesture-detection sensor, n=1
2025-02-18 16:43:54,586 [WARN] DbBoardsPdsc:254 - Board STM32WB5MM-DK: unknown feature type=, name=, username=3 push-buttons (2 users and 1 reset) and 1 touch key button, n=1
2025-02-18 16:43:54,586 [WARN] DbBoardsPdsc:254 - Board STM32WB5MM-DK: unknown feature type=, name=, username=Flexible power-supply options: ST-LINK/V2-1 USB connector, 5 V delivered by ARDUINO® or external connector, USB charger, or USB power, n=1
2025-02-18 16:43:54,586 [WARN] DbBoardsPdsc:254 - Board STM32WB5MM-DK: unknown feature type=, name=, username=On-board ST-LINK/V2-1 debugger/programmer with USB re-enumeration capability: Virtual COM port and debug port, n=1
2025-02-18 16:43:54,586 [WARN] DbBoardsPdsc:254 - Board STM32WB5MM-DK: unknown feature type=, name=, username=Comprehensive free software libraries and examples available with the STM32CubeWB MCU Package, n=1
2025-02-18 16:43:54,586 [WARN] DbBoardsPdsc:254 - Board STM32WB5MM-DK: unknown feature type=, name=, username=Support of a wide choice of Integrated Development Environments (IDEs) including IAR Embedded Workbench®, MDK-ARM, and STM32CubeIDE, n=1
2025-02-18 16:43:54,586 [WARN] DbBoardsPdsc:254 - Board STM32H7B3I-EVAL: unknown feature type=Audio, name=, username=Multi-Channel Audio Codec (CS42L51-CNZ), n=1
2025-02-18 16:43:54,586 [WARN] DbBoardsPdsc:254 - Board STM32H7B3I-EVAL: unknown feature type=Meter, name=, username=Power-metering and Temperature-monitoring with sigma-delta modulators, n=1
2025-02-18 16:43:54,586 [WARN] DbBoardsPdsc:254 - Board STM32H7B3I-EVAL: unknown feature type=Motor, name=, username=Motor Control, n=1
2025-02-18 16:43:54,633 [INFO] DbBoardsJson:87 - JSON generation date=Tue Nov 16 16:17:54 GMT 2021 (1637079474)
2025-02-18 16:43:54,648 [INFO] DbBoards:117 - Found 167 boards (158 are supported by CubeMX)
2025-02-18 16:43:54,655 [INFO] DbBoardsDocs:143 - JSON generation date=Tue Nov 16 16:17:54 GMT 2021 (1637079474)
2025-02-18 16:43:54,670 [INFO] DbBoardsDocs:79 - Found 209 boards documents
2025-02-18 16:43:54,670 [WARN] DbBoards:127 - board B-L475E-IOT01A2 has no document id list !
2025-02-18 16:43:54,670 [WARN] DbBoards:127 - board NUCLEO-H743ZI has no document id list !
2025-02-18 16:43:54,670 [WARN] DbBoards:127 - board NUCLEO-WL55JC2 has no document id list !
2025-02-18 16:43:54,670 [WARN] DbBoards:127 - board P-NUCLEO-WB55-Nucleo has no document id list !
2025-02-18 16:43:54,670 [WARN] DbBoards:127 - board P-NUCLEO-WB55-USBDongle has no document id list !
2025-02-18 16:43:54,670 [WARN] DbBoards:127 - board STEVAL-BFA001V1B has no document id list !
2025-02-18 16:43:54,670 [WARN] DbBoards:127 - board STEVAL-BFA001V2B has no document id list !
2025-02-18 16:43:54,670 [WARN] DbBoards:127 - board STEVAL-IDP005V1 has no document id list !
2025-02-18 16:43:54,670 [WARN] DbBoards:127 - board STEVAL-IDP005V2 has no document id list !
2025-02-18 16:43:54,670 [WARN] DbBoards:127 - board STEVAL-MKSBOX1V1 has no document id list !
2025-02-18 16:43:54,670 [WARN] DbBoards:127 - board STEVAL-STWINKT1 has no document id list !
2025-02-18 16:43:54,670 [WARN] DbBoards:127 - board STEVAL-STWINKT1B has no document id list !
2025-02-18 16:43:54,670 [WARN] DbBoards:127 - board STM32439I-EVAL2 has no document id list !
2025-02-18 16:43:54,670 [WARN] DbBoards:127 - board STM32F401C-DISCO has no document id list !
2025-02-18 16:43:54,670 [WARN] DbBoards:127 - board STM32F769I-DISC1 has no document id list !
2025-02-18 16:43:54,670 [WARN] DbBoards:127 - board STM32G474E-EVAL1 has no document id list !
2025-02-18 16:43:54,670 [WARN] DbBoards:127 - board STM32H743I-EVAL2 has no document id list !
2025-02-18 16:43:54,670 [WARN] DbBoards:127 - board STM32H747I-DISC1 has no document id list !
2025-02-18 16:43:54,670 [WARN] DbBoards:127 - board STM32H753I-EVAL2 has no document id list !
2025-02-18 16:43:54,670 [WARN] DbBoards:127 - board STM32L-DISCOVERY has no document id list !
2025-02-18 16:43:54,819 [ERROR] DbBoards:189 - Image file not found for board B-U585I-IOT02A: D:\STM32CubeIDE_1.6.1\STM32CubeIDE\plugins\com.st.stm32cube.common.mx_6.2.1.202103241236\\db\/plugins/mcufinder/images/boards/B-U585I-IOT02A_small.jpg
2025-02-18 16:43:54,924 [ERROR] DbBoards:189 - Image file not found for board NUCLEO-F413ZH: D:\STM32CubeIDE_1.6.1\STM32CubeIDE\plugins\com.st.stm32cube.common.mx_6.2.1.202103241236\\db\/plugins/mcufinder/images/boards/nucleo-f413zh_small.jpg
2025-02-18 16:43:55,056 [ERROR] DbBoards:189 - Image file not found for board NUCLEO-L552ZE-Q: D:\STM32CubeIDE_1.6.1\STM32CubeIDE\plugins\com.st.stm32cube.common.mx_6.2.1.202103241236\\db\/plugins/mcufinder/images/boards/nucleo_l552ze_q_small.jpg
2025-02-18 16:43:55,056 [ERROR] DbBoards:189 - Image file not found for board NUCLEO-U575ZI-Q: D:\STM32CubeIDE_1.6.1\STM32CubeIDE\plugins\com.st.stm32cube.common.mx_6.2.1.202103241236\\db\/plugins/mcufinder/images/boards/nucleo-u575zi-q_small.jpg
2025-02-18 16:43:55,056 [ERROR] DbBoards:189 - Image file not found for board NUCLEO-WB15CC: D:\STM32CubeIDE_1.6.1\STM32CubeIDE\plugins\com.st.stm32cube.common.mx_6.2.1.202103241236\\db\/plugins/mcufinder/images/boards/nucleo-wb15cc_small.jpg
2025-02-18 16:43:55,056 [ERROR] DbBoards:189 - Image file not found for board NUCLEO-WB55RG: D:\STM32CubeIDE_1.6.1\STM32CubeIDE\plugins\com.st.stm32cube.common.mx_6.2.1.202103241236\\db\/plugins/mcufinder/images/boards/nucleo-wb55rg_small.jpg
2025-02-18 16:43:56,359 [ERROR] DbBoards:189 - Image file not found for board STM32U575I-EV: D:\STM32CubeIDE_1.6.1\STM32CubeIDE\plugins\com.st.stm32cube.common.mx_6.2.1.202103241236\\db\/plugins/mcufinder/images/boards/stm32u575i-ev_small.jpg
2025-02-18 16:43:56,422 [INFO] ApiDb:251 - Load user favorites file C:\Users\yh621/.stm32cubeide/favorites.boards.txt: 0 item(s)
2025-02-18 16:43:56,422 [INFO] ApiDb:255 - User favorites Boards=[]
2025-02-18 16:43:56,422 [INFO] DbBoards:206 - Set 0 / 0 favorites Boards
2025-02-18 16:44:01,639 [INFO] DbMcusDocs:143 - JSON generation date=Tue Nov 16 16:17:54 GMT 2021 (1637079474)
2025-02-18 16:44:01,863 [INFO] DbMcusDocs:79 - Found 682 MCUs documents
2025-02-18 16:44:16,706 [INFO] MainUpdater:2661 - connection check result : 10
2025-02-18 16:44:16,706 [INFO] MainUpdater:2661 - connection check result : 10
2025-02-18 16:44:16,753 [INFO] MicroXplorer:442 - Change Database Path : 
2025-02-18 16:44:16,753 [INFO] MicroXplorer:472 - Change Database Version : DB.6.0.21
2025-02-18 16:44:16,753 [WARN] ThirdParty:796 - waiting for thirdparty lock release [close project]
2025-02-18 16:44:16,753 [INFO] ThirdParty:798 - entering critical section [close project]
2025-02-18 16:44:16,753 [INFO] ThirdParty:809 - exiting critical section [close project]
2025-02-18 16:44:16,753 [INFO] PinOutPanel:1435 - setPackage(No Configuration,No Configuration)
2025-02-18 16:44:16,753 [INFO] UtilMem:74 - Begin LoadConfig() Used Memory: 543937992 Bytes (593494016)
2025-02-18 16:44:16,753 [INFO] MicroXplorer:442 - Change Database Path : 
2025-02-18 16:44:16,753 [INFO] MicroXplorer:472 - Change Database Version : DB.6.0.21
2025-02-18 16:44:16,753 [INFO] OpenFileManager:303 - Change cursor
2025-02-18 16:44:16,769 [WARN] IntegrityCheckThread:59 - waiting for thirdparty lock release [integrity check]
2025-02-18 16:44:16,769 [INFO] IntegrityCheckThread:61 - entering critical section [integrity check]
2025-02-18 16:44:16,906 [ERROR] Engine:519 - C:\Users\yh621\.stm32cubemx\thirdparties\pdsc\STMicroelectronics.FP-SNS-MOTENVWB1.1.4.0.pdsc: PDSC version is not supported
2025-02-18 16:44:16,953 [WARN] PackLoader:226 - Cannot read IP mode file for STMicroelectronics.FP-ATR-ASTRA1.2.0.1
2025-02-18 16:44:16,984 [ERROR] Engine:519 - C:\Users\yh621\.stm32cubemx\thirdparties\pdsc\STMicroelectronics.X-CUBE-SMBUS.2.1.0.pdsc: PDSC version is not supported
2025-02-18 16:44:17,019 [WARN] PackLoader:226 - Cannot read IP mode file for STMicroelectronics.X-CUBE-WB05N.1.1.0
2025-02-18 16:44:17,069 [WARN] PackLoader:226 - Cannot read IP mode file for STMicroelectronics.X-CUBE-AZRTOS-F7.1.1.0
2025-02-18 16:44:17,084 [WARN] PackLoader:226 - Cannot read IP mode file for STMicroelectronics.X-CUBE-AI.7.1.0
2025-02-18 16:44:17,107 [ERROR] Engine:519 - C:\Users\yh621\.stm32cubemx\thirdparties\pdsc\STMicroelectronics.FP-SNS-MOTENV1.4.3.2.pdsc: PDSC version is not supported
2025-02-18 16:44:17,122 [ERROR] Engine:519 - C:\Users\yh621\.stm32cubemx\thirdparties\pdsc\STMicroelectronics.FP-SNS-FLIGHT1.5.0.1.pdsc: PDSC version is not supported
2025-02-18 16:44:17,138 [WARN] PackLoader:226 - Cannot read IP mode file for STMicroelectronics.X-CUBE-BLE1.6.2.3
2025-02-18 16:44:17,155 [WARN] PackLoader:226 - Cannot read IP mode file for STMicroelectronics.X-CUBE-BLE1.6.2.4
2025-02-18 16:44:17,171 [ERROR] Engine:519 - C:\Users\yh621\.stm32cubemx\thirdparties\pdsc\STMicroelectronics.FP-SNS-FLIGHT1.5.0.2.pdsc: PDSC version is not supported
2025-02-18 16:44:17,187 [ERROR] Engine:519 - C:\Users\yh621\.stm32cubemx\thirdparties\pdsc\STMicroelectronics.X-CUBE-DISPLAY.3.0.0.pdsc: PDSC version is not supported
2025-02-18 16:44:17,202 [WARN] PackLoader:226 - Cannot read IP mode file for STMicroelectronics.X-CUBE-BLE1.7.0.0
2025-02-18 16:44:17,223 [WARN] PackLoader:226 - Cannot read IP mode file for STMicroelectronics.X-CUBE-NFC10.1.0.0
2025-02-18 16:44:17,239 [ERROR] Engine:519 - C:\Users\yh621\.stm32cubemx\thirdparties\pdsc\STMicroelectronics.X-CUBE-BLEMGR.4.0.0.pdsc: PDSC version is not supported
2025-02-18 16:44:17,267 [WARN] PackLoader:226 - Cannot read IP mode file for STMicroelectronics.X-CUBE-TOUCHGFX.4.22.0
2025-02-18 16:44:17,283 [WARN] PackLoader:226 - Cannot read IP mode file for STMicroelectronics.X-CUBE-TOUCHGFX.4.22.1
2025-02-18 16:44:17,339 [WARN] PackLoader:226 - Cannot read IP mode file for STMicroelectronics.X-CUBE-MEMS1.9.3.0
2025-02-18 16:44:17,523 [WARN] PackLoader:226 - Cannot read IP mode file for STMicroelectronics.X-CUBE-AI.7.2.0
2025-02-18 16:44:17,539 [WARN] PackLoader:226 - Cannot read IP mode file for STMicroelectronics.X-CUBE-AI.10.0.0
2025-02-18 16:44:17,554 [ERROR] Engine:519 - C:\Users\yh621\.stm32cubemx\thirdparties\pdsc\STMicroelectronics.FP-SNS-SMARTAG2.1.2.0.pdsc: PDSC version is not supported
2025-02-18 16:44:17,639 [WARN] PackLoader:226 - Cannot read IP mode file for STMicroelectronics.X-CUBE-MEMS1.11.1.0
2025-02-18 16:44:17,771 [INFO] LogOutputStream:76 - [STDOUT_REDIRECT] 1 : Invalid condition id : UX_CORESTACK_Condition cause : null
2025-02-18 16:44:17,771 [INFO] LogOutputStream:76 - [STDOUT_REDIRECT] 1 : Invalid condition id : UX_CORESTACK_Condition cause : null
2025-02-18 16:44:17,771 [INFO] LogOutputStream:76 - [STDOUT_REDIRECT] 1 : Invalid condition id : UX_CORESTACK_Condition cause : null
2025-02-18 16:44:17,771 [INFO] LogOutputStream:76 - [STDOUT_REDIRECT] 1 : Invalid condition id : UX_CORESTACK_Condition cause : null
2025-02-18 16:44:17,786 [INFO] LogOutputStream:76 - [STDOUT_REDIRECT] 1 : Invalid condition id : UX_CORESTACK_Condition cause : null
2025-02-18 16:44:17,786 [WARN] PackLoader:226 - Cannot read IP mode file for STMicroelectronics.X-CUBE-AZRTOS-WL.2.0.0
2025-02-18 16:44:17,802 [ERROR] Engine:519 - C:\Users\yh621\.stm32cubemx\thirdparties\pdsc\STMicroelectronics.FP-SNS-MOTENV1.5.0.0.pdsc: PDSC version is not supported
2025-02-18 16:44:17,808 [WARN] PackLoader:226 - Cannot read IP mode file for wolfSSL.I-CUBE-wolfMQTT.1.19.0
2025-02-18 16:44:17,839 [WARN] PackLoader:226 - Cannot read IP mode file for WES.I-CUBE-Cesium.1.3.0
2025-02-18 16:44:17,855 [WARN] PackLoader:226 - Cannot read IP mode file for STMicroelectronics.X-CUBE-BLE2.3.3.0
2025-02-18 16:44:17,871 [WARN] PackLoader:226 - Cannot read IP mode file for STMicroelectronics.X-CUBE-DISPLAY.2.2.0
2025-02-18 16:44:17,908 [WARN] PackLoader:226 - Cannot read IP mode file for STMicroelectronics.X-CUBE-TOF1.3.2.0
2025-02-18 16:44:17,924 [WARN] PackLoader:226 - Cannot read IP mode file for STMicroelectronics.X-CUBE-ISPU.1.0.0
2025-02-18 16:44:17,939 [WARN] PackLoader:226 - Cannot read IP mode file for STMicroelectronics.X-CUBE-NFC9.1.0.0
2025-02-18 16:44:17,971 [WARN] PackLoader:226 - Cannot read IP mode file for STMicroelectronics.X-CUBE-AZRTOS-H7.2.1.0
2025-02-18 16:44:17,986 [WARN] PackLoader:226 - Cannot read IP mode file for STMicroelectronics.X-CUBE-TOUCHGFX.4.21.1
2025-02-18 16:44:18,009 [WARN] PackLoader:226 - Cannot read IP mode file for STMicroelectronics.X-CUBE-TOUCHGFX.4.21.0
2025-02-18 16:44:18,031 [WARN] PackLoader:226 - Cannot read IP mode file for STMicroelectronics.X-CUBE-TOUCHGFX.4.21.3
2025-02-18 16:44:18,079 [WARN] PackLoader:226 - Cannot read IP mode file for STMicroelectronics.X-CUBE-MEMS1.9.4.0
2025-02-18 16:44:18,443 [WARN] PackLoader:226 - Cannot read IP mode file for STMicroelectronics.X-CUBE-ALGOBUILD.1.3.0
2025-02-18 16:44:18,480 [WARN] PackLoader:226 - Cannot read IP mode file for STMicroelectronics.X-CUBE-AZRTOS-G0.1.1.0
2025-02-18 16:44:18,495 [WARN] PackLoader:226 - Cannot read IP mode file for STMicroelectronics.X-CUBE-SAFEA1.1.2.2
2025-02-18 16:44:18,511 [WARN] PackLoader:226 - Cannot read IP mode file for STMicroelectronics.X-CUBE-NFC4.3.0.0
2025-02-18 16:44:18,563 [WARN] PackLoader:226 - Cannot read IP mode file for SEGGER.I-CUBE-embOS.1.2.1
2025-02-18 16:44:18,596 [ERROR] Engine:519 - C:\Users\yh621\.stm32cubemx\thirdparties\pdsc\EmbeddedOffice.I-CUBE-FS-RTOS.1.0.1.pdsc: PDSC version is not supported
2025-02-18 16:44:18,611 [ERROR] Engine:519 - C:\Users\yh621\.stm32cubemx\thirdparties\pdsc\STMicroelectronics.X-CUBE-BLEMGR.3.0.0.pdsc: PDSC version is not supported
2025-02-18 16:44:18,633 [WARN] PackLoader:226 - Cannot read IP mode file for STMicroelectronics.X-CUBE-BLEMGR.1.3.0
2025-02-18 16:44:18,649 [ERROR] Engine:519 - C:\Users\yh621\.stm32cubemx\thirdparties\pdsc\STMicroelectronics.X-CUBE-TCPP.4.2.0.pdsc: PDSC version is not supported
2025-02-18 16:44:18,665 [ERROR] Engine:519 - C:\Users\yh621\.stm32cubemx\thirdparties\pdsc\RealThread.X-CUBE-RT-Thread_Nano.4.1.1.pdsc: PDSC version is not supported
2025-02-18 16:44:18,680 [WARN] PackLoader:226 - Cannot read IP mode file for STMicroelectronics.FP-ATR-SIGFOX1.3.2.0
2025-02-18 16:44:18,680 [ERROR] Engine:519 - C:\Users\yh621\.stm32cubemx\thirdparties\pdsc\quantropi.X-CUBE-qispace-sdk-base.1.9.3.pdsc: PDSC version is not supported
2025-02-18 16:44:18,696 [WARN] PackLoader:226 - Cannot read IP mode file for STMicroelectronics.X-CUBE-EEPRMA1.5.1.0
2025-02-18 16:44:18,711 [WARN] PackLoader:226 - Cannot read IP mode file for emotas.I-CUBE-CANOPEN.1.1.2
2025-02-18 16:44:18,727 [WARN] PackLoader:226 - Cannot read IP mode file for STMicroelectronics.X-CUBE-TOUCHGFX.4.20.0
2025-02-18 16:44:18,796 [WARN] PackLoader:226 - Cannot read IP mode file for STMicroelectronics.X-CUBE-MEMS1.9.5.0
2025-02-18 16:44:19,007 [WARN] PackLoader:226 - Cannot read IP mode file for SEGGER.I-CUBE-embOS.1.3.1
2025-02-18 16:44:19,054 [WARN] PackLoader:226 - Cannot read IP mode file for STMicroelectronics.X-CUBE-ALGOBUILD.1.4.0
2025-02-18 16:44:19,081 [WARN] PackLoader:226 - Cannot read IP mode file for SEGGER.I-CUBE-embOS.1.3.0
2025-02-18 16:44:19,130 [WARN] PackLoader:226 - Cannot read IP mode file for STMicroelectronics.X-CUBE-AI.9.1.0
2025-02-18 16:44:19,145 [WARN] PackLoader:226 - Cannot read IP mode file for STMicroelectronics.X-CUBE-GNSS1.6.0.0
2025-02-18 16:44:19,181 [WARN] PackLoader:226 - Cannot read IP mode file for STMicroelectronics.X-CUBE-AZRTOS-F4.1.1.0
2025-02-18 16:44:19,209 [WARN] PackLoader:226 - Cannot read IP mode file for STMicroelectronics.X-CUBE-ISPU.2.1.0
2025-02-18 16:44:19,241 [WARN] PackLoader:226 - Cannot read IP mode file for STMicroelectronics.X-CUBE-BLEMGR.1.2.0
2025-02-18 16:44:19,281 [WARN] PackLoader:226 - Cannot read IP mode file for STMicroelectronics.X-CUBE-AZRTOS-L5.2.0.0
2025-02-18 16:44:19,356 [WARN] PackLoader:226 - Cannot read IP mode file for STMicroelectronics.X-CUBE-MEMS1.9.6.0
2025-02-18 16:44:19,528 [WARN] PackLoader:226 - Cannot read IP mode file for STMicroelectronics.X-CUBE-EEPRMA1.4.2.0
2025-02-18 16:44:19,543 [WARN] PackLoader:226 - Cannot read IP mode file for STMicroelectronics.X-CUBE-NFC6.3.1.0
2025-02-18 16:44:19,559 [ERROR] Engine:519 - C:\Users\yh621\.stm32cubemx\thirdparties\pdsc\ITTIA_DB.I-CUBE-ITTIADB.8.8.0.pdsc: PDSC version is not supported
2025-02-18 16:44:19,581 [WARN] PackLoader:226 - Cannot read IP mode file for emotas.I-CUBE-CANOPEN.1.1.3
2025-02-18 16:44:19,597 [WARN] PackLoader:226 - Cannot read IP mode file for STMicroelectronics.X-CUBE-BLEMGR.2.0.0
2025-02-18 16:44:19,612 [ERROR] Engine:519 - C:\Users\yh621\.stm32cubemx\thirdparties\pdsc\STMicroelectronics.X-CUBE-DPower.1.2.0.pdsc: PDSC version is not supported
2025-02-18 16:44:19,628 [WARN] PackLoader:226 - Cannot read IP mode file for STMicroelectronics.X-CUBE-NFC4.2.0.5
2025-02-18 16:44:19,644 [WARN] PackLoader:226 - Cannot read IP mode file for STMicroelectronics.X-CUBE-NFC4.2.0.4
2025-02-18 16:44:19,681 [WARN] ConditionMgr:437 - getConditionDescription Invalid condition id : UX DEVICE CLASS RTOS Condition cause : null
2025-02-18 16:44:19,681 [WARN] ConditionMgr:437 - getConditionDescription Invalid condition id : UX DEVICE CLASS RTOS Condition cause : null
2025-02-18 16:44:19,697 [WARN] PackLoader:226 - Cannot read IP mode file for STMicroelectronics.X-CUBE-AZRTOS-H7.3.1.0
2025-02-18 16:44:19,697 [WARN] ConditionMgr:1040 - genDependencies : Invalid condition id : UX DEVICE CLASS RTOS Condition cause : null
2025-02-18 16:44:19,697 [WARN] ConditionMgr:1040 - genDependencies : Invalid condition id : UX DEVICE CLASS RTOS Condition cause : null
2025-02-18 16:44:19,697 [WARN] ConditionMgr:1040 - genDependencies : Invalid condition id : UX DEVICE CLASS RTOS Condition cause : null
2025-02-18 16:44:19,697 [WARN] ConditionMgr:1040 - genDependencies : Invalid condition id : UX DEVICE CLASS RTOS Condition cause : null
2025-02-18 16:44:19,697 [WARN] ConditionMgr:1040 - genDependencies : Invalid condition id : UX DEVICE CLASS RTOS Condition cause : null
2025-02-18 16:44:19,705 [ERROR] Engine:519 - STMicroelectronics.X-CUBE-AI.7.3.0: Software pack already exists
2025-02-18 16:44:19,731 [WARN] PackLoader:226 - Cannot read IP mode file for wolfSSL.I-CUBE-wolfSSL.5.5.4
2025-02-18 16:44:19,746 [WARN] PackLoader:226 - Cannot read IP mode file for wolfSSL.I-CUBE-wolfSSL.5.5.1
2025-02-18 16:44:19,762 [ERROR] Engine:519 - C:\Users\yh621\.stm32cubemx\thirdparties\pdsc\STMicroelectronics.X-CUBE-FREERTOS.1.3.0.pdsc: PDSC version is not supported
2025-02-18 16:44:19,781 [WARN] PackLoader:226 - Cannot read IP mode file for STMicroelectronics.X-CUBE-NFC7.1.0.1
2025-02-18 16:44:19,797 [WARN] PackLoader:226 - Cannot read IP mode file for STMicroelectronics.X-CUBE-NFC7.1.0.0
2025-02-18 16:44:19,813 [WARN] PackLoader:226 - Cannot read IP mode file for STMicroelectronics.X-CUBE-NFC6.3.0.0
2025-02-18 16:44:19,828 [WARN] PackLoader:226 - Cannot read IP mode file for STMicroelectronics.X-CUBE-EEPRMA1.4.1.0
2025-02-18 16:44:19,844 [WARN] PackLoader:226 - Cannot read IP mode file for STMicroelectronics.X-CUBE-AI.8.1.0
2025-02-18 16:44:19,981 [WARN] ConditionMgr:437 - getConditionDescription Invalid condition id : LAN8742 Phy interface Condition cause : null
2025-02-18 16:44:19,981 [WARN] PackLoader:226 - Cannot read IP mode file for STMicroelectronics.X-CUBE-AZRTOS-L4.2.0.0
2025-02-18 16:44:19,997 [WARN] ConditionMgr:1040 - genDependencies : Invalid condition id : LAN8742 Phy interface Condition cause : null
2025-02-18 16:44:19,997 [WARN] ConditionMgr:1040 - genDependencies : Invalid condition id : LAN8742 Phy interface Condition cause : null
2025-02-18 16:44:19,997 [WARN] ConditionMgr:1040 - genDependencies : Invalid condition id : LAN8742 Phy interface Condition cause : null
2025-02-18 16:44:20,013 [WARN] PackLoader:226 - Cannot read IP mode file for STMicroelectronics.X-CUBE-SFXS2LP1.4.0.0
2025-02-18 16:44:20,028 [ERROR] Engine:519 - STMicroelectronics.X-CUBE-AI.7.3.0: Software pack already exists
2025-02-18 16:44:20,061 [WARN] PackLoader:226 - Cannot read IP mode file for STMicroelectronics.X-CUBE-AZRTOS-H7.3.0.0
2025-02-18 16:44:20,081 [WARN] PackLoader:226 - Cannot read IP mode file for STMicroelectronics.X-CUBE-ISPU.1.1.0
2025-02-18 16:44:20,115 [WARN] PackLoader:226 - Cannot read IP mode file for STMicroelectronics.X-CUBE-AZRTOS-H7.3.3.0
2025-02-18 16:44:20,130 [WARN] PackLoader:226 - Cannot read IP mode file for RoweBots.I-CUBE-UNISONRTOS.5.5.0-4
2025-02-18 16:44:20,232 [WARN] ConditionMgr:437 - getConditionDescription Invalid condition id : UX DEVICE CLASS RTOS Condition cause : null
2025-02-18 16:44:20,232 [WARN] ConditionMgr:437 - getConditionDescription Invalid condition id : UX DEVICE CLASS RTOS Condition cause : null
2025-02-18 16:44:20,248 [WARN] PackLoader:226 - Cannot read IP mode file for STMicroelectronics.X-CUBE-AZRTOS-WB.2.0.0
2025-02-18 16:44:20,248 [WARN] ConditionMgr:1040 - genDependencies : Invalid condition id : UX DEVICE CLASS RTOS Condition cause : null
2025-02-18 16:44:20,248 [WARN] ConditionMgr:1040 - genDependencies : Invalid condition id : UX DEVICE CLASS RTOS Condition cause : null
2025-02-18 16:44:20,248 [WARN] ConditionMgr:1040 - genDependencies : Invalid condition id : UX DEVICE CLASS RTOS Condition cause : null
2025-02-18 16:44:20,248 [WARN] ConditionMgr:1040 - genDependencies : Invalid condition id : UX DEVICE CLASS RTOS Condition cause : null
2025-02-18 16:44:20,248 [WARN] ConditionMgr:1040 - genDependencies : Invalid condition id : UX DEVICE CLASS RTOS Condition cause : null
2025-02-18 16:44:20,276 [ERROR] Engine:519 - C:\Users\yh621\.stm32cubemx\thirdparties\pdsc\STMicroelectronics.X-CUBE-FREERTOS.1.0.0.pdsc: PDSC version is not supported
2025-02-18 16:44:20,285 [ERROR] Engine:519 - C:\Users\yh621\.stm32cubemx\thirdparties\pdsc\STMicroelectronics.X-CUBE-FREERTOS.1.0.1.pdsc: PDSC version is not supported
2025-02-18 16:44:20,318 [WARN] PackLoader:226 - Cannot read IP mode file for STMicroelectronics.X-CUBE-GNSS1.7.0.1
2025-02-18 16:44:20,333 [ERROR] Engine:519 - C:\Users\yh621\.stm32cubemx\thirdparties\pdsc\STMicroelectronics.FP-SNS-STBOX1.2.0.0.pdsc: PDSC version is not supported
2025-02-18 16:44:20,365 [WARN] PackLoader:226 - Cannot read IP mode file for STMicroelectronics.X-CUBE-AZRTOS-L5.1.1.0
2025-02-18 16:44:20,494 [WARN] PackLoader:226 - Cannot read IP mode file for STMicroelectronics.X-CUBE-SUBG2.5.0.0
2025-02-18 16:44:20,512 [ERROR] Engine:519 - C:\Users\yh621\.stm32cubemx\thirdparties\pdsc\Cesanta.I-CUBE-Mongoose.7.13.0.pdsc: PDSC version is not supported
2025-02-18 16:44:20,528 [ERROR] Engine:519 - C:\Users\yh621\.stm32cubemx\thirdparties\pdsc\STMicroelectronics.X-CUBE-TOF1.3.3.1.pdsc: PDSC version is not supported
2025-02-18 16:44:20,543 [WARN] PackLoader:226 - Cannot read IP mode file for STMicroelectronics.X-CUBE-AZRTOS-G4.2.0.0
2025-02-18 16:44:20,559 [WARN] PackLoader:226 - Cannot read IP mode file for STMicroelectronics.X-CUBE-TOF1.3.3.0
2025-02-18 16:44:20,606 [WARN] PackLoader:226 - Cannot read IP mode file for STMicroelectronics.FP-ATR-ASTRA1.1.1.1
2025-02-18 16:44:20,631 [ERROR] Engine:519 - C:\Users\yh621\.stm32cubemx\thirdparties\pdsc\Infineon.AIROC-Wi-Fi-Bluetooth-STM32.1.5.1.pdsc: PDSC version is not supported
2025-02-18 16:44:20,646 [ERROR] Engine:519 - C:\Users\yh621\.stm32cubemx\thirdparties\pdsc\STMicroelectronics.FP-SNS-MOTENVWB1.1.3.0.pdsc: PDSC version is not supported
2025-02-18 16:44:20,662 [WARN] PackLoader:226 - Cannot read IP mode file for STMicroelectronics.X-CUBE-AZRTOS-G4.1.0.0
2025-02-18 16:44:20,693 [WARN] PackLoader:226 - Cannot read IP mode file for STMicroelectronics.X-CUBE-AZRTOS-L4.1.0.0
2025-02-18 16:44:20,712 [ERROR] Engine:519 - C:\Users\yh621\.stm32cubemx\thirdparties\pdsc\STMicroelectronics.X-CUBE-IPS.3.1.0.pdsc: PDSC version is not supported
2025-02-18 16:44:20,729 [ERROR] Engine:519 - C:\Users\yh621\.stm32cubemx\thirdparties\pdsc\STMicroelectronics.X-CUBE-ALS.1.0.2.pdsc: PDSC version is not supported
2025-02-18 16:44:20,760 [WARN] PackLoader:226 - Cannot read IP mode file for STMicroelectronics.X-CUBE-MEMS1.10.0.0
2025-02-18 16:44:20,948 [ERROR] Engine:519 - C:\Users\yh621\.stm32cubemx\thirdparties\pdsc\STMicroelectronics.X-CUBE-FREERTOS.1.1.0.pdsc: PDSC version is not supported
2025-02-18 16:44:20,964 [WARN] PackLoader:226 - Cannot read IP mode file for STMicroelectronics.X-CUBE-TOUCHGFX.4.24.2
2025-02-18 16:44:20,996 [WARN] PackLoader:226 - Cannot read IP mode file for STMicroelectronics.X-CUBE-AZRTOS-WL.1.0.0
2025-02-18 16:44:21,011 [WARN] PackLoader:226 - Cannot read IP mode file for wolfSSL.I-CUBE-wolfTPM.3.4.0
2025-02-18 16:44:21,027 [WARN] PackLoader:226 - Cannot read IP mode file for portGmbH.I-Cube-SoM-uGOAL.1.1.0
2025-02-18 16:44:21,032 [WARN] PackLoader:226 - Cannot read IP mode file for STMicroelectronics.X-CUBE-ALS.1.0.1
2025-02-18 16:44:21,149 [WARN] PackLoader:226 - Cannot read IP mode file for STMicroelectronics.X-CUBE-AZRTOS-WB.1.1.0
2025-02-18 16:44:21,188 [WARN] PackLoader:226 - Cannot read IP mode file for STMicroelectronics.X-CUBE-AZRTOS-L5.1.0.0
2025-02-18 16:44:21,203 [WARN] PackLoader:226 - Cannot read IP mode file for STMicroelectronics.X-CUBE-EEPRMA1.3.1.1
2025-02-18 16:44:21,248 [WARN] PackLoader:226 - Cannot read IP mode file for STMicroelectronics.X-CUBE-AZRTOS-H7RS.1.0.0
2025-02-18 16:44:21,265 [WARN] PackLoader:226 - Cannot read IP mode file for STMicroelectronics.FP-ATR-ASTRA1.2.0.0
2025-02-18 16:44:21,280 [ERROR] Engine:519 - C:\Users\yh621\.stm32cubemx\thirdparties\pdsc\STMicroelectronics.X-CUBE-TOF1.3.4.2.pdsc: PDSC version is not supported
2025-02-18 16:44:21,312 [ERROR] Engine:519 - C:\Users\yh621\.stm32cubemx\thirdparties\pdsc\STMicroelectronics.X-CUBE-TOF1.3.4.0.pdsc: PDSC version is not supported
2025-02-18 16:44:21,312 [WARN] PackLoader:226 - Cannot read IP mode file for wolfSSL.I-CUBE-wolfSSH.1.4.17
2025-02-18 16:44:21,327 [INFO] ThirdParty:900 - Integrity check success = true
2025-02-18 16:44:21,327 [INFO] IntegrityCheckThread:75 - exiting critical section [integrity check]
2025-02-18 16:44:21,327 [INFO] IntegrityCheckThread:78 - End integrity checks thread
2025-02-18 16:44:25,805 [INFO] Context:587 - Trying to add GPIOservice into a context  which must be forbidden
2025-02-18 16:44:26,723 [INFO] ImportTextPane:162 - (OptionalMessage_ERROR) Unable to find key (Mcu.ThirdPartyNb) in loaded IOC file
2025-02-18 16:44:26,723 [INFO] ImportTextPane:162 - (OptionalMessage_ERROR) Unable to find key (Mcu.PinsNb) in loaded IOC file
2025-02-18 16:44:26,723 [INFO] ImportTextPane:162 - (OptionalMessage_ERROR) Unable to find key (Mcu.IPNb) in loaded IOC file
2025-02-18 16:44:26,792 [WARN] ApiManager:294 - Cannot register API 'Board Extension:GNSS1A1' from pack STMicroelectronics.X-CUBE-GNSS1.6.0.0: no header file found
2025-02-18 16:44:26,792 [WARN] ApiManager:294 - Cannot register API 'Board Support:Custom' from pack STMicroelectronics.X-CUBE-GNSS1.6.0.0: no header file found
2025-02-18 16:44:26,792 [WARN] ApiManager:294 - Cannot register API 'Data Exchange:lib_gnss' from pack STMicroelectronics.X-CUBE-GNSS1.6.0.0: no header file found
2025-02-18 16:44:26,808 [WARN] ApiManager:294 - Cannot register API 'Wireless:STM32WB05N' from pack STMicroelectronics.X-CUBE-WB05N.1.1.0: no header file found
2025-02-18 16:44:26,940 [WARN] ApiManager:294 - Cannot register API 'Board Extension:IKS01A3' from pack STMicroelectronics.X-CUBE-MEMS1.9.6.0: no header file found
2025-02-18 16:44:26,956 [WARN] ApiManager:294 - Cannot register API 'Board Extension:IKS01A2' from pack STMicroelectronics.X-CUBE-MEMS1.9.6.0: no header file found
2025-02-18 16:44:26,956 [WARN] ApiManager:294 - Cannot register API 'Board Extension:IKS02A1' from pack STMicroelectronics.X-CUBE-MEMS1.9.6.0: no header file found
2025-02-18 16:44:26,963 [WARN] ApiManager:294 - Cannot register API 'Board Extension:EEPRMA2' from pack STMicroelectronics.X-CUBE-EEPRMA1.4.2.0: no header file found
2025-02-18 16:44:26,963 [WARN] ApiManager:294 - Cannot register API 'Board Extension:PGEEZ1' from pack STMicroelectronics.X-CUBE-EEPRMA1.4.2.0: no header file found
2025-02-18 16:44:26,963 [WARN] ApiManager:294 - Cannot register API 'Board Part:M24' from pack STMicroelectronics.X-CUBE-EEPRMA1.4.2.0: no header file found
2025-02-18 16:44:26,963 [WARN] ApiManager:294 - Cannot register API 'Board Part:M95' from pack STMicroelectronics.X-CUBE-EEPRMA1.4.2.0: no header file found
2025-02-18 16:44:26,963 [WARN] ApiManager:294 - Cannot register API 'Board Part:M95P32' from pack STMicroelectronics.X-CUBE-EEPRMA1.4.2.0: no header file found
2025-02-18 16:44:26,963 [WARN] ApiManager:294 - Cannot register API 'PGEEZ1:SPI' from pack STMicroelectronics.X-CUBE-EEPRMA1.4.2.0: no header file found
2025-02-18 16:44:26,963 [WARN] ApiManager:294 - Cannot register API 'PGEEZ1:QDSPI' from pack STMicroelectronics.X-CUBE-EEPRMA1.4.2.0: no header file found
2025-02-18 16:44:26,963 [WARN] ApiManager:294 - Cannot register API 'Board Extension:NFC06A1' from pack STMicroelectronics.X-CUBE-NFC6.3.1.0: no header file found
2025-02-18 16:44:26,963 [WARN] ApiManager:294 - Cannot register API 'Board Extension:NFC08A1' from pack STMicroelectronics.X-CUBE-NFC6.3.1.0: no header file found
2025-02-18 16:44:26,963 [WARN] ApiManager:294 - Cannot register API 'Wireless:BlueNRG-MS' from pack STMicroelectronics.X-CUBE-BLE1.6.2.3: no header file found
2025-02-18 16:44:26,963 [WARN] ApiManager:294 - Cannot register API 'Wireless:BlueNRG-MS' from pack STMicroelectronics.X-CUBE-BLE1.6.2.4: no header file found
2025-02-18 16:44:26,974 [INFO] RtosManager:470 - Registered RTOS mode: class=CMSIS, group=RTOS, mode=CMSIS_V1, owner=FREERTOS
2025-02-18 16:44:26,974 [INFO] RtosManager:470 - Registered RTOS mode: class=CMSIS, group=RTOS2, mode=CMSIS_V2, owner=FREERTOS
2025-02-18 16:44:26,974 [INFO] RtosManager:470 - Registered RTOS mode: class=RTOS, group=Core, mode=CMSIS_V1, owner=FREERTOS
2025-02-18 16:44:26,974 [INFO] RtosManager:470 - Registered RTOS mode: class=RTOS, group=Core, mode=CMSIS_V2, owner=FREERTOS
2025-02-18 16:44:26,974 [WARN] ModelIntegratedComponent:182 - Missing modes for component STMicroelectronics:FreeRTOS:0.0.1:STMicroelectronics:RTOS:FreeRTOS:Core:::10.2.0:
2025-02-18 16:44:26,974 [WARN] ApiManager:294 - Cannot register API 'Board Extension:NFC04A1' from pack STMicroelectronics.X-CUBE-NFC4.2.0.5: no header file found
2025-02-18 16:44:26,974 [WARN] ApiManager:294 - Cannot register API 'Board Extension:NFC04A1' from pack STMicroelectronics.X-CUBE-NFC4.2.0.4: no header file found
2025-02-18 16:44:26,982 [WARN] ApiManager:294 - Cannot register API 'Wireless:BlueNRG-MS' from pack STMicroelectronics.X-CUBE-BLE1.7.0.0: no header file found
2025-02-18 16:44:26,982 [WARN] ApiManager:294 - Cannot register API 'Board Extension:NFC10A1' from pack STMicroelectronics.X-CUBE-NFC10.1.0.0: no header file found
2025-02-18 16:44:26,982 [WARN] ModelIntegratedComponent:51 - No mode defined for component null
2025-02-18 16:44:26,982 [WARN] ModelIntegratedComponent:51 - No mode defined for component null
2025-02-18 16:44:26,982 [WARN] ModelIntegratedComponent:51 - No mode defined for component null
2025-02-18 16:44:26,982 [WARN] ModelIntegratedComponent:51 - No mode defined for component null
2025-02-18 16:44:26,982 [WARN] ModelIntegratedComponent:51 - No mode defined for component null
2025-02-18 16:44:26,982 [WARN] ModelIntegratedComponent:51 - No mode defined for component null
2025-02-18 16:44:26,982 [WARN] ModelIntegratedComponent:51 - No mode defined for component null
2025-02-18 16:44:26,982 [WARN] ModelIntegratedComponent:51 - No mode defined for component null
2025-02-18 16:44:26,982 [WARN] ModelIntegratedComponent:51 - No mode defined for component null
2025-02-18 16:44:26,982 [WARN] ModelIntegratedComponent:51 - No mode defined for component null
2025-02-18 16:44:26,982 [WARN] ModelIntegratedComponent:51 - No mode defined for component null
2025-02-18 16:44:26,982 [WARN] ModelIntegratedComponent:51 - No mode defined for component null
2025-02-18 16:44:26,982 [WARN] ModelIntegratedComponent:51 - No mode defined for component null
2025-02-18 16:44:26,982 [WARN] ModelIntegratedComponent:51 - No mode defined for component null
2025-02-18 16:44:26,982 [WARN] ModelIntegratedComponent:51 - No mode defined for component null
2025-02-18 16:44:26,982 [WARN] ModelIntegratedComponent:51 - No mode defined for component null
2025-02-18 16:44:26,982 [WARN] ModelIntegratedComponent:51 - No mode defined for component null
2025-02-18 16:44:26,982 [WARN] ModelIntegratedComponent:51 - No mode defined for component null
2025-02-18 16:44:26,982 [WARN] ModelIntegratedComponent:51 - No mode defined for component null
2025-02-18 16:44:26,982 [WARN] ModelIntegratedComponent:51 - No mode defined for component null
2025-02-18 16:44:26,982 [WARN] ModelIntegratedComponent:51 - No mode defined for component null
2025-02-18 16:44:26,982 [WARN] ModelIntegratedComponent:51 - No mode defined for component null
2025-02-18 16:44:26,982 [WARN] ModelIntegratedComponent:51 - No mode defined for component null
2025-02-18 16:44:26,982 [WARN] ModelIntegratedComponent:51 - No mode defined for component null
2025-02-18 16:44:26,982 [WARN] ModelIntegratedComponent:51 - No mode defined for component null
2025-02-18 16:44:26,982 [WARN] ModelIntegratedComponent:51 - No mode defined for component null
2025-02-18 16:44:26,982 [WARN] ModelIntegratedComponent:51 - No mode defined for component null
2025-02-18 16:44:26,982 [WARN] ApiManager:294 - Cannot register API 'Board Extension:NFC07A1' from pack STMicroelectronics.X-CUBE-NFC7.1.0.1: no header file found
2025-02-18 16:44:26,982 [WARN] ApiManager:294 - Cannot register API 'Board Extension:NFC07A1' from pack STMicroelectronics.X-CUBE-NFC7.1.0.0: no header file found
2025-02-18 16:44:26,982 [WARN] ApiManager:294 - Cannot register API 'Board Extension:NFC06A1' from pack STMicroelectronics.X-CUBE-NFC6.3.0.0: no header file found
2025-02-18 16:44:26,982 [WARN] ApiManager:294 - Cannot register API 'Board Extension:NFC08A1' from pack STMicroelectronics.X-CUBE-NFC6.3.0.0: no header file found
2025-02-18 16:44:27,110 [WARN] ApiManager:294 - Cannot register API 'Board Extension:IKS01A3' from pack STMicroelectronics.X-CUBE-MEMS1.9.3.0: no header file found
2025-02-18 16:44:27,110 [WARN] ApiManager:294 - Cannot register API 'Board Extension:IKS01A2' from pack STMicroelectronics.X-CUBE-MEMS1.9.3.0: no header file found
2025-02-18 16:44:27,110 [WARN] ApiManager:294 - Cannot register API 'Board Extension:IKS02A1' from pack STMicroelectronics.X-CUBE-MEMS1.9.3.0: no header file found
2025-02-18 16:44:27,110 [WARN] ApiManager:294 - Cannot register API 'Board Extension:EEPRMA1' from pack STMicroelectronics.X-CUBE-EEPRMA1.4.1.0: no header file found
2025-02-18 16:44:27,110 [WARN] ApiManager:294 - Cannot register API 'Board Extension:EEPRMA2' from pack STMicroelectronics.X-CUBE-EEPRMA1.4.1.0: no header file found
2025-02-18 16:44:27,110 [WARN] ApiManager:294 - Cannot register API 'Board Extension:PGEEZ1' from pack STMicroelectronics.X-CUBE-EEPRMA1.4.1.0: no header file found
2025-02-18 16:44:27,110 [WARN] ApiManager:294 - Cannot register API 'Board Part:M24' from pack STMicroelectronics.X-CUBE-EEPRMA1.4.1.0: no header file found
2025-02-18 16:44:27,110 [WARN] ApiManager:294 - Cannot register API 'Board Part:M95' from pack STMicroelectronics.X-CUBE-EEPRMA1.4.1.0: no header file found
2025-02-18 16:44:27,110 [WARN] ApiManager:294 - Cannot register API 'Board Part:M95P32' from pack STMicroelectronics.X-CUBE-EEPRMA1.4.1.0: no header file found
2025-02-18 16:44:27,110 [WARN] ApiManager:294 - Cannot register API 'PGEEZ1:SPI' from pack STMicroelectronics.X-CUBE-EEPRMA1.4.1.0: no header file found
2025-02-18 16:44:27,110 [WARN] ApiManager:294 - Cannot register API 'PGEEZ1:QDSPI' from pack STMicroelectronics.X-CUBE-EEPRMA1.4.1.0: no header file found
2025-02-18 16:44:27,345 [WARN] ApiManager:294 - Cannot register API 'Board Extension:IKS01A3' from pack STMicroelectronics.X-CUBE-MEMS1.11.1.0: no header file found
2025-02-18 16:44:27,345 [WARN] ApiManager:294 - Cannot register API 'Board Extension:IKS02A1' from pack STMicroelectronics.X-CUBE-MEMS1.11.1.0: no header file found
2025-02-18 16:44:27,345 [WARN] ApiManager:294 - Cannot register API 'Board Extension:IKS4A1' from pack STMicroelectronics.X-CUBE-MEMS1.11.1.0: no header file found
2025-02-18 16:44:27,363 [WARN] ApiManager:294 - Cannot register API 'Board Extension:S2868A1' from pack STMicroelectronics.X-CUBE-SFXS2LP1.4.0.0: no header file found
2025-02-18 16:44:27,368 [WARN] ApiManager:294 - Cannot register API 'Board Extension:S2868A2' from pack STMicroelectronics.X-CUBE-SFXS2LP1.4.0.0: no header file found
2025-02-18 16:44:27,368 [WARN] ApiManager:294 - Cannot register API 'Board Extension:S2915A1' from pack STMicroelectronics.X-CUBE-SFXS2LP1.4.0.0: no header file found
2025-02-18 16:44:27,368 [WARN] ApiManager:294 - Cannot register API 'Wireless:BlueNRG-2' from pack STMicroelectronics.X-CUBE-BLE2.3.3.0: no header file found
2025-02-18 16:44:27,371 [WARN] ApiManager:294 - Cannot register API 'Board Extension:NFC09A1' from pack STMicroelectronics.X-CUBE-NFC9.1.0.0: no header file found
2025-02-18 16:44:27,371 [WARN] ApiManager:294 - Cannot register API 'Board Extension:GNSS1A1' from pack STMicroelectronics.X-CUBE-GNSS1.7.0.1: no header file found
2025-02-18 16:44:27,371 [WARN] ApiManager:294 - Cannot register API 'Board Support:Custom' from pack STMicroelectronics.X-CUBE-GNSS1.7.0.1: no header file found
2025-02-18 16:44:27,371 [WARN] ApiManager:294 - Cannot register API 'Data Exchange:lib_gnss' from pack STMicroelectronics.X-CUBE-GNSS1.7.0.1: no header file found
2025-02-18 16:44:27,588 [WARN] ApiManager:294 - Cannot register API 'Board Extension:IKS01A3' from pack STMicroelectronics.X-CUBE-MEMS1.9.4.0: no header file found
2025-02-18 16:44:27,588 [WARN] ApiManager:294 - Cannot register API 'Board Extension:IKS01A2' from pack STMicroelectronics.X-CUBE-MEMS1.9.4.0: no header file found
2025-02-18 16:44:27,589 [WARN] ApiManager:294 - Cannot register API 'Board Extension:IKS02A1' from pack STMicroelectronics.X-CUBE-MEMS1.9.4.0: no header file found
2025-02-18 16:44:27,594 [WARN] ApiManager:294 - Cannot register API 'Board Extension:STSAFEA1' from pack STMicroelectronics.X-CUBE-SAFEA1.1.2.2: no header file found
2025-02-18 16:44:27,594 [WARN] ApiManager:294 - Cannot register API 'Board Part:STSAFEA110' from pack STMicroelectronics.X-CUBE-SAFEA1.1.2.2: no header file found
2025-02-18 16:44:27,594 [WARN] ApiManager:294 - Cannot register API 'Security:ST_Cryptolib' from pack STMicroelectronics.X-CUBE-SAFEA1.1.2.2: no header file found
2025-02-18 16:44:27,594 [WARN] ApiManager:294 - Cannot register API 'Security:MbedTLS' from pack STMicroelectronics.X-CUBE-SAFEA1.1.2.2: no header file found
2025-02-18 16:44:27,594 [WARN] ApiManager:294 - Cannot register API 'Board Extension:NFC04A1' from pack STMicroelectronics.X-CUBE-NFC4.3.0.0: no header file found
2025-02-18 16:44:27,594 [WARN] ApiManager:294 - Cannot register API 'Board Extension:S2868A1' from pack STMicroelectronics.X-CUBE-SUBG2.5.0.0: no header file found
2025-02-18 16:44:27,594 [WARN] ApiManager:294 - Cannot register API 'Board Extension:S2868A2' from pack STMicroelectronics.X-CUBE-SUBG2.5.0.0: no header file found
2025-02-18 16:44:27,594 [WARN] ApiManager:294 - Cannot register API 'Board Extension:S2915A1' from pack STMicroelectronics.X-CUBE-SUBG2.5.0.0: no header file found
2025-02-18 16:44:27,610 [WARN] ApiManager:294 - Cannot register API 'Board Extension:EEPRMA2' from pack STMicroelectronics.X-CUBE-EEPRMA1.5.1.0: no header file found
2025-02-18 16:44:27,610 [WARN] ApiManager:294 - Cannot register API 'Board Extension:PGEEZ1' from pack STMicroelectronics.X-CUBE-EEPRMA1.5.1.0: no header file found
2025-02-18 16:44:27,610 [WARN] ApiManager:294 - Cannot register API 'Board Extension:EEICA1' from pack STMicroelectronics.X-CUBE-EEPRMA1.5.1.0: no header file found
2025-02-18 16:44:27,610 [WARN] ApiManager:294 - Cannot register API 'Board Part:M24' from pack STMicroelectronics.X-CUBE-EEPRMA1.5.1.0: no header file found
2025-02-18 16:44:27,610 [WARN] ApiManager:294 - Cannot register API 'Board Part:M95' from pack STMicroelectronics.X-CUBE-EEPRMA1.5.1.0: no header file found
2025-02-18 16:44:27,610 [WARN] ApiManager:294 - Cannot register API 'Board Part:M95P32' from pack STMicroelectronics.X-CUBE-EEPRMA1.5.1.0: no header file found
2025-02-18 16:44:27,610 [WARN] ApiManager:294 - Cannot register API 'Board Part:M24256E-F' from pack STMicroelectronics.X-CUBE-EEPRMA1.5.1.0: no header file found
2025-02-18 16:44:27,610 [WARN] ApiManager:294 - Cannot register API 'Board Part:M24M01E-F' from pack STMicroelectronics.X-CUBE-EEPRMA1.5.1.0: no header file found
2025-02-18 16:44:27,610 [WARN] ApiManager:294 - Cannot register API 'PGEEZ1:SPI' from pack STMicroelectronics.X-CUBE-EEPRMA1.5.1.0: no header file found
2025-02-18 16:44:27,610 [WARN] ApiManager:294 - Cannot register API 'PGEEZ1:QDSPI' from pack STMicroelectronics.X-CUBE-EEPRMA1.5.1.0: no header file found
2025-02-18 16:44:27,723 [WARN] ApiManager:294 - Cannot register API 'Board Extension:IKS01A3' from pack STMicroelectronics.X-CUBE-MEMS1.10.0.0: no header file found
2025-02-18 16:44:27,723 [WARN] ApiManager:294 - Cannot register API 'Board Extension:IKS02A1' from pack STMicroelectronics.X-CUBE-MEMS1.10.0.0: no header file found
2025-02-18 16:44:27,723 [WARN] ApiManager:294 - Cannot register API 'Board Extension:IKS4A1' from pack STMicroelectronics.X-CUBE-MEMS1.10.0.0: no header file found
2025-02-18 16:44:27,875 [WARN] ApiManager:294 - Cannot register API 'Board Extension:IKS01A3' from pack STMicroelectronics.X-CUBE-MEMS1.9.5.0: no header file found
2025-02-18 16:44:27,875 [WARN] ApiManager:294 - Cannot register API 'Board Extension:IKS01A2' from pack STMicroelectronics.X-CUBE-MEMS1.9.5.0: no header file found
2025-02-18 16:44:27,875 [WARN] ApiManager:294 - Cannot register API 'Board Extension:IKS02A1' from pack STMicroelectronics.X-CUBE-MEMS1.9.5.0: no header file found
2025-02-18 16:44:27,891 [WARN] ApiManager:294 - Cannot register API 'Board Extension:EEPRMA1' from pack STMicroelectronics.X-CUBE-EEPRMA1.3.1.1: no header file found
2025-02-18 16:44:27,891 [WARN] ApiManager:294 - Cannot register API 'Board Extension:EEPRMA2' from pack STMicroelectronics.X-CUBE-EEPRMA1.3.1.1: no header file found
2025-02-18 16:44:54,818 [INFO] UtilMem:74 - End LoadConfig() Used Memory: 856529472 Bytes (945815552)
2025-02-18 16:44:54,838 [WARN] ThirdParty:762 - waiting for thirdparty lock release [change project]
2025-02-18 16:44:54,838 [INFO] ThirdParty:764 - entering critical section [change project]
2025-02-18 16:44:54,838 [INFO] ThirdParty:952 - CMSIS Pack Vendor :STMicroelectronics X-CUBE-GNSS1 6.0.0
2025-02-18 16:44:54,838 [INFO] ThirdParty:952 - CMSIS Pack Vendor :STMicroelectronics USB_HOST 2.0.0
2025-02-18 16:44:54,838 [INFO] ThirdParty:952 - CMSIS Pack Vendor :STMicroelectronics X-CUBE-AZRTOS-F4 1.1.0
2025-02-18 16:44:54,838 [INFO] ThirdParty:952 - CMSIS Pack Vendor :STMicroelectronics FP-ATR-ASTRA1 2.0.1
2025-02-18 16:44:54,838 [INFO] ThirdParty:952 - CMSIS Pack Vendor :STMicroelectronics X-CUBE-WB05N 1.1.0
2025-02-18 16:44:54,838 [INFO] ThirdParty:952 - CMSIS Pack Vendor :STMicroelectronics X-CUBE-ISPU 2.1.0
2025-02-18 16:44:54,838 [INFO] ThirdParty:952 - CMSIS Pack Vendor :STMicroelectronics X-CUBE-BLEMGR 1.2.0
2025-02-18 16:44:54,838 [INFO] ThirdParty:952 - CMSIS Pack Vendor :STMicroelectronics X-CUBE-AZRTOS-F7 1.1.0
2025-02-18 16:44:54,838 [INFO] ThirdParty:952 - CMSIS Pack Vendor :STMicroelectronics X-CUBE-AZRTOS-L5 2.0.0
2025-02-18 16:44:54,838 [INFO] ThirdParty:952 - CMSIS Pack Vendor :STMicroelectronics USB_DEVICE 2.0.0
2025-02-18 16:44:54,838 [INFO] ThirdParty:952 - CMSIS Pack Vendor :STMicroelectronics X-CUBE-MEMS1 9.6.0
2025-02-18 16:44:54,838 [INFO] ThirdParty:952 - CMSIS Pack Vendor :STMicroelectronics X-CUBE-EEPRMA1 4.2.0
2025-02-18 16:44:54,838 [INFO] ThirdParty:952 - CMSIS Pack Vendor :STMicroelectronics X-CUBE-NFC6 3.1.0
2025-02-18 16:44:54,838 [INFO] ThirdParty:952 - CMSIS Pack Vendor :STMicroelectronics X-CUBE-AI 7.1.0
2025-02-18 16:44:54,838 [INFO] ThirdParty:952 - CMSIS Pack Vendor :STMicroelectronics X-CUBE-BLE1 6.2.3
2025-02-18 16:44:54,838 [INFO] ThirdParty:952 - CMSIS Pack Vendor :STMicroelectronics X-CUBE-BLE1 6.2.4
2025-02-18 16:44:54,838 [INFO] ThirdParty:952 - CMSIS Pack Vendor :STMicroelectronics FreeRTOS 0.0.1
2025-02-18 16:44:54,838 [INFO] ThirdParty:952 - CMSIS Pack Vendor :emotas I-CUBE-CANOPEN 1.1.3
2025-02-18 16:44:54,838 [INFO] ThirdParty:952 - CMSIS Pack Vendor :STMicroelectronics X-CUBE-BLEMGR 2.0.0
2025-02-18 16:44:54,838 [INFO] ThirdParty:952 - CMSIS Pack Vendor :STMicroelectronics X-CUBE-NFC4 2.0.5
2025-02-18 16:44:54,838 [INFO] ThirdParty:952 - CMSIS Pack Vendor :STMicroelectronics X-CUBE-NFC4 2.0.4
2025-02-18 16:44:54,838 [INFO] ThirdParty:952 - CMSIS Pack Vendor :STMicroelectronics X-CUBE-AZRTOS-H7 3.1.0
2025-02-18 16:44:54,838 [INFO] ThirdParty:952 - CMSIS Pack Vendor :STMicroelectronics PDM2PCM 3.3.0
2025-02-18 16:44:54,838 [INFO] ThirdParty:952 - CMSIS Pack Vendor :STMicroelectronics X-CUBE-BLE1 7.0.0
2025-02-18 16:44:54,838 [INFO] ThirdParty:952 - CMSIS Pack Vendor :STMicroelectronics X-CUBE-NFC10 1.0.0
2025-02-18 16:44:54,838 [INFO] ThirdParty:952 - CMSIS Pack Vendor :wolfSSL I-CUBE-wolfSSL 5.5.4
2025-02-18 16:44:54,838 [INFO] ThirdParty:952 - CMSIS Pack Vendor :wolfSSL I-CUBE-wolfSSL 5.5.1
2025-02-18 16:44:54,838 [INFO] ThirdParty:952 - CMSIS Pack Vendor :STMicroelectronics HAL Drivers 0.0.0
2025-02-18 16:44:54,838 [INFO] ThirdParty:952 - CMSIS Pack Vendor :STMicroelectronics X-CUBE-TOUCHGFX 4.22.0
2025-02-18 16:44:54,838 [INFO] ThirdParty:952 - CMSIS Pack Vendor :STMicroelectronics X-CUBE-NFC7 1.0.1
2025-02-18 16:44:54,838 [INFO] ThirdParty:952 - CMSIS Pack Vendor :STMicroelectronics MBEDTLS 2.14.1
2025-02-18 16:44:54,838 [INFO] ThirdParty:952 - CMSIS Pack Vendor :STMicroelectronics X-CUBE-NFC7 1.0.0
2025-02-18 16:44:54,838 [INFO] ThirdParty:952 - CMSIS Pack Vendor :STMicroelectronics X-CUBE-TOUCHGFX 4.22.1
2025-02-18 16:44:54,838 [INFO] ThirdParty:952 - CMSIS Pack Vendor :STMicroelectronics X-CUBE-NFC6 3.0.0
2025-02-18 16:44:54,854 [INFO] ThirdParty:952 - CMSIS Pack Vendor :STMicroelectronics X-CUBE-MEMS1 9.3.0
2025-02-18 16:44:54,854 [INFO] ThirdParty:952 - CMSIS Pack Vendor :STMicroelectronics X-CUBE-EEPRMA1 4.1.0
2025-02-18 16:44:54,854 [INFO] ThirdParty:952 - CMSIS Pack Vendor :STMicroelectronics X-CUBE-AI 7.2.0
2025-02-18 16:44:54,854 [INFO] ThirdParty:952 - CMSIS Pack Vendor :STMicroelectronics X-CUBE-AI 10.0.0
2025-02-18 16:44:54,854 [INFO] ThirdParty:952 - CMSIS Pack Vendor :STMicroelectronics X-CUBE-MEMS1 11.1.0
2025-02-18 16:44:54,854 [INFO] ThirdParty:952 - CMSIS Pack Vendor :STMicroelectronics X-CUBE-AZRTOS-WL 2.0.0
2025-02-18 16:44:54,854 [INFO] ThirdParty:952 - CMSIS Pack Vendor :STMicroelectronics USB_DEVICE 1.0.0
2025-02-18 16:44:54,854 [INFO] ThirdParty:952 - CMSIS Pack Vendor :STMicroelectronics X-CUBE-AI 8.1.0
2025-02-18 16:44:54,854 [INFO] ThirdParty:952 - CMSIS Pack Vendor :STMicroelectronics X-CUBE-AI 6.0.0
2025-02-18 16:44:54,854 [INFO] ThirdParty:952 - CMSIS Pack Vendor :wolfSSL I-CUBE-wolfMQTT 1.19.0
2025-02-18 16:44:54,854 [INFO] ThirdParty:952 - CMSIS Pack Vendor :STMicroelectronics X-CUBE-AZRTOS-L4 2.0.0
2025-02-18 16:44:54,854 [INFO] ThirdParty:952 - CMSIS Pack Vendor :WES I-CUBE-Cesium 1.3.0
2025-02-18 16:44:54,854 [INFO] ThirdParty:952 - CMSIS Pack Vendor :STMicroelectronics lwIP 2.1.2
2025-02-18 16:44:54,854 [INFO] ThirdParty:952 - CMSIS Pack Vendor :STMicroelectronics X-CUBE-SFXS2LP1 4.0.0
2025-02-18 16:44:54,854 [INFO] ThirdParty:952 - CMSIS Pack Vendor :STMicroelectronics X-CUBE-BLE2 3.3.0
2025-02-18 16:44:54,854 [INFO] ThirdParty:952 - CMSIS Pack Vendor :STMicroelectronics X-CUBE-DISPLAY 2.2.0
2025-02-18 16:44:54,854 [INFO] ThirdParty:952 - CMSIS Pack Vendor :STMicroelectronics X-CUBE-TOF1 3.2.0
2025-02-18 16:44:54,854 [INFO] ThirdParty:952 - CMSIS Pack Vendor :STMicroelectronics PDM2PCM 3.2.0
2025-02-18 16:44:54,854 [INFO] ThirdParty:952 - CMSIS Pack Vendor :STMicroelectronics X-CUBE-AZRTOS-H7 3.0.0
2025-02-18 16:44:54,854 [INFO] ThirdParty:952 - CMSIS Pack Vendor :STMicroelectronics X-CUBE-ISPU 1.0.0
2025-02-18 16:44:54,854 [INFO] ThirdParty:952 - CMSIS Pack Vendor :STMicroelectronics X-CUBE-ISPU 1.1.0
2025-02-18 16:44:54,854 [INFO] ThirdParty:952 - CMSIS Pack Vendor :STMicroelectronics X-CUBE-AZRTOS-H7 3.3.0
2025-02-18 16:44:54,854 [INFO] ThirdParty:952 - CMSIS Pack Vendor :RoweBots I-CUBE-UNISONRTOS 5.5.0-4
2025-02-18 16:44:54,854 [INFO] ThirdParty:952 - CMSIS Pack Vendor :STMicroelectronics X-CUBE-NFC9 1.0.0
2025-02-18 16:44:54,854 [INFO] ThirdParty:952 - CMSIS Pack Vendor :STMicroelectronics X-CUBE-AZRTOS-H7 2.1.0
2025-02-18 16:44:54,854 [INFO] ThirdParty:952 - CMSIS Pack Vendor :STMicroelectronics USB_DEVICE 3.0.0
2025-02-18 16:44:54,854 [INFO] ThirdParty:952 - CMSIS Pack Vendor :STMicroelectronics X-CUBE-AI 8.0.0
2025-02-18 16:44:54,854 [INFO] ThirdParty:952 - CMSIS Pack Vendor :STMicroelectronics X-CUBE-AZRTOS-WB 2.0.0
2025-02-18 16:44:54,854 [INFO] ThirdParty:952 - CMSIS Pack Vendor :STMicroelectronics X-CUBE-TOUCHGFX 4.21.1
2025-02-18 16:44:54,854 [INFO] ThirdParty:952 - CMSIS Pack Vendor :STMicroelectronics X-CUBE-TOUCHGFX 4.21.0
2025-02-18 16:44:54,854 [INFO] ThirdParty:952 - CMSIS Pack Vendor :STMicroelectronics X-CUBE-GNSS1 7.0.1
2025-02-18 16:44:54,854 [INFO] ThirdParty:952 - CMSIS Pack Vendor :STMicroelectronics X-CUBE-TOUCHGFX 4.21.3
2025-02-18 16:44:54,854 [INFO] ThirdParty:952 - CMSIS Pack Vendor :STMicroelectronics X-CUBE-MEMS1 9.4.0
2025-02-18 16:44:54,854 [INFO] ThirdParty:952 - CMSIS Pack Vendor :STMicroelectronics X-CUBE-AI 7.3.0
2025-02-18 16:44:54,854 [INFO] ThirdParty:952 - CMSIS Pack Vendor :STMicroelectronics X-CUBE-ALGOBUILD 1.3.0
2025-02-18 16:44:54,854 [INFO] ThirdParty:952 - CMSIS Pack Vendor :STMicroelectronics X-CUBE-AZRTOS-L5 1.1.0
2025-02-18 16:44:54,854 [INFO] ThirdParty:952 - CMSIS Pack Vendor :STMicroelectronics X-CUBE-AZRTOS-G0 1.1.0
2025-02-18 16:44:54,854 [INFO] ThirdParty:952 - CMSIS Pack Vendor :STMicroelectronics X-CUBE-AI 8.0.1
2025-02-18 16:44:54,854 [INFO] ThirdParty:952 - CMSIS Pack Vendor :STMicroelectronics X-CUBE-SAFEA1 1.2.2
2025-02-18 16:44:54,854 [INFO] ThirdParty:952 - CMSIS Pack Vendor :STMicroelectronics X-CUBE-NFC4 3.0.0
2025-02-18 16:44:54,854 [INFO] ThirdParty:952 - CMSIS Pack Vendor :STMicroelectronics X-CUBE-SUBG2 5.0.0
2025-02-18 16:44:54,854 [INFO] ThirdParty:952 - CMSIS Pack Vendor :SEGGER I-CUBE-embOS 1.2.1
2025-02-18 16:44:54,854 [INFO] ThirdParty:952 - CMSIS Pack Vendor :STMicroelectronics lwIP 2.0.3
2025-02-18 16:44:54,854 [INFO] ThirdParty:952 - CMSIS Pack Vendor :STMicroelectronics USB_HOST 1.0.0
2025-02-18 16:44:54,854 [INFO] ThirdParty:952 - CMSIS Pack Vendor :STMicroelectronics X-CUBE-AZRTOS-G4 2.0.0
2025-02-18 16:44:54,854 [INFO] ThirdParty:952 - CMSIS Pack Vendor :STMicroelectronics PDM2PCM 3.1.0
2025-02-18 16:44:54,854 [INFO] ThirdParty:952 - CMSIS Pack Vendor :STMicroelectronics X-CUBE-TOF1 3.3.0
2025-02-18 16:44:54,854 [INFO] ThirdParty:952 - CMSIS Pack Vendor :STMicroelectronics FP-ATR-ASTRA1 1.1.1
2025-02-18 16:44:54,854 [INFO] ThirdParty:952 - CMSIS Pack Vendor :STMicroelectronics X-CUBE-BLEMGR 1.3.0
2025-02-18 16:44:54,854 [INFO] ThirdParty:952 - CMSIS Pack Vendor :STMicroelectronics FP-ATR-SIGFOX1 3.2.0
2025-02-18 16:44:54,854 [INFO] ThirdParty:952 - CMSIS Pack Vendor :STMicroelectronics X-CUBE-AZRTOS-G4 1.0.0
2025-02-18 16:44:54,854 [INFO] ThirdParty:952 - CMSIS Pack Vendor :STMicroelectronics X-CUBE-AZRTOS-L4 1.0.0
2025-02-18 16:44:54,854 [INFO] ThirdParty:952 - CMSIS Pack Vendor :STMicroelectronics X-CUBE-EEPRMA1 5.1.0
2025-02-18 16:44:54,854 [INFO] ThirdParty:952 - CMSIS Pack Vendor :STMicroelectronics MBEDTLS 2.16.2
2025-02-18 16:44:54,854 [INFO] ThirdParty:952 - CMSIS Pack Vendor :emotas I-CUBE-CANOPEN 1.1.2
2025-02-18 16:44:54,854 [INFO] ThirdParty:952 - CMSIS Pack Vendor :STMicroelectronics X-CUBE-TOUCHGFX 4.20.0
2025-02-18 16:44:54,854 [INFO] ThirdParty:952 - CMSIS Pack Vendor :STMicroelectronics X-CUBE-MEMS1 10.0.0
2025-02-18 16:44:54,854 [INFO] ThirdParty:952 - CMSIS Pack Vendor :STMicroelectronics X-CUBE-TOUCHGFX 4.24.2
2025-02-18 16:44:54,854 [INFO] ThirdParty:952 - CMSIS Pack Vendor :STMicroelectronics X-CUBE-AZRTOS-WL 1.0.0
2025-02-18 16:44:54,854 [INFO] ThirdParty:952 - CMSIS Pack Vendor :wolfSSL I-CUBE-wolfTPM 3.4.0
2025-02-18 16:44:54,854 [INFO] ThirdParty:952 - CMSIS Pack Vendor :portGmbH I-Cube-SoM-uGOAL 1.1.0
2025-02-18 16:44:54,854 [INFO] ThirdParty:952 - CMSIS Pack Vendor :STMicroelectronics X-CUBE-ALS 1.0.1
2025-02-18 16:44:54,854 [INFO] ThirdParty:952 - CMSIS Pack Vendor :STMicroelectronics X-CUBE-MEMS1 9.5.0
2025-02-18 16:44:54,854 [INFO] ThirdParty:952 - CMSIS Pack Vendor :STMicroelectronics X-CUBE-AI 7.0.0
2025-02-18 16:44:54,854 [INFO] ThirdParty:952 - CMSIS Pack Vendor :STMicroelectronics X-CUBE-AZRTOS-WB 1.1.0
2025-02-18 16:44:54,854 [INFO] ThirdParty:952 - CMSIS Pack Vendor :SEGGER I-CUBE-embOS 1.3.1
2025-02-18 16:44:54,854 [INFO] ThirdParty:952 - CMSIS Pack Vendor :STMicroelectronics X-CUBE-ALGOBUILD 1.4.0
2025-02-18 16:44:54,854 [INFO] ThirdParty:952 - CMSIS Pack Vendor :STMicroelectronics X-CUBE-AZRTOS-L5 1.0.0
2025-02-18 16:44:54,854 [INFO] ThirdParty:952 - CMSIS Pack Vendor :SEGGER I-CUBE-embOS 1.3.0
2025-02-18 16:44:54,854 [INFO] ThirdParty:952 - CMSIS Pack Vendor :STMicroelectronics X-CUBE-EEPRMA1 3.1.1
2025-02-18 16:44:54,854 [INFO] ThirdParty:952 - CMSIS Pack Vendor :STMicroelectronics X-CUBE-AZRTOS-H7RS 1.0.0
2025-02-18 16:44:54,854 [INFO] ThirdParty:952 - CMSIS Pack Vendor :STMicroelectronics FP-ATR-ASTRA1 2.0.0
2025-02-18 16:44:54,854 [INFO] ThirdParty:952 - CMSIS Pack Vendor :STMicroelectronics X-CUBE-AI 9.1.0
2025-02-18 16:44:54,854 [INFO] ThirdParty:952 - CMSIS Pack Vendor :wolfSSL I-CUBE-wolfSSH 1.4.17
2025-02-18 16:44:54,854 [INFO] ThirdParty:770 - exiting critical section [change project]
2025-02-18 16:44:55,522 [INFO] PinOutPanel:1435 - setPackage(No Configuration,No Configuration)
2025-02-18 16:44:55,522 [INFO] PinOutPanel:1435 - setPackage(STM32H7A3ZITxQ,LQFP144)
2025-02-18 16:44:56,634 [INFO] UtilMem:74 - Before build in PCC Used Memory: 911554032 Bytes (945815552)
2025-02-18 16:44:57,649 [INFO] SharedServices:72 - Folder for power plug-in: C:/Users/yh621/.stm32cubemx/plugins/power
2025-02-18 16:44:57,721 [INFO] SharedServices:72 - Folder for power plug-in: C:/Users/yh621/.stm32cubemx/plugins/power
2025-02-18 16:44:57,986 [INFO] SharedServices:72 - Folder for power plug-in: C:/Users/yh621/.stm32cubemx/plugins/power
2025-02-18 16:44:57,987 [INFO] SharedServices:72 - Folder for power plug-in: C:/Users/yh621/.stm32cubemx/plugins/power
2025-02-18 16:44:58,200 [INFO] UtilMem:74 - After build in PCC Used Memory: 962423744 Bytes (1008730112)
2025-02-18 16:44:58,236 [INFO] IPUIPlugin:64 - create IPUIPlugin
2025-02-18 16:44:58,236 [INFO] IPUIPlugin:64 - create IPUIPlugin
2025-02-18 16:44:58,236 [INFO] IPUIPlugin:64 - create IPUIPlugin
2025-02-18 16:44:58,236 [INFO] IPUIPlugin:64 - create IPUIPlugin
2025-02-18 16:44:58,236 [INFO] IPUIPlugin:64 - create IPUIPlugin
2025-02-18 16:44:58,236 [INFO] IPUIPlugin:64 - create IPUIPlugin
2025-02-18 16:44:58,236 [INFO] IPUIPlugin:64 - create IPUIPlugin
2025-02-18 16:44:58,236 [INFO] IPUIPlugin:64 - create IPUIPlugin
2025-02-18 16:44:58,236 [INFO] IPUIPlugin:64 - create IPUIPlugin
2025-02-18 16:44:58,236 [INFO] IPUIPlugin:64 - create IPUIPlugin
2025-02-18 16:44:58,236 [INFO] IPUIPlugin:64 - create IPUIPlugin
2025-02-18 16:44:58,236 [INFO] IPUIPlugin:64 - create IPUIPlugin
2025-02-18 16:44:58,236 [INFO] IPUIPlugin:64 - create IPUIPlugin
2025-02-18 16:44:58,236 [INFO] IPUIPlugin:64 - create IPUIPlugin
2025-02-18 16:44:58,236 [INFO] IPUIPlugin:64 - create IPUIPlugin
2025-02-18 16:44:58,236 [INFO] IPUIPlugin:64 - create IPUIPlugin
2025-02-18 16:44:58,236 [INFO] IPUIPlugin:64 - create IPUIPlugin
2025-02-18 16:44:58,236 [INFO] IPUIPlugin:64 - create IPUIPlugin
2025-02-18 16:44:58,236 [INFO] IPUIPlugin:64 - create IPUIPlugin
2025-02-18 16:44:58,236 [INFO] IPUIPlugin:64 - create IPUIPlugin
2025-02-18 16:44:58,236 [INFO] IPUIPlugin:64 - create IPUIPlugin
2025-02-18 16:44:58,236 [INFO] IPUIPlugin:64 - create IPUIPlugin
2025-02-18 16:44:58,236 [INFO] IPUIPlugin:64 - create IPUIPlugin
2025-02-18 16:44:58,236 [INFO] IPUIPlugin:64 - create IPUIPlugin
2025-02-18 16:44:58,236 [INFO] IPUIPlugin:64 - create IPUIPlugin
2025-02-18 16:44:58,236 [INFO] IPUIPlugin:64 - create IPUIPlugin
2025-02-18 16:44:58,236 [INFO] IPUIPlugin:64 - create IPUIPlugin
2025-02-18 16:44:58,236 [INFO] IPUIPlugin:64 - create IPUIPlugin
2025-02-18 16:44:58,252 [INFO] IPUIPlugin:64 - create IPUIPlugin
2025-02-18 16:44:58,252 [INFO] IPUIPlugin:64 - create IPUIPlugin
2025-02-18 16:44:58,252 [INFO] IPUIPlugin:64 - create IPUIPlugin
2025-02-18 16:44:58,252 [INFO] IPUIPlugin:64 - create IPUIPlugin
2025-02-18 16:44:58,252 [INFO] IPUIPlugin:64 - create IPUIPlugin
2025-02-18 16:44:58,252 [INFO] IPUIPlugin:64 - create IPUIPlugin
2025-02-18 16:44:58,252 [INFO] IPUIPlugin:64 - create IPUIPlugin
2025-02-18 16:44:58,252 [INFO] IPUIPlugin:64 - create IPUIPlugin
2025-02-18 16:44:58,252 [INFO] IPUIPlugin:64 - create IPUIPlugin
2025-02-18 16:44:58,252 [INFO] IPUIPlugin:64 - create IPUIPlugin
2025-02-18 16:44:58,252 [INFO] IPUIPlugin:64 - create IPUIPlugin
2025-02-18 16:44:58,252 [INFO] IPUIPlugin:64 - create IPUIPlugin
2025-02-18 16:44:58,252 [INFO] IPUIPlugin:64 - create IPUIPlugin
2025-02-18 16:44:58,252 [INFO] IPUIPlugin:64 - create IPUIPlugin
2025-02-18 16:44:58,252 [INFO] IPUIPlugin:64 - create IPUIPlugin
2025-02-18 16:44:58,252 [INFO] IPUIPlugin:64 - create IPUIPlugin
2025-02-18 16:44:58,252 [INFO] IPUIPlugin:64 - create IPUIPlugin
2025-02-18 16:44:58,252 [INFO] IPUIPlugin:64 - create IPUIPlugin
2025-02-18 16:44:58,252 [INFO] IPUIPlugin:64 - create IPUIPlugin
2025-02-18 16:44:58,252 [INFO] IPUIPlugin:64 - create IPUIPlugin
2025-02-18 16:44:58,252 [INFO] IPUIPlugin:64 - create IPUIPlugin
2025-02-18 16:44:58,252 [INFO] IPUIPlugin:64 - create IPUIPlugin
2025-02-18 16:44:58,252 [INFO] IPUIPlugin:64 - create IPUIPlugin
2025-02-18 16:44:58,252 [INFO] IPUIPlugin:64 - create IPUIPlugin
2025-02-18 16:44:58,252 [INFO] IPUIPlugin:64 - create IPUIPlugin
2025-02-18 16:44:58,252 [INFO] IPUIPlugin:64 - create IPUIPlugin
2025-02-18 16:44:58,252 [INFO] IPUIPlugin:64 - create IPUIPlugin
2025-02-18 16:44:58,252 [INFO] IPUIPlugin:64 - create IPUIPlugin
2025-02-18 16:44:58,252 [INFO] IPUIPlugin:64 - create IPUIPlugin
2025-02-18 16:44:58,252 [INFO] IPUIPlugin:64 - create IPUIPlugin
2025-02-18 16:44:58,252 [INFO] IPUIPlugin:64 - create IPUIPlugin
2025-02-18 16:44:58,252 [INFO] IPUIPlugin:64 - create IPUIPlugin
2025-02-18 16:44:58,267 [INFO] IPUIPlugin:64 - create IPUIPlugin
2025-02-18 16:44:58,267 [INFO] IPUIPlugin:64 - create IPUIPlugin
2025-02-18 16:44:58,267 [INFO] IPUIPlugin:64 - create IPUIPlugin
2025-02-18 16:44:58,267 [INFO] IPUIPlugin:64 - create IPUIPlugin
2025-02-18 16:44:58,267 [INFO] IPUIPlugin:64 - create IPUIPlugin
2025-02-18 16:44:58,267 [INFO] IPUIPlugin:64 - create IPUIPlugin
2025-02-18 16:44:58,267 [INFO] IPUIPlugin:64 - create IPUIPlugin
2025-02-18 16:44:58,267 [INFO] IPUIPlugin:64 - create IPUIPlugin
2025-02-18 16:44:58,267 [INFO] IPUIPlugin:64 - create IPUIPlugin
2025-02-18 16:44:58,267 [INFO] IPUIPlugin:64 - create IPUIPlugin
2025-02-18 16:44:58,267 [INFO] IPUIPlugin:64 - create IPUIPlugin
2025-02-18 16:44:58,267 [INFO] IPUIPlugin:64 - create IPUIPlugin
2025-02-18 16:44:58,267 [INFO] IPUIPlugin:64 - create IPUIPlugin
2025-02-18 16:44:58,267 [INFO] IPUIPlugin:64 - create IPUIPlugin
2025-02-18 16:44:58,267 [INFO] IPUIPlugin:64 - create IPUIPlugin
2025-02-18 16:44:58,267 [INFO] IPUIPlugin:64 - create IPUIPlugin
2025-02-18 16:44:58,267 [INFO] IPUIPlugin:64 - create IPUIPlugin
2025-02-18 16:44:58,267 [INFO] IPUIPlugin:64 - create IPUIPlugin
2025-02-18 16:44:58,267 [INFO] IPUIPlugin:64 - create IPUIPlugin
2025-02-18 16:44:58,267 [INFO] IPUIPlugin:64 - create IPUIPlugin
2025-02-18 16:44:58,267 [INFO] IPUIPlugin:64 - create IPUIPlugin
2025-02-18 16:44:58,267 [INFO] IPUIPlugin:64 - create IPUIPlugin
2025-02-18 16:44:58,298 [INFO] IPUIPlugin:64 - create IPUIPlugin
2025-02-18 16:44:58,314 [INFO] IPUIPlugin:64 - create IPUIPlugin
2025-02-18 16:44:58,314 [INFO] IPUIPlugin:64 - create IPUIPlugin
2025-02-18 16:44:58,318 [INFO] IPUIPlugin:64 - create IPUIPlugin
2025-02-18 16:44:58,318 [INFO] IPUIPlugin:64 - create IPUIPlugin
2025-02-18 16:44:58,318 [INFO] IPUIPlugin:64 - create IPUIPlugin
2025-02-18 16:44:58,318 [INFO] IPUIPlugin:64 - create IPUIPlugin
2025-02-18 16:44:58,318 [INFO] IPUIPlugin:64 - create IPUIPlugin
2025-02-18 16:44:58,318 [INFO] IPUIPlugin:64 - create IPUIPlugin
2025-02-18 16:44:58,318 [INFO] IPUIPlugin:64 - create IPUIPlugin
2025-02-18 16:44:58,318 [INFO] IPUIPlugin:64 - create IPUIPlugin
2025-02-18 16:44:58,318 [INFO] IPUIPlugin:64 - create IPUIPlugin
2025-02-18 16:44:58,318 [INFO] IPUIPlugin:64 - create IPUIPlugin
2025-02-18 16:44:58,318 [INFO] IPUIPlugin:64 - create IPUIPlugin
2025-02-18 16:44:58,318 [INFO] IPUIPlugin:64 - create IPUIPlugin
2025-02-18 16:44:58,318 [INFO] IPUIPlugin:64 - create IPUIPlugin
2025-02-18 16:44:58,399 [INFO] ApiDbMcu:458 - Load IP Config File for PDM2PCM
2025-02-18 16:44:58,434 [INFO] LogOutputStream:76 - [STDOUT_REDIRECT] toolchainItems.length=====1
2025-02-18 16:44:58,519 [INFO] OpenFileManager:323 - Restore cursor
2025-02-18 16:44:59,599 [INFO] UtilMem:74 - End SaveConfig() Used Memory: 953280856 Bytes (1019215872)
2025-02-18 16:45:00,534 [INFO] UtilMem:74 - End SaveConfig() Used Memory: 892795104 Bytes (1019215872)
2025-02-18 16:45:00,934 [INFO] BlockDiagram:2735 - set Specific Code input for plugin: RCC
2025-02-18 16:45:00,934 [INFO] BlockDiagram:2735 - set Specific Code input for plugin: SYS
2025-02-18 16:45:00,934 [INFO] BlockDiagram:2735 - set Specific Code input for plugin: NVIC
2025-02-18 16:45:00,934 [INFO] CodeGenerator:641 - code generatio: config db path: D:\STM32CubeIDE_1.6.1\STM32CubeIDE\plugins\com.st.stm32cube.common.mx_6.2.1.202103241236\\db\
2025-02-18 16:45:01,720 [INFO] CodeEngine:229 - oldGeneratedFile, C:\Users\yh621\STM32CubeIDE\josh_resnet_stm32h\resnet_stm32h\MXTmpFiles\license.tmp_save
2025-02-18 16:45:02,184 [INFO] CodeEngine:247 - Generated code: C:\Users\yh621\STM32CubeIDE\josh_resnet_stm32h\resnet_stm32h\MXTmpFiles\license.tmp
2025-02-18 16:45:03,082 [INFO] LogOutputStream:76 - [STDOUT_REDIRECT] Command line
2025-02-18 16:45:03,098 [INFO] CodeEngine:229 - oldGeneratedFile, C:\Users\yh621\STM32CubeIDE\josh_resnet_stm32h\resnet_stm32h\MXTmpFiles\cortex.tmp_save
2025-02-18 16:45:03,205 [INFO] CodeEngine:247 - Generated code: C:\Users\yh621\STM32CubeIDE\josh_resnet_stm32h\resnet_stm32h\MXTmpFiles\cortex.tmp
2025-02-18 16:45:03,245 [INFO] CodeEngine:229 - oldGeneratedFile, C:\Users\yh621\STM32CubeIDE\josh_resnet_stm32h\resnet_stm32h\Core\Src\stm32h7xx_it.c_save
2025-02-18 16:45:03,447 [INFO] CodeEngine:247 - Generated code: C:\Users\yh621\STM32CubeIDE\josh_resnet_stm32h\resnet_stm32h\Core\Src\stm32h7xx_it.c
2025-02-18 16:45:03,479 [INFO] CodeEngine:229 - oldGeneratedFile, C:\Users\yh621\STM32CubeIDE\josh_resnet_stm32h\resnet_stm32h\Core\Inc\stm32h7xx_it.h_save
2025-02-18 16:45:03,604 [INFO] CodeEngine:247 - Generated code: C:\Users\yh621\STM32CubeIDE\josh_resnet_stm32h\resnet_stm32h\Core\Inc\stm32h7xx_it.h
2025-02-18 16:45:03,736 [INFO] CodeEngine:229 - oldGeneratedFile, C:\Users\yh621\STM32CubeIDE\josh_resnet_stm32h\resnet_stm32h\Core\Src\stm32h7xx_hal_msp.c_save
2025-02-18 16:45:03,904 [INFO] CodeEngine:247 - Generated code: C:\Users\yh621\STM32CubeIDE\josh_resnet_stm32h\resnet_stm32h\Core\Src\stm32h7xx_hal_msp.c
2025-02-18 16:45:03,920 [INFO] CodeEngine:229 - oldGeneratedFile, C:\Users\yh621\STM32CubeIDE\josh_resnet_stm32h\resnet_stm32h\MXTmpFiles\system.tmp_save
2025-02-18 16:45:04,013 [INFO] CodeEngine:247 - Generated code: C:\Users\yh621\STM32CubeIDE\josh_resnet_stm32h\resnet_stm32h\MXTmpFiles\system.tmp
2025-02-18 16:45:04,044 [INFO] CodeEngine:229 - oldGeneratedFile, C:\Users\yh621\STM32CubeIDE\josh_resnet_stm32h\resnet_stm32h\Core\Inc\stm32h7xx_hal_conf.h_save
2025-02-18 16:45:04,206 [INFO] CodeEngine:247 - Generated code: C:\Users\yh621\STM32CubeIDE\josh_resnet_stm32h\resnet_stm32h\Core\Inc\stm32h7xx_hal_conf.h
2025-02-18 16:45:04,398 [INFO] CodeEngine:229 - oldGeneratedFile, C:\Users\yh621\STM32CubeIDE\josh_resnet_stm32h\resnet_stm32h\Core\Inc\main.h_save
2025-02-18 16:45:04,529 [INFO] CodeEngine:247 - Generated code: C:\Users\yh621\STM32CubeIDE\josh_resnet_stm32h\resnet_stm32h\Core\Inc\main.h
2025-02-18 16:45:04,554 [INFO] CodeEngine:229 - oldGeneratedFile, C:\Users\yh621\STM32CubeIDE\josh_resnet_stm32h\resnet_stm32h\Core\Src\main.c_save
2025-02-18 16:45:04,684 [INFO] CodeEngine:247 - Generated code: C:\Users\yh621\STM32CubeIDE\josh_resnet_stm32h\resnet_stm32h\Core\Src\main.c
2025-02-18 16:45:06,460 [INFO] ProjectBuilder:2460 - Time for Copy HAL[1] : 182mS.
2025-02-18 16:45:06,466 [INFO] ProjectBuilder:3418 - Project Generator version: 3.13.0-B3
2025-02-18 16:45:07,746 [INFO] ConfigFileManager:1242 - The Die is : DIE480
2025-02-18 16:45:07,777 [INFO] ApiDbMcu:458 - Load IP Config File for FATFS
2025-02-18 16:45:07,808 [INFO] ApiDbMcu:458 - Load IP Config File for FREERTOS
2025-02-18 16:45:07,830 [INFO] ApiDbMcu:458 - Load IP Config File for LIBJPEG
2025-02-18 16:45:07,877 [INFO] ApiDbMcu:458 - Load IP Config File for MBEDTLS
2025-02-18 16:45:07,932 [INFO] ApiDbMcu:458 - Load IP Config File for USB_DEVICE
2025-02-18 16:45:07,961 [INFO] ApiDbMcu:458 - Load IP Config File for USB_HOST
2025-02-18 16:45:17,596 [INFO] ProjectBuilder:3584 - Time for Generating toolchain IDE Files: 11130mS.
2025-02-18 16:45:17,596 [INFO] ProjectBuilder:2339 - Time for Copy CMSIS : 0mS.
2025-02-18 16:45:17,596 [INFO] ProjectBuilder:2339 - Time for Copy CMSIS : 0mS.
2025-02-18 16:45:19,537 [INFO] ApiDb:276 - Save user favorites file C:\Users\yh621/.stm32cubeide/favorites.mcus.txt: 1 item(s)
2025-02-18 16:45:19,537 [INFO] ApiDb:280 - User favorites MCUs=[STM32H7A3ZITxQ]
2025-02-18 16:46:16,794 [INFO] ApiDbMcu:458 - Load IP Config File for STMicroelectronics.X-CUBE-AI.8.0.1
2025-02-18 16:46:16,950 [INFO] IPUIPlugin:64 - create IPUIPlugin
2025-02-18 16:46:16,972 [INFO] PluginManager:203 - loadIPPluginJar : add ai.8.0.1
2025-02-18 16:46:17,291 [INFO] IPUIPlugin:64 - create IPUIPlugin
2025-02-18 16:46:22,621 [INFO] Middleware:501 - instanceName : STMicroelectronics.X-CUBE-AI.8.0.1 bspName : COM Port check condition success for : !SEMDeviceJjApplicationJjApplicationTemplate
2025-02-18 16:46:22,621 [INFO] Middleware:501 - instanceName : STMicroelectronics.X-CUBE-AI.8.0.1 bspName : COM Port check condition success for : !SEMDeviceJjApplicationJjApplicationTemplate
2025-02-18 16:46:22,621 [INFO] Middleware:501 - instanceName : STMicroelectronics.X-CUBE-AI.8.0.1 bspName : COM Port check condition success for : !SEMDeviceJjApplicationJjApplicationTemplate
2025-02-18 16:46:22,668 [INFO] Middleware:501 - instanceName : STMicroelectronics.X-CUBE-AI.8.0.1 bspName : COM Port check condition success for : !SEMDeviceJjApplicationJjApplicationTemplate
2025-02-18 16:46:22,668 [INFO] Middleware:501 - instanceName : STMicroelectronics.X-CUBE-AI.8.0.1 bspName : COM Port check condition success for : !SEMDeviceJjApplicationJjApplicationTemplate
2025-02-18 16:46:22,668 [INFO] Middleware:501 - instanceName : STMicroelectronics.X-CUBE-AI.8.0.1 bspName : COM Port check condition success for : !SEMDeviceJjApplicationJjApplicationTemplate
2025-02-18 16:46:22,921 [INFO] AIMainUI:1259 - Restoring parameters from IP...
2025-02-18 16:46:22,921 [INFO] AIMainUI:1378 - No old model detected
2025-02-18 16:46:22,937 [INFO] AI:946 - getUI adding AI com.st.microxplorer.plugins.ip.ai.AI@4cb3d19d on STMicroelectronics.X-CUBE-AI.8.0.1
2025-02-18 16:46:22,937 [INFO] Middleware:501 - instanceName : STMicroelectronics.X-CUBE-AI.8.0.1 bspName : COM Port check condition success for : !SEMDeviceJjApplicationJjApplicationTemplate
2025-02-18 16:46:22,937 [INFO] Middleware:501 - instanceName : STMicroelectronics.X-CUBE-AI.8.0.1 bspName : COM Port check condition success for : !SEMDeviceJjApplicationJjApplicationTemplate
2025-02-18 16:46:22,937 [INFO] Middleware:501 - instanceName : STMicroelectronics.X-CUBE-AI.8.0.1 bspName : COM Port check condition success for : !SEMDeviceJjApplicationJjApplicationTemplate
2025-02-18 16:46:23,886 [INFO] Middleware:501 - instanceName : STMicroelectronics.X-CUBE-AI.8.0.1 bspName : COM Port check condition success for : !SEMDeviceJjApplicationJjApplicationTemplate
2025-02-18 16:46:23,886 [INFO] Middleware:501 - instanceName : STMicroelectronics.X-CUBE-AI.8.0.1 bspName : COM Port check condition success for : !SEMDeviceJjApplicationJjApplicationTemplate
2025-02-18 16:46:23,886 [INFO] Middleware:501 - instanceName : STMicroelectronics.X-CUBE-AI.8.0.1 bspName : COM Port check condition success for : !SEMDeviceJjApplicationJjApplicationTemplate
2025-02-18 16:46:23,917 [INFO] AI:946 - getUI adding AI com.st.microxplorer.plugins.ip.ai.AI@4cb3d19d on STMicroelectronics.X-CUBE-AI.8.0.1
2025-02-18 16:46:23,917 [INFO] Middleware:501 - instanceName : STMicroelectronics.X-CUBE-AI.8.0.1 bspName : COM Port check condition success for : !SEMDeviceJjApplicationJjApplicationTemplate
2025-02-18 16:46:23,917 [INFO] Middleware:501 - instanceName : STMicroelectronics.X-CUBE-AI.8.0.1 bspName : COM Port check condition success for : !SEMDeviceJjApplicationJjApplicationTemplate
2025-02-18 16:46:23,917 [INFO] Middleware:501 - instanceName : STMicroelectronics.X-CUBE-AI.8.0.1 bspName : COM Port check condition success for : !SEMDeviceJjApplicationJjApplicationTemplate
2025-02-18 16:46:24,521 [INFO] BoardParameter:82 - Mode not set IP=RCC mode=BYPASS Clock Source
2025-02-18 16:46:25,059 [INFO] Middleware:501 - instanceName : STMicroelectronics.X-CUBE-AI.8.0.1 bspName : COM Port check condition success for : !SEMDeviceJjApplicationJjApplicationTemplate
2025-02-18 16:46:25,059 [INFO] Middleware:501 - instanceName : STMicroelectronics.X-CUBE-AI.8.0.1 bspName : COM Port check condition success for : !SEMDeviceJjApplicationJjApplicationTemplate
2025-02-18 16:46:25,059 [INFO] Middleware:501 - instanceName : STMicroelectronics.X-CUBE-AI.8.0.1 bspName : COM Port check condition success for : !SEMDeviceJjApplicationJjApplicationTemplate
2025-02-18 16:46:25,243 [INFO] AI:946 - getUI adding AI com.st.microxplorer.plugins.ip.ai.AI@4cb3d19d on STMicroelectronics.X-CUBE-AI.8.0.1
2025-02-18 16:46:25,243 [INFO] Middleware:501 - instanceName : STMicroelectronics.X-CUBE-AI.8.0.1 bspName : COM Port check condition success for : !SEMDeviceJjApplicationJjApplicationTemplate
2025-02-18 16:46:25,243 [INFO] Middleware:501 - instanceName : STMicroelectronics.X-CUBE-AI.8.0.1 bspName : COM Port check condition success for : !SEMDeviceJjApplicationJjApplicationTemplate
2025-02-18 16:46:25,243 [INFO] Middleware:501 - instanceName : STMicroelectronics.X-CUBE-AI.8.0.1 bspName : COM Port check condition success for : !SEMDeviceJjApplicationJjApplicationTemplate
2025-02-18 16:46:25,614 [INFO] Middleware:501 - instanceName : STMicroelectronics.X-CUBE-AI.8.0.1 bspName : COM Port check condition success for : !SEMDeviceJjApplicationJjApplicationTemplate
2025-02-18 16:46:25,614 [INFO] Middleware:501 - instanceName : STMicroelectronics.X-CUBE-AI.8.0.1 bspName : COM Port check condition success for : !SEMDeviceJjApplicationJjApplicationTemplate
2025-02-18 16:46:25,614 [INFO] Middleware:501 - instanceName : STMicroelectronics.X-CUBE-AI.8.0.1 bspName : COM Port check condition success for : !SEMDeviceJjApplicationJjApplicationTemplate
2025-02-18 16:46:37,324 [INFO] AInterface:109 - AInterface using toolDir: C:/Users/yh621/STM32Cube/Repository/Packs/STMicroelectronics/X-CUBE-AI/8.0.1/Utilities/windows
2025-02-18 16:46:37,395 [INFO] AIModelDetailledView:2080 - Analysis status: -
2025-02-18 16:46:37,395 [INFO] AIModelDetailledView:861 - Selected model: Keras
2025-02-18 16:46:39,938 [INFO] AIModelDetailledView:861 - Selected model: TFLite
2025-02-18 16:46:55,189 [INFO] AInterface:235 - ModelName:network; files:[F:\verified_model\resnet_full_integer_quant.tflite]; type:TFLite; compression:None
2025-02-18 16:46:55,191 [INFO] AInterface:506 - workspaceTempDir: C:\Users\yh621\AppData\Local\Temp\mxAI_workspace33429980434009383896369306548313
2025-02-18 16:46:55,192 [INFO] AInterface:1042 - Setting Env: C:/Users/yh621/STM32Cube/Repository/Packs/STMicroelectronics/X-CUBE-AI/8.0.1/Utilities/windows
2025-02-18 16:46:55,786 [INFO] STM32CubeIDEBuilder:257 - Looking for gnu-tools-for-stm32 tools/bin/arm-none-eabi-gcc.exe in D:\STM32CubeIDE_1.6.1\STM32CubeIDE
2025-02-18 16:46:55,786 [INFO] STM32CubeIDEBuilder:283 - checking D:\STM32CubeIDE_1.6.1\STM32CubeIDE\plugins\com.st.stm32cube.ide.mcu.externaltools.gnu-tools-for-stm32.9-2020-q2-update.win32_1.5.0.202011040924\tools\bin\arm-none-eabi-gcc.exe
2025-02-18 16:46:55,786 [INFO] STM32CubeIDEBuilder:286 - ret=D:\STM32CubeIDE_1.6.1\STM32CubeIDE\plugins\com.st.stm32cube.ide.mcu.externaltools.gnu-tools-for-stm32.9-2020-q2-update.win32_1.5.0.202011040924\tools\bin\arm-none-eabi-gcc.exe
2025-02-18 16:46:55,786 [INFO] STM32CubeIDEBuilder:300 - returning D:\STM32CubeIDE_1.6.1\STM32CubeIDE\plugins\com.st.stm32cube.ide.mcu.externaltools.gnu-tools-for-stm32.9-2020-q2-update.win32_1.5.0.202011040924\tools\bin\arm-none-eabi-gcc.exe
2025-02-18 16:46:55,786 [INFO] AInterface:1099 - Custom PATH variable: C:/Users/yh621/STM32Cube/Repository/Packs/STMicroelectronics/X-CUBE-AI/8.0.1/Utilities/windows;C:/Users/yh621/STM32Cube/Repository/Packs/STMicroelectronics/X-CUBE-AI/8.0.1/Utilities/windows/mingw64/bin;C:/Users/yh621/STM32Cube/Repository/Packs/STMicroelectronics/X-CUBE-AI/8.0.1/Utilities/windows/mingw64/libexec/gcc/x86_64-w64-mingw32/7.3.0;C:/Users/yh621/STM32Cube/Repository/Packs/STMicroelectronics/X-CUBE-AI/8.0.1/Utilities/windows/node/bin;D:\STM32CubeIDE_1.6.1\STM32CubeIDE\plugins\com.st.stm32cube.ide.mcu.externaltools.gnu-tools-for-stm32.9-2020-q2-update.win32_1.5.0.202011040924\tools\bin
2025-02-18 16:46:55,786 [INFO] CmdLine:100 - Command: C:/Users/yh621/STM32Cube/Repository/Packs/STMicroelectronics/X-CUBE-AI/8.0.1/Utilities/windows/stm32ai analyze --name network -m F:/verified_model/resnet_full_integer_quant.tflite --type tflite --compression none --verbosity 1 --workspace C:\Users\yh621\AppData\Local\Temp\mxAI_workspace33429980434009383896369306548313 --output C:\Users\yh621\.stm32cubemx\network_output --allocate-inputs --series stm32h7 --allocate-outputs 
2025-02-18 16:46:55,802 [INFO] AIModelDetailledView:2080 - Analysis status: pending
2025-02-18 16:48:06,141 [INFO] CmdLine:67 - Neural Network Tools for STM32AI v1.7.0 (STM.ai v8.0.1-19451)
2025-02-18 16:48:07,411 [INFO] CmdLine:67 - Applied 1 of 1 optimizations
2025-02-18 16:48:08,044 [INFO] CmdLine:67 -  
2025-02-18 16:48:08,044 [INFO] CmdLine:67 -  Exec/report summary (analyze)
2025-02-18 16:48:08,044 [INFO] CmdLine:67 -  ----------------------------------------------------------------------------------------------------------
2025-02-18 16:48:08,044 [INFO] CmdLine:67 -  model file         :   F:\verified_model\resnet_full_integer_quant.tflite                                 
2025-02-18 16:48:08,059 [INFO] CmdLine:67 -  type               :   tflite                                                                             
2025-02-18 16:48:08,059 [INFO] CmdLine:67 -  c_name             :   network                                                                            
2025-02-18 16:48:08,059 [INFO] CmdLine:67 -  compression        :   none                                                                               
2025-02-18 16:48:08,059 [INFO] CmdLine:67 -  options            :   allocate-inputs, allocate-outputs                                                  
2025-02-18 16:48:08,059 [INFO] CmdLine:67 -  optimization       :   balanced                                                                           
2025-02-18 16:48:08,059 [INFO] CmdLine:67 -  target/series      :   stm32h7                                                                            
2025-02-18 16:48:08,059 [INFO] CmdLine:67 -  workspace dir      :   C:\Users\yh621\AppData\Local\Temp\mxAI_workspace33429980434009383896369306548313   
2025-02-18 16:48:08,059 [INFO] CmdLine:67 -  output dir         :   C:\Users\yh621\.stm32cubemx\network_output                                         
2025-02-18 16:48:08,059 [INFO] CmdLine:67 -  model_fmt          :   ss/sa                                                                              
2025-02-18 16:48:08,062 [INFO] CmdLine:67 -  model_name         :   resnet_full_integer_quant                                                          
2025-02-18 16:48:08,063 [INFO] CmdLine:67 -  model_hash         :   522b6be4191c52718ac2c07fcd02b8ff                                                   
2025-02-18 16:48:08,063 [INFO] CmdLine:67 -  params #           :   383,012 items (377.61 KiB)                                                         
2025-02-18 16:48:08,063 [INFO] CmdLine:67 -  ----------------------------------------------------------------------------------------------------------
2025-02-18 16:48:08,063 [INFO] CmdLine:67 -  input 1/1          :   'serving_default_input0' (domain:activations/**default**)                          
2025-02-18 16:48:08,064 [INFO] CmdLine:67 -                     :   3072 items, 3.00 KiB, ai_i8, s=0.05410033, zp=29, (1,32,32,3)                      
2025-02-18 16:48:08,064 [INFO] CmdLine:67 -  output 1/1         :   'conv2d_21' (domain:activations/**default**)                                       
2025-02-18 16:48:08,064 [INFO] CmdLine:67 -                     :   100 items, 100 B, ai_i8, s=0.00050211, zp=2, (1,1,1,100)                           
2025-02-18 16:48:08,064 [INFO] CmdLine:67 -  macc               :   18,527,940                                                                         
2025-02-18 16:48:08,064 [INFO] CmdLine:67 -  weights (ro)       :   386,672 B (377.61 KiB) (1 segment) / -1,145,376(-74.8%) vs float model             
2025-02-18 16:48:08,064 [INFO] CmdLine:67 -  activations (rw)   :   46,880 B (45.78 KiB) (1 segment) *                                                 
2025-02-18 16:48:08,064 [INFO] CmdLine:67 -  ram (total)        :   46,880 B (45.78 KiB) = 46,880 + 0 + 0                                              
2025-02-18 16:48:08,064 [INFO] CmdLine:67 -  ----------------------------------------------------------------------------------------------------------
2025-02-18 16:48:08,066 [INFO] CmdLine:67 -  (*) 'input'/'output' buffers can be used from the activations buffer
2025-02-18 16:48:11,191 [INFO] CmdLine:67 -  Model name - resnet_full_integer_quant ['serving_default_input0'] ['conv2d_21']
2025-02-18 16:48:11,191 [INFO] CmdLine:67 -  ------ --------------------------- ---------------------- ----------------- ----------- ------------------------
2025-02-18 16:48:11,191 [INFO] CmdLine:67 -  m_id   layer (original)            oshape                 param/size               macc             connected to
2025-02-18 16:48:11,191 [INFO] CmdLine:67 -  ------ --------------------------- ---------------------- ----------------- ----------- ------------------------
2025-02-18 16:48:11,191 [INFO] CmdLine:67 -  0      serving_default_input0 ()   [b:1,h:32,w:32,c:3]
2025-02-18 16:48:11,191 [INFO] CmdLine:67 -         conv2d_0 (CONV_2D)          [b:1,h:32,w:32,c:16]   448/496               442,384   serving_default_input0
2025-02-18 16:48:11,207 [INFO] CmdLine:67 -         nl_0_nl (CONV_2D)           [b:1,h:32,w:32,c:16]                          16,384                 conv2d_0
2025-02-18 16:48:11,208 [INFO] CmdLine:67 -  ------ --------------------------- ---------------------- ----------------- ----------- ------------------------
2025-02-18 16:48:11,209 [INFO] CmdLine:67 -  1      conv2d_1 (CONV_2D)          [b:1,h:32,w:32,c:20]   2,900/2,960         2,949,140                  nl_0_nl
2025-02-18 16:48:11,209 [INFO] CmdLine:67 -         nl_1_nl (CONV_2D)           [b:1,h:32,w:32,c:20]                          20,480                 conv2d_1
2025-02-18 16:48:11,209 [INFO] CmdLine:67 -  ------ --------------------------- ---------------------- ----------------- ----------- ------------------------
2025-02-18 16:48:11,209 [INFO] CmdLine:67 -  2      conv2d_2 (CONV_2D)          [b:1,h:32,w:32,c:20]   3,620/3,680         3,686,420                  nl_1_nl
2025-02-18 16:48:11,209 [INFO] CmdLine:67 -         nl_2_nl (CONV_2D)           [b:1,h:32,w:32,c:20]                          20,480                 conv2d_2
2025-02-18 16:48:11,209 [INFO] CmdLine:67 -  ------ --------------------------- ---------------------- ----------------- ----------- ------------------------
2025-02-18 16:48:11,209 [INFO] CmdLine:67 -  3      eltwise_3 (ADD)             [b:1,h:32,w:32,c:20]                          20,480                  nl_2_nl
2025-02-18 16:48:11,209 [INFO] CmdLine:67 -                                                                                                           nl_1_nl
2025-02-18 16:48:11,209 [INFO] CmdLine:67 -  ------ --------------------------- ---------------------- ----------------- ----------- ------------------------
2025-02-18 16:48:11,209 [INFO] CmdLine:67 -  4      conv2d_4 (CONV_2D)          [b:1,h:32,w:32,c:20]   3,620/3,680         3,686,420                eltwise_3
2025-02-18 16:48:11,209 [INFO] CmdLine:67 -         nl_4_nl (CONV_2D)           [b:1,h:32,w:32,c:20]                          20,480                 conv2d_4
2025-02-18 16:48:11,209 [INFO] CmdLine:67 -  ------ --------------------------- ---------------------- ----------------- ----------- ------------------------
2025-02-18 16:48:11,209 [INFO] CmdLine:67 -  5      pool_5 (MAX_POOL_2D)        [b:1,h:16,w:16,c:20]                          20,480                  nl_4_nl
2025-02-18 16:48:11,209 [INFO] CmdLine:67 -  ------ --------------------------- ---------------------- ----------------- ----------- ------------------------
2025-02-18 16:48:11,215 [INFO] CmdLine:67 -  6      conv2d_6 (CONV_2D)          [b:1,h:16,w:16,c:20]   3,620/3,680           921,620                   pool_5
2025-02-18 16:48:11,215 [INFO] CmdLine:67 -         nl_6_nl (CONV_2D)           [b:1,h:16,w:16,c:20]                           5,120                 conv2d_6
2025-02-18 16:48:11,215 [INFO] CmdLine:67 -  ------ --------------------------- ---------------------- ----------------- ----------- ------------------------
2025-02-18 16:48:11,215 [INFO] CmdLine:67 -  7      conv2d_7 (CONV_2D)          [b:1,h:16,w:16,c:20]   3,620/3,680           921,620                  nl_6_nl
2025-02-18 16:48:11,215 [INFO] CmdLine:67 -         nl_7_nl (CONV_2D)           [b:1,h:16,w:16,c:20]                           5,120                 conv2d_7
2025-02-18 16:48:11,215 [INFO] CmdLine:67 -  ------ --------------------------- ---------------------- ----------------- ----------- ------------------------
2025-02-18 16:48:11,215 [INFO] CmdLine:67 -  8      eltwise_8 (ADD)             [b:1,h:16,w:16,c:20]                           5,120                  nl_7_nl
2025-02-18 16:48:11,215 [INFO] CmdLine:67 -                                                                                                           nl_6_nl
2025-02-18 16:48:11,215 [INFO] CmdLine:67 -  ------ --------------------------- ---------------------- ----------------- ----------- ------------------------
2025-02-18 16:48:11,215 [INFO] CmdLine:67 -  9      conv2d_9 (CONV_2D)          [b:1,h:16,w:16,c:44]   7,964/8,096         2,027,564                eltwise_8
2025-02-18 16:48:11,227 [INFO] CmdLine:67 -         nl_9_nl (CONV_2D)           [b:1,h:16,w:16,c:44]                          11,264                 conv2d_9
2025-02-18 16:48:11,228 [INFO] CmdLine:67 -  ------ --------------------------- ---------------------- ----------------- ----------- ------------------------
2025-02-18 16:48:11,229 [INFO] CmdLine:67 -  10     pool_10 (MAX_POOL_2D)       [b:1,h:8,w:8,c:44]                            11,264                  nl_9_nl
2025-02-18 16:48:11,230 [INFO] CmdLine:67 -  ------ --------------------------- ---------------------- ----------------- ----------- ------------------------
2025-02-18 16:48:11,230 [INFO] CmdLine:67 -  11     conv2d_11 (CONV_2D)         [b:1,h:8,w:8,c:48]     19,056/19,200       1,216,560                  pool_10
2025-02-18 16:48:11,230 [INFO] CmdLine:67 -         nl_11_nl (CONV_2D)          [b:1,h:8,w:8,c:48]                             3,072                conv2d_11
2025-02-18 16:48:11,230 [INFO] CmdLine:67 -  ------ --------------------------- ---------------------- ----------------- ----------- ------------------------
2025-02-18 16:48:11,232 [INFO] CmdLine:67 -  12     conv2d_12 (CONV_2D)         [b:1,h:8,w:8,c:48]     20,784/20,928       1,327,152                 nl_11_nl
2025-02-18 16:48:11,232 [INFO] CmdLine:67 -         nl_12_nl (CONV_2D)          [b:1,h:8,w:8,c:48]                             3,072                conv2d_12
2025-02-18 16:48:11,233 [INFO] CmdLine:67 -  ------ --------------------------- ---------------------- ----------------- ----------- ------------------------
2025-02-18 16:48:11,233 [INFO] CmdLine:67 -  13     eltwise_13 (ADD)            [b:1,h:8,w:8,c:48]                             3,072                 nl_12_nl
2025-02-18 16:48:11,233 [INFO] CmdLine:67 -                                                                                                          nl_11_nl
2025-02-18 16:48:11,233 [INFO] CmdLine:67 -  ------ --------------------------- ---------------------- ----------------- ----------- ------------------------
2025-02-18 16:48:11,233 [INFO] CmdLine:67 -  14     pool_14 (MAX_POOL_2D)       [b:1,h:4,w:4,c:48]                             3,072               eltwise_13
2025-02-18 16:48:11,233 [INFO] CmdLine:67 -  ------ --------------------------- ---------------------- ----------------- ----------- ------------------------
2025-02-18 16:48:11,233 [INFO] CmdLine:67 -  15     conv2d_15 (CONV_2D)         [b:1,h:4,w:4,c:96]     41,568/41,856         663,648                  pool_14
2025-02-18 16:48:11,233 [INFO] CmdLine:67 -         nl_15_nl (CONV_2D)          [b:1,h:4,w:4,c:96]                             1,536                conv2d_15
2025-02-18 16:48:11,237 [INFO] CmdLine:67 -  ------ --------------------------- ---------------------- ----------------- ----------- ------------------------
2025-02-18 16:48:11,237 [INFO] CmdLine:67 -  16     pool_16 (MAX_POOL_2D)       [b:1,h:2,w:2,c:96]                             1,536                 nl_15_nl
2025-02-18 16:48:11,237 [INFO] CmdLine:67 -  ------ --------------------------- ---------------------- ----------------- ----------- ------------------------
2025-02-18 16:48:11,237 [INFO] CmdLine:67 -  17     conv2d_17 (CONV_2D)         [b:1,h:2,w:2,c:512]    49,664/51,200         197,120                  pool_16
2025-02-18 16:48:11,239 [INFO] CmdLine:67 -         nl_17_nl (CONV_2D)          [b:1,h:2,w:2,c:512]                            2,048                conv2d_17
2025-02-18 16:48:11,239 [INFO] CmdLine:67 -  ------ --------------------------- ---------------------- ----------------- ----------- ------------------------
2025-02-18 16:48:11,240 [INFO] CmdLine:67 -  18     conv2d_18 (CONV_2D)         [b:1,h:2,w:2,c:128]    65,664/66,048         262,272                 nl_17_nl
2025-02-18 16:48:11,241 [INFO] CmdLine:67 -         nl_18_nl (CONV_2D)          [b:1,h:2,w:2,c:128]                              512                conv2d_18
2025-02-18 16:48:11,242 [INFO] CmdLine:67 -  ------ --------------------------- ---------------------- ----------------- ----------- ------------------------
2025-02-18 16:48:11,242 [INFO] CmdLine:67 -  19     pool_19 (MAX_POOL_2D)       [b:1,h:1,w:1,c:128]                              512                 nl_18_nl
2025-02-18 16:48:11,243 [INFO] CmdLine:67 -  ------ --------------------------- ---------------------- ----------------- ----------- ------------------------
2025-02-18 16:48:11,244 [INFO] CmdLine:67 -  20     conv2d_20 (CONV_2D)         [b:1,h:1,w:1,c:128]    147,584/147,968       147,584                  pool_19
2025-02-18 16:48:11,244 [INFO] CmdLine:67 -         nl_20_nl (CONV_2D)          [b:1,h:1,w:1,c:128]                              128                conv2d_20
2025-02-18 16:48:11,245 [INFO] CmdLine:67 -  ------ --------------------------- ---------------------- ----------------- ----------- ------------------------
2025-02-18 16:48:11,245 [INFO] CmdLine:67 -  21     conv2d_21 (CONV_2D)         [b:1,h:1,w:1,c:100]    12,900/13,200          12,900                 nl_20_nl
2025-02-18 16:48:11,246 [INFO] CmdLine:67 -  ------ --------------------------- ---------------------- ----------------- ----------- ------------------------
2025-02-18 16:48:11,246 [INFO] CmdLine:67 -  22     reshape_22 (RESHAPE)        [b:1,c:100]                                                         conv2d_21
2025-02-18 16:48:11,246 [INFO] CmdLine:67 -  ------ --------------------------- ---------------------- ----------------- ----------- ------------------------
2025-02-18 16:48:11,246 [INFO] CmdLine:67 -  model/c-model: macc=18,637,636/18,527,940 -109,696(-0.6%) weights=386,672/386,672  activations=--/46,880 io=--/0
2025-02-18 16:48:11,246 [INFO] CmdLine:67 -  Number of operations per c-layer
2025-02-18 16:48:11,248 [INFO] CmdLine:67 -  ------- ------ ------------------------------ ------------ ------------
2025-02-18 16:48:11,248 [INFO] CmdLine:67 -  c_id    m_id   name (type)                             #op         type
2025-02-18 16:48:11,248 [INFO] CmdLine:67 -  ------- ------ ------------------------------ ------------ ------------
2025-02-18 16:48:11,248 [INFO] CmdLine:67 -  0       0      conv2d_0 (conv2d)                   442,384   smul_s8_s8
2025-02-18 16:48:11,248 [INFO] CmdLine:67 -  1       1      conv2d_1 (conv2d)                 2,949,140   smul_s8_s8
2025-02-18 16:48:11,248 [INFO] CmdLine:67 -  2       2      conv2d_2 (conv2d)                 3,686,420   smul_s8_s8
2025-02-18 16:48:11,248 [INFO] CmdLine:67 -  3       3      eltwise_3 (eltwise_integer)          20,480   smul_s8_s8
2025-02-18 16:48:11,248 [INFO] CmdLine:67 -  4       5      conv2d_4 (optimized_conv2d)       3,706,900   smul_s8_s8
2025-02-18 16:48:11,248 [INFO] CmdLine:67 -  5       6      conv2d_6 (conv2d)                   921,620   smul_s8_s8
2025-02-18 16:48:11,248 [INFO] CmdLine:67 -  6       7      conv2d_7 (conv2d)                   921,620   smul_s8_s8
2025-02-18 16:48:11,248 [INFO] CmdLine:67 -  7       8      eltwise_8 (eltwise_integer)           5,120   smul_s8_s8
2025-02-18 16:48:11,248 [INFO] CmdLine:67 -  8       10     conv2d_9 (optimized_conv2d)       2,038,828   smul_s8_s8
2025-02-18 16:48:11,248 [INFO] CmdLine:67 -  9       11     conv2d_11 (conv2d)                1,216,560   smul_s8_s8
2025-02-18 16:48:11,248 [INFO] CmdLine:67 -  10      12     conv2d_12 (conv2d)                1,327,152   smul_s8_s8
2025-02-18 16:48:11,248 [INFO] CmdLine:67 -  11      13     eltwise_13 (eltwise_integer)          3,072   smul_s8_s8
2025-02-18 16:48:11,248 [INFO] CmdLine:67 -  12      14     pool_14 (pool)                        3,072     op_s8_s8
2025-02-18 16:48:11,248 [INFO] CmdLine:67 -  13      16     conv2d_15 (optimized_conv2d)        665,184   smul_s8_s8
2025-02-18 16:48:11,248 [INFO] CmdLine:67 -  14      17     conv2d_17 (conv2d)                  197,120   smul_s8_s8
2025-02-18 16:48:11,248 [INFO] CmdLine:67 -  15      18     conv2d_18 (conv2d)                  262,272   smul_s8_s8
2025-02-18 16:48:11,248 [INFO] CmdLine:67 -  16      19     pool_19 (pool)                          512     op_s8_s8
2025-02-18 16:48:11,248 [INFO] CmdLine:67 -  17      20     conv2d_20 (conv2d)                  147,584   smul_s8_s8
2025-02-18 16:48:11,257 [INFO] CmdLine:67 -  18      21     conv2d_21 (conv2d)                   12,900   smul_s8_s8
2025-02-18 16:48:11,257 [INFO] CmdLine:67 -  ------- ------ ------------------------------ ------------ ------------
2025-02-18 16:48:11,258 [INFO] CmdLine:67 -  total                                           18,527,940
2025-02-18 16:48:11,258 [INFO] CmdLine:67 -  Number of operation types
2025-02-18 16:48:11,258 [INFO] CmdLine:67 -  ---------------- ------------ -----------
2025-02-18 16:48:11,259 [INFO] CmdLine:67 -  operation type              #           %
2025-02-18 16:48:11,259 [INFO] CmdLine:67 -  ---------------- ------------ -----------
2025-02-18 16:48:11,259 [INFO] CmdLine:67 -  smul_s8_s8         18,524,356      100.0%
2025-02-18 16:48:11,259 [INFO] CmdLine:67 -  op_s8_s8                3,584        0.0%
2025-02-18 16:48:11,260 [INFO] CmdLine:67 -  Complexity report (model)
2025-02-18 16:48:11,261 [INFO] CmdLine:67 -  ------ ------------------------ ------------------------- ------------------------- ------
2025-02-18 16:48:11,261 [INFO] CmdLine:67 -  m_id   name                     c_macc                    c_rom                     c_id
2025-02-18 16:48:11,261 [INFO] CmdLine:67 -  ------ ------------------------ ------------------------- ------------------------- ------
2025-02-18 16:48:11,261 [INFO] CmdLine:67 -  0      serving_default_input0   ||                 2.4%   |                  0.1%   [0]
2025-02-18 16:48:11,261 [INFO] CmdLine:67 -  1      conv2d_1                 ||||||||||||      15.9%   |                  0.8%   [1]
2025-02-18 16:48:11,261 [INFO] CmdLine:67 -  2      conv2d_2                 |||||||||||||||   19.9%   |                  1.0%   [2]
2025-02-18 16:48:11,261 [INFO] CmdLine:67 -  3      eltwise_3                |                  0.1%   |                  0.0%   [3]
2025-02-18 16:48:11,261 [INFO] CmdLine:67 -  5      pool_5                   ||||||||||||||||  20.0%   |                  1.0%   [4]
2025-02-18 16:48:11,261 [INFO] CmdLine:67 -  6      conv2d_6                 ||||               5.0%   |                  1.0%   [5]
2025-02-18 16:48:11,261 [INFO] CmdLine:67 -  7      conv2d_7                 ||||               5.0%   |                  1.0%   [6]
2025-02-18 16:48:11,261 [INFO] CmdLine:67 -  8      eltwise_8                |                  0.0%   |                  0.0%   [7]
2025-02-18 16:48:11,261 [INFO] CmdLine:67 -  10     pool_10                  |||||||||         11.0%   |                  2.1%   [8]
2025-02-18 16:48:11,261 [INFO] CmdLine:67 -  11     conv2d_11                |||||              6.6%   ||                 5.0%   [9]
2025-02-18 16:48:11,261 [INFO] CmdLine:67 -  12     conv2d_12                ||||||             7.2%   |||                5.4%   [10]
2025-02-18 16:48:11,261 [INFO] CmdLine:67 -  13     eltwise_13               |                  0.0%   |                  0.0%   [11]
2025-02-18 16:48:11,261 [INFO] CmdLine:67 -  14     pool_14                  |                  0.0%   |                  0.0%   [12]
2025-02-18 16:48:11,261 [INFO] CmdLine:67 -  16     pool_16                  |||                3.6%   |||||             10.8%   [13]
2025-02-18 16:48:11,261 [INFO] CmdLine:67 -  17     conv2d_17                |                  1.1%   ||||||            13.2%   [14]
2025-02-18 16:48:11,261 [INFO] CmdLine:67 -  18     conv2d_18                ||                 1.4%   |||||||           17.1%   [15]
2025-02-18 16:48:11,269 [INFO] CmdLine:67 -  19     pool_19                  |                  0.0%   |                  0.0%   [16]
2025-02-18 16:48:11,269 [INFO] CmdLine:67 -  20     conv2d_20                |                  0.8%   ||||||||||||||||  38.3%   [17]
2025-02-18 16:48:11,269 [INFO] CmdLine:67 -  21     conv2d_21                |                  0.1%   ||                 3.4%   [18]
2025-02-18 16:48:11,269 [INFO] CmdLine:67 -  ------ ------------------------ ------------------------- ------------------------- ------
2025-02-18 16:48:11,269 [INFO] CmdLine:67 -  macc=18,527,940 weights=386,672 act=46,880 ram_io=0
2025-02-18 16:48:11,271 [INFO] CmdLine:67 -  Requested memory size per segment ("stm32h7" series)
2025-02-18 16:48:11,271 [INFO] CmdLine:67 -  ----------------------------- -------- --------- ------- --------
2025-02-18 16:48:11,272 [INFO] CmdLine:67 -  module                            text    rodata    data      bss
2025-02-18 16:48:11,272 [INFO] CmdLine:67 -  ----------------------------- -------- --------- ------- --------
2025-02-18 16:48:11,272 [INFO] CmdLine:67 -  NetworkRuntime801_CM7_GCC.a     32,880         0       0        0
2025-02-18 16:48:11,273 [INFO] CmdLine:67 -  network.o                        1,540       929   7,848      280
2025-02-18 16:48:11,273 [INFO] CmdLine:67 -  network_data.o                      52        16      88        0
2025-02-18 16:48:11,273 [INFO] CmdLine:67 -  lib (toolchain)*                   104         0       0        0
2025-02-18 16:48:11,274 [INFO] CmdLine:67 -  ----------------------------- -------- --------- ------- --------
2025-02-18 16:48:11,274 [INFO] CmdLine:67 -  RT total**                      34,576       945   7,936      280
2025-02-18 16:48:11,274 [INFO] CmdLine:67 -  ----------------------------- -------- --------- ------- --------
2025-02-18 16:48:11,275 [INFO] CmdLine:67 -  *weights*                            0   386,672       0        0
2025-02-18 16:48:11,275 [INFO] CmdLine:67 -  *activations*                        0         0       0   46,880
2025-02-18 16:48:11,275 [INFO] CmdLine:67 -  *io*                                 0         0       0        0
2025-02-18 16:48:11,275 [INFO] CmdLine:67 -  ----------------------------- -------- --------- ------- --------
2025-02-18 16:48:11,275 [INFO] CmdLine:67 -  TOTAL                           34,576   387,617   7,936   47,160
2025-02-18 16:48:11,275 [INFO] CmdLine:67 -  ----------------------------- -------- --------- ------- --------
2025-02-18 16:48:11,275 [INFO] CmdLine:67 -  *  toolchain objects (libm/libgcc*)
2025-02-18 16:48:11,275 [INFO] CmdLine:67 -  ** RT - AI runtime objects (kernels+infrastructure)
2025-02-18 16:48:11,275 [INFO] CmdLine:67 -   Summary per memory device type
2025-02-18 16:48:11,275 [INFO] CmdLine:67 -   ----------------------------------------------
2025-02-18 16:48:11,275 [INFO] CmdLine:67 -   .\device       FLASH       %      RAM       %
2025-02-18 16:48:11,275 [INFO] CmdLine:67 -   ----------------------------------------------
2025-02-18 16:48:11,275 [INFO] CmdLine:67 -   RT total      43,457   10.1%    8,216   14.9%
2025-02-18 16:48:11,275 [INFO] CmdLine:67 -   ----------------------------------------------
2025-02-18 16:48:11,275 [INFO] CmdLine:67 -   TOTAL        430,129           55,096
2025-02-18 16:48:11,275 [INFO] CmdLine:67 -   ----------------------------------------------
2025-02-18 16:48:11,280 [INFO] CmdLine:67 - Creating txt report file C:\Users\yh621\.stm32cubemx\network_output\network_analyze_report.txt
2025-02-18 16:48:11,759 [INFO] CmdLine:67 - elapsed time (analyze): 5.616s
2025-02-18 16:48:12,317 [INFO] CmdLine:132 - stm32ai exit with status: 0
2025-02-18 16:48:12,352 [INFO] AInterface:594 - Successfully load: network
2025-02-18 16:48:12,375 [INFO] AIModelDetailledView:1055 - Model file:      resnet_full_integer_quant.tflite
2025-02-18 16:48:12,375 [INFO] AIModelDetailledView:1055 - Total Flash:     430129 B (420.05 KiB)
2025-02-18 16:48:12,375 [INFO] AIModelDetailledView:1055 -     Weights:     386672 B (377.61 KiB)
2025-02-18 16:48:12,375 [INFO] AIModelDetailledView:1055 -     Library:     43457 B (42.44 KiB)
2025-02-18 16:48:12,375 [INFO] AIModelDetailledView:1055 - Total Ram:       55096 B (53.80 KiB)
2025-02-18 16:48:12,375 [INFO] AIModelDetailledView:1055 -     Activations: 46880 B (45.78 KiB)
2025-02-18 16:48:12,375 [INFO] AIModelDetailledView:1055 -     Library:     8216 B (8.02 KiB)
2025-02-18 16:48:12,375 [INFO] AIModelDetailledView:1055 -     Input:       3073 B (3.00 KiB included in Activations)
2025-02-18 16:48:12,375 [INFO] AIModelDetailledView:1055 -     Output:      100 B (included in Activations)
2025-02-18 16:48:12,375 [INFO] AIModelDetailledView:1055 - Done
2025-02-18 16:48:12,375 [INFO] AIModelDetailledView:2409 - Analyze complete on AI model
2025-02-18 16:48:12,718 [INFO] AIModelDetailledView:2080 - Analysis status: done
2025-02-18 16:48:18,208 [INFO] AInterface:506 - workspaceTempDir: C:\Users\yh621\AppData\Local\Temp\mxAI_workspace34260151383007997808545253612591
2025-02-18 16:48:18,208 [INFO] AInterface:1042 - Setting Env: C:/Users/yh621/STM32Cube/Repository/Packs/STMicroelectronics/X-CUBE-AI/8.0.1/Utilities/windows
2025-02-18 16:48:18,209 [INFO] AInterface:1099 - Custom PATH variable: C:/Users/yh621/STM32Cube/Repository/Packs/STMicroelectronics/X-CUBE-AI/8.0.1/Utilities/windows;C:/Users/yh621/STM32Cube/Repository/Packs/STMicroelectronics/X-CUBE-AI/8.0.1/Utilities/windows/mingw64/bin;C:/Users/yh621/STM32Cube/Repository/Packs/STMicroelectronics/X-CUBE-AI/8.0.1/Utilities/windows/mingw64/libexec/gcc/x86_64-w64-mingw32/7.3.0;C:/Users/yh621/STM32Cube/Repository/Packs/STMicroelectronics/X-CUBE-AI/8.0.1/Utilities/windows/node/bin
2025-02-18 16:48:18,210 [INFO] CmdLine:100 - Command: C:/Users/yh621/STM32Cube/Repository/Packs/STMicroelectronics/X-CUBE-AI/8.0.1/Utilities/windows/stm32ai validate --name network -m F:/verified_model/resnet_full_integer_quant.tflite --type tflite --compression none --verbosity 1 --workspace C:\Users\yh621\AppData\Local\Temp\mxAI_workspace34260151383007997808545253612591 --output C:\Users\yh621\.stm32cubemx\network_output --allocate-inputs --allocate-outputs 
2025-02-18 16:48:23,544 [INFO] CmdLine:67 - Neural Network Tools for STM32AI v1.7.0 (STM.ai v8.0.1-19451)
2025-02-18 16:48:24,765 [INFO] CmdLine:67 - Applied 1 of 1 optimizations
2025-02-18 16:48:25,182 [INFO] CmdLine:67 - Copying the AI runtime files to the user workspace: C:\Users\yh621\AppData\Local\Temp\mxAI_workspace34260151383007997808545253612591\inspector_network\workspace
2025-02-18 16:48:28,271 [INFO] CmdLine:67 -  
2025-02-18 16:48:28,271 [INFO] CmdLine:67 -  Exec/report summary (validate)
2025-02-18 16:48:28,271 [INFO] CmdLine:67 -  ----------------------------------------------------------------------------------------------------------
2025-02-18 16:48:28,271 [INFO] CmdLine:67 -  model file         :   F:\verified_model\resnet_full_integer_quant.tflite                                 
2025-02-18 16:48:28,271 [INFO] CmdLine:67 -  type               :   tflite                                                                             
2025-02-18 16:48:28,271 [INFO] CmdLine:67 -  c_name             :   network                                                                            
2025-02-18 16:48:28,271 [INFO] CmdLine:67 -  compression        :   none                                                                               
2025-02-18 16:48:28,271 [INFO] CmdLine:67 -  options            :   allocate-inputs, allocate-outputs                                                  
2025-02-18 16:48:28,271 [INFO] CmdLine:67 -  optimization       :   balanced                                                                           
2025-02-18 16:48:28,271 [INFO] CmdLine:67 -  target/series      :   generic                                                                            
2025-02-18 16:48:28,271 [INFO] CmdLine:67 -  workspace dir      :   C:\Users\yh621\AppData\Local\Temp\mxAI_workspace34260151383007997808545253612591   
2025-02-18 16:48:28,271 [INFO] CmdLine:67 -  output dir         :   C:\Users\yh621\.stm32cubemx\network_output                                         
2025-02-18 16:48:28,271 [INFO] CmdLine:67 -  model_fmt          :   ss/sa                                                                              
2025-02-18 16:48:28,271 [INFO] CmdLine:67 -  model_name         :   resnet_full_integer_quant                                                          
2025-02-18 16:48:28,271 [INFO] CmdLine:67 -  model_hash         :   522b6be4191c52718ac2c07fcd02b8ff                                                   
2025-02-18 16:48:28,271 [INFO] CmdLine:67 -  params #           :   383,012 items (377.61 KiB)                                                         
2025-02-18 16:48:28,271 [INFO] CmdLine:67 -  ----------------------------------------------------------------------------------------------------------
2025-02-18 16:48:28,271 [INFO] CmdLine:67 -  input 1/1          :   'serving_default_input0' (domain:activations/**default**)                          
2025-02-18 16:48:28,271 [INFO] CmdLine:67 -                     :   3072 items, 3.00 KiB, ai_i8, s=0.05410033, zp=29, (1,32,32,3)                      
2025-02-18 16:48:28,271 [INFO] CmdLine:67 -  output 1/1         :   'conv2d_21' (domain:activations/**default**)                                       
2025-02-18 16:48:28,271 [INFO] CmdLine:67 -                     :   100 items, 100 B, ai_i8, s=0.00050211, zp=2, (1,1,1,100)                           
2025-02-18 16:48:28,271 [INFO] CmdLine:67 -  macc               :   18,527,940                                                                         
2025-02-18 16:48:28,271 [INFO] CmdLine:67 -  weights (ro)       :   386,672 B (377.61 KiB) (1 segment) / -1,145,376(-74.8%) vs float model             
2025-02-18 16:48:28,271 [INFO] CmdLine:67 -  activations (rw)   :   46,880 B (45.78 KiB) (1 segment) *                                                 
2025-02-18 16:48:28,271 [INFO] CmdLine:67 -  ram (total)        :   46,880 B (45.78 KiB) = 46,880 + 0 + 0                                              
2025-02-18 16:48:28,271 [INFO] CmdLine:67 -  ----------------------------------------------------------------------------------------------------------
2025-02-18 16:48:28,271 [INFO] CmdLine:67 -  (*) 'input'/'output' buffers can be used from the activations buffer
2025-02-18 16:48:28,287 [INFO] CmdLine:67 - Setting validation data...
2025-02-18 16:48:28,287 [INFO] CmdLine:67 -  generating random data, size=10, seed=42, range=(0, 1)
2025-02-18 16:48:28,302 [INFO] CmdLine:67 -  I[1]: (10, 32, 32, 3)/int8, min/max=[-128, 127], mean/std=[-0.576, 73.452], scale=0.05410033 zp=29, serving_default_input0
2025-02-18 16:48:28,302 [INFO] CmdLine:67 -  No output/reference samples are provided
2025-02-18 16:48:28,335 [INFO] CmdLine:67 - Running the STM AI c-model (AI RUNNER)...(name=network, mode=x86)
2025-02-18 16:48:28,624 [INFO] CmdLine:67 -  X86 shared lib (C:\Users\yh621\AppData\Local\Temp\mxAI_workspace34260151383007997808545253612591\inspector_network\workspace\lib\libai_network.dll) ['network']
2025-02-18 16:48:28,624 [INFO] CmdLine:67 -   Summary "network" - ['network']
2025-02-18 16:48:28,624 [INFO] CmdLine:67 -   --------------------------------------------------------------------------------------------------------------
2025-02-18 16:48:28,624 [INFO] CmdLine:67 -   inputs/ouputs      :   1/1
2025-02-18 16:48:28,624 [INFO] CmdLine:67 -   input_1            :   input_1, (1,32,32,3), int8, 3,072 bytes, S:0.05410033 O:29 SA, in activations buffer
2025-02-18 16:48:28,624 [INFO] CmdLine:67 -   output_1           :   output_1, (1,1,1,100), int8, 100 bytes, S:0.00050211 O:2 SA, in activations buffer
2025-02-18 16:48:28,624 [INFO] CmdLine:67 -   n_nodes            :   19
2025-02-18 16:48:28,624 [INFO] CmdLine:67 -   compile_datetime   :   Feb 18 2025 16:48:27
2025-02-18 16:48:28,624 [INFO] CmdLine:67 -   activations        :   46880
2025-02-18 16:48:28,624 [INFO] CmdLine:67 -   weights            :   386672
2025-02-18 16:48:28,624 [INFO] CmdLine:67 -   macc               :   18527940
2025-02-18 16:48:28,624 [INFO] CmdLine:67 -   --------------------------------------------------------------------------------------------------------------
2025-02-18 16:48:28,624 [INFO] CmdLine:67 -   runtime            :   STM.AI 8.0.0 (Tools 8.0.1)
2025-02-18 16:48:28,629 [INFO] CmdLine:67 -   capabilities       :   IO_ONLY, PER_LAYER, PER_LAYER_WITH_DATA
2025-02-18 16:48:28,630 [INFO] CmdLine:67 -   device             :   AMD64 Intel64 Family 6 Model 140 Stepping 1, GenuineIntel (Windows)
2025-02-18 16:48:28,766 [INFO] CmdLine:67 -  NOTE: duration and exec time per layer is just an indication. They are dependent of the HOST-machine work-load.
2025-02-18 16:48:28,766 [INFO] CmdLine:67 -   STM.AI Profiling results v1.2 - network
2025-02-18 16:48:28,774 [INFO] CmdLine:67 -   --------------------------------------------------------------
2025-02-18 16:48:28,774 [INFO] CmdLine:67 -   nb sample(s)    :   10
2025-02-18 16:48:28,774 [INFO] CmdLine:67 -   duration        :   10.969ms by sample (9.564/14.763/1.855)
2025-02-18 16:48:28,774 [INFO] CmdLine:67 -   macc            :   18527940
2025-02-18 16:48:28,774 [INFO] CmdLine:67 -   --------------------------------------------------------------
2025-02-18 16:48:28,774 [INFO] CmdLine:67 -   HOST duration   :   0.132s (total)
2025-02-18 16:48:28,774 [INFO] CmdLine:67 -   --------------------------------------------------------------
2025-02-18 16:48:28,774 [INFO] CmdLine:67 -    Inference time per node
2025-02-18 16:48:28,776 [INFO] CmdLine:67 -    ---------------------------------------------------------------------------
2025-02-18 16:48:28,776 [INFO] CmdLine:67 -    c_id    m_id   type                 dur (ms)     %            name
2025-02-18 16:48:28,776 [INFO] CmdLine:67 -    ---------------------------------------------------------------------------
2025-02-18 16:48:28,776 [INFO] CmdLine:67 -    0       0      Conv2D (0x103)            0.281      2.6%      ai_node_0
2025-02-18 16:48:28,776 [INFO] CmdLine:67 -    1       1      Conv2D (0x103)            1.546     14.1%      ai_node_1
2025-02-18 16:48:28,776 [INFO] CmdLine:67 -    2       2      Conv2D (0x103)            2.077     18.9%      ai_node_2
2025-02-18 16:48:28,776 [INFO] CmdLine:67 -    3       3      EltwiseInt (0x114)        0.156      1.4%      ai_node_3
2025-02-18 16:48:28,776 [INFO] CmdLine:67 -    4       5      Conv2dPool (0x109)        2.110     19.2%      ai_node_4
2025-02-18 16:48:28,776 [INFO] CmdLine:67 -    5       6      Conv2D (0x103)            0.505      4.6%      ai_node_5
2025-02-18 16:48:28,776 [INFO] CmdLine:67 -    6       7      Conv2D (0x103)            0.516      4.7%      ai_node_6
2025-02-18 16:48:28,776 [INFO] CmdLine:67 -    7       8      EltwiseInt (0x114)        0.006      0.1%      ai_node_7
2025-02-18 16:48:28,776 [INFO] CmdLine:67 -    8       10     Conv2dPool (0x109)        1.120     10.2%      ai_node_8
2025-02-18 16:48:28,776 [INFO] CmdLine:67 -    9       11     Conv2D (0x103)            0.722      6.6%      ai_node_9
2025-02-18 16:48:28,776 [INFO] CmdLine:67 -    10      12     Conv2D (0x103)            0.784      7.1%      ai_node_10
2025-02-18 16:48:28,776 [INFO] CmdLine:67 -    11      13     EltwiseInt (0x114)        0.028      0.3%      ai_node_11
2025-02-18 16:48:28,776 [INFO] CmdLine:67 -    12      14     Pool (0x10b)              0.008      0.1%      ai_node_12
2025-02-18 16:48:28,776 [INFO] CmdLine:67 -    13      16     Conv2dPool (0x109)        0.487      4.4%      ai_node_13
2025-02-18 16:48:28,776 [INFO] CmdLine:67 -    14      17     Conv2D (0x103)            0.126      1.2%      ai_node_14
2025-02-18 16:48:28,776 [INFO] CmdLine:67 -    15      18     Conv2D (0x103)            0.164      1.5%      ai_node_15
2025-02-18 16:48:28,776 [INFO] CmdLine:67 -    16      19     Pool (0x10b)              0.002      0.0%      ai_node_16
2025-02-18 16:48:28,776 [INFO] CmdLine:67 -    17      20     Conv2D (0x103)            0.313      2.8%      ai_node_17
2025-02-18 16:48:28,776 [INFO] CmdLine:67 -    18      21     Conv2D (0x103)            0.016      0.1%      ai_node_18
2025-02-18 16:48:28,776 [INFO] CmdLine:67 -    ---------------------------------------------------------------------------
2025-02-18 16:48:28,776 [INFO] CmdLine:67 -    total                                   10.965
2025-02-18 16:48:28,795 [INFO] CmdLine:67 -    ---------------------------------------------------------------------------
2025-02-18 16:48:28,795 [INFO] CmdLine:67 -    Statistic per tensor
2025-02-18 16:48:28,795 [INFO] CmdLine:67 -    ----------------------------------------------------------------------
2025-02-18 16:48:28,795 [INFO] CmdLine:67 -    tensor   shape/type            min   max     mean      std name
2025-02-18 16:48:28,795 [INFO] CmdLine:67 -    ----------------------------------------------------------------------
2025-02-18 16:48:28,798 [INFO] CmdLine:67 -    I.0      (1,32,32,3)/int8     -128   127   -0.576   73.452 input_1
2025-02-18 16:48:28,798 [INFO] CmdLine:67 -    O.0      (1,1,1,100)/int8     -128   127    0.522   52.684 output_1
2025-02-18 16:48:28,799 [INFO] CmdLine:67 -    ----------------------------------------------------------------------
2025-02-18 16:48:29,065 [INFO] CmdLine:67 - Running the TFlite model...
2025-02-18 16:48:29,096 [ERROR] CmdLine:53 - INFO: Created TensorFlow Lite XNNPACK delegate for CPU.
2025-02-18 16:48:29,149 [INFO] CmdLine:67 - Saving validation data...
2025-02-18 16:48:29,149 [INFO] CmdLine:67 -  output directory: C:\Users\yh621\.stm32cubemx\network_output
2025-02-18 16:48:29,165 [INFO] CmdLine:67 -  creating C:\Users\yh621\.stm32cubemx\network_output\network_val_io.npz
2025-02-18 16:48:29,165 [INFO] CmdLine:67 -  m_outputs_1: (10, 1, 1, 100)/int8, min/max=[-128, 127], mean/std=[0.522, 52.684], conv2d_21
2025-02-18 16:48:29,165 [INFO] CmdLine:67 -  c_outputs_1: (10, 1, 1, 100)/int8, min/max=[-128, 127], mean/std=[0.522, 52.684], scale=0.00050211 zp=2, conv2d_21
2025-02-18 16:48:29,197 [INFO] CmdLine:67 - Computing the metrics...
2025-02-18 16:48:29,197 [INFO] CmdLine:67 -  Cross accuracy report #1 (reference vs C-model)
2025-02-18 16:48:29,197 [INFO] CmdLine:67 -  ----------------------------------------------------------------------------------------------------
2025-02-18 16:48:29,197 [INFO] CmdLine:67 -  notes: - r/int8 data are dequantized with s=0.000502 zp=2
2025-02-18 16:48:29,197 [INFO] CmdLine:67 -         - p/int8 data are dequantized with s=0.000502 zp=2
2025-02-18 16:48:29,197 [INFO] CmdLine:67 -         - ACC metric is not computed ("--classifier" option can be used to force it)
2025-02-18 16:48:29,197 [INFO] CmdLine:67 -         - the output of the reference model is used as ground truth/reference value
2025-02-18 16:48:29,197 [INFO] CmdLine:67 -         - 10 samples (100 items per sample)
2025-02-18 16:48:29,197 [INFO] CmdLine:67 -   acc=n.a., rmse=0.000000000, mae=0.000000000, l2r=0.000000000, nse=100.00%
2025-02-18 16:48:29,233 [INFO] CmdLine:67 -  Evaluation report (summary)
2025-02-18 16:48:29,233 [INFO] CmdLine:67 -  ---------------------------------------------------------------------------------------------------------------------------------------------------
2025-02-18 16:48:29,249 [INFO] CmdLine:67 -  Output       acc    rmse        mae         l2r         mean        std         nse         cos         tensor
2025-02-18 16:48:29,249 [INFO] CmdLine:67 -  ---------------------------------------------------------------------------------------------------------------------------------------------------
2025-02-18 16:48:29,249 [INFO] CmdLine:67 -  X-cross #1   n.a.   0.0000000   0.0000000   0.0000000   0.0000000   0.0000000   1.0000000   1.0000001   conv2d_21, ai_i8, (1,1,1,100), m_id=[21]
2025-02-18 16:48:29,249 [INFO] CmdLine:67 -  ---------------------------------------------------------------------------------------------------------------------------------------------------
2025-02-18 16:48:29,249 [INFO] CmdLine:67 -   acc  : Classification accuracy (all classes)
2025-02-18 16:48:29,249 [INFO] CmdLine:67 -   rmse : Root Mean Squared Error
2025-02-18 16:48:29,249 [INFO] CmdLine:67 -   mae  : Mean Absolute Error
2025-02-18 16:48:29,249 [INFO] CmdLine:67 -   l2r  : L2 relative error
2025-02-18 16:48:29,249 [INFO] CmdLine:67 -   nse  : Nash-Sutcliffe efficiency criteria
2025-02-18 16:48:29,249 [INFO] CmdLine:67 -   cos  : COsine Similarity
2025-02-18 16:48:29,249 [INFO] CmdLine:67 - Creating txt report file C:\Users\yh621\.stm32cubemx\network_output\network_validate_report.txt
2025-02-18 16:48:29,496 [INFO] CmdLine:67 - elapsed time (validate): 5.936s
2025-02-18 16:48:30,064 [INFO] CmdLine:132 - stm32ai exit with status: 0
2025-02-18 16:48:30,082 [INFO] AInterface:594 - Successfully load: network
2025-02-18 16:48:30,147 [INFO] AIModelDetailledView:2491 - Validation ended
2025-02-18 16:48:38,022 [INFO] UtilMem:74 - End SaveConfig() Used Memory: 1010375544 Bytes (1073741824)
2025-02-18 16:48:38,338 [INFO] AI:946 - getUI adding AI com.st.microxplorer.plugins.ip.ai.AI@4cb3d19d on STMicroelectronics.X-CUBE-AI.8.0.1
2025-02-18 16:48:38,338 [INFO] Middleware:501 - instanceName : STMicroelectronics.X-CUBE-AI.8.0.1 bspName : COM Port check condition success for : !SEMDeviceJjApplicationJjApplicationTemplate
2025-02-18 16:48:38,338 [INFO] Middleware:501 - instanceName : STMicroelectronics.X-CUBE-AI.8.0.1 bspName : COM Port check condition success for : !SEMDeviceJjApplicationJjApplicationTemplate
2025-02-18 16:48:38,339 [INFO] Middleware:501 - instanceName : STMicroelectronics.X-CUBE-AI.8.0.1 bspName : COM Port check condition success for : !SEMDeviceJjApplicationJjApplicationTemplate
2025-02-18 16:48:38,662 [INFO] AIModelDetailledView:2080 - Analysis status: -
2025-02-18 16:48:38,662 [INFO] AInterface:235 - ModelName:network; files:[F:\verified_model\resnet_full_integer_quant.tflite]; type:TFLite; compression:None
2025-02-18 16:48:38,662 [INFO] AInterface:506 - workspaceTempDir: C:\Users\yh621\AppData\Local\Temp\mxAI_workspace34464828036001001437333832271582
2025-02-18 16:48:38,662 [INFO] AInterface:1042 - Setting Env: C:/Users/yh621/STM32Cube/Repository/Packs/STMicroelectronics/X-CUBE-AI/8.0.1/Utilities/windows
2025-02-18 16:48:38,839 [INFO] STM32CubeIDEBuilder:257 - Looking for gnu-tools-for-stm32 tools/bin/arm-none-eabi-gcc.exe in D:\STM32CubeIDE_1.6.1\STM32CubeIDE
2025-02-18 16:48:38,857 [INFO] STM32CubeIDEBuilder:283 - checking D:\STM32CubeIDE_1.6.1\STM32CubeIDE\plugins\com.st.stm32cube.ide.mcu.externaltools.gnu-tools-for-stm32.9-2020-q2-update.win32_1.5.0.202011040924\tools\bin\arm-none-eabi-gcc.exe
2025-02-18 16:48:38,857 [INFO] STM32CubeIDEBuilder:286 - ret=D:\STM32CubeIDE_1.6.1\STM32CubeIDE\plugins\com.st.stm32cube.ide.mcu.externaltools.gnu-tools-for-stm32.9-2020-q2-update.win32_1.5.0.202011040924\tools\bin\arm-none-eabi-gcc.exe
2025-02-18 16:48:38,857 [INFO] STM32CubeIDEBuilder:300 - returning D:\STM32CubeIDE_1.6.1\STM32CubeIDE\plugins\com.st.stm32cube.ide.mcu.externaltools.gnu-tools-for-stm32.9-2020-q2-update.win32_1.5.0.202011040924\tools\bin\arm-none-eabi-gcc.exe
2025-02-18 16:48:38,857 [INFO] AInterface:1099 - Custom PATH variable: C:/Users/yh621/STM32Cube/Repository/Packs/STMicroelectronics/X-CUBE-AI/8.0.1/Utilities/windows;C:/Users/yh621/STM32Cube/Repository/Packs/STMicroelectronics/X-CUBE-AI/8.0.1/Utilities/windows/mingw64/bin;C:/Users/yh621/STM32Cube/Repository/Packs/STMicroelectronics/X-CUBE-AI/8.0.1/Utilities/windows/mingw64/libexec/gcc/x86_64-w64-mingw32/7.3.0;C:/Users/yh621/STM32Cube/Repository/Packs/STMicroelectronics/X-CUBE-AI/8.0.1/Utilities/windows/node/bin;D:\STM32CubeIDE_1.6.1\STM32CubeIDE\plugins\com.st.stm32cube.ide.mcu.externaltools.gnu-tools-for-stm32.9-2020-q2-update.win32_1.5.0.202011040924\tools\bin
2025-02-18 16:48:38,857 [INFO] CmdLine:100 - Command: C:/Users/yh621/STM32Cube/Repository/Packs/STMicroelectronics/X-CUBE-AI/8.0.1/Utilities/windows/stm32ai analyze --name network -m F:/verified_model/resnet_full_integer_quant.tflite --type tflite --compression none --verbosity 1 --workspace C:\Users\yh621\AppData\Local\Temp\mxAI_workspace34464828036001001437333832271582 --output C:\Users\yh621\.stm32cubemx\network_output --allocate-inputs --series stm32h7 --allocate-outputs 
2025-02-18 16:48:38,857 [INFO] AIModelDetailledView:2080 - Analysis status: pending
2025-02-18 16:48:44,050 [INFO] CmdLine:67 - Neural Network Tools for STM32AI v1.7.0 (STM.ai v8.0.1-19451)
2025-02-18 16:48:45,291 [INFO] CmdLine:67 - Applied 1 of 1 optimizations
2025-02-18 16:48:45,781 [INFO] CmdLine:67 -  
2025-02-18 16:48:45,781 [INFO] CmdLine:67 -  Exec/report summary (analyze)
2025-02-18 16:48:45,781 [INFO] CmdLine:67 -  ----------------------------------------------------------------------------------------------------------
2025-02-18 16:48:45,781 [INFO] CmdLine:67 -  model file         :   F:\verified_model\resnet_full_integer_quant.tflite                                 
2025-02-18 16:48:45,781 [INFO] CmdLine:67 -  type               :   tflite                                                                             
2025-02-18 16:48:45,781 [INFO] CmdLine:67 -  c_name             :   network                                                                            
2025-02-18 16:48:45,781 [INFO] CmdLine:67 -  compression        :   none                                                                               
2025-02-18 16:48:45,781 [INFO] CmdLine:67 -  options            :   allocate-inputs, allocate-outputs                                                  
2025-02-18 16:48:45,781 [INFO] CmdLine:67 -  optimization       :   balanced                                                                           
2025-02-18 16:48:45,781 [INFO] CmdLine:67 -  target/series      :   stm32h7                                                                            
2025-02-18 16:48:45,781 [INFO] CmdLine:67 -  workspace dir      :   C:\Users\yh621\AppData\Local\Temp\mxAI_workspace34464828036001001437333832271582   
2025-02-18 16:48:45,781 [INFO] CmdLine:67 -  output dir         :   C:\Users\yh621\.stm32cubemx\network_output                                         
2025-02-18 16:48:45,781 [INFO] CmdLine:67 -  model_fmt          :   ss/sa                                                                              
2025-02-18 16:48:45,781 [INFO] CmdLine:67 -  model_name         :   resnet_full_integer_quant                                                          
2025-02-18 16:48:45,781 [INFO] CmdLine:67 -  model_hash         :   522b6be4191c52718ac2c07fcd02b8ff                                                   
…
2025-02-18 16:48:47,066 [INFO] CmdLine:67 -  m_id   layer (original)            oshape                 param/size               macc             connected to
2025-02-18 16:48:47,066 [INFO] CmdLine:67 -  ------ --------------------------- ---------------------- ----------------- ----------- ------------------------
2025-02-18 16:48:47,066 [INFO] CmdLine:67 -  0      serving_default_input0 ()   [b:1,h:32,w:32,c:3]
2025-02-18 16:48:47,066 [INFO] CmdLine:67 -         conv2d_0 (CONV_2D)          [b:1,h:32,w:32,c:16]   448/496               442,384   serving_default_input0
2025-02-18 16:48:47,066 [INFO] CmdLine:67 -         nl_0_nl (CONV_2D)           [b:1,h:32,w:32,c:16]                          16,384                 conv2d_0
2025-02-18 16:48:47,066 [INFO] CmdLine:67 -  ------ --------------------------- ---------------------- ----------------- ----------- ------------------------
2025-02-18 16:48:47,066 [INFO] CmdLine:67 -  1      conv2d_1 (CONV_2D)          [b:1,h:32,w:32,c:20]   2,900/2,960         2,949,140                  nl_0_nl
2025-02-18 16:48:47,066 [INFO] CmdLine:67 -         nl_1_nl (CONV_2D)           [b:1,h:32,w:32,c:20]                          20,480                 conv2d_1
2025-02-18 16:48:47,066 [INFO] CmdLine:67 -  ------ --------------------------- ---------------------- ----------------- ----------- ------------------------
2025-02-18 16:48:47,066 [INFO] CmdLine:67 -  2      conv2d_2 (CONV_2D)          [b:1,h:32,w:32,c:20]   3,620/3,680         3,686,420                  nl_1_nl
2025-02-18 16:48:47,066 [INFO] CmdLine:67 -         nl_2_nl (CONV_2D)           [b:1,h:32,w:32,c:20]                          20,480                 conv2d_2
2025-02-18 16:48:47,066 [INFO] CmdLine:67 -  ------ --------------------------- ---------------------- ----------------- ----------- ------------------------
2025-02-18 16:48:47,066 [INFO] CmdLine:67 -  3      eltwise_3 (ADD)             [b:1,h:32,w:32,c:20]                          20,480                  nl_2_nl
2025-02-18 16:48:47,066 [INFO] CmdLine:67 -                                                                                                           nl_1_nl
2025-02-18 16:48:47,066 [INFO] CmdLine:67 -  ------ --------------------------- ---------------------- ----------------- ----------- ------------------------
2025-02-18 16:48:47,066 [INFO] CmdLine:67 -  4      conv2d_4 (CONV_2D)          [b:1,h:32,w:32,c:20]   3,620/3,680         3,686,420                eltwise_3
2025-02-18 16:48:47,066 [INFO] CmdLine:67 -         nl_4_nl (CONV_2D)           [b:1,h:32,w:32,c:20]                          20,480                 conv2d_4
2025-02-18 16:48:47,066 [INFO] CmdLine:67 -  ------ --------------------------- ---------------------- ----------------- ----------- ------------------------
2025-02-18 16:48:47,066 [INFO] CmdLine:67 -  5      pool_5 (MAX_POOL_2D)        [b:1,h:16,w:16,c:20]                          20,480                  nl_4_nl
2025-02-18 16:48:47,066 [INFO] CmdLine:67 -  ------ --------------------------- ---------------------- ----------------- ----------- ------------------------
2025-02-18 16:48:47,066 [INFO] CmdLine:67 -  6      conv2d_6 (CONV_2D)          [b:1,h:16,w:16,c:20]   3,620/3,680           921,620                   pool_5
2025-02-18 16:48:47,066 [INFO] CmdLine:67 -         nl_6_nl (CONV_2D)           [b:1,h:16,w:16,c:20]                           5,120                 conv2d_6
2025-02-18 16:48:47,066 [INFO] CmdLine:67 -  ------ --------------------------- ---------------------- ----------------- ----------- ------------------------
2025-02-18 16:48:47,066 [INFO] CmdLine:67 -  7      conv2d_7 (CONV_2D)          [b:1,h:16,w:16,c:20]   3,620/3,680           921,620                  nl_6_nl
2025-02-18 16:48:47,066 [INFO] CmdLine:67 -         nl_7_nl (CONV_2D)           [b:1,h:16,w:16,c:20]                           5,120                 conv2d_7
2025-02-18 16:48:47,066 [INFO] CmdLine:67 -  ------ --------------------------- ---------------------- ----------------- ----------- ------------------------
2025-02-18 16:48:47,066 [INFO] CmdLine:67 -  8      eltwise_8 (ADD)             [b:1,h:16,w:16,c:20]                           5,120                  nl_7_nl
2025-02-18 16:48:47,066 [INFO] CmdLine:67 -                                                                                                           nl_6_nl
2025-02-18 16:48:47,066 [INFO] CmdLine:67 -  ------ --------------------------- ---------------------- ----------------- ----------- ------------------------
2025-02-18 16:48:47,066 [INFO] CmdLine:67 -  9      conv2d_9 (CONV_2D)          [b:1,h:16,w:16,c:44]   7,964/8,096         2,027,564                eltwise_8
2025-02-18 16:48:47,066 [INFO] CmdLine:67 -         nl_9_nl (CONV_2D)           [b:1,h:16,w:16,c:44]                          11,264                 conv2d_9
2025-02-18 16:48:47,066 [INFO] CmdLine:67 -  ------ --------------------------- ---------------------- ----------------- ----------- ------------------------
2025-02-18 16:48:47,066 [INFO] CmdLine:67 -  10     pool_10 (MAX_POOL_2D)       [b:1,h:8,w:8,c:44]                            11,264                  nl_9_nl
2025-02-18 16:48:47,066 [INFO] CmdLine:67 -  ------ --------------------------- ---------------------- ----------------- ----------- ------------------------
2025-02-18 16:48:47,066 [INFO] CmdLine:67 -  11     conv2d_11 (CONV_2D)         [b:1,h:8,w:8,c:48]     19,056/19,200       1,216,560                  pool_10
2025-02-18 16:48:47,066 [INFO] CmdLine:67 -         nl_11_nl (CONV_2D)          [b:1,h:8,w:8,c:48]                             3,072                conv2d_11
2025-02-18 16:48:47,066 [INFO] CmdLine:67 -  ------ --------------------------- ---------------------- ----------------- ----------- ------------------------
2025-02-18 16:48:47,066 [INFO] CmdLine:67 -  12     conv2d_12 (CONV_2D)         [b:1,h:8,w:8,c:48]     20,784/20,928       1,327,152                 nl_11_nl
2025-02-18 16:48:47,066 [INFO] CmdLine:67 -         nl_12_nl (CONV_2D)          [b:1,h:8,w:8,c:48]                             3,072                conv2d_12
2025-02-18 16:48:47,066 [INFO] CmdLine:67 -  ------ --------------------------- ---------------------- ----------------- ----------- ------------------------
2025-02-18 16:48:47,066 [INFO] CmdLine:67 -  13     eltwise_13 (ADD)            [b:1,h:8,w:8,c:48]                             3,072                 nl_12_nl
2025-02-18 16:48:47,066 [INFO] CmdLine:67 -                                                                                                          nl_11_nl
2025-02-18 16:48:47,066 [INFO] CmdLine:67 -  ------ --------------------------- ---------------------- ----------------- ----------- ------------------------
2025-02-18 16:48:47,066 [INFO] CmdLine:67 -  14     pool_14 (MAX_POOL_2D)       [b:1,h:4,w:4,c:48]                             3,072               eltwise_13
2025-02-18 16:48:47,066 [INFO] CmdLine:67 -  ------ --------------------------- ---------------------- ----------------- ----------- ------------------------
2025-02-18 16:48:47,066 [INFO] CmdLine:67 -  15     conv2d_15 (CONV_2D)         [b:1,h:4,w:4,c:96]     41,568/41,856         663,648                  pool_14
2025-02-18 16:48:47,066 [INFO] CmdLine:67 -         nl_15_nl (CONV_2D)          [b:1,h:4,w:4,c:96]                             1,536                conv2d_15
2025-02-18 16:48:47,066 [INFO] CmdLine:67 -  ------ --------------------------- ---------------------- ----------------- ----------- ------------------------
2025-02-18 16:48:47,066 [INFO] CmdLine:67 -  16     pool_16 (MAX_POOL_2D)       [b:1,h:2,w:2,c:96]                             1,536                 nl_15_nl
2025-02-18 16:48:47,066 [INFO] CmdLine:67 -  ------ --------------------------- ---------------------- ----------------- ----------- ------------------------
2025-02-18 16:48:47,082 [INFO] CmdLine:67 -  17     conv2d_17 (CONV_2D)         [b:1,h:2,w:2,c:512]    49,664/51,200         197,120                  pool_16
2025-02-18 16:48:47,082 [INFO] CmdLine:67 -         nl_17_nl (CONV_2D)          [b:1,h:2,w:2,c:512]                            2,048                conv2d_17
2025-02-18 16:48:47,082 [INFO] CmdLine:67 -  ------ --------------------------- ---------------------- ----------------- ----------- ------------------------
2025-02-18 16:48:47,082 [INFO] CmdLine:67 -  18     conv2d_18 (CONV_2D)         [b:1,h:2,w:2,c:128]    65,664/66,048         262,272                 nl_17_nl
2025-02-18 16:48:47,082 [INFO] CmdLine:67 -         nl_18_nl (CONV_2D)          [b:1,h:2,w:2,c:128]                              512                conv2d_18
2025-02-18 16:48:47,082 [INFO] CmdLine:67 -  ------ --------------------------- ---------------------- ----------------- ----------- ------------------------
2025-02-18 16:48:47,082 [INFO] CmdLine:67 -  19     pool_19 (MAX_POOL_2D)       [b:1,h:1,w:1,c:128]                              512                 nl_18_nl
2025-02-18 16:48:47,082 [INFO] CmdLine:67 -  ------ --------------------------- ---------------------- ----------------- ----------- ------------------------
2025-02-18 16:48:47,082 [INFO] CmdLine:67 -  20     conv2d_20 (CONV_2D)         [b:1,h:1,w:1,c:128]    147,584/147,968       147,584                  pool_19
2025-02-18 16:48:47,082 [INFO] CmdLine:67 -         nl_20_nl (CONV_2D)          [b:1,h:1,w:1,c:128]                              128                conv2d_20
2025-02-18 16:48:47,082 [INFO] CmdLine:67 -  ------ --------------------------- ---------------------- ----------------- ----------- ------------------------
2025-02-18 16:48:47,082 [INFO] CmdLine:67 -  21     conv2d_21 (CONV_2D)         [b:1,h:1,w:1,c:100]    12,900/13,200          12,900                 nl_20_nl
2025-02-18 16:48:47,082 [INFO] CmdLine:67 -  ------ --------------------------- ---------------------- ----------------- ----------- ------------------------
2025-02-18 16:48:47,082 [INFO] CmdLine:67 -  22     reshape_22 (RESHAPE)        [b:1,c:100]                                                         conv2d_21
2025-02-18 16:48:47,082 [INFO] CmdLine:67 -  ------ --------------------------- ---------------------- ----------------- ----------- ------------------------
2025-02-18 16:48:47,082 [INFO] CmdLine:67 -  model/c-model: macc=18,637,636/18,527,940 -109,696(-0.6%) weights=386,672/386,672  activations=--/46,880 io=--/0
2025-02-18 16:48:47,082 [INFO] CmdLine:67 -  Number of operations per c-layer
2025-02-18 16:48:47,082 [INFO] CmdLine:67 -  ------- ------ ------------------------------ ------------ ------------
2025-02-18 16:48:47,082 [INFO] CmdLine:67 -  c_id    m_id   name (type)                             #op         type
2025-02-18 16:48:47,082 [INFO] CmdLine:67 -  ------- ------ ------------------------------ ------------ ------------
2025-02-18 16:48:47,082 [INFO] CmdLine:67 -  0       0      conv2d_0 (conv2d)                   442,384   smul_s8_s8
2025-02-18 16:48:47,082 [INFO] CmdLine:67 -  1       1      conv2d_1 (conv2d)                 2,949,140   smul_s8_s8
2025-02-18 16:48:47,082 [INFO] CmdLine:67 -  2       2      conv2d_2 (conv2d)                 3,686,420   smul_s8_s8
2025-02-18 16:48:47,082 [INFO] CmdLine:67 -  3       3      eltwise_3 (eltwise_integer)          20,480   smul_s8_s8
2025-02-18 16:48:47,082 [INFO] CmdLine:67 -  4       5      conv2d_4 (optimized_conv2d)       3,706,900   smul_s8_s8
2025-02-18 16:48:47,082 [INFO] CmdLine:67 -  5       6      conv2d_6 (conv2d)                   921,620   smul_s8_s8
2025-02-18 16:48:47,082 [INFO] CmdLine:67 -  6       7      conv2d_7 (conv2d)                   921,620   smul_s8_s8
2025-02-18 16:48:47,082 [INFO] CmdLine:67 -  7       8      eltwise_8 (eltwise_integer)           5,120   smul_s8_s8
2025-02-18 16:48:47,082 [INFO] CmdLine:67 -  8       10     conv2d_9 (optimized_conv2d)       2,038,828   smul_s8_s8
2025-02-18 16:48:47,082 [INFO] CmdLine:67 -  9       11     conv2d_11 (conv2d)                1,216,560   smul_s8_s8
2025-02-18 16:48:47,082 [INFO] CmdLine:67 -  10      12     conv2d_12 (conv2d)                1,327,152   smul_s8_s8
2025-02-18 16:48:47,082 [INFO] CmdLine:67 -  11      13     eltwise_13 (eltwise_integer)          3,072   smul_s8_s8
2025-02-18 16:48:47,082 [INFO] CmdLine:67 -  12      14     pool_14 (pool)                        3,072     op_s8_s8
2025-02-18 16:48:47,082 [INFO] CmdLine:67 -  13      16     conv2d_15 (optimized_conv2d)        665,184   smul_s8_s8
2025-02-18 16:48:47,082 [INFO] CmdLine:67 -  14      17     conv2d_17 (conv2d)                  197,120   smul_s8_s8
2025-02-18 16:48:47,082 [INFO] CmdLine:67 -  15      18     conv2d_18 (conv2d)                  262,272   smul_s8_s8
2025-02-18 16:48:47,082 [INFO] CmdLine:67 -  16      19     pool_19 (pool)                          512     op_s8_s8
2025-02-18 16:48:47,082 [INFO] CmdLine:67 -  17      20     conv2d_20 (conv2d)                  147,584   smul_s8_s8
2025-02-18 16:48:47,082 [INFO] CmdLine:67 -  18      21     conv2d_21 (conv2d)                   12,900   smul_s8_s8
2025-02-18 16:48:47,082 [INFO] CmdLine:67 -  ------- ------ ------------------------------ ------------ ------------
2025-02-18 16:48:47,082 [INFO] CmdLine:67 -  total                                           18,527,940
2025-02-18 16:48:47,082 [INFO] CmdLine:67 -  Number of operation types
2025-02-18 16:48:47,082 [INFO] CmdLine:67 -  ---------------- ------------ -----------
2025-02-18 16:48:47,082 [INFO] CmdLine:67 -  operation type              #           %
2025-02-18 16:48:47,082 [INFO] CmdLine:67 -  ---------------- ------------ -----------
2025-02-18 16:48:47,082 [INFO] CmdLine:67 -  smul_s8_s8         18,524,356      100.0%
2025-02-18 16:48:47,082 [INFO] CmdLine:67 -  op_s8_s8                3,584        0.0%
2025-02-18 16:48:47,082 [INFO] CmdLine:67 -  Complexity report (model)
2025-02-18 16:48:47,082 [INFO] CmdLine:67 -  ------ ------------------------ ------------------------- ------------------------- ------
2025-02-18 16:48:47,082 [INFO] CmdLine:67 -  m_id   name                     c_macc                    c_rom                     c_id
2025-02-18 16:48:47,082 [INFO] CmdLine:67 -  ------ ------------------------ ------------------------- ------------------------- ------
2025-02-18 16:48:47,082 [INFO] CmdLine:67 -  0      serving_default_input0   ||                 2.4%   |                  0.1%   [0]
2025-02-18 16:48:47,082 [INFO] CmdLine:67 -  1      conv2d_1                 ||||||||||||      15.9%   |                  0.8%   [1]
2025-02-18 16:48:47,082 [INFO] CmdLine:67 -  2      conv2d_2                 |||||||||||||||   19.9%   |                  1.0%   [2]
2025-02-18 16:48:47,082 [INFO] CmdLine:67 -  3      eltwise_3                |                  0.1%   |                  0.0%   [3]
2025-02-18 16:48:47,082 [INFO] CmdLine:67 -  5      pool_5                   ||||||||||||||||  20.0%   |                  1.0%   [4]
2025-02-18 16:48:47,082 [INFO] CmdLine:67 -  6      conv2d_6                 ||||               5.0%   |                  1.0%   [5]
2025-02-18 16:48:47,082 [INFO] CmdLine:67 -  7      conv2d_7                 ||||               5.0%   |                  1.0%   [6]
2025-02-18 16:48:47,082 [INFO] CmdLine:67 -  8      eltwise_8                |                  0.0%   |                  0.0%   [7]
2025-02-18 16:48:47,082 [INFO] CmdLine:67 -  10     pool_10                  |||||||||         11.0%   |                  2.1%   [8]
2025-02-18 16:48:47,082 [INFO] CmdLine:67 -  11     conv2d_11                |||||              6.6%   ||                 5.0%   [9]
2025-02-18 16:48:47,082 [INFO] CmdLine:67 -  12     conv2d_12                ||||||             7.2%   |||                5.4%   [10]
2025-02-18 16:48:47,092 [INFO] CmdLine:67 -  13     eltwise_13               |                  0.0%   |                  0.0%   [11]
2025-02-18 16:48:47,092 [INFO] CmdLine:67 -  14     pool_14                  |                  0.0%   |                  0.0%   [12]
2025-02-18 16:48:47,092 [INFO] CmdLine:67 -  16     pool_16                  |||                3.6%   |||||             10.8%   [13]
2025-02-18 16:48:47,092 [INFO] CmdLine:67 -  17     conv2d_17                |                  1.1%   ||||||            13.2%   [14]
2025-02-18 16:48:47,092 [INFO] CmdLine:67 -  18     conv2d_18                ||                 1.4%   |||||||           17.1%   [15]
2025-02-18 16:48:47,092 [INFO] CmdLine:67 -  19     pool_19                  |                  0.0%   |                  0.0%   [16]
2025-02-18 16:48:47,092 [INFO] CmdLine:67 -  20     conv2d_20                |                  0.8%   ||||||||||||||||  38.3%   [17]
2025-02-18 16:48:47,092 [INFO] CmdLine:67 -  21     conv2d_21                |                  0.1%   ||                 3.4%   [18]
2025-02-18 16:48:47,092 [INFO] CmdLine:67 -  ------ ------------------------ ------------------------- ------------------------- ------
2025-02-18 16:48:47,092 [INFO] CmdLine:67 -  macc=18,527,940 weights=386,672 act=46,880 ram_io=0
2025-02-18 16:48:47,092 [INFO] CmdLine:67 -  Requested memory size per segment ("stm32h7" series)
2025-02-18 16:48:47,092 [INFO] CmdLine:67 -  ----------------------------- -------- --------- ------- --------
2025-02-18 16:48:47,092 [INFO] CmdLine:67 -  module                            text    rodata    data      bss
2025-02-18 16:48:47,092 [INFO] CmdLine:67 -  ----------------------------- -------- --------- ------- --------
2025-02-18 16:48:47,092 [INFO] CmdLine:67 -  NetworkRuntime801_CM7_GCC.a     32,880         0       0        0
2025-02-18 16:48:47,092 [INFO] CmdLine:67 -  network.o                        1,540       929   7,848      280
2025-02-18 16:48:47,092 [INFO] CmdLine:67 -  network_data.o                      52        16      88        0
2025-02-18 16:48:47,092 [INFO] CmdLine:67 -  lib (toolchain)*                   104         0       0        0
2025-02-18 16:48:47,092 [INFO] CmdLine:67 -  ----------------------------- -------- --------- ------- --------
2025-02-18 16:48:47,092 [INFO] CmdLine:67 -  RT total**                      34,576       945   7,936      280
2025-02-18 16:48:47,092 [INFO] CmdLine:67 -  ----------------------------- -------- --------- ------- --------
2025-02-18 16:48:47,092 [INFO] CmdLine:67 -  *weights*                            0   386,672       0        0
2025-02-18 16:48:47,092 [INFO] CmdLine:67 -  *activations*                        0         0       0   46,880
2025-02-18 16:48:47,092 [INFO] CmdLine:67 -  *io*                                 0         0       0        0
2025-02-18 16:48:47,092 [INFO] CmdLine:67 -  ----------------------------- -------- --------- ------- --------
2025-02-18 16:48:47,092 [INFO] CmdLine:67 -  TOTAL                           34,576   387,617   7,936   47,160
2025-02-18 16:48:47,092 [INFO] CmdLine:67 -  ----------------------------- -------- --------- ------- --------
2025-02-18 16:48:47,092 [INFO] CmdLine:67 -  *  toolchain objects (libm/libgcc*)
2025-02-18 16:48:47,092 [INFO] CmdLine:67 -  ** RT - AI runtime objects (kernels+infrastructure)
2025-02-18 16:48:47,092 [INFO] CmdLine:67 -   Summary per memory device type
2025-02-18 16:48:47,092 [INFO] CmdLine:67 -   ----------------------------------------------
2025-02-18 16:48:47,092 [INFO] CmdLine:67 -   .\device       FLASH       %      RAM       %
2025-02-18 16:48:47,092 [INFO] CmdLine:67 -   ----------------------------------------------
2025-02-18 16:48:47,092 [INFO] CmdLine:67 -   RT total      43,457   10.1%    8,216   14.9%
2025-02-18 16:48:47,092 [INFO] CmdLine:67 -   ----------------------------------------------
2025-02-18 16:48:47,092 [INFO] CmdLine:67 -   TOTAL        430,129           55,096
2025-02-18 16:48:47,092 [INFO] CmdLine:67 -   ----------------------------------------------
2025-02-18 16:48:47,092 [INFO] CmdLine:67 - Creating txt report file C:\Users\yh621\.stm32cubemx\network_output\network_analyze_report.txt
2025-02-18 16:48:47,139 [INFO] CmdLine:67 - elapsed time (analyze): 3.088s
2025-02-18 16:48:47,569 [INFO] CmdLine:132 - stm32ai exit with status: 0
2025-02-18 16:48:47,587 [INFO] AInterface:594 - Successfully load: network
2025-02-18 16:48:47,603 [INFO] AIModelDetailledView:2409 - Analyze complete on AI model
2025-02-18 16:48:47,616 [INFO] AIModelDetailledView:2080 - Analysis status: done
2025-02-18 16:48:58,359 [ERROR] LogOutputStream:74 - [STDERR_REDIRECT] Exception in thread "AWT-EventQueue-0" java.util.ConcurrentModificationException
2025-02-18 16:48:58,359 [ERROR] LogOutputStream:74 - [STDERR_REDIRECT] 	at java.base/java.util.LinkedHashMap$LinkedHashIterator.nextNode(Unknown Source)
2025-02-18 16:48:58,359 [ERROR] LogOutputStream:74 - [STDERR_REDIRECT] 	at java.base/java.util.LinkedHashMap$LinkedKeyIterator.next(Unknown Source)
2025-02-18 16:48:58,359 [ERROR] LogOutputStream:74 - [STDERR_REDIRECT] 	at com.st.microxplorer.mcu.IP.getParameterValue(IP.java:3158)
2025-02-18 16:48:58,359 [ERROR] LogOutputStream:74 - [STDERR_REDIRECT] 	at com.st.microxplorer.mcu.IP.getParameterValue(IP.java:3110)
2025-02-18 16:48:58,359 [ERROR] LogOutputStream:74 - [STDERR_REDIRECT] 	at com.st.microxplorer.plugins.clock.model.clocktree.Element.isEnabled(Element.java:802)
2025-02-18 16:48:58,359 [ERROR] LogOutputStream:74 - [STDERR_REDIRECT] 	at com.st.microxplorer.plugins.clock.model.ClockTree.updateElementsState(ClockTree.java:351)
2025-02-18 16:48:58,359 [ERROR] LogOutputStream:74 - [STDERR_REDIRECT] 	at com.st.microxplorer.plugins.clock.ClockConfigurationView.clockRefresh(ClockConfigurationView.java:442)
2025-02-18 16:48:58,359 [ERROR] LogOutputStream:74 - [STDERR_REDIRECT] 	at com.st.microxplorer.plugins.clock.ClockConfigurationView.activatePlugin(ClockConfigurationView.java:384)
2025-02-18 16:48:58,359 [ERROR] LogOutputStream:74 - [STDERR_REDIRECT] 	at com.st.microxplorer.maingui.MainPanel$1.stateChanged(MainPanel.java:303)
2025-02-18 16:48:58,375 [ERROR] LogOutputStream:74 - [STDERR_REDIRECT] 	at java.desktop/javax.swing.JTabbedPane.fireStateChanged(Unknown Source)
2025-02-18 16:48:58,376 [ERROR] LogOutputStream:74 - [STDERR_REDIRECT] 	at java.desktop/javax.swing.JTabbedPane$ModelListener.stateChanged(Unknown Source)
2025-02-18 16:48:58,376 [ERROR] LogOutputStream:74 - [STDERR_REDIRECT] 	at java.desktop/javax.swing.DefaultSingleSelectionModel.fireStateChanged(Unknown Source)
2025-02-18 16:48:58,376 [ERROR] LogOutputStream:74 - [STDERR_REDIRECT] 	at java.desktop/javax.swing.DefaultSingleSelectionModel.setSelectedIndex(Unknown Source)
2025-02-18 16:48:58,376 [ERROR] LogOutputStream:74 - [STDERR_REDIRECT] 	at java.desktop/javax.swing.JTabbedPane.setSelectedIndexImpl(Unknown Source)
2025-02-18 16:48:58,376 [ERROR] LogOutputStream:74 - [STDERR_REDIRECT] 	at java.desktop/javax.swing.JTabbedPane.setSelectedIndex(Unknown Source)
2025-02-18 16:48:58,376 [ERROR] LogOutputStream:74 - [STDERR_REDIRECT] 	at java.desktop/javax.swing.plaf.basic.BasicTabbedPaneUI$Handler.mousePressed(Unknown Source)
2025-02-18 16:48:58,376 [ERROR] LogOutputStream:74 - [STDERR_REDIRECT] 	at java.desktop/java.awt.AWTEventMulticaster.mousePressed(Unknown Source)
2025-02-18 16:48:58,386 [ERROR] LogOutputStream:74 - [STDERR_REDIRECT] 	at java.desktop/java.awt.Component.processMouseEvent(Unknown Source)
2025-02-18 16:48:58,387 [ERROR] LogOutputStream:74 - [STDERR_REDIRECT] 	at java.desktop/javax.swing.JComponent.processMouseEvent(Unknown Source)
2025-02-18 16:48:58,387 [ERROR] LogOutputStream:74 - [STDERR_REDIRECT] 	at java.desktop/java.awt.Component.processEvent(Unknown Source)
2025-02-18 16:48:58,387 [ERROR] LogOutputStream:74 - [STDERR_REDIRECT] 	at java.desktop/java.awt.Container.processEvent(Unknown Source)
2025-02-18 16:48:58,387 [ERROR] LogOutputStream:74 - [STDERR_REDIRECT] 	at java.desktop/java.awt.Component.dispatchEventImpl(Unknown Source)
2025-02-18 16:48:58,387 [ERROR] LogOutputStream:74 - [STDERR_REDIRECT] 	at java.desktop/java.awt.Container.dispatchEventImpl(Unknown Source)
2025-02-18 16:48:58,391 [ERROR] LogOutputStream:74 - [STDERR_REDIRECT] 	at java.desktop/java.awt.Component.dispatchEvent(Unknown Source)
2025-02-18 16:48:58,392 [ERROR] LogOutputStream:74 - [STDERR_REDIRECT] 	at java.desktop/java.awt.LightweightDispatcher.retargetMouseEvent(Unknown Source)
2025-02-18 16:48:58,393 [ERROR] LogOutputStream:74 - [STDERR_REDIRECT] 	at java.desktop/java.awt.LightweightDispatcher.processMouseEvent(Unknown Source)
2025-02-18 16:48:58,393 [ERROR] LogOutputStream:74 - [STDERR_REDIRECT] 	at java.desktop/java.awt.LightweightDispatcher.dispatchEvent(Unknown Source)
2025-02-18 16:48:58,393 [ERROR] LogOutputStream:74 - [STDERR_REDIRECT] 	at java.desktop/java.awt.Container.dispatchEventImpl(Unknown Source)
2025-02-18 16:48:58,396 [ERROR] LogOutputStream:74 - [STDERR_REDIRECT] 	at java.desktop/java.awt.Component.dispatchEvent(Unknown Source)
2025-02-18 16:48:58,396 [ERROR] LogOutputStream:74 - [STDERR_REDIRECT] 	at java.desktop/java.awt.EventQueue.dispatchEventImpl(Unknown Source)
2025-02-18 16:48:58,399 [ERROR] LogOutputStream:74 - [STDERR_REDIRECT] 	at java.desktop/java.awt.EventQueue$4.run(Unknown Source)
2025-02-18 16:48:58,401 [ERROR] LogOutputStream:74 - [STDERR_REDIRECT] 	at java.desktop/java.awt.EventQueue$4.run(Unknown Source)
2025-02-18 16:48:58,401 [ERROR] LogOutputStream:74 - [STDERR_REDIRECT] 	at java.base/java.security.AccessController.doPrivileged(Native Method)
2025-02-18 16:48:58,401 [ERROR] LogOutputStream:74 - [STDERR_REDIRECT] 	at java.base/java.security.ProtectionDomain$JavaSecurityAccessImpl.doIntersectionPrivilege(Unknown Source)
2025-02-18 16:48:58,401 [ERROR] LogOutputStream:74 - [STDERR_REDIRECT] 	at java.base/java.security.ProtectionDomain$JavaSecurityAccessImpl.doIntersectionPrivilege(Unknown Source)
2025-02-18 16:48:58,401 [ERROR] LogOutputStream:74 - [STDERR_REDIRECT] 	at java.desktop/java.awt.EventQueue$5.run(Unknown Source)
2025-02-18 16:48:58,401 [ERROR] LogOutputStream:74 - [STDERR_REDIRECT] 	at java.desktop/java.awt.EventQueue$5.run(Unknown Source)
2025-02-18 16:48:58,401 [ERROR] LogOutputStream:74 - [STDERR_REDIRECT] 	at java.base/java.security.AccessController.doPrivileged(Native Method)
2025-02-18 16:48:58,401 [ERROR] LogOutputStream:74 - [STDERR_REDIRECT] 	at java.base/java.security.ProtectionDomain$JavaSecurityAccessImpl.doIntersectionPrivilege(Unknown Source)
2025-02-18 16:48:58,401 [ERROR] LogOutputStream:74 - [STDERR_REDIRECT] 	at java.desktop/java.awt.EventQueue.dispatchEvent(Unknown Source)
2025-02-18 16:48:58,410 [ERROR] LogOutputStream:74 - [STDERR_REDIRECT] 	at java.desktop/java.awt.EventDispatchThread.pumpOneEventForFilters(Unknown Source)
2025-02-18 16:48:58,411 [ERROR] LogOutputStream:74 - [STDERR_REDIRECT] 	at java.desktop/java.awt.EventDispatchThread.pumpEventsForFilter(Unknown Source)
2025-02-18 16:48:58,411 [ERROR] LogOutputStream:74 - [STDERR_REDIRECT] 	at java.desktop/java.awt.EventDispatchThread.pumpEventsForHierarchy(Unknown Source)
2025-02-18 16:48:58,414 [ERROR] LogOutputStream:74 - [STDERR_REDIRECT] 	at java.desktop/java.awt.EventDispatchThread.pumpEvents(Unknown Source)
2025-02-18 16:48:58,415 [ERROR] LogOutputStream:74 - [STDERR_REDIRECT] 	at java.desktop/java.awt.EventDispatchThread.pumpEvents(Unknown Source)
2025-02-18 16:48:58,416 [ERROR] LogOutputStream:74 - [STDERR_REDIRECT] 	at java.desktop/java.awt.EventDispatchThread.run(Unknown Source)
2025-02-18 16:48:58,539 [INFO] AI:946 - getUI adding AI com.st.microxplorer.plugins.ip.ai.AI@4cb3d19d on STMicroelectronics.X-CUBE-AI.8.0.1
2025-02-18 16:48:58,539 [INFO] Middleware:501 - instanceName : STMicroelectronics.X-CUBE-AI.8.0.1 bspName : COM Port check condition success for : !SEMDeviceJjApplicationJjApplicationTemplate
2025-02-18 16:48:58,539 [INFO] Middleware:501 - instanceName : STMicroelectronics.X-CUBE-AI.8.0.1 bspName : COM Port check condition success for : !SEMDeviceJjApplicationJjApplicationTemplate
2025-02-18 16:48:58,539 [INFO] Middleware:501 - instanceName : STMicroelectronics.X-CUBE-AI.8.0.1 bspName : COM Port check condition success for : !SEMDeviceJjApplicationJjApplicationTemplate
2025-02-18 16:48:58,811 [INFO] AI:946 - getUI adding AI com.st.microxplorer.plugins.ip.ai.AI@4cb3d19d on STMicroelectronics.X-CUBE-AI.8.0.1
2025-02-18 16:48:58,811 [INFO] Middleware:501 - instanceName : STMicroelectronics.X-CUBE-AI.8.0.1 bspName : COM Port check condition success for : !SEMDeviceJjApplicationJjApplicationTemplate
2025-02-18 16:48:58,811 [INFO] Middleware:501 - instanceName : STMicroelectronics.X-CUBE-AI.8.0.1 bspName : COM Port check condition success for : !SEMDeviceJjApplicationJjApplicationTemplate
2025-02-18 16:48:58,811 [INFO] Middleware:501 - instanceName : STMicroelectronics.X-CUBE-AI.8.0.1 bspName : COM Port check condition success for : !SEMDeviceJjApplicationJjApplicationTemplate
2025-02-18 16:49:18,529 [INFO] AI:946 - getUI adding AI com.st.microxplorer.plugins.ip.ai.AI@4cb3d19d on STMicroelectronics.X-CUBE-AI.8.0.1
2025-02-18 16:49:18,529 [INFO] Middleware:501 - instanceName : STMicroelectronics.X-CUBE-AI.8.0.1 bspName : COM Port check condition success for : !SEMDeviceJjApplicationJjApplicationTemplate
2025-02-18 16:49:18,529 [INFO] Middleware:501 - instanceName : STMicroelectronics.X-CUBE-AI.8.0.1 bspName : COM Port check condition success for : !SEMDeviceJjApplicationJjApplicationTemplate
2025-02-18 16:49:18,529 [INFO] Middleware:501 - instanceName : STMicroelectronics.X-CUBE-AI.8.0.1 bspName : COM Port check condition success for : !SEMDeviceJjApplicationJjApplicationTemplate
2025-02-18 16:49:18,815 [INFO] AI:946 - getUI adding AI com.st.microxplorer.plugins.ip.ai.AI@4cb3d19d on STMicroelectronics.X-CUBE-AI.8.0.1
2025-02-18 16:49:18,815 [INFO] Middleware:501 - instanceName : STMicroelectronics.X-CUBE-AI.8.0.1 bspName : COM Port check condition success for : !SEMDeviceJjApplicationJjApplicationTemplate
2025-02-18 16:49:18,815 [INFO] Middleware:501 - instanceName : STMicroelectronics.X-CUBE-AI.8.0.1 bspName : COM Port check condition success for : !SEMDeviceJjApplicationJjApplicationTemplate
2025-02-18 16:49:18,815 [INFO] Middleware:501 - instanceName : STMicroelectronics.X-CUBE-AI.8.0.1 bspName : COM Port check condition success for : !SEMDeviceJjApplicationJjApplicationTemplate
2025-02-18 16:49:21,578 [INFO] UtilMem:74 - End SaveConfig() Used Memory: 1030577944 Bytes (1073741824)
2025-02-18 16:49:23,160 [INFO] UtilMem:74 - End SaveConfig() Used Memory: 1016100672 Bytes (1073741824)
2025-02-18 16:49:27,471 [INFO] UtilMem:74 - End SaveConfig() Used Memory: 1026767160 Bytes (1073741824)
2025-02-18 16:49:27,875 [INFO] BlockDiagram:2735 - set Specific Code input for plugin: RCC
2025-02-18 16:49:27,875 [INFO] BlockDiagram:2735 - set Specific Code input for plugin: USART
2025-02-18 16:49:27,875 [INFO] BlockDiagram:2735 - set Specific Code input for plugin: SYS
2025-02-18 16:49:27,875 [INFO] BlockDiagram:2735 - set Specific Code input for plugin: STMicroelectronics.X-CUBE-AI.8.0.1
2025-02-18 16:49:27,875 [INFO] BlockDiagram:2735 - set Specific Code input for plugin: CRC
2025-02-18 16:49:27,875 [INFO] BlockDiagram:2735 - set Specific Code input for plugin: NVIC
2025-02-18 16:49:27,875 [INFO] BlockDiagram:2735 - set Specific Code input for plugin: GPIO
2025-02-18 16:49:27,875 [ERROR] ThirdPartyIpManager:536 - Invalid RefComponent liste
2025-02-18 16:49:27,875 [ERROR] ThirdPartyIpManager:536 - Invalid RefComponent liste
2025-02-18 16:49:27,875 [ERROR] ThirdPartyIpManager:536 - Invalid RefComponent liste
2025-02-18 16:49:27,875 [ERROR] ThirdPartyIpManager:536 - Invalid RefComponent liste
2025-02-18 16:49:27,875 [ERROR] ThirdPartyIpManager:536 - Invalid RefComponent liste
2025-02-18 16:49:27,875 [ERROR] ThirdPartyIpManager:536 - Invalid RefComponent liste
2025-02-18 16:49:27,875 [ERROR] ThirdPartyIpManager:536 - Invalid RefComponent liste
2025-02-18 16:49:27,875 [ERROR] ThirdPartyIpManager:536 - Invalid RefComponent liste
2025-02-18 16:49:27,875 [ERROR] ThirdPartyIpManager:536 - Invalid RefComponent liste
2025-02-18 16:49:27,875 [ERROR] ThirdPartyIpManager:536 - Invalid RefComponent liste
2025-02-18 16:49:27,875 [ERROR] ThirdPartyIpManager:536 - Invalid RefComponent liste
2025-02-18 16:49:27,875 [ERROR] ThirdPartyIpManager:536 - Invalid RefComponent liste
2025-02-18 16:49:27,875 [ERROR] ThirdPartyIpManager:536 - Invalid RefComponent liste
2025-02-18 16:49:27,875 [ERROR] ThirdPartyIpManager:536 - Invalid RefComponent liste
2025-02-18 16:49:27,875 [ERROR] ThirdPartyIpManager:536 - Invalid RefComponent liste
2025-02-18 16:49:27,875 [ERROR] ThirdPartyIpManager:536 - Invalid RefComponent liste
2025-02-18 16:49:27,875 [ERROR] ThirdPartyIpManager:536 - Invalid RefComponent liste
2025-02-18 16:49:27,875 [ERROR] ThirdPartyIpManager:536 - Invalid RefComponent liste
2025-02-18 16:49:27,875 [ERROR] ThirdPartyIpManager:536 - Invalid RefComponent liste
2025-02-18 16:49:27,875 [ERROR] ThirdPartyIpManager:536 - Invalid RefComponent liste
2025-02-18 16:49:27,875 [ERROR] ThirdPartyIpManager:536 - Invalid RefComponent liste
2025-02-18 16:49:27,875 [ERROR] ThirdPartyIpManager:536 - Invalid RefComponent liste
2025-02-18 16:49:27,890 [INFO] CodeGenerator:641 - code generatio: config db path: D:\STM32CubeIDE_1.6.1\STM32CubeIDE\plugins\com.st.stm32cube.common.mx_6.2.1.202103241236\\db\
2025-02-18 16:49:29,262 [INFO] IP:3321 - RTE Config file name : RTE_Component
2025-02-18 16:49:29,262 [INFO] IP:3339 - RTE template : RTE_Components.ftl
2025-02-18 16:49:29,278 [INFO] CodeEngine:229 - oldGeneratedFile, C:\Users\yh621\STM32CubeIDE\josh_resnet_stm32h\resnet_stm32h\MXTmpFiles\license.tmp_save
2025-02-18 16:49:29,423 [INFO] CodeEngine:247 - Generated code: C:\Users\yh621\STM32CubeIDE\josh_resnet_stm32h\resnet_stm32h\MXTmpFiles\license.tmp
2025-02-18 16:49:29,634 [INFO] CodeEngine:229 - oldGeneratedFile, C:\Users\yh621\STM32CubeIDE\josh_resnet_stm32h\resnet_stm32h\MXTmpFiles\gpio.tmp_save
2025-02-18 16:49:29,790 [INFO] CodeEngine:247 - Generated code: C:\Users\yh621\STM32CubeIDE\josh_resnet_stm32h\resnet_stm32h\MXTmpFiles\gpio.tmp
2025-02-18 16:49:31,007 [INFO] LogOutputStream:76 - [STDOUT_REDIRECT] Command line
2025-02-18 16:49:31,027 [INFO] CodeEngine:229 - oldGeneratedFile, C:\Users\yh621\STM32CubeIDE\josh_resnet_stm32h\resnet_stm32h\MXTmpFiles\cortex.tmp_save
2025-02-18 16:49:31,173 [INFO] CodeEngine:247 - Generated code: C:\Users\yh621\STM32CubeIDE\josh_resnet_stm32h\resnet_stm32h\MXTmpFiles\cortex.tmp
2025-02-18 16:49:31,176 [INFO] LogOutputStream:76 - [STDOUT_REDIRECT] Command line
2025-02-18 16:49:31,176 [INFO] LogOutputStream:76 - [STDOUT_REDIRECT] Command line
2025-02-18 16:49:31,176 [INFO] Middleware:1263 - No code input for Bsp Dependency
2025-02-18 16:49:31,176 [INFO] LogOutputStream:76 - [STDOUT_REDIRECT] Command line
2025-02-18 16:49:31,246 [INFO] CodeEngine:229 - oldGeneratedFile, C:\Users\yh621\STM32CubeIDE\josh_resnet_stm32h\resnet_stm32h\Core\Src\stm32h7xx_it.c_save
2025-02-18 16:49:31,525 [INFO] CodeEngine:247 - Generated code: C:\Users\yh621\STM32CubeIDE\josh_resnet_stm32h\resnet_stm32h\Core\Src\stm32h7xx_it.c
2025-02-18 16:49:31,530 [INFO] CodeEngine:229 - oldGeneratedFile, C:\Users\yh621\STM32CubeIDE\josh_resnet_stm32h\resnet_stm32h\Core\Inc\stm32h7xx_it.h_save
2025-02-18 16:49:31,738 [INFO] CodeEngine:247 - Generated code: C:\Users\yh621\STM32CubeIDE\josh_resnet_stm32h\resnet_stm32h\Core\Inc\stm32h7xx_it.h
2025-02-18 16:49:31,880 [INFO] CodeEngine:229 - oldGeneratedFile, C:\Users\yh621\STM32CubeIDE\josh_resnet_stm32h\resnet_stm32h\Core\Src\stm32h7xx_hal_msp.c_save
2025-02-18 16:49:32,140 [INFO] CodeEngine:247 - Generated code: C:\Users\yh621\STM32CubeIDE\josh_resnet_stm32h\resnet_stm32h\Core\Src\stm32h7xx_hal_msp.c
2025-02-18 16:49:32,140 [INFO] CodeEngine:229 - oldGeneratedFile, C:\Users\yh621\STM32CubeIDE\josh_resnet_stm32h\resnet_stm32h\MXTmpFiles\system.tmp_save
2025-02-18 16:49:32,248 [INFO] CodeEngine:247 - Generated code: C:\Users\yh621\STM32CubeIDE\josh_resnet_stm32h\resnet_stm32h\MXTmpFiles\system.tmp
2025-02-18 16:49:32,284 [INFO] CodeEngine:229 - oldGeneratedFile, C:\Users\yh621\STM32CubeIDE\josh_resnet_stm32h\resnet_stm32h\Core\Inc\stm32h7xx_hal_conf.h_save
2025-02-18 16:49:32,547 [INFO] CodeEngine:247 - Generated code: C:\Users\yh621\STM32CubeIDE\josh_resnet_stm32h\resnet_stm32h\Core\Inc\stm32h7xx_hal_conf.h
2025-02-18 16:49:32,714 [INFO] CodeEngine:229 - oldGeneratedFile, C:\Users\yh621\STM32CubeIDE\josh_resnet_stm32h\resnet_stm32h\Core\Inc\main.h_save
2025-02-18 16:49:32,846 [INFO] CodeEngine:247 - Generated code: C:\Users\yh621\STM32CubeIDE\josh_resnet_stm32h\resnet_stm32h\Core\Inc\main.h
2025-02-18 16:49:32,867 [INFO] CodeEngine:229 - oldGeneratedFile, C:\Users\yh621\STM32CubeIDE\josh_resnet_stm32h\resnet_stm32h\Core\Src\main.c_save
2025-02-18 16:49:33,046 [INFO] CodeEngine:247 - Generated code: C:\Users\yh621\STM32CubeIDE\josh_resnet_stm32h\resnet_stm32h\Core\Src\main.c
2025-02-18 16:49:33,682 [INFO] AInterface:298 - ModelName:network; files:[F:\verified_model\resnet_full_integer_quant.tflite]; type:TFLite; compression:None
2025-02-18 16:49:33,682 [INFO] AInterface:506 - workspaceTempDir: C:\Users\yh621\AppData\Local\Temp\mxAI_workspace350149037700015711550912782234820
2025-02-18 16:49:33,684 [INFO] AInterface:1042 - Setting Env: C:/Users/yh621/STM32Cube/Repository/Packs/STMicroelectronics/X-CUBE-AI/8.0.1/Utilities/windows
2025-02-18 16:49:33,686 [INFO] AInterface:1099 - Custom PATH variable: C:/Users/yh621/STM32Cube/Repository/Packs/STMicroelectronics/X-CUBE-AI/8.0.1/Utilities/windows;C:/Users/yh621/STM32Cube/Repository/Packs/STMicroelectronics/X-CUBE-AI/8.0.1/Utilities/windows/mingw64/bin;C:/Users/yh621/STM32Cube/Repository/Packs/STMicroelectronics/X-CUBE-AI/8.0.1/Utilities/windows/mingw64/libexec/gcc/x86_64-w64-mingw32/7.3.0;C:/Users/yh621/STM32Cube/Repository/Packs/STMicroelectronics/X-CUBE-AI/8.0.1/Utilities/windows/node/bin
2025-02-18 16:49:33,687 [INFO] CmdLine:100 - Command: C:/Users/yh621/STM32Cube/Repository/Packs/STMicroelectronics/X-CUBE-AI/8.0.1/Utilities/windows/stm32ai generate --name network -m F:/verified_model/resnet_full_integer_quant.tflite --type tflite --compression none --verbosity 1 --workspace C:\Users\yh621\AppData\Local\Temp\mxAI_workspace350149037700015711550912782234820 --output C:\Users\yh621\.stm32cubemx\network_output --allocate-inputs --series stm32h7 --allocate-outputs 
2025-02-18 16:49:33,688 [INFO] AIModelDetailledView:2080 - Analysis status: pending
2025-02-18 16:49:40,844 [INFO] CmdLine:67 - Neural Network Tools for STM32AI v1.7.0 (STM.ai v8.0.1-19451)
2025-02-18 16:49:42,473 [INFO] CmdLine:67 - Applied 1 of 1 optimizations
2025-02-18 16:49:43,336 [INFO] CmdLine:67 -  
2025-02-18 16:49:43,336 [INFO] CmdLine:67 -  Exec/report summary (generate)
2025-02-18 16:49:43,336 [INFO] CmdLine:67 -  -----------------------------------------------------------------------------------------------------------
2025-02-18 16:49:43,336 [INFO] CmdLine:67 -  model file         :   F:\verified_model\resnet_full_integer_quant.tflite                                  
2025-02-18 16:49:43,336 [INFO] CmdLine:67 -  type               :   tflite                                                                              
2025-02-18 16:49:43,336 [INFO] CmdLine:67 -  c_name             :   network                                                                             
2025-02-18 16:49:43,336 [INFO] CmdLine:67 -  compression        :   none                                                                                
2025-02-18 16:49:43,336 [INFO] CmdLine:67 -  options            :   allocate-inputs, allocate-outputs                                                   
2025-02-18 16:49:43,336 [INFO] CmdLine:67 -  optimization       :   balanced                                                                            
2025-02-18 16:49:43,336 [INFO] CmdLine:67 -  target/series      :   stm32h7                                                                             
2025-02-18 16:49:43,336 [INFO] CmdLine:67 -  workspace dir      :   C:\Users\yh621\AppData\Local\Temp\mxAI_workspace350149037700015711550912782234820   
2025-02-18 16:49:43,336 [INFO] CmdLine:67 -  output dir         :   C:\Users\yh621\.stm32cubemx\network_output                                          
2025-02-18 16:49:43,336 [INFO] CmdLine:67 -  model_fmt          :   ss/sa                                                                               
2025-02-18 16:49:43,344 [INFO] CmdLine:67 -  model_name         :   resnet_full_integer_quant                                                           
2025-02-18 16:49:43,344 [INFO] CmdLine:67 -  model_hash         :   522b6be4191c52718ac2c07fcd02b8ff                                                    
2025-02-18 16:49:43,344 [INFO] CmdLine:67 -  params #           :   383,012 items (377.61 KiB)                                                          
2025-02-18 16:49:43,344 [INFO] CmdLine:67 -  -----------------------------------------------------------------------------------------------------------
2025-02-18 16:49:43,344 [INFO] CmdLine:67 -  input 1/1          :   'serving_default_input0' (domain:activations/**default**)                           
2025-02-18 16:49:43,344 [INFO] CmdLine:67 -                     :   3072 items, 3.00 KiB, ai_i8, s=0.05410033, zp=29, (1,32,32,3)                       
2025-02-18 16:49:43,344 [INFO] CmdLine:67 -  output 1/1         :   'conv2d_21' (domain:activations/**default**)                                        
2025-02-18 16:49:43,346 [INFO] CmdLine:67 -                     :   100 items, 100 B, ai_i8, s=0.00050211, zp=2, (1,1,1,100)                            
2025-02-18 16:49:43,346 [INFO] CmdLine:67 -  macc               :   18,527,940                                                                          
2025-02-18 16:49:43,346 [INFO] CmdLine:67 -  weights (ro)       :   386,672 B (377.61 KiB) (1 segment) / -1,145,376(-74.8%) vs float model              
2025-02-18 16:49:43,346 [INFO] CmdLine:67 -  activations (rw)   :   46,880 B (45.78 KiB) (1 segment) *                                                  
2025-02-18 16:49:43,346 [INFO] CmdLine:67 -  ram (total)        :   46,880 B (45.78 KiB) = 46,880 + 0 + 0                                               
2025-02-18 16:49:43,346 [INFO] CmdLine:67 -  -----------------------------------------------------------------------------------------------------------
2025-02-18 16:49:43,346 [INFO] CmdLine:67 -  (*) 'input'/'output' buffers can be used from the activations buffer
2025-02-18 16:49:43,365 [INFO] CmdLine:67 -  Unable to evaluate the requested AI memory size.
2025-02-18 16:49:43,365 [INFO] CmdLine:67 -  -> Compiler "gcc:arm-none-eabi-gcc" is not supported/available..
2025-02-18 16:49:43,387 [INFO] CmdLine:67 -  Generated files (7)
2025-02-18 16:49:43,387 [INFO] CmdLine:67 -  ------------------------------------------------------------------
2025-02-18 16:49:43,387 [INFO] CmdLine:67 -  C:\Users\yh621\.stm32cubemx\network_output\network_config.h
2025-02-18 16:49:43,387 [INFO] CmdLine:67 -  C:\Users\yh621\.stm32cubemx\network_output\network.h
2025-02-18 16:49:43,387 [INFO] CmdLine:67 -  C:\Users\yh621\.stm32cubemx\network_output\network.c
2025-02-18 16:49:43,387 [INFO] CmdLine:67 -  C:\Users\yh621\.stm32cubemx\network_output\network_data_params.h
2025-02-18 16:49:43,387 [INFO] CmdLine:67 -  C:\Users\yh621\.stm32cubemx\network_output\network_data_params.c
2025-02-18 16:49:43,387 [INFO] CmdLine:67 -  C:\Users\yh621\.stm32cubemx\network_output\network_data.h
2025-02-18 16:49:43,387 [INFO] CmdLine:67 -  C:\Users\yh621\.stm32cubemx\network_output\network_data.c
2025-02-18 16:49:43,387 [INFO] CmdLine:67 - Creating txt report file C:\Users\yh621\.stm32cubemx\network_output\network_generate_report.txt
2025-02-18 16:49:44,257 [INFO] CmdLine:67 - elapsed time (generate): 3.413s
2025-02-18 16:49:44,847 [INFO] CmdLine:132 - stm32ai exit with status: 0
2025-02-18 16:49:44,912 [INFO] AInterface:594 - Successfully load: network
2025-02-18 16:49:44,978 [INFO] AIModelDetailledView:2080 - Analysis status: done
2025-02-18 16:49:47,167 [INFO] ProjectBuilder:2460 - Time for Copy HAL[1] : 190mS.
2025-02-18 16:49:47,167 [ERROR] Middleware:2942 - Invalid RefComponent liste
2025-02-18 16:49:47,167 [ERROR] Middleware:2942 - Invalid RefComponent liste
2025-02-18 16:49:47,167 [ERROR] Middleware:2942 - Invalid RefComponent liste
2025-02-18 16:49:47,167 [ERROR] Middleware:2942 - Invalid RefComponent liste
2025-02-18 16:49:47,167 [ERROR] Middleware:2942 - Invalid RefComponent liste
2025-02-18 16:49:47,167 [ERROR] Middleware:2942 - Invalid RefComponent liste
2025-02-18 16:49:47,167 [ERROR] Middleware:2942 - Invalid RefComponent liste
2025-02-18 16:49:47,167 [ERROR] Middleware:2942 - Invalid RefComponent liste
2025-02-18 16:49:47,167 [ERROR] Middleware:2942 - Invalid RefComponent liste
2025-02-18 16:49:47,167 [ERROR] Middleware:2942 - Invalid RefComponent liste
2025-02-18 16:49:47,167 [ERROR] Middleware:2942 - Invalid RefComponent liste
2025-02-18 16:49:47,167 [ERROR] Middleware:2942 - Invalid RefComponent liste
2025-02-18 16:49:47,167 [ERROR] Middleware:2942 - Invalid RefComponent liste
2025-02-18 16:49:47,167 [ERROR] Middleware:2942 - Invalid RefComponent liste
2025-02-18 16:49:47,167 [ERROR] Middleware:2942 - Invalid RefComponent liste
2025-02-18 16:49:47,167 [ERROR] Middleware:2942 - Invalid RefComponent liste
2025-02-18 16:49:47,167 [ERROR] Middleware:2942 - Invalid RefComponent liste
2025-02-18 16:49:47,167 [ERROR] Middleware:2942 - Invalid RefComponent liste
2025-02-18 16:49:47,167 [ERROR] Middleware:2942 - Invalid RefComponent liste
2025-02-18 16:49:47,167 [ERROR] Middleware:2942 - Invalid RefComponent liste
2025-02-18 16:49:47,167 [ERROR] Middleware:2942 - Invalid RefComponent liste
2025-02-18 16:49:47,167 [ERROR] Middleware:2942 - Invalid RefComponent liste
2025-02-18 16:49:47,167 [ERROR] Middleware:2942 - Invalid RefComponent liste
2025-02-18 16:49:47,167 [ERROR] Middleware:2942 - Invalid RefComponent liste
2025-02-18 16:49:47,167 [ERROR] Middleware:2942 - Invalid RefComponent liste
2025-02-18 16:49:47,167 [ERROR] Middleware:2942 - Invalid RefComponent liste
2025-02-18 16:49:47,167 [ERROR] Middleware:2942 - Invalid RefComponent liste
2025-02-18 16:49:47,167 [ERROR] Middleware:2942 - Invalid RefComponent liste
2025-02-18 16:49:47,167 [ERROR] Middleware:2942 - Invalid RefComponent liste
2025-02-18 16:49:47,167 [ERROR] Middleware:2942 - Invalid RefComponent liste
2025-02-18 16:49:47,167 [ERROR] Middleware:2942 - Invalid RefComponent liste
2025-02-18 16:49:47,167 [ERROR] Middleware:2942 - Invalid RefComponent liste
2025-02-18 16:49:47,167 [ERROR] Middleware:2942 - Invalid RefComponent liste
2025-02-18 16:49:47,167 [ERROR] Middleware:2942 - Invalid RefComponent liste
2025-02-18 16:49:47,167 [ERROR] Middleware:2942 - Invalid RefComponent liste
2025-02-18 16:49:47,167 [ERROR] Middleware:2942 - Invalid RefComponent liste
2025-02-18 16:49:47,167 [ERROR] Middleware:2942 - Invalid RefComponent liste
2025-02-18 16:49:47,167 [ERROR] Middleware:2942 - Invalid RefComponent liste
2025-02-18 16:49:47,167 [ERROR] Middleware:2942 - Invalid RefComponent liste
2025-02-18 16:49:47,167 [ERROR] Middleware:2942 - Invalid RefComponent liste
2025-02-18 16:49:47,167 [ERROR] Middleware:2942 - Invalid RefComponent liste
2025-02-18 16:49:47,167 [ERROR] Middleware:2942 - Invalid RefComponent liste
2025-02-18 16:49:47,167 [ERROR] Middleware:2942 - Invalid RefComponent liste
2025-02-18 16:49:47,167 [ERROR] Middleware:2942 - Invalid RefComponent liste
2025-02-18 16:49:47,167 [ERROR] ThirdPartyIpManager:536 - Invalid RefComponent liste
2025-02-18 16:49:47,167 [ERROR] ThirdPartyIpManager:536 - Invalid RefComponent liste
2025-02-18 16:49:47,167 [ERROR] ThirdPartyIpManager:536 - Invalid RefComponent liste
2025-02-18 16:49:47,167 [ERROR] ThirdPartyIpManager:536 - Invalid RefComponent liste
2025-02-18 16:49:47,167 [ERROR] ThirdPartyIpManager:536 - Invalid RefComponent liste
2025-02-18 16:49:47,167 [ERROR] ThirdPartyIpManager:536 - Invalid RefComponent liste
2025-02-18 16:49:47,167 [ERROR] ThirdPartyIpManager:536 - Invalid RefComponent liste
2025-02-18 16:49:47,167 [ERROR] ThirdPartyIpManager:536 - Invalid RefComponent liste
2025-02-18 16:49:47,167 [ERROR] ThirdPartyIpManager:536 - Invalid RefComponent liste
2025-02-18 16:49:47,167 [ERROR] ThirdPartyIpManager:536 - Invalid RefComponent liste
2025-02-18 16:49:47,167 [ERROR] ThirdPartyIpManager:536 - Invalid RefComponent liste
2025-02-18 16:49:47,167 [ERROR] ThirdPartyIpManager:536 - Invalid RefComponent liste
2025-02-18 16:49:47,167 [ERROR] ThirdPartyIpManager:536 - Invalid RefComponent liste
2025-02-18 16:49:47,167 [ERROR] ThirdPartyIpManager:536 - Invalid RefComponent liste
2025-02-18 16:49:47,167 [ERROR] ThirdPartyIpManager:536 - Invalid RefComponent liste
2025-02-18 16:49:47,167 [ERROR] ThirdPartyIpManager:536 - Invalid RefComponent liste
2025-02-18 16:49:47,167 [ERROR] ThirdPartyIpManager:536 - Invalid RefComponent liste
2025-02-18 16:49:47,167 [ERROR] ThirdPartyIpManager:536 - Invalid RefComponent liste
2025-02-18 16:49:47,167 [ERROR] ThirdPartyIpManager:536 - Invalid RefComponent liste
2025-02-18 16:49:47,167 [ERROR] ThirdPartyIpManager:536 - Invalid RefComponent liste
2025-02-18 16:49:47,167 [ERROR] ThirdPartyIpManager:536 - Invalid RefComponent liste
2025-02-18 16:49:47,167 [ERROR] ThirdPartyIpManager:536 - Invalid RefComponent liste
2025-02-18 16:49:47,177 [INFO] ProjectBuilder:3418 - Project Generator version: 3.13.0-B3
2025-02-18 16:49:48,630 [INFO] ConfigFileManager:1242 - The Die is : DIE480
2025-02-18 16:49:56,150 [INFO] ProjectBuilder:3584 - Time for Generating toolchain IDE Files: 8973mS.
2025-02-18 16:49:56,152 [INFO] ProjectBuilder:2339 - Time for Copy CMSIS : 1mS.
2025-02-18 16:49:56,162 [INFO] ProjectBuilder:2339 - Time for Copy CMSIS : 1mS.
