2025-02-18 17:08:20,083 [INFO] Activator:170 - 


2025-02-18 17:08:20,083 [INFO] Activator:171 - !SESSION log4j initialized
2025-02-18 17:08:32,875 [INFO] McuFinderGlobals:39 - Set McuFinder mode to 2 (CubeIDE integrated)
2025-02-18 17:08:33,023 [INFO] ApplicationProperties:181 - Using Application install path: D:\STM32CubeIDE_1.6.1\STM32CubeIDE\plugins\com.st.stm32cube.common.mx_6.2.1.202103241236
2025-02-18 17:08:33,039 [INFO] DbMcusXml:74 - Set database path to: D:\STM32CubeIDE_1.6.1\STM32CubeIDE\plugins\com.st.stm32cube.common.mx_6.2.1.202103241236\\db\/mcu/
2025-02-18 17:08:33,039 [INFO] DbBoardsPdsc:56 - Set plugin database path to: D:\STM32CubeIDE_1.6.1\STM32CubeIDE\plugins\com.st.stm32cube.common.mx_6.2.1.202103241236\\db\/plugins/boardmanager/
2025-02-18 17:08:33,039 [INFO] DbMcus:258 - Set plugin images path to: D:\STM32CubeIDE_1.6.1\STM32CubeIDE\plugins\com.st.stm32cube.common.mx_6.2.1.202103241236\\db\/plugins/mcufinder/images/
2025-02-18 17:08:33,039 [INFO] DbBoards:264 - Set plugin images path to: D:\STM32CubeIDE_1.6.1\STM32CubeIDE\plugins\com.st.stm32cube.common.mx_6.2.1.202103241236\\db\/plugins/mcufinder/images/
2025-02-18 17:08:33,039 [INFO] DbExamples:333 - Set plugin images path to: D:\STM32CubeIDE_1.6.1\STM32CubeIDE\plugins\com.st.stm32cube.common.mx_6.2.1.202103241236\\db\/plugins/mcufinder/images/
2025-02-18 17:08:33,054 [INFO] DbMcusAds:85 - Set database path to: C:\Users\yh621\.stmcufinder\plugins\mcufinder//mcu/
2025-02-18 17:08:33,054 [INFO] DbMcusDocs:110 - Set database path to: C:\Users\yh621\.stmcufinder\plugins\mcufinder//mcu/
2025-02-18 17:08:33,054 [INFO] DbMcusJson:65 - Set database path to: C:\Users\yh621\.stmcufinder\plugins\mcufinder//mcu/
2025-02-18 17:08:33,054 [INFO] DbBoardsDocs:110 - Set database path to: C:\Users\yh621\.stmcufinder\plugins\mcufinder//mcu/
2025-02-18 17:08:33,054 [INFO] DbBoardsJson:58 - Set database path to: C:\Users\yh621\.stmcufinder\plugins\mcufinder//mcu/
2025-02-18 17:08:33,070 [INFO] CrossReferenceDbSqlite:196 - Set database path to: C:\Users\yh621\.stmcufinder\plugins\mcufinder//mcu/cs/
2025-02-18 17:08:33,070 [INFO] DbExamplesSqlite:690 - Set database path to: C:\Users\yh621\.stmcufinder\plugins\mcufinder//mcu/
2025-02-18 17:08:33,139 [INFO] RulesReader:52 - Compatibility file has been processed (237 Rules)
2025-02-18 17:08:33,242 [INFO] MicroXplorer:622 - Detected Java Version = 11.0.9.1
2025-02-18 17:08:33,242 [INFO] DbMcusXml:74 - Set database path to: D:\STM32CubeIDE_1.6.1\STM32CubeIDE\plugins\com.st.stm32cube.common.mx_6.2.1.202103241236\\db\/mcu/
2025-02-18 17:08:33,242 [INFO] DbBoardsPdsc:56 - Set plugin database path to: D:\STM32CubeIDE_1.6.1\STM32CubeIDE\plugins\com.st.stm32cube.common.mx_6.2.1.202103241236\\db\/plugins/boardmanager/
2025-02-18 17:08:33,242 [INFO] DbMcus:258 - Set plugin images path to: D:\STM32CubeIDE_1.6.1\STM32CubeIDE\plugins\com.st.stm32cube.common.mx_6.2.1.202103241236\\db\/plugins/mcufinder/images/
2025-02-18 17:08:33,242 [INFO] DbBoards:264 - Set plugin images path to: D:\STM32CubeIDE_1.6.1\STM32CubeIDE\plugins\com.st.stm32cube.common.mx_6.2.1.202103241236\\db\/plugins/mcufinder/images/
2025-02-18 17:08:33,242 [INFO] DbExamples:333 - Set plugin images path to: D:\STM32CubeIDE_1.6.1\STM32CubeIDE\plugins\com.st.stm32cube.common.mx_6.2.1.202103241236\\db\/plugins/mcufinder/images/
2025-02-18 17:08:33,242 [WARN] DbFile:35 - Overriding database path with different value: C:\Users\yh621\.stmcufinder\plugins\mcufinder/ => C:\Users\yh621\.stmcufinder\plugins\mcufinder
2025-02-18 17:08:33,242 [INFO] DbMcusAds:85 - Set database path to: C:\Users\yh621\.stmcufinder\plugins\mcufinder//mcu/
2025-02-18 17:08:33,242 [WARN] DbFile:35 - Overriding database path with different value: C:\Users\yh621\.stmcufinder\plugins\mcufinder/ => C:\Users\yh621\.stmcufinder\plugins\mcufinder
2025-02-18 17:08:33,242 [INFO] DbMcusDocs:110 - Set database path to: C:\Users\yh621\.stmcufinder\plugins\mcufinder//mcu/
2025-02-18 17:08:33,242 [WARN] DbFile:35 - Overriding database path with different value: C:\Users\yh621\.stmcufinder\plugins\mcufinder/ => C:\Users\yh621\.stmcufinder\plugins\mcufinder
2025-02-18 17:08:33,242 [INFO] DbMcusJson:65 - Set database path to: C:\Users\yh621\.stmcufinder\plugins\mcufinder//mcu/
2025-02-18 17:08:33,242 [WARN] DbFile:35 - Overriding database path with different value: C:\Users\yh621\.stmcufinder\plugins\mcufinder/ => C:\Users\yh621\.stmcufinder\plugins\mcufinder
2025-02-18 17:08:33,242 [INFO] DbBoardsDocs:110 - Set database path to: C:\Users\yh621\.stmcufinder\plugins\mcufinder//mcu/
2025-02-18 17:08:33,242 [WARN] DbFile:35 - Overriding database path with different value: C:\Users\yh621\.stmcufinder\plugins\mcufinder/ => C:\Users\yh621\.stmcufinder\plugins\mcufinder
2025-02-18 17:08:33,242 [INFO] DbBoardsJson:58 - Set database path to: C:\Users\yh621\.stmcufinder\plugins\mcufinder//mcu/
2025-02-18 17:08:33,242 [WARN] DbFile:35 - Overriding database path with different value: C:\Users\yh621\.stmcufinder\plugins\mcufinder/ => C:\Users\yh621\.stmcufinder\plugins\mcufinder
2025-02-18 17:08:33,242 [WARN] DbFile:35 - Overriding database path with different value: C:\Users\yh621\.stmcufinder\plugins\mcufinder/ => C:\Users\yh621\.stmcufinder\plugins\mcufinder
2025-02-18 17:08:33,242 [INFO] CrossReferenceDbSqlite:196 - Set database path to: C:\Users\yh621\.stmcufinder\plugins\mcufinder//mcu/cs/
2025-02-18 17:08:33,242 [WARN] DbFile:35 - Overriding database path with different value: C:\Users\yh621\.stmcufinder\plugins\mcufinder/ => C:\Users\yh621\.stmcufinder\plugins\mcufinder
2025-02-18 17:08:33,242 [INFO] DbExamplesSqlite:690 - Set database path to: C:\Users\yh621\.stmcufinder\plugins\mcufinder//mcu/
2025-02-18 17:08:33,318 [INFO] MainPanel:204 - HeapMemory: 268435456
2025-02-18 17:08:33,442 [INFO] DbMcusXml:74 - Set database path to: D:\STM32CubeIDE_1.6.1\STM32CubeIDE\plugins\com.st.stm32cube.common.mx_6.2.1.202103241236\\db\/mcu/
2025-02-18 17:08:33,442 [INFO] DbBoardsPdsc:56 - Set plugin database path to: D:\STM32CubeIDE_1.6.1\STM32CubeIDE\plugins\com.st.stm32cube.common.mx_6.2.1.202103241236\\db\/plugins/boardmanager/
2025-02-18 17:08:33,442 [INFO] DbMcus:258 - Set plugin images path to: D:\STM32CubeIDE_1.6.1\STM32CubeIDE\plugins\com.st.stm32cube.common.mx_6.2.1.202103241236\\db\/plugins/mcufinder/images/
2025-02-18 17:08:33,442 [INFO] DbBoards:264 - Set plugin images path to: D:\STM32CubeIDE_1.6.1\STM32CubeIDE\plugins\com.st.stm32cube.common.mx_6.2.1.202103241236\\db\/plugins/mcufinder/images/
2025-02-18 17:08:33,442 [INFO] DbExamples:333 - Set plugin images path to: D:\STM32CubeIDE_1.6.1\STM32CubeIDE\plugins\com.st.stm32cube.common.mx_6.2.1.202103241236\\db\/plugins/mcufinder/images/
2025-02-18 17:08:33,443 [WARN] DbFile:35 - Overriding database path with different value: C:\Users\yh621\.stmcufinder\plugins\mcufinder/ => C:\Users\yh621\.stmcufinder\plugins\mcufinder
2025-02-18 17:08:33,443 [INFO] DbMcusAds:85 - Set database path to: C:\Users\yh621\.stmcufinder\plugins\mcufinder//mcu/
2025-02-18 17:08:33,443 [WARN] DbFile:35 - Overriding database path with different value: C:\Users\yh621\.stmcufinder\plugins\mcufinder/ => C:\Users\yh621\.stmcufinder\plugins\mcufinder
2025-02-18 17:08:33,443 [INFO] DbMcusDocs:110 - Set database path to: C:\Users\yh621\.stmcufinder\plugins\mcufinder//mcu/
2025-02-18 17:08:33,443 [WARN] DbFile:35 - Overriding database path with different value: C:\Users\yh621\.stmcufinder\plugins\mcufinder/ => C:\Users\yh621\.stmcufinder\plugins\mcufinder
2025-02-18 17:08:33,443 [INFO] DbMcusJson:65 - Set database path to: C:\Users\yh621\.stmcufinder\plugins\mcufinder//mcu/
2025-02-18 17:08:33,443 [WARN] DbFile:35 - Overriding database path with different value: C:\Users\yh621\.stmcufinder\plugins\mcufinder/ => C:\Users\yh621\.stmcufinder\plugins\mcufinder
2025-02-18 17:08:33,443 [INFO] DbBoardsDocs:110 - Set database path to: C:\Users\yh621\.stmcufinder\plugins\mcufinder//mcu/
2025-02-18 17:08:33,443 [WARN] DbFile:35 - Overriding database path with different value: C:\Users\yh621\.stmcufinder\plugins\mcufinder/ => C:\Users\yh621\.stmcufinder\plugins\mcufinder
2025-02-18 17:08:33,443 [INFO] DbBoardsJson:58 - Set database path to: C:\Users\yh621\.stmcufinder\plugins\mcufinder//mcu/
2025-02-18 17:08:33,443 [WARN] DbFile:35 - Overriding database path with different value: C:\Users\yh621\.stmcufinder\plugins\mcufinder/ => C:\Users\yh621\.stmcufinder\plugins\mcufinder
2025-02-18 17:08:33,443 [WARN] DbFile:35 - Overriding database path with different value: C:\Users\yh621\.stmcufinder\plugins\mcufinder/ => C:\Users\yh621\.stmcufinder\plugins\mcufinder
2025-02-18 17:08:33,445 [INFO] CrossReferenceDbSqlite:196 - Set database path to: C:\Users\yh621\.stmcufinder\plugins\mcufinder//mcu/cs/
2025-02-18 17:08:33,445 [WARN] DbFile:35 - Overriding database path with different value: C:\Users\yh621\.stmcufinder\plugins\mcufinder/ => C:\Users\yh621\.stmcufinder\plugins\mcufinder
2025-02-18 17:08:33,445 [INFO] DbExamplesSqlite:690 - Set database path to: C:\Users\yh621\.stmcufinder\plugins\mcufinder//mcu/
2025-02-18 17:08:33,476 [INFO] ApplicationProperties:181 - Using Application install path: D:\STM32CubeIDE_1.6.1\STM32CubeIDE\plugins\com.st.stm32cube.common.mx_6.2.1.202103241236
2025-02-18 17:08:33,478 [INFO] PluginManage:178 - Search for loadable plugins [exclusion list=, ]
2025-02-18 17:08:33,480 [INFO] PluginManage:292 - Check plugin analytics
2025-02-18 17:08:33,624 [INFO] AnalyticsPlugin:233 - Accepted Software Licenses: STM32CubeMX.6.2.1,STM32CubeMX.5.6.1,STM32CubeMX.6.6.1,STM32CubeMX.5.3.0,STM32CubeMX.6.5.0
2025-02-18 17:08:33,624 [INFO] AnalyticsPlugin:235 - Accepted CMSIS Pack Licenses: STMicroelectronics.X-CUBE-AI.7.3.0
2025-02-18 17:08:33,624 [INFO] AnalyticsPlugin:237 - Accepted Firmware Licenses: 
2025-02-18 17:08:33,624 [INFO] PluginManage:342 - Loaded plugin analytics (category:tool,tabindex:-1)
2025-02-18 17:08:33,624 [INFO] PluginManage:292 - Check plugin clock
2025-02-18 17:08:33,624 [INFO] PluginManage:342 - Loaded plugin clock (category:base,tabindex:2)
2025-02-18 17:08:33,624 [INFO] PluginManage:292 - Check plugin ddr
2025-02-18 17:08:33,640 [INFO] PluginManage:342 - Loaded plugin ddr (category:tool,tabindex:6)
2025-02-18 17:08:33,640 [INFO] PluginManage:292 - Check plugin filemanager
2025-02-18 17:08:33,756 [INFO] PluginManage:342 - Loaded plugin filemanager (category:base,tabindex:10)
2025-02-18 17:08:33,756 [INFO] PluginManage:292 - Check plugin ipmanager
2025-02-18 17:08:33,756 [INFO] PluginManage:342 - Loaded plugin ipmanager (category:base,tabindex:5)
2025-02-18 17:08:33,756 [INFO] PluginManage:292 - Check plugin pinoutandconfiguration
2025-02-18 17:08:33,771 [INFO] PluginManage:342 - Loaded plugin pinoutandconfiguration (category:base,tabindex:1)
2025-02-18 17:08:33,771 [INFO] PluginManage:292 - Check plugin pinoutconfig
2025-02-18 17:08:33,787 [INFO] PluginManage:342 - Loaded plugin pinoutconfig (category:base,tabindex:0)
2025-02-18 17:08:33,787 [INFO] PluginManage:292 - Check plugin power
2025-02-18 17:08:33,787 [INFO] PluginManage:342 - Loaded plugin power (category:power,tabindex:4)
2025-02-18 17:08:33,787 [INFO] PluginManage:292 - Check plugin projectmanager
2025-02-18 17:08:33,809 [INFO] PluginManage:342 - Loaded plugin projectmanager (category:projectmanager,tabindex:3)
2025-02-18 17:08:33,809 [INFO] PluginManage:292 - Check plugin thirdparty
2025-02-18 17:08:33,925 [INFO] PluginManage:342 - Loaded plugin thirdparty (category:base,tabindex:-1)
2025-02-18 17:08:33,925 [INFO] PluginManage:292 - Check plugin tools
2025-02-18 17:08:33,925 [WARN] IntegrityCheckThread:59 - waiting for thirdparty lock release [integrity check]
2025-02-18 17:08:33,925 [INFO] IntegrityCheckThread:61 - entering critical section [integrity check]
2025-02-18 17:08:33,925 [INFO] ThirdPartyUpdaterWithRetryManager:56 - Updater plugin not ready yet. [1/15]
2025-02-18 17:08:33,925 [INFO] PluginManage:342 - Loaded plugin tools (category:base,tabindex:7)
2025-02-18 17:08:33,925 [INFO] PluginManage:292 - Check plugin tutovideos
2025-02-18 17:08:34,125 [INFO] PluginManage:342 - Loaded plugin tutovideos (category:base,tabindex:-1)
2025-02-18 17:08:34,125 [INFO] PluginManage:292 - Check plugin updater
2025-02-18 17:08:34,140 [INFO] PluginManage:342 - Loaded plugin updater (category:base,tabindex:12)
2025-02-18 17:08:34,140 [INFO] PluginManage:265 - PluginManage : Loaded plugins [13]
2025-02-18 17:08:34,309 [INFO] PinOutPanel:1435 - setPackage(No Configuration,No Configuration)
2025-02-18 17:08:34,373 [INFO] IPUIPlugin:64 - create IPUIPlugin
2025-02-18 17:08:34,373 [INFO] PluginManager:203 - loadIPPluginJar : add adc
2025-02-18 17:08:34,391 [INFO] IPUIPlugin:64 - create IPUIPlugin
2025-02-18 17:08:34,391 [INFO] PluginManager:203 - loadIPPluginJar : add aes
2025-02-18 17:08:34,391 [INFO] IPUIPlugin:64 - create IPUIPlugin
2025-02-18 17:08:34,391 [INFO] PluginManager:203 - loadIPPluginJar : add can
2025-02-18 17:08:34,391 [INFO] IPUIPlugin:64 - create IPUIPlugin
2025-02-18 17:08:34,391 [INFO] PluginManager:203 - loadIPPluginJar : add comp
2025-02-18 17:08:34,391 [INFO] IPUIPlugin:64 - create IPUIPlugin
2025-02-18 17:08:34,391 [INFO] PluginManager:203 - loadIPPluginJar : add cryp
2025-02-18 17:08:34,391 [INFO] IPUIPlugin:64 - create IPUIPlugin
2025-02-18 17:08:34,391 [INFO] PluginManager:203 - loadIPPluginJar : add dfsdm
2025-02-18 17:08:34,391 [INFO] IPUIPlugin:64 - create IPUIPlugin
2025-02-18 17:08:34,391 [INFO] PluginManager:203 - loadIPPluginJar : add dma
2025-02-18 17:08:34,391 [INFO] IPUIPlugin:64 - create IPUIPlugin
2025-02-18 17:08:34,391 [INFO] PluginManager:203 - loadIPPluginJar : add fatfs
2025-02-18 17:08:34,407 [INFO] IPUIPlugin:64 - create IPUIPlugin
2025-02-18 17:08:34,407 [INFO] PluginManager:203 - loadIPPluginJar : add fmc
2025-02-18 17:08:34,409 [INFO] IPUIPlugin:64 - create IPUIPlugin
2025-02-18 17:08:34,409 [INFO] PluginManager:203 - loadIPPluginJar : add freertos
2025-02-18 17:08:34,409 [INFO] IPUIPlugin:64 - create IPUIPlugin
2025-02-18 17:08:34,409 [INFO] PluginManager:203 - loadIPPluginJar : add genericplugin
2025-02-18 17:08:34,409 [INFO] IPUIPlugin:64 - create IPUIPlugin
2025-02-18 17:08:34,409 [INFO] PluginManager:203 - loadIPPluginJar : add gfxmmu
2025-02-18 17:08:34,416 [INFO] IPUIPlugin:64 - create IPUIPlugin
2025-02-18 17:08:34,416 [INFO] PluginManager:203 - loadIPPluginJar : add gic
2025-02-18 17:08:34,416 [INFO] IPUIPlugin:64 - create IPUIPlugin
2025-02-18 17:08:34,416 [INFO] PluginManager:203 - loadIPPluginJar : add gpio
2025-02-18 17:08:34,416 [INFO] IPUIPlugin:64 - create IPUIPlugin
2025-02-18 17:08:34,416 [INFO] PluginManager:203 - loadIPPluginJar : add gtzc
2025-02-18 17:08:34,416 [INFO] IPUIPlugin:64 - create IPUIPlugin
2025-02-18 17:08:34,416 [INFO] PluginManager:203 - loadIPPluginJar : add hash
2025-02-18 17:08:34,416 [INFO] IPUIPlugin:64 - create IPUIPlugin
2025-02-18 17:08:34,416 [INFO] PluginManager:203 - loadIPPluginJar : add i2c
2025-02-18 17:08:34,416 [INFO] IPUIPlugin:64 - create IPUIPlugin
2025-02-18 17:08:34,416 [INFO] PluginManager:203 - loadIPPluginJar : add i2s
2025-02-18 17:08:34,433 [INFO] IPUIPlugin:64 - create IPUIPlugin
2025-02-18 17:08:34,433 [INFO] PluginManager:203 - loadIPPluginJar : add ipddr
2025-02-18 17:08:34,433 [INFO] IPUIPlugin:64 - create IPUIPlugin
2025-02-18 17:08:34,433 [INFO] PluginManager:203 - loadIPPluginJar : add lorawan
2025-02-18 17:08:34,433 [INFO] IPUIPlugin:64 - create IPUIPlugin
2025-02-18 17:08:34,433 [INFO] PluginManager:203 - loadIPPluginJar : add ltdc
2025-02-18 17:08:34,433 [INFO] IPUIPlugin:64 - create IPUIPlugin
2025-02-18 17:08:34,433 [INFO] PluginManager:203 - loadIPPluginJar : add mdma
2025-02-18 17:08:34,433 [INFO] IPUIPlugin:64 - create IPUIPlugin
2025-02-18 17:08:34,433 [INFO] PluginManager:203 - loadIPPluginJar : add nvic
2025-02-18 17:08:34,433 [INFO] IPUIPlugin:64 - create IPUIPlugin
2025-02-18 17:08:34,433 [INFO] PluginManager:203 - loadIPPluginJar : add opamp
2025-02-18 17:08:34,433 [INFO] IPUIPlugin:64 - create IPUIPlugin
2025-02-18 17:08:34,433 [INFO] PluginManager:203 - loadIPPluginJar : add openamp
2025-02-18 17:08:34,449 [INFO] IPUIPlugin:64 - create IPUIPlugin
2025-02-18 17:08:34,449 [INFO] PluginManager:203 - loadIPPluginJar : add pdm2pcm
2025-02-18 17:08:34,450 [INFO] IPUIPlugin:64 - create IPUIPlugin
2025-02-18 17:08:34,450 [INFO] PluginManager:203 - loadIPPluginJar : add plateformsettings
2025-02-18 17:08:34,450 [INFO] IPUIPlugin:64 - create IPUIPlugin
2025-02-18 17:08:34,450 [INFO] PluginManager:203 - loadIPPluginJar : add quadspi
2025-02-18 17:08:34,450 [INFO] IPUIPlugin:64 - create IPUIPlugin
2025-02-18 17:08:34,450 [INFO] PluginManager:203 - loadIPPluginJar : add resmgrutility
2025-02-18 17:08:34,450 [INFO] IPUIPlugin:64 - create IPUIPlugin
2025-02-18 17:08:34,450 [INFO] PluginManager:203 - loadIPPluginJar : add sai
2025-02-18 17:08:34,450 [INFO] IPUIPlugin:64 - create IPUIPlugin
2025-02-18 17:08:34,450 [INFO] PluginManager:203 - loadIPPluginJar : add spi
2025-02-18 17:08:34,465 [INFO] IPUIPlugin:64 - create IPUIPlugin
2025-02-18 17:08:34,465 [INFO] PluginManager:203 - loadIPPluginJar : add stm32_wpan
2025-02-18 17:08:34,465 [INFO] IPUIPlugin:64 - create IPUIPlugin
2025-02-18 17:08:34,465 [INFO] PluginManager:203 - loadIPPluginJar : add tim
2025-02-18 17:08:34,465 [INFO] IPUIPlugin:64 - create IPUIPlugin
2025-02-18 17:08:34,465 [INFO] PluginManager:203 - loadIPPluginJar : add touchsensing
2025-02-18 17:08:34,465 [INFO] IPUIPlugin:64 - create IPUIPlugin
2025-02-18 17:08:34,465 [INFO] PluginManager:203 - loadIPPluginJar : add tracer_emb
2025-02-18 17:08:34,465 [INFO] IPUIPlugin:64 - create IPUIPlugin
2025-02-18 17:08:34,465 [INFO] PluginManager:203 - loadIPPluginJar : add ts
2025-02-18 17:08:34,465 [INFO] IPUIPlugin:64 - create IPUIPlugin
2025-02-18 17:08:34,465 [INFO] PluginManager:203 - loadIPPluginJar : add tsc
2025-02-18 17:08:34,465 [INFO] IPUIPlugin:64 - create IPUIPlugin
2025-02-18 17:08:34,465 [INFO] PluginManager:203 - loadIPPluginJar : add ucpd
2025-02-18 17:08:34,465 [INFO] IPUIPlugin:64 - create IPUIPlugin
2025-02-18 17:08:34,465 [INFO] PluginManager:203 - loadIPPluginJar : add usart
2025-02-18 17:08:34,781 [FATAL] Updater:284 - Updater called before beeing initialized
2025-02-18 17:08:34,871 [FATAL] Updater:284 - Updater called before beeing initialized
2025-02-18 17:08:34,871 [INFO] DbMcusAds:132 - JSON generation date=Tue Dec 17 16:01:15 GMT 2024 (1734451275111)
2025-02-18 17:08:34,871 [FATAL] Updater:284 - Updater called before beeing initialized
2025-02-18 17:08:34,910 [WARN] DetailPanel:315 - Failed to get advertising image, set to default
2025-02-18 17:08:35,041 [FATAL] Updater:284 - Updater called before beeing initialized
2025-02-18 17:08:35,041 [FATAL] Updater:284 - Updater called before beeing initialized
2025-02-18 17:08:35,041 [FATAL] Updater:284 - Updater called before beeing initialized
2025-02-18 17:08:35,041 [WARN] DetailPanel:315 - Failed to get advertising image, set to default
2025-02-18 17:08:35,041 [FATAL] Updater:284 - Updater called before beeing initialized
2025-02-18 17:08:35,075 [FATAL] Updater:284 - Updater called before beeing initialized
2025-02-18 17:08:35,075 [WARN] ThirdParty:796 - waiting for thirdparty lock release [close project]
2025-02-18 17:08:36,926 [INFO] ThirdPartyUpdaterWithRetryManager:56 - Updater plugin not ready yet. [2/15]
2025-02-18 17:08:39,934 [FATAL] Updater:284 - Updater called before beeing initialized
2025-02-18 17:08:39,935 [ERROR] AbstractThirdPartyUpdaterManager:153 - class java.lang.Integer cannot be cast to class java.util.List (java.lang.Integer and java.util.List are in module java.base of loader 'bootstrap')
2025-02-18 17:08:39,935 [INFO] ThirdParty:900 - Integrity check success = false
2025-02-18 17:08:39,935 [INFO] IntegrityCheckThread:75 - exiting critical section [integrity check]
2025-02-18 17:08:39,935 [INFO] IntegrityCheckThread:78 - End integrity checks thread
2025-02-18 17:08:39,935 [INFO] ThirdParty:798 - entering critical section [close project]
2025-02-18 17:08:39,935 [INFO] ThirdParty:809 - exiting critical section [close project]
2025-02-18 17:08:39,939 [INFO] PinOutPanel:1435 - setPackage(No Configuration,No Configuration)
2025-02-18 17:08:39,939 [FATAL] Updater:284 - Updater called before beeing initialized
2025-02-18 17:08:39,939 [ERROR] Updater:1065 - MainUpdater not yet initialized. External WinMGr cannot be set.
2025-02-18 17:08:39,948 [INFO] Updater:1002 - Updater Version found : 6.2.1
2025-02-18 17:08:39,948 [INFO] ApplicationProperties:181 - Using Application install path: D:\STM32CubeIDE_1.6.1\STM32CubeIDE\plugins\com.st.stm32cube.common.mx_6.2.1.202103241236
2025-02-18 17:08:40,372 [INFO] MainUpdater:2661 - connection check result : 10
2025-02-18 17:08:40,372 [INFO] MainUpdater:255 - Updater Check For Update Now.
2025-02-18 17:08:40,372 [INFO] MicroXplorer:472 - Change Database Version : DB.6.0.21
2025-02-18 17:08:40,454 [INFO] CheckServerUpdateThread:102 - End of CheckServer Thread
2025-02-18 17:08:40,488 [INFO] MainUpdater:2661 - connection check result : 10
2025-02-18 17:08:40,732 [INFO] CrossSelectorPresenter:1330 - Cross Selector saved comparison directory: C:\Users\yh621\.stmcufinder\plugins\mcufinder\mcu\cs_comparisons_mx
2025-02-18 17:08:40,747 [INFO] MultiScanPanel:200 - Auto-refresh data requested => check proxy status ongoing
2025-02-18 17:08:40,747 [INFO] FinderPluginLoader:87 - Searching for filters in installed packs
2025-02-18 17:08:40,747 [INFO] FinderPluginLoader:100 - Found C:\Users\yh621\STM32Cube\Repository\Packs\STMicroelectronics\X-CUBE-AI\8.0.1\CubeMX\plugins\ip\ai.8.0.1.jar
2025-02-18 17:08:40,763 [INFO] FinderPluginLoader:100 - Found C:\Users\yh621\STM32Cube\Repository\Packs\STMicroelectronics\X-CUBE-AI\8.0.0\CubeMX\plugins\ip\ai.8.0.0.jar
2025-02-18 17:08:40,763 [INFO] FinderPluginLoader:100 - Found C:\Users\yh621\STM32Cube\Repository\Packs\STMicroelectronics\X-CUBE-AI\7.3.0\CubeMX\plugins\ip\ai.7.3.0.jar
2025-02-18 17:08:40,763 [INFO] FinderPluginLoader:100 - Found C:\Users\yh621\STM32Cube\Repository\Packs\STMicroelectronics\X-CUBE-AI\7.0.0\CubeMX\plugins\ip\ai.7.0.0.jar
2025-02-18 17:08:40,763 [INFO] FinderPluginLoader:100 - Found C:\Users\yh621\STM32Cube\Repository\Packs\STMicroelectronics\X-CUBE-AI\6.0.0\CubeMX\plugins\ip\ai.6.0.0.jar
2025-02-18 17:08:40,763 [INFO] FinderPluginLoader:100 - Found C:\Users\yh621\STM32Cube\Repository\Packs\STMicroelectronics\X-CUBE-AI\5.2.0\CubeMX\plugins\ip\ai.5.2.0.jar
2025-02-18 17:08:40,763 [INFO] FinderPluginLoader:100 - Found C:\Users\yh621\STM32Cube\Repository\Packs\STMicroelectronics\X-CUBE-AI\5.1.2\CubeMX\plugins\ip\ai.5.1.2.jar
2025-02-18 17:08:40,763 [INFO] FinderPluginLoader:110 - Loading ai.8.0.1
2025-02-18 17:08:40,842 [INFO] McuExtendedFiltersManager:89 - Add MCU extended filter: Artificial Intelligence
2025-02-18 17:08:40,858 [INFO] DbMcusXml:100 - Load MCU database from D:\STM32CubeIDE_1.6.1\STM32CubeIDE\plugins\com.st.stm32cube.common.mx_6.2.1.202103241236\\db\/mcu/families.xml
2025-02-18 17:08:41,503 [INFO] DbMcusJson:94 - JSON generation date=Tue Nov 16 16:17:54 GMT 2021 (1637079474)
2025-02-18 17:08:42,049 [INFO] DbMcus:175 - Found 1906 MCUs (1866 are supported by CubeMX, 1920 are visible in CubeMX)
2025-02-18 17:08:42,049 [INFO] ApiDb:251 - Load user favorites file C:\Users\yh621/.stm32cubeide/favorites.mcus.txt: 1 item(s)
2025-02-18 17:08:42,049 [INFO] ApiDb:255 - User favorites MCUs=[STM32H7A3ZITxQ]
2025-02-18 17:08:42,049 [INFO] DbMcus:187 - Set 1 / 1 favorites MCUs
2025-02-18 17:08:42,189 [INFO] AInterface:109 - AInterface using toolDir: C:/Users/yh621/STM32Cube/Repository//Packs/STMicroelectronics/X-CUBE-AI/8.0.1/Utilities/windows
2025-02-18 17:08:42,489 [INFO] DetailPanel:310 - Set advertising image to C:/Users/yh621/STM32Cube/Repository/\en.prom-stm32n6-mcu-finder.png
2025-02-18 17:08:42,855 [INFO] DbBoardsPdsc:90 - Found 24 items
2025-02-18 17:08:42,855 [INFO] DbBoardsPdsc:90 - Found 9 items
2025-02-18 17:08:42,855 [INFO] DbBoardsPdsc:90 - Found 33 items
2025-02-18 17:08:42,855 [INFO] DbBoardsPdsc:90 - Found 1 items
2025-02-18 17:08:42,874 [INFO] DbBoardsPdsc:90 - Found 46 items
2025-02-18 17:08:42,874 [INFO] DbBoardsPdsc:90 - Found 41 items
2025-02-18 17:08:42,874 [INFO] DbBoardsPdsc:90 - Found 2 items
2025-02-18 17:08:42,874 [INFO] DbBoardsPdsc:90 - Found 5 items
2025-02-18 17:08:42,874 [WARN] DbBoardsPdsc:254 - Board NUCLEO-WB15CC: unknown feature type=, name=, username=Three user LEDs, n=1
2025-02-18 17:08:42,874 [WARN] DbBoardsPdsc:254 - Board NUCLEO-WB15CC: unknown feature type=, name=, username=One reset and three user push-buttons, n=1
2025-02-18 17:08:42,874 [WARN] DbBoardsPdsc:254 - Board NUCLEO-WB15CC: unknown feature type=, name=, username=Arduino Uno V3 expansion connector, n=1
2025-02-18 17:08:42,874 [WARN] DbBoardsPdsc:254 - Board NUCLEO-WB15CC: unknown feature type=, name=, username=ST morpho extension pin headers for full access to all STM32WB I/Os, n=1
2025-02-18 17:08:42,874 [WARN] DbBoardsPdsc:254 - Board NUCLEO-WB15CC: unknown feature type=, name=, username=Integrated PCB antenna and SMA connector footprint, n=1
2025-02-18 17:08:42,874 [WARN] DbBoardsPdsc:254 - Board NUCLEO-WB15CC: unknown feature type=, name=, username=Flexible power-supply options: ST-LINK, USB VBUS, or external sources, n=1
2025-02-18 17:08:42,874 [WARN] DbBoardsPdsc:254 - Board NUCLEO-WB15CC: unknown feature type=, name=, username=On-board footprint to mount a CR2032 battery socket, n=1
2025-02-18 17:08:42,874 [WARN] DbBoardsPdsc:254 - Board NUCLEO-WB15CC: unknown feature type=, name=, username=On-board ST-LINK/V2-1 debugger/programmer with USB re-enumeration capability: mass storage, Virtual COM port, and debug port, n=1
2025-02-18 17:08:42,874 [WARN] DbBoardsPdsc:254 - Board NUCLEO-WB15CC: unknown feature type=, name=, username=Comprehensive free software libraries and examples available with the STM32CubeWB MCU Package, n=1
2025-02-18 17:08:42,874 [WARN] DbBoardsPdsc:254 - Board NUCLEO-WB15CC: unknown feature type=, name=, username=Support of a wide choice of Integrated Development Environments (IDEs) including IAR Embedded Workbench, MDK-ARM, STM32CubeIDE, and Mbed Studio, n=1
2025-02-18 17:08:42,874 [WARN] DbBoardsPdsc:254 - Board STM32H7B3I-DK: unknown feature type=Audio, name=, username=Audio stereo codec with Headphone Amp (CS42L51-CNZ), n=1
2025-02-18 17:08:42,874 [WARN] DbBoardsPdsc:254 - Board STM32H735G-DK: unknown feature type=Audio, name=, username=Audio stereo codec with Headphone Amp (WM8994ECS/R), n=1
2025-02-18 17:08:42,874 [WARN] DbBoardsPdsc:254 - Board STM32WB5MM-DK: unknown feature type=, name=, username=Time-of-Flight and gesture-detection sensor, n=1
2025-02-18 17:08:42,874 [WARN] DbBoardsPdsc:254 - Board STM32WB5MM-DK: unknown feature type=, name=, username=3 push-buttons (2 users and 1 reset) and 1 touch key button, n=1
2025-02-18 17:08:42,874 [WARN] DbBoardsPdsc:254 - Board STM32WB5MM-DK: unknown feature type=, name=, username=Flexible power-supply options: ST-LINK/V2-1 USB connector, 5 V delivered by ARDUINO® or external connector, USB charger, or USB power, n=1
2025-02-18 17:08:42,874 [WARN] DbBoardsPdsc:254 - Board STM32WB5MM-DK: unknown feature type=, name=, username=On-board ST-LINK/V2-1 debugger/programmer with USB re-enumeration capability: Virtual COM port and debug port, n=1
2025-02-18 17:08:42,874 [WARN] DbBoardsPdsc:254 - Board STM32WB5MM-DK: unknown feature type=, name=, username=Comprehensive free software libraries and examples available with the STM32CubeWB MCU Package, n=1
2025-02-18 17:08:42,874 [WARN] DbBoardsPdsc:254 - Board STM32WB5MM-DK: unknown feature type=, name=, username=Support of a wide choice of Integrated Development Environments (IDEs) including IAR Embedded Workbench®, MDK-ARM, and STM32CubeIDE, n=1
2025-02-18 17:08:42,874 [WARN] DbBoardsPdsc:254 - Board STM32H7B3I-EVAL: unknown feature type=Audio, name=, username=Multi-Channel Audio Codec (CS42L51-CNZ), n=1
2025-02-18 17:08:42,874 [WARN] DbBoardsPdsc:254 - Board STM32H7B3I-EVAL: unknown feature type=Meter, name=, username=Power-metering and Temperature-monitoring with sigma-delta modulators, n=1
2025-02-18 17:08:42,874 [WARN] DbBoardsPdsc:254 - Board STM32H7B3I-EVAL: unknown feature type=Motor, name=, username=Motor Control, n=1
2025-02-18 17:08:42,895 [INFO] DbBoardsJson:87 - JSON generation date=Tue Nov 16 16:17:54 GMT 2021 (1637079474)
2025-02-18 17:08:42,895 [INFO] DbBoards:117 - Found 167 boards (158 are supported by CubeMX)
2025-02-18 17:08:42,911 [INFO] DbBoardsDocs:143 - JSON generation date=Tue Nov 16 16:17:54 GMT 2021 (1637079474)
2025-02-18 17:08:42,911 [INFO] DbBoardsDocs:79 - Found 209 boards documents
2025-02-18 17:08:42,911 [WARN] DbBoards:127 - board B-L475E-IOT01A2 has no document id list !
2025-02-18 17:08:42,911 [WARN] DbBoards:127 - board NUCLEO-H743ZI has no document id list !
2025-02-18 17:08:42,918 [WARN] DbBoards:127 - board NUCLEO-WL55JC2 has no document id list !
2025-02-18 17:08:42,918 [WARN] DbBoards:127 - board P-NUCLEO-WB55-Nucleo has no document id list !
2025-02-18 17:08:42,918 [WARN] DbBoards:127 - board P-NUCLEO-WB55-USBDongle has no document id list !
2025-02-18 17:08:42,918 [WARN] DbBoards:127 - board STEVAL-BFA001V1B has no document id list !
2025-02-18 17:08:42,918 [WARN] DbBoards:127 - board STEVAL-BFA001V2B has no document id list !
2025-02-18 17:08:42,918 [WARN] DbBoards:127 - board STEVAL-IDP005V1 has no document id list !
2025-02-18 17:08:42,918 [WARN] DbBoards:127 - board STEVAL-IDP005V2 has no document id list !
2025-02-18 17:08:42,918 [WARN] DbBoards:127 - board STEVAL-MKSBOX1V1 has no document id list !
2025-02-18 17:08:42,918 [WARN] DbBoards:127 - board STEVAL-STWINKT1 has no document id list !
2025-02-18 17:08:42,918 [WARN] DbBoards:127 - board STEVAL-STWINKT1B has no document id list !
2025-02-18 17:08:42,918 [WARN] DbBoards:127 - board STM32439I-EVAL2 has no document id list !
2025-02-18 17:08:42,918 [WARN] DbBoards:127 - board STM32F401C-DISCO has no document id list !
2025-02-18 17:08:42,918 [WARN] DbBoards:127 - board STM32F769I-DISC1 has no document id list !
2025-02-18 17:08:42,918 [WARN] DbBoards:127 - board STM32G474E-EVAL1 has no document id list !
2025-02-18 17:08:42,918 [WARN] DbBoards:127 - board STM32H743I-EVAL2 has no document id list !
2025-02-18 17:08:42,918 [WARN] DbBoards:127 - board STM32H747I-DISC1 has no document id list !
2025-02-18 17:08:42,918 [WARN] DbBoards:127 - board STM32H753I-EVAL2 has no document id list !
2025-02-18 17:08:42,918 [WARN] DbBoards:127 - board STM32L-DISCOVERY has no document id list !
2025-02-18 17:08:43,049 [ERROR] DbBoards:189 - Image file not found for board B-U585I-IOT02A: D:\STM32CubeIDE_1.6.1\STM32CubeIDE\plugins\com.st.stm32cube.common.mx_6.2.1.202103241236\\db\/plugins/mcufinder/images/boards/B-U585I-IOT02A_small.jpg
2025-02-18 17:08:43,144 [ERROR] DbBoards:189 - Image file not found for board NUCLEO-F413ZH: D:\STM32CubeIDE_1.6.1\STM32CubeIDE\plugins\com.st.stm32cube.common.mx_6.2.1.202103241236\\db\/plugins/mcufinder/images/boards/nucleo-f413zh_small.jpg
2025-02-18 17:08:43,290 [ERROR] DbBoards:189 - Image file not found for board NUCLEO-L552ZE-Q: D:\STM32CubeIDE_1.6.1\STM32CubeIDE\plugins\com.st.stm32cube.common.mx_6.2.1.202103241236\\db\/plugins/mcufinder/images/boards/nucleo_l552ze_q_small.jpg
2025-02-18 17:08:43,290 [ERROR] DbBoards:189 - Image file not found for board NUCLEO-U575ZI-Q: D:\STM32CubeIDE_1.6.1\STM32CubeIDE\plugins\com.st.stm32cube.common.mx_6.2.1.202103241236\\db\/plugins/mcufinder/images/boards/nucleo-u575zi-q_small.jpg
2025-02-18 17:08:43,290 [ERROR] DbBoards:189 - Image file not found for board NUCLEO-WB15CC: D:\STM32CubeIDE_1.6.1\STM32CubeIDE\plugins\com.st.stm32cube.common.mx_6.2.1.202103241236\\db\/plugins/mcufinder/images/boards/nucleo-wb15cc_small.jpg
2025-02-18 17:08:43,290 [ERROR] DbBoards:189 - Image file not found for board NUCLEO-WB55RG: D:\STM32CubeIDE_1.6.1\STM32CubeIDE\plugins\com.st.stm32cube.common.mx_6.2.1.202103241236\\db\/plugins/mcufinder/images/boards/nucleo-wb55rg_small.jpg
2025-02-18 17:08:44,240 [ERROR] DbBoards:189 - Image file not found for board STM32U575I-EV: D:\STM32CubeIDE_1.6.1\STM32CubeIDE\plugins\com.st.stm32cube.common.mx_6.2.1.202103241236\\db\/plugins/mcufinder/images/boards/stm32u575i-ev_small.jpg
2025-02-18 17:08:44,291 [INFO] ApiDb:251 - Load user favorites file C:\Users\yh621/.stm32cubeide/favorites.boards.txt: 0 item(s)
2025-02-18 17:08:44,307 [INFO] ApiDb:255 - User favorites Boards=[]
2025-02-18 17:08:44,307 [INFO] DbBoards:206 - Set 0 / 0 favorites Boards
2025-02-18 17:08:51,330 [INFO] DbMcusDocs:143 - JSON generation date=Tue Nov 16 16:17:54 GMT 2021 (1637079474)
2025-02-18 17:08:51,521 [INFO] DbMcusDocs:79 - Found 682 MCUs documents
2025-02-18 17:09:05,860 [INFO] MainUpdater:2661 - connection check result : 10
2025-02-18 17:09:05,860 [INFO] MainUpdater:2661 - connection check result : 10
2025-02-18 17:09:05,888 [INFO] MicroXplorer:442 - Change Database Path : 
2025-02-18 17:09:05,888 [INFO] MicroXplorer:472 - Change Database Version : DB.6.0.21
2025-02-18 17:09:05,888 [WARN] ThirdParty:796 - waiting for thirdparty lock release [close project]
2025-02-18 17:09:05,888 [INFO] ThirdParty:798 - entering critical section [close project]
2025-02-18 17:09:05,888 [INFO] ThirdParty:809 - exiting critical section [close project]
2025-02-18 17:09:05,888 [INFO] PinOutPanel:1435 - setPackage(No Configuration,No Configuration)
2025-02-18 17:09:05,888 [INFO] UtilMem:74 - Begin LoadConfig() Used Memory: 459754024 Bytes (620756992)
2025-02-18 17:09:05,888 [INFO] MicroXplorer:442 - Change Database Path : 
2025-02-18 17:09:05,888 [INFO] MicroXplorer:472 - Change Database Version : DB.6.0.21
2025-02-18 17:09:05,888 [INFO] OpenFileManager:303 - Change cursor
2025-02-18 17:09:05,904 [WARN] IntegrityCheckThread:59 - waiting for thirdparty lock release [integrity check]
2025-02-18 17:09:05,904 [INFO] IntegrityCheckThread:61 - entering critical section [integrity check]
2025-02-18 17:09:06,004 [ERROR] Engine:519 - C:\Users\yh621\.stm32cubemx\thirdparties\pdsc\STMicroelectronics.FP-SNS-MOTENVWB1.1.4.0.pdsc: PDSC version is not supported
2025-02-18 17:09:06,035 [WARN] PackLoader:226 - Cannot read IP mode file for STMicroelectronics.FP-ATR-ASTRA1.2.0.1
2025-02-18 17:09:06,035 [ERROR] Engine:519 - C:\Users\yh621\.stm32cubemx\thirdparties\pdsc\STMicroelectronics.X-CUBE-SMBUS.2.1.0.pdsc: PDSC version is not supported
2025-02-18 17:09:06,051 [WARN] PackLoader:226 - Cannot read IP mode file for STMicroelectronics.X-CUBE-WB05N.1.1.0
2025-02-18 17:09:06,109 [WARN] PackLoader:226 - Cannot read IP mode file for STMicroelectronics.X-CUBE-AZRTOS-F7.1.1.0
2025-02-18 17:09:06,109 [WARN] PackLoader:226 - Cannot read IP mode file for STMicroelectronics.X-CUBE-AI.7.1.0
2025-02-18 17:09:06,125 [ERROR] Engine:519 - C:\Users\yh621\.stm32cubemx\thirdparties\pdsc\STMicroelectronics.FP-SNS-MOTENV1.4.3.2.pdsc: PDSC version is not supported
2025-02-18 17:09:06,125 [ERROR] Engine:519 - C:\Users\yh621\.stm32cubemx\thirdparties\pdsc\STMicroelectronics.FP-SNS-FLIGHT1.5.0.1.pdsc: PDSC version is not supported
2025-02-18 17:09:06,125 [WARN] PackLoader:226 - Cannot read IP mode file for STMicroelectronics.X-CUBE-BLE1.6.2.3
2025-02-18 17:09:06,125 [WARN] PackLoader:226 - Cannot read IP mode file for STMicroelectronics.X-CUBE-BLE1.6.2.4
2025-02-18 17:09:06,143 [ERROR] Engine:519 - C:\Users\yh621\.stm32cubemx\thirdparties\pdsc\STMicroelectronics.FP-SNS-FLIGHT1.5.0.2.pdsc: PDSC version is not supported
2025-02-18 17:09:06,143 [ERROR] Engine:519 - C:\Users\yh621\.stm32cubemx\thirdparties\pdsc\STMicroelectronics.X-CUBE-DISPLAY.3.0.0.pdsc: PDSC version is not supported
2025-02-18 17:09:06,143 [WARN] PackLoader:226 - Cannot read IP mode file for STMicroelectronics.X-CUBE-BLE1.7.0.0
2025-02-18 17:09:06,159 [WARN] PackLoader:226 - Cannot read IP mode file for STMicroelectronics.X-CUBE-NFC10.1.0.0
2025-02-18 17:09:06,159 [ERROR] Engine:519 - C:\Users\yh621\.stm32cubemx\thirdparties\pdsc\STMicroelectronics.X-CUBE-BLEMGR.4.0.0.pdsc: PDSC version is not supported
2025-02-18 17:09:06,159 [WARN] PackLoader:226 - Cannot read IP mode file for STMicroelectronics.X-CUBE-TOUCHGFX.4.22.0
2025-02-18 17:09:06,175 [WARN] PackLoader:226 - Cannot read IP mode file for STMicroelectronics.X-CUBE-TOUCHGFX.4.22.1
2025-02-18 17:09:06,220 [WARN] PackLoader:226 - Cannot read IP mode file for STMicroelectronics.X-CUBE-MEMS1.9.3.0
2025-02-18 17:09:06,438 [WARN] PackLoader:226 - Cannot read IP mode file for STMicroelectronics.X-CUBE-AI.7.2.0
2025-02-18 17:09:06,438 [WARN] PackLoader:226 - Cannot read IP mode file for STMicroelectronics.X-CUBE-AI.10.0.0
2025-02-18 17:09:06,438 [ERROR] Engine:519 - C:\Users\yh621\.stm32cubemx\thirdparties\pdsc\STMicroelectronics.FP-SNS-SMARTAG2.1.2.0.pdsc: PDSC version is not supported
2025-02-18 17:09:06,490 [WARN] PackLoader:226 - Cannot read IP mode file for STMicroelectronics.X-CUBE-MEMS1.11.1.0
2025-02-18 17:09:06,690 [INFO] LogOutputStream:76 - [STDOUT_REDIRECT] 1 : Invalid condition id : UX_CORESTACK_Condition cause : null
2025-02-18 17:09:06,690 [INFO] LogOutputStream:76 - [STDOUT_REDIRECT] 1 : Invalid condition id : UX_CORESTACK_Condition cause : null
2025-02-18 17:09:06,690 [INFO] LogOutputStream:76 - [STDOUT_REDIRECT] 1 : Invalid condition id : UX_CORESTACK_Condition cause : null
2025-02-18 17:09:06,690 [INFO] LogOutputStream:76 - [STDOUT_REDIRECT] 1 : Invalid condition id : UX_CORESTACK_Condition cause : null
2025-02-18 17:09:06,690 [INFO] LogOutputStream:76 - [STDOUT_REDIRECT] 1 : Invalid condition id : UX_CORESTACK_Condition cause : null
2025-02-18 17:09:06,690 [WARN] PackLoader:226 - Cannot read IP mode file for STMicroelectronics.X-CUBE-AZRTOS-WL.2.0.0
2025-02-18 17:09:06,706 [ERROR] Engine:519 - C:\Users\yh621\.stm32cubemx\thirdparties\pdsc\STMicroelectronics.FP-SNS-MOTENV1.5.0.0.pdsc: PDSC version is not supported
2025-02-18 17:09:06,709 [WARN] PackLoader:226 - Cannot read IP mode file for wolfSSL.I-CUBE-wolfMQTT.1.19.0
2025-02-18 17:09:06,709 [WARN] PackLoader:226 - Cannot read IP mode file for WES.I-CUBE-Cesium.1.3.0
2025-02-18 17:09:06,709 [WARN] PackLoader:226 - Cannot read IP mode file for STMicroelectronics.X-CUBE-BLE2.3.3.0
2025-02-18 17:09:06,725 [WARN] PackLoader:226 - Cannot read IP mode file for STMicroelectronics.X-CUBE-DISPLAY.2.2.0
2025-02-18 17:09:06,740 [WARN] PackLoader:226 - Cannot read IP mode file for STMicroelectronics.X-CUBE-TOF1.3.2.0
2025-02-18 17:09:06,756 [WARN] PackLoader:226 - Cannot read IP mode file for STMicroelectronics.X-CUBE-ISPU.1.0.0
2025-02-18 17:09:06,772 [WARN] PackLoader:226 - Cannot read IP mode file for STMicroelectronics.X-CUBE-NFC9.1.0.0
2025-02-18 17:09:06,806 [WARN] PackLoader:226 - Cannot read IP mode file for STMicroelectronics.X-CUBE-AZRTOS-H7.2.1.0
2025-02-18 17:09:06,806 [WARN] PackLoader:226 - Cannot read IP mode file for STMicroelectronics.X-CUBE-TOUCHGFX.4.21.1
2025-02-18 17:09:06,806 [WARN] PackLoader:226 - Cannot read IP mode file for STMicroelectronics.X-CUBE-TOUCHGFX.4.21.0
2025-02-18 17:09:06,806 [WARN] PackLoader:226 - Cannot read IP mode file for STMicroelectronics.X-CUBE-TOUCHGFX.4.21.3
2025-02-18 17:09:06,876 [WARN] PackLoader:226 - Cannot read IP mode file for STMicroelectronics.X-CUBE-MEMS1.9.4.0
2025-02-18 17:09:07,178 [WARN] PackLoader:226 - Cannot read IP mode file for STMicroelectronics.X-CUBE-ALGOBUILD.1.3.0
2025-02-18 17:09:07,206 [WARN] PackLoader:226 - Cannot read IP mode file for STMicroelectronics.X-CUBE-AZRTOS-G0.1.1.0
2025-02-18 17:09:07,222 [WARN] PackLoader:226 - Cannot read IP mode file for STMicroelectronics.X-CUBE-SAFEA1.1.2.2
2025-02-18 17:09:07,237 [WARN] PackLoader:226 - Cannot read IP mode file for STMicroelectronics.X-CUBE-NFC4.3.0.0
2025-02-18 17:09:07,269 [WARN] PackLoader:226 - Cannot read IP mode file for SEGGER.I-CUBE-embOS.1.2.1
2025-02-18 17:09:07,291 [ERROR] Engine:519 - C:\Users\yh621\.stm32cubemx\thirdparties\pdsc\EmbeddedOffice.I-CUBE-FS-RTOS.1.0.1.pdsc: PDSC version is not supported
2025-02-18 17:09:07,306 [ERROR] Engine:519 - C:\Users\yh621\.stm32cubemx\thirdparties\pdsc\STMicroelectronics.X-CUBE-BLEMGR.3.0.0.pdsc: PDSC version is not supported
2025-02-18 17:09:07,306 [WARN] PackLoader:226 - Cannot read IP mode file for STMicroelectronics.X-CUBE-BLEMGR.1.3.0
2025-02-18 17:09:07,306 [ERROR] Engine:519 - C:\Users\yh621\.stm32cubemx\thirdparties\pdsc\STMicroelectronics.X-CUBE-TCPP.4.2.0.pdsc: PDSC version is not supported
2025-02-18 17:09:07,323 [ERROR] Engine:519 - C:\Users\yh621\.stm32cubemx\thirdparties\pdsc\RealThread.X-CUBE-RT-Thread_Nano.4.1.1.pdsc: PDSC version is not supported
2025-02-18 17:09:07,323 [WARN] PackLoader:226 - Cannot read IP mode file for STMicroelectronics.FP-ATR-SIGFOX1.3.2.0
2025-02-18 17:09:07,330 [ERROR] Engine:519 - C:\Users\yh621\.stm32cubemx\thirdparties\pdsc\quantropi.X-CUBE-qispace-sdk-base.1.9.3.pdsc: PDSC version is not supported
2025-02-18 17:09:07,330 [WARN] PackLoader:226 - Cannot read IP mode file for STMicroelectronics.X-CUBE-EEPRMA1.5.1.0
2025-02-18 17:09:07,330 [WARN] PackLoader:226 - Cannot read IP mode file for emotas.I-CUBE-CANOPEN.1.1.2
2025-02-18 17:09:07,346 [WARN] PackLoader:226 - Cannot read IP mode file for STMicroelectronics.X-CUBE-TOUCHGFX.4.20.0
2025-02-18 17:09:07,391 [WARN] PackLoader:226 - Cannot read IP mode file for STMicroelectronics.X-CUBE-MEMS1.9.5.0
2025-02-18 17:09:07,591 [WARN] PackLoader:226 - Cannot read IP mode file for SEGGER.I-CUBE-embOS.1.3.1
2025-02-18 17:09:07,648 [WARN] PackLoader:226 - Cannot read IP mode file for STMicroelectronics.X-CUBE-ALGOBUILD.1.4.0
2025-02-18 17:09:07,668 [WARN] PackLoader:226 - Cannot read IP mode file for SEGGER.I-CUBE-embOS.1.3.0
2025-02-18 17:09:07,713 [WARN] PackLoader:226 - Cannot read IP mode file for STMicroelectronics.X-CUBE-AI.9.1.0
2025-02-18 17:09:07,730 [WARN] PackLoader:226 - Cannot read IP mode file for STMicroelectronics.X-CUBE-GNSS1.6.0.0
2025-02-18 17:09:07,746 [WARN] PackLoader:226 - Cannot read IP mode file for STMicroelectronics.X-CUBE-AZRTOS-F4.1.1.0
2025-02-18 17:09:07,746 [WARN] PackLoader:226 - Cannot read IP mode file for STMicroelectronics.X-CUBE-ISPU.2.1.0
2025-02-18 17:09:07,762 [WARN] PackLoader:226 - Cannot read IP mode file for STMicroelectronics.X-CUBE-BLEMGR.1.2.0
2025-02-18 17:09:07,792 [WARN] PackLoader:226 - Cannot read IP mode file for STMicroelectronics.X-CUBE-AZRTOS-L5.2.0.0
2025-02-18 17:09:07,823 [WARN] PackLoader:226 - Cannot read IP mode file for STMicroelectronics.X-CUBE-MEMS1.9.6.0
2025-02-18 17:09:07,971 [WARN] PackLoader:226 - Cannot read IP mode file for STMicroelectronics.X-CUBE-EEPRMA1.4.2.0
2025-02-18 17:09:07,971 [WARN] PackLoader:226 - Cannot read IP mode file for STMicroelectronics.X-CUBE-NFC6.3.1.0
2025-02-18 17:09:07,971 [ERROR] Engine:519 - C:\Users\yh621\.stm32cubemx\thirdparties\pdsc\ITTIA_DB.I-CUBE-ITTIADB.8.8.0.pdsc: PDSC version is not supported
2025-02-18 17:09:07,971 [WARN] PackLoader:226 - Cannot read IP mode file for emotas.I-CUBE-CANOPEN.1.1.3
2025-02-18 17:09:07,986 [WARN] PackLoader:226 - Cannot read IP mode file for STMicroelectronics.X-CUBE-BLEMGR.2.0.0
2025-02-18 17:09:07,992 [ERROR] Engine:519 - C:\Users\yh621\.stm32cubemx\thirdparties\pdsc\STMicroelectronics.X-CUBE-DPower.1.2.0.pdsc: PDSC version is not supported
2025-02-18 17:09:07,992 [WARN] PackLoader:226 - Cannot read IP mode file for STMicroelectronics.X-CUBE-NFC4.2.0.5
2025-02-18 17:09:08,008 [WARN] PackLoader:226 - Cannot read IP mode file for STMicroelectronics.X-CUBE-NFC4.2.0.4
2025-02-18 17:09:08,024 [WARN] ConditionMgr:437 - getConditionDescription Invalid condition id : UX DEVICE CLASS RTOS Condition cause : null
2025-02-18 17:09:08,024 [WARN] ConditionMgr:437 - getConditionDescription Invalid condition id : UX DEVICE CLASS RTOS Condition cause : null
2025-02-18 17:09:08,024 [WARN] PackLoader:226 - Cannot read IP mode file for STMicroelectronics.X-CUBE-AZRTOS-H7.3.1.0
2025-02-18 17:09:08,024 [WARN] ConditionMgr:1040 - genDependencies : Invalid condition id : UX DEVICE CLASS RTOS Condition cause : null
2025-02-18 17:09:08,024 [WARN] ConditionMgr:1040 - genDependencies : Invalid condition id : UX DEVICE CLASS RTOS Condition cause : null
2025-02-18 17:09:08,024 [WARN] ConditionMgr:1040 - genDependencies : Invalid condition id : UX DEVICE CLASS RTOS Condition cause : null
2025-02-18 17:09:08,024 [WARN] ConditionMgr:1040 - genDependencies : Invalid condition id : UX DEVICE CLASS RTOS Condition cause : null
2025-02-18 17:09:08,024 [WARN] ConditionMgr:1040 - genDependencies : Invalid condition id : UX DEVICE CLASS RTOS Condition cause : null
2025-02-18 17:09:08,024 [ERROR] Engine:519 - STMicroelectronics.X-CUBE-AI.7.3.0: Software pack already exists
2025-02-18 17:09:08,024 [WARN] PackLoader:226 - Cannot read IP mode file for wolfSSL.I-CUBE-wolfSSL.5.5.4
2025-02-18 17:09:08,024 [WARN] PackLoader:226 - Cannot read IP mode file for wolfSSL.I-CUBE-wolfSSL.5.5.1
2025-02-18 17:09:08,039 [ERROR] Engine:519 - C:\Users\yh621\.stm32cubemx\thirdparties\pdsc\STMicroelectronics.X-CUBE-FREERTOS.1.3.0.pdsc: PDSC version is not supported
2025-02-18 17:09:08,039 [WARN] PackLoader:226 - Cannot read IP mode file for STMicroelectronics.X-CUBE-NFC7.1.0.1
2025-02-18 17:09:08,039 [WARN] PackLoader:226 - Cannot read IP mode file for STMicroelectronics.X-CUBE-NFC7.1.0.0
2025-02-18 17:09:08,039 [WARN] PackLoader:226 - Cannot read IP mode file for STMicroelectronics.X-CUBE-NFC6.3.0.0
2025-02-18 17:09:08,056 [WARN] PackLoader:226 - Cannot read IP mode file for STMicroelectronics.X-CUBE-EEPRMA1.4.1.0
2025-02-18 17:09:08,072 [WARN] PackLoader:226 - Cannot read IP mode file for STMicroelectronics.X-CUBE-AI.8.1.0
2025-02-18 17:09:08,124 [WARN] ConditionMgr:437 - getConditionDescription Invalid condition id : LAN8742 Phy interface Condition cause : null
2025-02-18 17:09:08,124 [WARN] PackLoader:226 - Cannot read IP mode file for STMicroelectronics.X-CUBE-AZRTOS-L4.2.0.0
2025-02-18 17:09:08,140 [WARN] ConditionMgr:1040 - genDependencies : Invalid condition id : LAN8742 Phy interface Condition cause : null
2025-02-18 17:09:08,140 [WARN] ConditionMgr:1040 - genDependencies : Invalid condition id : LAN8742 Phy interface Condition cause : null
2025-02-18 17:09:08,140 [WARN] ConditionMgr:1040 - genDependencies : Invalid condition id : LAN8742 Phy interface Condition cause : null
2025-02-18 17:09:08,140 [WARN] PackLoader:226 - Cannot read IP mode file for STMicroelectronics.X-CUBE-SFXS2LP1.4.0.0
2025-02-18 17:09:08,140 [ERROR] Engine:519 - STMicroelectronics.X-CUBE-AI.7.3.0: Software pack already exists
2025-02-18 17:09:08,156 [WARN] PackLoader:226 - Cannot read IP mode file for STMicroelectronics.X-CUBE-AZRTOS-H7.3.0.0
2025-02-18 17:09:08,156 [WARN] PackLoader:226 - Cannot read IP mode file for STMicroelectronics.X-CUBE-ISPU.1.1.0
2025-02-18 17:09:08,171 [WARN] PackLoader:226 - Cannot read IP mode file for STMicroelectronics.X-CUBE-AZRTOS-H7.3.3.0
2025-02-18 17:09:08,193 [WARN] PackLoader:226 - Cannot read IP mode file for RoweBots.I-CUBE-UNISONRTOS.5.5.0-4
2025-02-18 17:09:08,239 [WARN] ConditionMgr:437 - getConditionDescription Invalid condition id : UX DEVICE CLASS RTOS Condition cause : null
2025-02-18 17:09:08,239 [WARN] ConditionMgr:437 - getConditionDescription Invalid condition id : UX DEVICE CLASS RTOS Condition cause : null
2025-02-18 17:09:08,239 [WARN] PackLoader:226 - Cannot read IP mode file for STMicroelectronics.X-CUBE-AZRTOS-WB.2.0.0
2025-02-18 17:09:08,255 [WARN] ConditionMgr:1040 - genDependencies : Invalid condition id : UX DEVICE CLASS RTOS Condition cause : null
2025-02-18 17:09:08,255 [WARN] ConditionMgr:1040 - genDependencies : Invalid condition id : UX DEVICE CLASS RTOS Condition cause : null
2025-02-18 17:09:08,255 [WARN] ConditionMgr:1040 - genDependencies : Invalid condition id : UX DEVICE CLASS RTOS Condition cause : null
2025-02-18 17:09:08,255 [WARN] ConditionMgr:1040 - genDependencies : Invalid condition id : UX DEVICE CLASS RTOS Condition cause : null
2025-02-18 17:09:08,255 [WARN] ConditionMgr:1040 - genDependencies : Invalid condition id : UX DEVICE CLASS RTOS Condition cause : null
2025-02-18 17:09:08,255 [ERROR] Engine:519 - C:\Users\yh621\.stm32cubemx\thirdparties\pdsc\STMicroelectronics.X-CUBE-FREERTOS.1.0.0.pdsc: PDSC version is not supported
2025-02-18 17:09:08,255 [ERROR] Engine:519 - C:\Users\yh621\.stm32cubemx\thirdparties\pdsc\STMicroelectronics.X-CUBE-FREERTOS.1.0.1.pdsc: PDSC version is not supported
2025-02-18 17:09:08,255 [WARN] PackLoader:226 - Cannot read IP mode file for STMicroelectronics.X-CUBE-GNSS1.7.0.1
2025-02-18 17:09:08,255 [ERROR] Engine:519 - C:\Users\yh621\.stm32cubemx\thirdparties\pdsc\STMicroelectronics.FP-SNS-STBOX1.2.0.0.pdsc: PDSC version is not supported
2025-02-18 17:09:08,293 [WARN] PackLoader:226 - Cannot read IP mode file for STMicroelectronics.X-CUBE-AZRTOS-L5.1.1.0
2025-02-18 17:09:08,335 [WARN] PackLoader:226 - Cannot read IP mode file for STMicroelectronics.X-CUBE-SUBG2.5.0.0
2025-02-18 17:09:08,351 [ERROR] Engine:519 - C:\Users\yh621\.stm32cubemx\thirdparties\pdsc\Cesanta.I-CUBE-Mongoose.7.13.0.pdsc: PDSC version is not supported
2025-02-18 17:09:08,351 [ERROR] Engine:519 - C:\Users\yh621\.stm32cubemx\thirdparties\pdsc\STMicroelectronics.X-CUBE-TOF1.3.3.1.pdsc: PDSC version is not supported
2025-02-18 17:09:08,367 [WARN] PackLoader:226 - Cannot read IP mode file for STMicroelectronics.X-CUBE-AZRTOS-G4.2.0.0
2025-02-18 17:09:08,395 [WARN] PackLoader:226 - Cannot read IP mode file for STMicroelectronics.X-CUBE-TOF1.3.3.0
2025-02-18 17:09:08,405 [WARN] PackLoader:226 - Cannot read IP mode file for STMicroelectronics.FP-ATR-ASTRA1.1.1.1
2025-02-18 17:09:08,415 [ERROR] Engine:519 - C:\Users\yh621\.stm32cubemx\thirdparties\pdsc\Infineon.AIROC-Wi-Fi-Bluetooth-STM32.1.5.1.pdsc: PDSC version is not supported
2025-02-18 17:09:08,424 [ERROR] Engine:519 - C:\Users\yh621\.stm32cubemx\thirdparties\pdsc\STMicroelectronics.FP-SNS-MOTENVWB1.1.3.0.pdsc: PDSC version is not supported
2025-02-18 17:09:08,436 [WARN] PackLoader:226 - Cannot read IP mode file for STMicroelectronics.X-CUBE-AZRTOS-G4.1.0.0
2025-02-18 17:09:08,464 [WARN] PackLoader:226 - Cannot read IP mode file for STMicroelectronics.X-CUBE-AZRTOS-L4.1.0.0
2025-02-18 17:09:08,466 [ERROR] Engine:519 - C:\Users\yh621\.stm32cubemx\thirdparties\pdsc\STMicroelectronics.X-CUBE-IPS.3.1.0.pdsc: PDSC version is not supported
2025-02-18 17:09:08,474 [ERROR] Engine:519 - C:\Users\yh621\.stm32cubemx\thirdparties\pdsc\STMicroelectronics.X-CUBE-ALS.1.0.2.pdsc: PDSC version is not supported
2025-02-18 17:09:08,534 [WARN] PackLoader:226 - Cannot read IP mode file for STMicroelectronics.X-CUBE-MEMS1.10.0.0
2025-02-18 17:09:08,695 [ERROR] Engine:519 - C:\Users\yh621\.stm32cubemx\thirdparties\pdsc\STMicroelectronics.X-CUBE-FREERTOS.1.1.0.pdsc: PDSC version is not supported
2025-02-18 17:09:08,721 [WARN] PackLoader:226 - Cannot read IP mode file for STMicroelectronics.X-CUBE-TOUCHGFX.4.24.2
2025-02-18 17:09:08,737 [WARN] PackLoader:226 - Cannot read IP mode file for STMicroelectronics.X-CUBE-AZRTOS-WL.1.0.0
2025-02-18 17:09:08,737 [WARN] PackLoader:226 - Cannot read IP mode file for wolfSSL.I-CUBE-wolfTPM.3.4.0
2025-02-18 17:09:08,737 [WARN] PackLoader:226 - Cannot read IP mode file for portGmbH.I-Cube-SoM-uGOAL.1.1.0
2025-02-18 17:09:08,737 [WARN] PackLoader:226 - Cannot read IP mode file for STMicroelectronics.X-CUBE-ALS.1.0.1
2025-02-18 17:09:08,795 [WARN] PackLoader:226 - Cannot read IP mode file for STMicroelectronics.X-CUBE-AZRTOS-WB.1.1.0
2025-02-18 17:09:08,810 [WARN] PackLoader:226 - Cannot read IP mode file for STMicroelectronics.X-CUBE-AZRTOS-L5.1.0.0
2025-02-18 17:09:08,810 [WARN] PackLoader:226 - Cannot read IP mode file for STMicroelectronics.X-CUBE-EEPRMA1.3.1.1
2025-02-18 17:09:08,826 [WARN] PackLoader:226 - Cannot read IP mode file for STMicroelectronics.X-CUBE-AZRTOS-H7RS.1.0.0
2025-02-18 17:09:08,841 [WARN] PackLoader:226 - Cannot read IP mode file for STMicroelectronics.FP-ATR-ASTRA1.2.0.0
2025-02-18 17:09:08,841 [ERROR] Engine:519 - C:\Users\yh621\.stm32cubemx\thirdparties\pdsc\STMicroelectronics.X-CUBE-TOF1.3.4.2.pdsc: PDSC version is not supported
2025-02-18 17:09:08,852 [ERROR] Engine:519 - C:\Users\yh621\.stm32cubemx\thirdparties\pdsc\STMicroelectronics.X-CUBE-TOF1.3.4.0.pdsc: PDSC version is not supported
2025-02-18 17:09:08,852 [WARN] PackLoader:226 - Cannot read IP mode file for wolfSSL.I-CUBE-wolfSSH.1.4.17
2025-02-18 17:09:08,852 [INFO] ThirdParty:900 - Integrity check success = true
2025-02-18 17:09:08,852 [INFO] IntegrityCheckThread:75 - exiting critical section [integrity check]
2025-02-18 17:09:08,852 [INFO] IntegrityCheckThread:78 - End integrity checks thread
2025-02-18 17:09:12,742 [INFO] Context:587 - Trying to add GPIOservice into a context  which must be forbidden
2025-02-18 17:09:13,889 [INFO] ImportTextPane:162 - (OptionalMessage_ERROR) Unable to find key (Mcu.ThirdPartyNb) in loaded IOC file
2025-02-18 17:09:13,889 [INFO] ImportTextPane:162 - (OptionalMessage_ERROR) Unable to find key (Mcu.PinsNb) in loaded IOC file
2025-02-18 17:09:13,889 [INFO] ImportTextPane:162 - (OptionalMessage_ERROR) Unable to find key (Mcu.IPNb) in loaded IOC file
2025-02-18 17:09:13,966 [WARN] ApiManager:294 - Cannot register API 'Board Extension:GNSS1A1' from pack STMicroelectronics.X-CUBE-GNSS1.6.0.0: no header file found
2025-02-18 17:09:13,966 [WARN] ApiManager:294 - Cannot register API 'Board Support:Custom' from pack STMicroelectronics.X-CUBE-GNSS1.6.0.0: no header file found
2025-02-18 17:09:13,966 [WARN] ApiManager:294 - Cannot register API 'Data Exchange:lib_gnss' from pack STMicroelectronics.X-CUBE-GNSS1.6.0.0: no header file found
2025-02-18 17:09:13,966 [WARN] ApiManager:294 - Cannot register API 'Wireless:STM32WB05N' from pack STMicroelectronics.X-CUBE-WB05N.1.1.0: no header file found
2025-02-18 17:09:14,162 [WARN] ApiManager:294 - Cannot register API 'Board Extension:IKS01A3' from pack STMicroelectronics.X-CUBE-MEMS1.9.6.0: no header file found
2025-02-18 17:09:14,162 [WARN] ApiManager:294 - Cannot register API 'Board Extension:IKS01A2' from pack STMicroelectronics.X-CUBE-MEMS1.9.6.0: no header file found
2025-02-18 17:09:14,162 [WARN] ApiManager:294 - Cannot register API 'Board Extension:IKS02A1' from pack STMicroelectronics.X-CUBE-MEMS1.9.6.0: no header file found
2025-02-18 17:09:14,178 [WARN] ApiManager:294 - Cannot register API 'Board Extension:EEPRMA2' from pack STMicroelectronics.X-CUBE-EEPRMA1.4.2.0: no header file found
2025-02-18 17:09:14,178 [WARN] ApiManager:294 - Cannot register API 'Board Extension:PGEEZ1' from pack STMicroelectronics.X-CUBE-EEPRMA1.4.2.0: no header file found
2025-02-18 17:09:14,178 [WARN] ApiManager:294 - Cannot register API 'Board Part:M24' from pack STMicroelectronics.X-CUBE-EEPRMA1.4.2.0: no header file found
2025-02-18 17:09:14,178 [WARN] ApiManager:294 - Cannot register API 'Board Part:M95' from pack STMicroelectronics.X-CUBE-EEPRMA1.4.2.0: no header file found
2025-02-18 17:09:14,178 [WARN] ApiManager:294 - Cannot register API 'Board Part:M95P32' from pack STMicroelectronics.X-CUBE-EEPRMA1.4.2.0: no header file found
2025-02-18 17:09:14,178 [WARN] ApiManager:294 - Cannot register API 'PGEEZ1:SPI' from pack STMicroelectronics.X-CUBE-EEPRMA1.4.2.0: no header file found
2025-02-18 17:09:14,178 [WARN] ApiManager:294 - Cannot register API 'PGEEZ1:QDSPI' from pack STMicroelectronics.X-CUBE-EEPRMA1.4.2.0: no header file found
2025-02-18 17:09:14,178 [WARN] ApiManager:294 - Cannot register API 'Board Extension:NFC06A1' from pack STMicroelectronics.X-CUBE-NFC6.3.1.0: no header file found
2025-02-18 17:09:14,178 [WARN] ApiManager:294 - Cannot register API 'Board Extension:NFC08A1' from pack STMicroelectronics.X-CUBE-NFC6.3.1.0: no header file found
2025-02-18 17:09:14,178 [WARN] ApiManager:294 - Cannot register API 'Wireless:BlueNRG-MS' from pack STMicroelectronics.X-CUBE-BLE1.6.2.3: no header file found
2025-02-18 17:09:14,178 [WARN] ApiManager:294 - Cannot register API 'Wireless:BlueNRG-MS' from pack STMicroelectronics.X-CUBE-BLE1.6.2.4: no header file found
2025-02-18 17:09:14,178 [INFO] RtosManager:470 - Registered RTOS mode: class=CMSIS, group=RTOS, mode=CMSIS_V1, owner=FREERTOS
2025-02-18 17:09:14,194 [INFO] RtosManager:470 - Registered RTOS mode: class=CMSIS, group=RTOS2, mode=CMSIS_V2, owner=FREERTOS
2025-02-18 17:09:14,194 [INFO] RtosManager:470 - Registered RTOS mode: class=RTOS, group=Core, mode=CMSIS_V1, owner=FREERTOS
2025-02-18 17:09:14,195 [INFO] RtosManager:470 - Registered RTOS mode: class=RTOS, group=Core, mode=CMSIS_V2, owner=FREERTOS
2025-02-18 17:09:14,195 [WARN] ModelIntegratedComponent:182 - Missing modes for component STMicroelectronics:FreeRTOS:0.0.1:STMicroelectronics:RTOS:FreeRTOS:Core:::10.2.0:
2025-02-18 17:09:14,195 [WARN] ApiManager:294 - Cannot register API 'Board Extension:NFC04A1' from pack STMicroelectronics.X-CUBE-NFC4.2.0.5: no header file found
2025-02-18 17:09:14,195 [WARN] ApiManager:294 - Cannot register API 'Board Extension:NFC04A1' from pack STMicroelectronics.X-CUBE-NFC4.2.0.4: no header file found
2025-02-18 17:09:14,195 [WARN] ApiManager:294 - Cannot register API 'Wireless:BlueNRG-MS' from pack STMicroelectronics.X-CUBE-BLE1.7.0.0: no header file found
2025-02-18 17:09:14,195 [WARN] ApiManager:294 - Cannot register API 'Board Extension:NFC10A1' from pack STMicroelectronics.X-CUBE-NFC10.1.0.0: no header file found
2025-02-18 17:09:14,195 [WARN] ModelIntegratedComponent:51 - No mode defined for component null
2025-02-18 17:09:14,195 [WARN] ModelIntegratedComponent:51 - No mode defined for component null
2025-02-18 17:09:14,195 [WARN] ModelIntegratedComponent:51 - No mode defined for component null
2025-02-18 17:09:14,195 [WARN] ModelIntegratedComponent:51 - No mode defined for component null
2025-02-18 17:09:14,195 [WARN] ModelIntegratedComponent:51 - No mode defined for component null
2025-02-18 17:09:14,195 [WARN] ModelIntegratedComponent:51 - No mode defined for component null
2025-02-18 17:09:14,195 [WARN] ModelIntegratedComponent:51 - No mode defined for component null
2025-02-18 17:09:14,195 [WARN] ModelIntegratedComponent:51 - No mode defined for component null
2025-02-18 17:09:14,195 [WARN] ModelIntegratedComponent:51 - No mode defined for component null
2025-02-18 17:09:14,195 [WARN] ModelIntegratedComponent:51 - No mode defined for component null
2025-02-18 17:09:14,195 [WARN] ModelIntegratedComponent:51 - No mode defined for component null
2025-02-18 17:09:14,195 [WARN] ModelIntegratedComponent:51 - No mode defined for component null
2025-02-18 17:09:14,195 [WARN] ModelIntegratedComponent:51 - No mode defined for component null
2025-02-18 17:09:14,195 [WARN] ModelIntegratedComponent:51 - No mode defined for component null
2025-02-18 17:09:14,195 [WARN] ModelIntegratedComponent:51 - No mode defined for component null
2025-02-18 17:09:14,195 [WARN] ModelIntegratedComponent:51 - No mode defined for component null
2025-02-18 17:09:14,195 [WARN] ModelIntegratedComponent:51 - No mode defined for component null
2025-02-18 17:09:14,195 [WARN] ModelIntegratedComponent:51 - No mode defined for component null
2025-02-18 17:09:14,195 [WARN] ModelIntegratedComponent:51 - No mode defined for component null
2025-02-18 17:09:14,195 [WARN] ModelIntegratedComponent:51 - No mode defined for component null
2025-02-18 17:09:14,195 [WARN] ModelIntegratedComponent:51 - No mode defined for component null
2025-02-18 17:09:14,195 [WARN] ModelIntegratedComponent:51 - No mode defined for component null
2025-02-18 17:09:14,195 [WARN] ModelIntegratedComponent:51 - No mode defined for component null
2025-02-18 17:09:14,195 [WARN] ModelIntegratedComponent:51 - No mode defined for component null
2025-02-18 17:09:14,195 [WARN] ModelIntegratedComponent:51 - No mode defined for component null
2025-02-18 17:09:14,195 [WARN] ModelIntegratedComponent:51 - No mode defined for component null
2025-02-18 17:09:14,195 [WARN] ModelIntegratedComponent:51 - No mode defined for component null
2025-02-18 17:09:14,195 [WARN] ApiManager:294 - Cannot register API 'Board Extension:NFC07A1' from pack STMicroelectronics.X-CUBE-NFC7.1.0.1: no header file found
2025-02-18 17:09:14,195 [WARN] ApiManager:294 - Cannot register API 'Board Extension:NFC07A1' from pack STMicroelectronics.X-CUBE-NFC7.1.0.0: no header file found
2025-02-18 17:09:14,195 [WARN] ApiManager:294 - Cannot register API 'Board Extension:NFC06A1' from pack STMicroelectronics.X-CUBE-NFC6.3.0.0: no header file found
2025-02-18 17:09:14,195 [WARN] ApiManager:294 - Cannot register API 'Board Extension:NFC08A1' from pack STMicroelectronics.X-CUBE-NFC6.3.0.0: no header file found
2025-02-18 17:09:14,344 [WARN] ApiManager:294 - Cannot register API 'Board Extension:IKS01A3' from pack STMicroelectronics.X-CUBE-MEMS1.9.3.0: no header file found
2025-02-18 17:09:14,344 [WARN] ApiManager:294 - Cannot register API 'Board Extension:IKS01A2' from pack STMicroelectronics.X-CUBE-MEMS1.9.3.0: no header file found
2025-02-18 17:09:14,344 [WARN] ApiManager:294 - Cannot register API 'Board Extension:IKS02A1' from pack STMicroelectronics.X-CUBE-MEMS1.9.3.0: no header file found
2025-02-18 17:09:14,359 [WARN] ApiManager:294 - Cannot register API 'Board Extension:EEPRMA1' from pack STMicroelectronics.X-CUBE-EEPRMA1.4.1.0: no header file found
2025-02-18 17:09:14,359 [WARN] ApiManager:294 - Cannot register API 'Board Extension:EEPRMA2' from pack STMicroelectronics.X-CUBE-EEPRMA1.4.1.0: no header file found
2025-02-18 17:09:14,359 [WARN] ApiManager:294 - Cannot register API 'Board Extension:PGEEZ1' from pack STMicroelectronics.X-CUBE-EEPRMA1.4.1.0: no header file found
2025-02-18 17:09:14,359 [WARN] ApiManager:294 - Cannot register API 'Board Part:M24' from pack STMicroelectronics.X-CUBE-EEPRMA1.4.1.0: no header file found
2025-02-18 17:09:14,359 [WARN] ApiManager:294 - Cannot register API 'Board Part:M95' from pack STMicroelectronics.X-CUBE-EEPRMA1.4.1.0: no header file found
2025-02-18 17:09:14,359 [WARN] ApiManager:294 - Cannot register API 'Board Part:M95P32' from pack STMicroelectronics.X-CUBE-EEPRMA1.4.1.0: no header file found
2025-02-18 17:09:14,359 [WARN] ApiManager:294 - Cannot register API 'PGEEZ1:SPI' from pack STMicroelectronics.X-CUBE-EEPRMA1.4.1.0: no header file found
2025-02-18 17:09:14,359 [WARN] ApiManager:294 - Cannot register API 'PGEEZ1:QDSPI' from pack STMicroelectronics.X-CUBE-EEPRMA1.4.1.0: no header file found
2025-02-18 17:09:14,522 [WARN] ApiManager:294 - Cannot register API 'Board Extension:IKS01A3' from pack STMicroelectronics.X-CUBE-MEMS1.11.1.0: no header file found
2025-02-18 17:09:14,522 [WARN] ApiManager:294 - Cannot register API 'Board Extension:IKS02A1' from pack STMicroelectronics.X-CUBE-MEMS1.11.1.0: no header file found
2025-02-18 17:09:14,522 [WARN] ApiManager:294 - Cannot register API 'Board Extension:IKS4A1' from pack STMicroelectronics.X-CUBE-MEMS1.11.1.0: no header file found
2025-02-18 17:09:14,522 [WARN] ApiManager:294 - Cannot register API 'Board Extension:S2868A1' from pack STMicroelectronics.X-CUBE-SFXS2LP1.4.0.0: no header file found
2025-02-18 17:09:14,522 [WARN] ApiManager:294 - Cannot register API 'Board Extension:S2868A2' from pack STMicroelectronics.X-CUBE-SFXS2LP1.4.0.0: no header file found
2025-02-18 17:09:14,522 [WARN] ApiManager:294 - Cannot register API 'Board Extension:S2915A1' from pack STMicroelectronics.X-CUBE-SFXS2LP1.4.0.0: no header file found
2025-02-18 17:09:14,538 [WARN] ApiManager:294 - Cannot register API 'Wireless:BlueNRG-2' from pack STMicroelectronics.X-CUBE-BLE2.3.3.0: no header file found
2025-02-18 17:09:14,544 [WARN] ApiManager:294 - Cannot register API 'Board Extension:NFC09A1' from pack STMicroelectronics.X-CUBE-NFC9.1.0.0: no header file found
2025-02-18 17:09:14,544 [WARN] ApiManager:294 - Cannot register API 'Board Extension:GNSS1A1' from pack STMicroelectronics.X-CUBE-GNSS1.7.0.1: no header file found
2025-02-18 17:09:14,544 [WARN] ApiManager:294 - Cannot register API 'Board Support:Custom' from pack STMicroelectronics.X-CUBE-GNSS1.7.0.1: no header file found
2025-02-18 17:09:14,544 [WARN] ApiManager:294 - Cannot register API 'Data Exchange:lib_gnss' from pack STMicroelectronics.X-CUBE-GNSS1.7.0.1: no header file found
2025-02-18 17:09:14,660 [WARN] ApiManager:294 - Cannot register API 'Board Extension:IKS01A3' from pack STMicroelectronics.X-CUBE-MEMS1.9.4.0: no header file found
2025-02-18 17:09:14,660 [WARN] ApiManager:294 - Cannot register API 'Board Extension:IKS01A2' from pack STMicroelectronics.X-CUBE-MEMS1.9.4.0: no header file found
2025-02-18 17:09:14,660 [WARN] ApiManager:294 - Cannot register API 'Board Extension:IKS02A1' from pack STMicroelectronics.X-CUBE-MEMS1.9.4.0: no header file found
2025-02-18 17:09:14,675 [WARN] ApiManager:294 - Cannot register API 'Board Extension:STSAFEA1' from pack STMicroelectronics.X-CUBE-SAFEA1.1.2.2: no header file found
2025-02-18 17:09:14,675 [WARN] ApiManager:294 - Cannot register API 'Board Part:STSAFEA110' from pack STMicroelectronics.X-CUBE-SAFEA1.1.2.2: no header file found
2025-02-18 17:09:14,675 [WARN] ApiManager:294 - Cannot register API 'Security:ST_Cryptolib' from pack STMicroelectronics.X-CUBE-SAFEA1.1.2.2: no header file found
2025-02-18 17:09:14,675 [WARN] ApiManager:294 - Cannot register API 'Security:MbedTLS' from pack STMicroelectronics.X-CUBE-SAFEA1.1.2.2: no header file found
2025-02-18 17:09:14,675 [WARN] ApiManager:294 - Cannot register API 'Board Extension:NFC04A1' from pack STMicroelectronics.X-CUBE-NFC4.3.0.0: no header file found
2025-02-18 17:09:14,675 [WARN] ApiManager:294 - Cannot register API 'Board Extension:S2868A1' from pack STMicroelectronics.X-CUBE-SUBG2.5.0.0: no header file found
2025-02-18 17:09:14,675 [WARN] ApiManager:294 - Cannot register API 'Board Extension:S2868A2' from pack STMicroelectronics.X-CUBE-SUBG2.5.0.0: no header file found
2025-02-18 17:09:14,675 [WARN] ApiManager:294 - Cannot register API 'Board Extension:S2915A1' from pack STMicroelectronics.X-CUBE-SUBG2.5.0.0: no header file found
2025-02-18 17:09:14,700 [WARN] ApiManager:294 - Cannot register API 'Board Extension:EEPRMA2' from pack STMicroelectronics.X-CUBE-EEPRMA1.5.1.0: no header file found
2025-02-18 17:09:14,700 [WARN] ApiManager:294 - Cannot register API 'Board Extension:PGEEZ1' from pack STMicroelectronics.X-CUBE-EEPRMA1.5.1.0: no header file found
2025-02-18 17:09:14,700 [WARN] ApiManager:294 - Cannot register API 'Board Extension:EEICA1' from pack STMicroelectronics.X-CUBE-EEPRMA1.5.1.0: no header file found
2025-02-18 17:09:14,700 [WARN] ApiManager:294 - Cannot register API 'Board Part:M24' from pack STMicroelectronics.X-CUBE-EEPRMA1.5.1.0: no header file found
2025-02-18 17:09:14,700 [WARN] ApiManager:294 - Cannot register API 'Board Part:M95' from pack STMicroelectronics.X-CUBE-EEPRMA1.5.1.0: no header file found
2025-02-18 17:09:14,700 [WARN] ApiManager:294 - Cannot register API 'Board Part:M95P32' from pack STMicroelectronics.X-CUBE-EEPRMA1.5.1.0: no header file found
2025-02-18 17:09:14,700 [WARN] ApiManager:294 - Cannot register API 'Board Part:M24256E-F' from pack STMicroelectronics.X-CUBE-EEPRMA1.5.1.0: no header file found
2025-02-18 17:09:14,700 [WARN] ApiManager:294 - Cannot register API 'Board Part:M24M01E-F' from pack STMicroelectronics.X-CUBE-EEPRMA1.5.1.0: no header file found
2025-02-18 17:09:14,700 [WARN] ApiManager:294 - Cannot register API 'PGEEZ1:SPI' from pack STMicroelectronics.X-CUBE-EEPRMA1.5.1.0: no header file found
2025-02-18 17:09:14,700 [WARN] ApiManager:294 - Cannot register API 'PGEEZ1:QDSPI' from pack STMicroelectronics.X-CUBE-EEPRMA1.5.1.0: no header file found
2025-02-18 17:09:14,898 [WARN] ApiManager:294 - Cannot register API 'Board Extension:IKS01A3' from pack STMicroelectronics.X-CUBE-MEMS1.10.0.0: no header file found
2025-02-18 17:09:14,898 [WARN] ApiManager:294 - Cannot register API 'Board Extension:IKS02A1' from pack STMicroelectronics.X-CUBE-MEMS1.10.0.0: no header file found
2025-02-18 17:09:14,898 [WARN] ApiManager:294 - Cannot register API 'Board Extension:IKS4A1' from pack STMicroelectronics.X-CUBE-MEMS1.10.0.0: no header file found
2025-02-18 17:09:15,077 [WARN] ApiManager:294 - Cannot register API 'Board Extension:IKS01A3' from pack STMicroelectronics.X-CUBE-MEMS1.9.5.0: no header file found
2025-02-18 17:09:15,077 [WARN] ApiManager:294 - Cannot register API 'Board Extension:IKS01A2' from pack STMicroelectronics.X-CUBE-MEMS1.9.5.0: no header file found
2025-02-18 17:09:15,077 [WARN] ApiManager:294 - Cannot register API 'Board Extension:IKS02A1' from pack STMicroelectronics.X-CUBE-MEMS1.9.5.0: no header file found
2025-02-18 17:09:15,077 [WARN] ApiManager:294 - Cannot register API 'Board Extension:EEPRMA1' from pack STMicroelectronics.X-CUBE-EEPRMA1.3.1.1: no header file found
2025-02-18 17:09:15,077 [WARN] ApiManager:294 - Cannot register API 'Board Extension:EEPRMA2' from pack STMicroelectronics.X-CUBE-EEPRMA1.3.1.1: no header file found
2025-02-18 17:09:47,813 [INFO] UtilMem:74 - End LoadConfig() Used Memory: 1054060248 Bytes (1071644672)
2025-02-18 17:09:47,829 [WARN] ThirdParty:762 - waiting for thirdparty lock release [change project]
2025-02-18 17:09:47,829 [INFO] ThirdParty:764 - entering critical section [change project]
2025-02-18 17:09:47,830 [INFO] ThirdParty:952 - CMSIS Pack Vendor :STMicroelectronics X-CUBE-GNSS1 6.0.0
2025-02-18 17:09:47,830 [INFO] ThirdParty:952 - CMSIS Pack Vendor :STMicroelectronics USB_HOST 2.0.0
2025-02-18 17:09:47,830 [INFO] ThirdParty:952 - CMSIS Pack Vendor :STMicroelectronics X-CUBE-AZRTOS-F4 1.1.0
2025-02-18 17:09:47,830 [INFO] ThirdParty:952 - CMSIS Pack Vendor :STMicroelectronics FP-ATR-ASTRA1 2.0.1
2025-02-18 17:09:47,830 [INFO] ThirdParty:952 - CMSIS Pack Vendor :STMicroelectronics X-CUBE-WB05N 1.1.0
2025-02-18 17:09:47,830 [INFO] ThirdParty:952 - CMSIS Pack Vendor :STMicroelectronics X-CUBE-ISPU 2.1.0
2025-02-18 17:09:47,830 [INFO] ThirdParty:952 - CMSIS Pack Vendor :STMicroelectronics X-CUBE-BLEMGR 1.2.0
2025-02-18 17:09:47,830 [INFO] ThirdParty:952 - CMSIS Pack Vendor :STMicroelectronics X-CUBE-AZRTOS-F7 1.1.0
2025-02-18 17:09:47,830 [INFO] ThirdParty:952 - CMSIS Pack Vendor :STMicroelectronics X-CUBE-AZRTOS-L5 2.0.0
2025-02-18 17:09:47,830 [INFO] ThirdParty:952 - CMSIS Pack Vendor :STMicroelectronics USB_DEVICE 2.0.0
2025-02-18 17:09:47,830 [INFO] ThirdParty:952 - CMSIS Pack Vendor :STMicroelectronics X-CUBE-MEMS1 9.6.0
2025-02-18 17:09:47,830 [INFO] ThirdParty:952 - CMSIS Pack Vendor :STMicroelectronics X-CUBE-EEPRMA1 4.2.0
2025-02-18 17:09:47,830 [INFO] ThirdParty:952 - CMSIS Pack Vendor :STMicroelectronics X-CUBE-NFC6 3.1.0
2025-02-18 17:09:47,830 [INFO] ThirdParty:952 - CMSIS Pack Vendor :STMicroelectronics X-CUBE-AI 7.1.0
2025-02-18 17:09:47,830 [INFO] ThirdParty:952 - CMSIS Pack Vendor :STMicroelectronics X-CUBE-BLE1 6.2.3
2025-02-18 17:09:47,830 [INFO] ThirdParty:952 - CMSIS Pack Vendor :STMicroelectronics X-CUBE-BLE1 6.2.4
2025-02-18 17:09:47,830 [INFO] ThirdParty:952 - CMSIS Pack Vendor :STMicroelectronics FreeRTOS 0.0.1
2025-02-18 17:09:47,830 [INFO] ThirdParty:952 - CMSIS Pack Vendor :emotas I-CUBE-CANOPEN 1.1.3
2025-02-18 17:09:47,830 [INFO] ThirdParty:952 - CMSIS Pack Vendor :STMicroelectronics X-CUBE-BLEMGR 2.0.0
2025-02-18 17:09:47,830 [INFO] ThirdParty:952 - CMSIS Pack Vendor :STMicroelectronics X-CUBE-NFC4 2.0.5
2025-02-18 17:09:47,830 [INFO] ThirdParty:952 - CMSIS Pack Vendor :STMicroelectronics X-CUBE-NFC4 2.0.4
2025-02-18 17:09:47,830 [INFO] ThirdParty:952 - CMSIS Pack Vendor :STMicroelectronics X-CUBE-AZRTOS-H7 3.1.0
2025-02-18 17:09:47,830 [INFO] ThirdParty:952 - CMSIS Pack Vendor :STMicroelectronics PDM2PCM 3.3.0
2025-02-18 17:09:47,830 [INFO] ThirdParty:952 - CMSIS Pack Vendor :STMicroelectronics X-CUBE-BLE1 7.0.0
2025-02-18 17:09:47,830 [INFO] ThirdParty:952 - CMSIS Pack Vendor :STMicroelectronics X-CUBE-NFC10 1.0.0
2025-02-18 17:09:47,830 [INFO] ThirdParty:952 - CMSIS Pack Vendor :wolfSSL I-CUBE-wolfSSL 5.5.4
2025-02-18 17:09:47,830 [INFO] ThirdParty:952 - CMSIS Pack Vendor :wolfSSL I-CUBE-wolfSSL 5.5.1
2025-02-18 17:09:47,830 [INFO] ThirdParty:952 - CMSIS Pack Vendor :STMicroelectronics HAL Drivers 0.0.0
2025-02-18 17:09:47,830 [INFO] ThirdParty:952 - CMSIS Pack Vendor :STMicroelectronics X-CUBE-TOUCHGFX 4.22.0
2025-02-18 17:09:47,830 [INFO] ThirdParty:952 - CMSIS Pack Vendor :STMicroelectronics X-CUBE-NFC7 1.0.1
2025-02-18 17:09:47,830 [INFO] ThirdParty:952 - CMSIS Pack Vendor :STMicroelectronics MBEDTLS 2.14.1
2025-02-18 17:09:47,830 [INFO] ThirdParty:952 - CMSIS Pack Vendor :STMicroelectronics X-CUBE-NFC7 1.0.0
2025-02-18 17:09:47,830 [INFO] ThirdParty:952 - CMSIS Pack Vendor :STMicroelectronics X-CUBE-TOUCHGFX 4.22.1
2025-02-18 17:09:47,830 [INFO] ThirdParty:952 - CMSIS Pack Vendor :STMicroelectronics X-CUBE-NFC6 3.0.0
2025-02-18 17:09:47,830 [INFO] ThirdParty:952 - CMSIS Pack Vendor :STMicroelectronics X-CUBE-MEMS1 9.3.0
2025-02-18 17:09:47,830 [INFO] ThirdParty:952 - CMSIS Pack Vendor :STMicroelectronics X-CUBE-EEPRMA1 4.1.0
2025-02-18 17:09:47,830 [INFO] ThirdParty:952 - CMSIS Pack Vendor :STMicroelectronics X-CUBE-AI 7.2.0
2025-02-18 17:09:47,830 [INFO] ThirdParty:952 - CMSIS Pack Vendor :STMicroelectronics X-CUBE-AI 10.0.0
2025-02-18 17:09:47,830 [INFO] ThirdParty:952 - CMSIS Pack Vendor :STMicroelectronics X-CUBE-MEMS1 11.1.0
2025-02-18 17:09:47,830 [INFO] ThirdParty:952 - CMSIS Pack Vendor :STMicroelectronics X-CUBE-AZRTOS-WL 2.0.0
2025-02-18 17:09:47,830 [INFO] ThirdParty:952 - CMSIS Pack Vendor :STMicroelectronics USB_DEVICE 1.0.0
2025-02-18 17:09:47,830 [INFO] ThirdParty:952 - CMSIS Pack Vendor :STMicroelectronics X-CUBE-AI 8.1.0
2025-02-18 17:09:47,830 [INFO] ThirdParty:952 - CMSIS Pack Vendor :STMicroelectronics X-CUBE-AI 6.0.0
2025-02-18 17:09:47,830 [INFO] ThirdParty:952 - CMSIS Pack Vendor :wolfSSL I-CUBE-wolfMQTT 1.19.0
2025-02-18 17:09:47,830 [INFO] ThirdParty:952 - CMSIS Pack Vendor :STMicroelectronics X-CUBE-AZRTOS-L4 2.0.0
2025-02-18 17:09:47,830 [INFO] ThirdParty:952 - CMSIS Pack Vendor :WES I-CUBE-Cesium 1.3.0
2025-02-18 17:09:47,830 [INFO] ThirdParty:952 - CMSIS Pack Vendor :STMicroelectronics lwIP 2.1.2
2025-02-18 17:09:47,830 [INFO] ThirdParty:952 - CMSIS Pack Vendor :STMicroelectronics X-CUBE-SFXS2LP1 4.0.0
2025-02-18 17:09:47,830 [INFO] ThirdParty:952 - CMSIS Pack Vendor :STMicroelectronics X-CUBE-BLE2 3.3.0
2025-02-18 17:09:47,830 [INFO] ThirdParty:952 - CMSIS Pack Vendor :STMicroelectronics X-CUBE-DISPLAY 2.2.0
2025-02-18 17:09:47,830 [INFO] ThirdParty:952 - CMSIS Pack Vendor :STMicroelectronics X-CUBE-TOF1 3.2.0
2025-02-18 17:09:47,830 [INFO] ThirdParty:952 - CMSIS Pack Vendor :STMicroelectronics PDM2PCM 3.2.0
2025-02-18 17:09:47,830 [INFO] ThirdParty:952 - CMSIS Pack Vendor :STMicroelectronics X-CUBE-AZRTOS-H7 3.0.0
2025-02-18 17:09:47,830 [INFO] ThirdParty:952 - CMSIS Pack Vendor :STMicroelectronics X-CUBE-ISPU 1.0.0
2025-02-18 17:09:47,830 [INFO] ThirdParty:952 - CMSIS Pack Vendor :STMicroelectronics X-CUBE-ISPU 1.1.0
2025-02-18 17:09:47,830 [INFO] ThirdParty:952 - CMSIS Pack Vendor :STMicroelectronics X-CUBE-AZRTOS-H7 3.3.0
2025-02-18 17:09:47,830 [INFO] ThirdParty:952 - CMSIS Pack Vendor :RoweBots I-CUBE-UNISONRTOS 5.5.0-4
2025-02-18 17:09:47,830 [INFO] ThirdParty:952 - CMSIS Pack Vendor :STMicroelectronics X-CUBE-NFC9 1.0.0
2025-02-18 17:09:47,830 [INFO] ThirdParty:952 - CMSIS Pack Vendor :STMicroelectronics X-CUBE-AZRTOS-H7 2.1.0
2025-02-18 17:09:47,830 [INFO] ThirdParty:952 - CMSIS Pack Vendor :STMicroelectronics USB_DEVICE 3.0.0
2025-02-18 17:09:47,830 [INFO] ThirdParty:952 - CMSIS Pack Vendor :STMicroelectronics X-CUBE-AI 8.0.0
2025-02-18 17:09:47,830 [INFO] ThirdParty:952 - CMSIS Pack Vendor :STMicroelectronics X-CUBE-AZRTOS-WB 2.0.0
2025-02-18 17:09:47,830 [INFO] ThirdParty:952 - CMSIS Pack Vendor :STMicroelectronics X-CUBE-TOUCHGFX 4.21.1
2025-02-18 17:09:47,830 [INFO] ThirdParty:952 - CMSIS Pack Vendor :STMicroelectronics X-CUBE-TOUCHGFX 4.21.0
2025-02-18 17:09:47,830 [INFO] ThirdParty:952 - CMSIS Pack Vendor :STMicroelectronics X-CUBE-GNSS1 7.0.1
2025-02-18 17:09:47,830 [INFO] ThirdParty:952 - CMSIS Pack Vendor :STMicroelectronics X-CUBE-TOUCHGFX 4.21.3
2025-02-18 17:09:47,830 [INFO] ThirdParty:952 - CMSIS Pack Vendor :STMicroelectronics X-CUBE-MEMS1 9.4.0
2025-02-18 17:09:47,830 [INFO] ThirdParty:952 - CMSIS Pack Vendor :STMicroelectronics X-CUBE-AI 7.3.0
2025-02-18 17:09:47,830 [INFO] ThirdParty:952 - CMSIS Pack Vendor :STMicroelectronics X-CUBE-ALGOBUILD 1.3.0
2025-02-18 17:09:47,830 [INFO] ThirdParty:952 - CMSIS Pack Vendor :STMicroelectronics X-CUBE-AZRTOS-L5 1.1.0
2025-02-18 17:09:47,830 [INFO] ThirdParty:952 - CMSIS Pack Vendor :STMicroelectronics X-CUBE-AZRTOS-G0 1.1.0
2025-02-18 17:09:47,830 [INFO] ThirdParty:952 - CMSIS Pack Vendor :STMicroelectronics X-CUBE-AI 8.0.1
2025-02-18 17:09:47,840 [INFO] ThirdParty:952 - CMSIS Pack Vendor :STMicroelectronics X-CUBE-SAFEA1 1.2.2
2025-02-18 17:09:47,840 [INFO] ThirdParty:952 - CMSIS Pack Vendor :STMicroelectronics X-CUBE-NFC4 3.0.0
2025-02-18 17:09:47,840 [INFO] ThirdParty:952 - CMSIS Pack Vendor :STMicroelectronics X-CUBE-SUBG2 5.0.0
2025-02-18 17:09:47,840 [INFO] ThirdParty:952 - CMSIS Pack Vendor :SEGGER I-CUBE-embOS 1.2.1
2025-02-18 17:09:47,841 [INFO] ThirdParty:952 - CMSIS Pack Vendor :STMicroelectronics lwIP 2.0.3
2025-02-18 17:09:47,841 [INFO] ThirdParty:952 - CMSIS Pack Vendor :STMicroelectronics USB_HOST 1.0.0
2025-02-18 17:09:47,841 [INFO] ThirdParty:952 - CMSIS Pack Vendor :STMicroelectronics X-CUBE-AZRTOS-G4 2.0.0
2025-02-18 17:09:47,841 [INFO] ThirdParty:952 - CMSIS Pack Vendor :STMicroelectronics PDM2PCM 3.1.0
2025-02-18 17:09:47,841 [INFO] ThirdParty:952 - CMSIS Pack Vendor :STMicroelectronics X-CUBE-TOF1 3.3.0
2025-02-18 17:09:47,841 [INFO] ThirdParty:952 - CMSIS Pack Vendor :STMicroelectronics FP-ATR-ASTRA1 1.1.1
2025-02-18 17:09:47,841 [INFO] ThirdParty:952 - CMSIS Pack Vendor :STMicroelectronics X-CUBE-BLEMGR 1.3.0
2025-02-18 17:09:47,841 [INFO] ThirdParty:952 - CMSIS Pack Vendor :STMicroelectronics FP-ATR-SIGFOX1 3.2.0
2025-02-18 17:09:47,841 [INFO] ThirdParty:952 - CMSIS Pack Vendor :STMicroelectronics X-CUBE-AZRTOS-G4 1.0.0
2025-02-18 17:09:47,841 [INFO] ThirdParty:952 - CMSIS Pack Vendor :STMicroelectronics X-CUBE-AZRTOS-L4 1.0.0
2025-02-18 17:09:47,841 [INFO] ThirdParty:952 - CMSIS Pack Vendor :STMicroelectronics X-CUBE-EEPRMA1 5.1.0
2025-02-18 17:09:47,841 [INFO] ThirdParty:952 - CMSIS Pack Vendor :STMicroelectronics MBEDTLS 2.16.2
2025-02-18 17:09:47,841 [INFO] ThirdParty:952 - CMSIS Pack Vendor :emotas I-CUBE-CANOPEN 1.1.2
2025-02-18 17:09:47,841 [INFO] ThirdParty:952 - CMSIS Pack Vendor :STMicroelectronics X-CUBE-TOUCHGFX 4.20.0
2025-02-18 17:09:47,841 [INFO] ThirdParty:952 - CMSIS Pack Vendor :STMicroelectronics X-CUBE-MEMS1 10.0.0
2025-02-18 17:09:47,841 [INFO] ThirdParty:952 - CMSIS Pack Vendor :STMicroelectronics X-CUBE-TOUCHGFX 4.24.2
2025-02-18 17:09:47,841 [INFO] ThirdParty:952 - CMSIS Pack Vendor :STMicroelectronics X-CUBE-AZRTOS-WL 1.0.0
2025-02-18 17:09:47,841 [INFO] ThirdParty:952 - CMSIS Pack Vendor :wolfSSL I-CUBE-wolfTPM 3.4.0
2025-02-18 17:09:47,841 [INFO] ThirdParty:952 - CMSIS Pack Vendor :portGmbH I-Cube-SoM-uGOAL 1.1.0
2025-02-18 17:09:47,841 [INFO] ThirdParty:952 - CMSIS Pack Vendor :STMicroelectronics X-CUBE-ALS 1.0.1
2025-02-18 17:09:47,841 [INFO] ThirdParty:952 - CMSIS Pack Vendor :STMicroelectronics X-CUBE-MEMS1 9.5.0
2025-02-18 17:09:47,841 [INFO] ThirdParty:952 - CMSIS Pack Vendor :STMicroelectronics X-CUBE-AI 7.0.0
2025-02-18 17:09:47,843 [INFO] ThirdParty:952 - CMSIS Pack Vendor :STMicroelectronics X-CUBE-AZRTOS-WB 1.1.0
2025-02-18 17:09:47,843 [INFO] ThirdParty:952 - CMSIS Pack Vendor :SEGGER I-CUBE-embOS 1.3.1
2025-02-18 17:09:47,843 [INFO] ThirdParty:952 - CMSIS Pack Vendor :STMicroelectronics X-CUBE-ALGOBUILD 1.4.0
2025-02-18 17:09:47,843 [INFO] ThirdParty:952 - CMSIS Pack Vendor :STMicroelectronics X-CUBE-AZRTOS-L5 1.0.0
2025-02-18 17:09:47,843 [INFO] ThirdParty:952 - CMSIS Pack Vendor :SEGGER I-CUBE-embOS 1.3.0
2025-02-18 17:09:47,843 [INFO] ThirdParty:952 - CMSIS Pack Vendor :STMicroelectronics X-CUBE-EEPRMA1 3.1.1
2025-02-18 17:09:47,844 [INFO] ThirdParty:952 - CMSIS Pack Vendor :STMicroelectronics X-CUBE-AZRTOS-H7RS 1.0.0
2025-02-18 17:09:47,844 [INFO] ThirdParty:952 - CMSIS Pack Vendor :STMicroelectronics FP-ATR-ASTRA1 2.0.0
2025-02-18 17:09:47,844 [INFO] ThirdParty:952 - CMSIS Pack Vendor :STMicroelectronics X-CUBE-AI 9.1.0
2025-02-18 17:09:47,844 [INFO] ThirdParty:952 - CMSIS Pack Vendor :wolfSSL I-CUBE-wolfSSH 1.4.17
2025-02-18 17:09:47,844 [INFO] ThirdParty:770 - exiting critical section [change project]
2025-02-18 17:09:48,652 [INFO] PinOutPanel:1435 - setPackage(No Configuration,No Configuration)
2025-02-18 17:09:48,652 [INFO] PinOutPanel:1435 - setPackage(STM32H7A3ZITxQ,LQFP144)
2025-02-18 17:09:50,659 [INFO] UtilMem:74 - Before build in PCC Used Memory: 924948912 Bytes (1073741824)
2025-02-18 17:09:51,541 [INFO] SharedServices:72 - Folder for power plug-in: C:/Users/yh621/.stm32cubemx/plugins/power
2025-02-18 17:09:51,601 [INFO] SharedServices:72 - Folder for power plug-in: C:/Users/yh621/.stm32cubemx/plugins/power
2025-02-18 17:09:51,872 [INFO] SharedServices:72 - Folder for power plug-in: C:/Users/yh621/.stm32cubemx/plugins/power
2025-02-18 17:09:51,881 [INFO] SharedServices:72 - Folder for power plug-in: C:/Users/yh621/.stm32cubemx/plugins/power
2025-02-18 17:09:52,122 [INFO] UtilMem:74 - After build in PCC Used Memory: 1034964600 Bytes (1073741824)
2025-02-18 17:09:52,159 [INFO] IPUIPlugin:64 - create IPUIPlugin
2025-02-18 17:09:52,159 [INFO] IPUIPlugin:64 - create IPUIPlugin
2025-02-18 17:09:52,159 [INFO] IPUIPlugin:64 - create IPUIPlugin
2025-02-18 17:09:52,159 [INFO] IPUIPlugin:64 - create IPUIPlugin
2025-02-18 17:09:52,159 [INFO] IPUIPlugin:64 - create IPUIPlugin
2025-02-18 17:09:52,159 [INFO] IPUIPlugin:64 - create IPUIPlugin
2025-02-18 17:09:52,159 [INFO] IPUIPlugin:64 - create IPUIPlugin
2025-02-18 17:09:52,159 [INFO] IPUIPlugin:64 - create IPUIPlugin
2025-02-18 17:09:52,159 [INFO] IPUIPlugin:64 - create IPUIPlugin
2025-02-18 17:09:52,159 [INFO] IPUIPlugin:64 - create IPUIPlugin
2025-02-18 17:09:52,159 [INFO] IPUIPlugin:64 - create IPUIPlugin
2025-02-18 17:09:52,159 [INFO] IPUIPlugin:64 - create IPUIPlugin
2025-02-18 17:09:52,159 [INFO] IPUIPlugin:64 - create IPUIPlugin
2025-02-18 17:09:52,159 [INFO] IPUIPlugin:64 - create IPUIPlugin
2025-02-18 17:09:52,159 [INFO] IPUIPlugin:64 - create IPUIPlugin
2025-02-18 17:09:52,159 [INFO] IPUIPlugin:64 - create IPUIPlugin
2025-02-18 17:09:52,159 [INFO] IPUIPlugin:64 - create IPUIPlugin
2025-02-18 17:09:52,159 [INFO] IPUIPlugin:64 - create IPUIPlugin
2025-02-18 17:09:52,159 [INFO] IPUIPlugin:64 - create IPUIPlugin
2025-02-18 17:09:52,159 [INFO] IPUIPlugin:64 - create IPUIPlugin
2025-02-18 17:09:52,159 [INFO] IPUIPlugin:64 - create IPUIPlugin
2025-02-18 17:09:52,159 [INFO] IPUIPlugin:64 - create IPUIPlugin
2025-02-18 17:09:52,159 [INFO] IPUIPlugin:64 - create IPUIPlugin
2025-02-18 17:09:52,159 [INFO] IPUIPlugin:64 - create IPUIPlugin
2025-02-18 17:09:52,159 [INFO] IPUIPlugin:64 - create IPUIPlugin
2025-02-18 17:09:52,159 [INFO] IPUIPlugin:64 - create IPUIPlugin
2025-02-18 17:09:52,159 [INFO] IPUIPlugin:64 - create IPUIPlugin
2025-02-18 17:09:52,159 [INFO] IPUIPlugin:64 - create IPUIPlugin
2025-02-18 17:09:52,159 [INFO] IPUIPlugin:64 - create IPUIPlugin
2025-02-18 17:09:52,159 [INFO] IPUIPlugin:64 - create IPUIPlugin
2025-02-18 17:09:52,159 [INFO] IPUIPlugin:64 - create IPUIPlugin
2025-02-18 17:09:52,159 [INFO] IPUIPlugin:64 - create IPUIPlugin
2025-02-18 17:09:52,159 [INFO] IPUIPlugin:64 - create IPUIPlugin
2025-02-18 17:09:52,159 [INFO] IPUIPlugin:64 - create IPUIPlugin
2025-02-18 17:09:52,159 [INFO] IPUIPlugin:64 - create IPUIPlugin
2025-02-18 17:09:52,159 [INFO] IPUIPlugin:64 - create IPUIPlugin
2025-02-18 17:09:52,159 [INFO] IPUIPlugin:64 - create IPUIPlugin
2025-02-18 17:09:52,159 [INFO] IPUIPlugin:64 - create IPUIPlugin
2025-02-18 17:09:52,159 [INFO] IPUIPlugin:64 - create IPUIPlugin
2025-02-18 17:09:52,159 [INFO] IPUIPlugin:64 - create IPUIPlugin
2025-02-18 17:09:52,159 [INFO] IPUIPlugin:64 - create IPUIPlugin
2025-02-18 17:09:52,159 [INFO] IPUIPlugin:64 - create IPUIPlugin
2025-02-18 17:09:52,159 [INFO] IPUIPlugin:64 - create IPUIPlugin
2025-02-18 17:09:52,159 [INFO] IPUIPlugin:64 - create IPUIPlugin
2025-02-18 17:09:52,159 [INFO] IPUIPlugin:64 - create IPUIPlugin
2025-02-18 17:09:52,159 [INFO] IPUIPlugin:64 - create IPUIPlugin
2025-02-18 17:09:52,175 [INFO] IPUIPlugin:64 - create IPUIPlugin
2025-02-18 17:09:52,175 [INFO] IPUIPlugin:64 - create IPUIPlugin
2025-02-18 17:09:52,175 [INFO] IPUIPlugin:64 - create IPUIPlugin
2025-02-18 17:09:52,175 [INFO] IPUIPlugin:64 - create IPUIPlugin
2025-02-18 17:09:52,175 [INFO] IPUIPlugin:64 - create IPUIPlugin
2025-02-18 17:09:52,175 [INFO] IPUIPlugin:64 - create IPUIPlugin
2025-02-18 17:09:52,175 [INFO] IPUIPlugin:64 - create IPUIPlugin
2025-02-18 17:09:52,175 [INFO] IPUIPlugin:64 - create IPUIPlugin
2025-02-18 17:09:52,175 [INFO] IPUIPlugin:64 - create IPUIPlugin
2025-02-18 17:09:52,175 [INFO] IPUIPlugin:64 - create IPUIPlugin
2025-02-18 17:09:52,175 [INFO] IPUIPlugin:64 - create IPUIPlugin
2025-02-18 17:09:52,175 [INFO] IPUIPlugin:64 - create IPUIPlugin
2025-02-18 17:09:52,175 [INFO] IPUIPlugin:64 - create IPUIPlugin
2025-02-18 17:09:52,175 [INFO] IPUIPlugin:64 - create IPUIPlugin
2025-02-18 17:09:52,175 [INFO] IPUIPlugin:64 - create IPUIPlugin
2025-02-18 17:09:52,175 [INFO] IPUIPlugin:64 - create IPUIPlugin
2025-02-18 17:09:52,175 [INFO] IPUIPlugin:64 - create IPUIPlugin
2025-02-18 17:09:52,175 [INFO] IPUIPlugin:64 - create IPUIPlugin
2025-02-18 17:09:52,175 [INFO] IPUIPlugin:64 - create IPUIPlugin
2025-02-18 17:09:52,175 [INFO] IPUIPlugin:64 - create IPUIPlugin
2025-02-18 17:09:52,175 [INFO] IPUIPlugin:64 - create IPUIPlugin
2025-02-18 17:09:52,175 [INFO] IPUIPlugin:64 - create IPUIPlugin
2025-02-18 17:09:52,175 [INFO] IPUIPlugin:64 - create IPUIPlugin
2025-02-18 17:09:52,175 [INFO] IPUIPlugin:64 - create IPUIPlugin
2025-02-18 17:09:52,175 [INFO] IPUIPlugin:64 - create IPUIPlugin
2025-02-18 17:09:52,175 [INFO] IPUIPlugin:64 - create IPUIPlugin
2025-02-18 17:09:52,175 [INFO] IPUIPlugin:64 - create IPUIPlugin
2025-02-18 17:09:52,175 [INFO] IPUIPlugin:64 - create IPUIPlugin
2025-02-18 17:09:52,175 [INFO] IPUIPlugin:64 - create IPUIPlugin
2025-02-18 17:09:52,191 [INFO] IPUIPlugin:64 - create IPUIPlugin
2025-02-18 17:09:52,191 [INFO] IPUIPlugin:64 - create IPUIPlugin
2025-02-18 17:09:52,191 [INFO] IPUIPlugin:64 - create IPUIPlugin
2025-02-18 17:09:52,191 [INFO] IPUIPlugin:64 - create IPUIPlugin
2025-02-18 17:09:52,191 [INFO] IPUIPlugin:64 - create IPUIPlugin
2025-02-18 17:09:52,191 [INFO] IPUIPlugin:64 - create IPUIPlugin
2025-02-18 17:09:52,191 [INFO] IPUIPlugin:64 - create IPUIPlugin
2025-02-18 17:09:52,191 [INFO] IPUIPlugin:64 - create IPUIPlugin
2025-02-18 17:09:52,191 [INFO] IPUIPlugin:64 - create IPUIPlugin
2025-02-18 17:09:52,191 [INFO] IPUIPlugin:64 - create IPUIPlugin
2025-02-18 17:09:52,191 [INFO] IPUIPlugin:64 - create IPUIPlugin
2025-02-18 17:09:52,191 [INFO] IPUIPlugin:64 - create IPUIPlugin
2025-02-18 17:09:52,191 [INFO] IPUIPlugin:64 - create IPUIPlugin
2025-02-18 17:09:52,191 [INFO] IPUIPlugin:64 - create IPUIPlugin
2025-02-18 17:09:52,191 [INFO] IPUIPlugin:64 - create IPUIPlugin
2025-02-18 17:09:52,191 [INFO] IPUIPlugin:64 - create IPUIPlugin
2025-02-18 17:09:52,191 [INFO] IPUIPlugin:64 - create IPUIPlugin
2025-02-18 17:09:52,191 [INFO] IPUIPlugin:64 - create IPUIPlugin
2025-02-18 17:09:52,191 [INFO] IPUIPlugin:64 - create IPUIPlugin
2025-02-18 17:09:52,191 [INFO] IPUIPlugin:64 - create IPUIPlugin
2025-02-18 17:09:52,191 [INFO] IPUIPlugin:64 - create IPUIPlugin
2025-02-18 17:09:52,206 [INFO] IPUIPlugin:64 - create IPUIPlugin
2025-02-18 17:09:52,206 [INFO] IPUIPlugin:64 - create IPUIPlugin
2025-02-18 17:09:52,260 [INFO] ApiDbMcu:458 - Load IP Config File for PDM2PCM
2025-02-18 17:09:52,292 [INFO] LogOutputStream:76 - [STDOUT_REDIRECT] toolchainItems.length=====1
2025-02-18 17:09:52,409 [INFO] OpenFileManager:323 - Restore cursor
2025-02-18 17:09:53,655 [INFO] UtilMem:74 - End SaveConfig() Used Memory: 999632160 Bytes (1073741824)
2025-02-18 17:09:54,850 [INFO] UtilMem:74 - End SaveConfig() Used Memory: 1027401848 Bytes (1073741824)
2025-02-18 17:09:55,296 [INFO] BlockDiagram:2735 - set Specific Code input for plugin: RCC
2025-02-18 17:09:55,296 [INFO] BlockDiagram:2735 - set Specific Code input for plugin: SYS
2025-02-18 17:09:55,296 [INFO] BlockDiagram:2735 - set Specific Code input for plugin: NVIC
2025-02-18 17:09:55,296 [INFO] CodeGenerator:641 - code generatio: config db path: D:\STM32CubeIDE_1.6.1\STM32CubeIDE\plugins\com.st.stm32cube.common.mx_6.2.1.202103241236\\db\
2025-02-18 17:09:56,677 [INFO] CodeEngine:229 - oldGeneratedFile, C:\Users\yh621\STM32CubeIDE\josh_yolo_stm32h\yolo_stm32h\MXTmpFiles\license.tmp_save
2025-02-18 17:09:57,690 [INFO] CodeEngine:247 - Generated code: C:\Users\yh621\STM32CubeIDE\josh_yolo_stm32h\yolo_stm32h\MXTmpFiles\license.tmp
2025-02-18 17:09:57,826 [INFO] LogOutputStream:76 - [STDOUT_REDIRECT] Command line
2025-02-18 17:09:57,835 [INFO] CodeEngine:229 - oldGeneratedFile, C:\Users\yh621\STM32CubeIDE\josh_yolo_stm32h\yolo_stm32h\MXTmpFiles\cortex.tmp_save
2025-02-18 17:09:57,957 [INFO] CodeEngine:247 - Generated code: C:\Users\yh621\STM32CubeIDE\josh_yolo_stm32h\yolo_stm32h\MXTmpFiles\cortex.tmp
2025-02-18 17:09:57,993 [INFO] CodeEngine:229 - oldGeneratedFile, C:\Users\yh621\STM32CubeIDE\josh_yolo_stm32h\yolo_stm32h\Core\Src\stm32h7xx_it.c_save
2025-02-18 17:09:58,173 [INFO] CodeEngine:247 - Generated code: C:\Users\yh621\STM32CubeIDE\josh_yolo_stm32h\yolo_stm32h\Core\Src\stm32h7xx_it.c
2025-02-18 17:09:58,173 [INFO] CodeEngine:229 - oldGeneratedFile, C:\Users\yh621\STM32CubeIDE\josh_yolo_stm32h\yolo_stm32h\Core\Inc\stm32h7xx_it.h_save
2025-02-18 17:09:58,241 [INFO] CodeEngine:247 - Generated code: C:\Users\yh621\STM32CubeIDE\josh_yolo_stm32h\yolo_stm32h\Core\Inc\stm32h7xx_it.h
2025-02-18 17:09:58,309 [INFO] CodeEngine:229 - oldGeneratedFile, C:\Users\yh621\STM32CubeIDE\josh_yolo_stm32h\yolo_stm32h\Core\Src\stm32h7xx_hal_msp.c_save
2025-02-18 17:09:58,449 [INFO] CodeEngine:247 - Generated code: C:\Users\yh621\STM32CubeIDE\josh_yolo_stm32h\yolo_stm32h\Core\Src\stm32h7xx_hal_msp.c
2025-02-18 17:09:58,449 [INFO] CodeEngine:229 - oldGeneratedFile, C:\Users\yh621\STM32CubeIDE\josh_yolo_stm32h\yolo_stm32h\MXTmpFiles\system.tmp_save
2025-02-18 17:09:58,527 [INFO] CodeEngine:247 - Generated code: C:\Users\yh621\STM32CubeIDE\josh_yolo_stm32h\yolo_stm32h\MXTmpFiles\system.tmp
2025-02-18 17:09:58,528 [INFO] CodeEngine:229 - oldGeneratedFile, C:\Users\yh621\STM32CubeIDE\josh_yolo_stm32h\yolo_stm32h\Core\Inc\stm32h7xx_hal_conf.h_save
2025-02-18 17:09:58,652 [INFO] CodeEngine:247 - Generated code: C:\Users\yh621\STM32CubeIDE\josh_yolo_stm32h\yolo_stm32h\Core\Inc\stm32h7xx_hal_conf.h
2025-02-18 17:09:58,780 [INFO] CodeEngine:229 - oldGeneratedFile, C:\Users\yh621\STM32CubeIDE\josh_yolo_stm32h\yolo_stm32h\Core\Inc\main.h_save
2025-02-18 17:09:58,893 [INFO] CodeEngine:247 - Generated code: C:\Users\yh621\STM32CubeIDE\josh_yolo_stm32h\yolo_stm32h\Core\Inc\main.h
2025-02-18 17:09:58,894 [INFO] CodeEngine:229 - oldGeneratedFile, C:\Users\yh621\STM32CubeIDE\josh_yolo_stm32h\yolo_stm32h\Core\Src\main.c_save
2025-02-18 17:09:59,035 [INFO] CodeEngine:247 - Generated code: C:\Users\yh621\STM32CubeIDE\josh_yolo_stm32h\yolo_stm32h\Core\Src\main.c
2025-02-18 17:10:00,596 [INFO] ProjectBuilder:2460 - Time for Copy HAL[1] : 137mS.
2025-02-18 17:10:00,600 [INFO] ProjectBuilder:3418 - Project Generator version: 3.13.0-B3
2025-02-18 17:10:01,011 [INFO] ConfigFileManager:1242 - The Die is : DIE480
2025-02-18 17:10:01,038 [INFO] ApiDbMcu:458 - Load IP Config File for FATFS
2025-02-18 17:10:01,707 [INFO] ApiDbMcu:458 - Load IP Config File for FREERTOS
2025-02-18 17:10:01,717 [INFO] ApiDbMcu:458 - Load IP Config File for LIBJPEG
2025-02-18 17:10:01,747 [INFO] ApiDbMcu:458 - Load IP Config File for MBEDTLS
2025-02-18 17:10:01,778 [INFO] ApiDbMcu:458 - Load IP Config File for USB_DEVICE
2025-02-18 17:10:01,786 [INFO] ApiDbMcu:458 - Load IP Config File for USB_HOST
2025-02-18 17:10:06,152 [INFO] ProjectBuilder:3584 - Time for Generating toolchain IDE Files: 5552mS.
2025-02-18 17:10:06,152 [INFO] ProjectBuilder:2339 - Time for Copy CMSIS : 0mS.
2025-02-18 17:10:06,152 [INFO] ProjectBuilder:2339 - Time for Copy CMSIS : 0mS.
2025-02-18 17:10:06,950 [INFO] ApiDb:276 - Save user favorites file C:\Users\yh621/.stm32cubeide/favorites.mcus.txt: 1 item(s)
2025-02-18 17:10:06,952 [INFO] ApiDb:280 - User favorites MCUs=[STM32H7A3ZITxQ]
2025-02-18 17:10:59,042 [INFO] ApiDbMcu:458 - Load IP Config File for STMicroelectronics.X-CUBE-AI.8.0.1
2025-02-18 17:10:59,211 [INFO] IPUIPlugin:64 - create IPUIPlugin
2025-02-18 17:10:59,227 [INFO] PluginManager:203 - loadIPPluginJar : add ai.8.0.1
2025-02-18 17:10:59,490 [INFO] IPUIPlugin:64 - create IPUIPlugin
2025-02-18 17:11:06,683 [INFO] Middleware:501 - instanceName : STMicroelectronics.X-CUBE-AI.8.0.1 bspName : COM Port check condition success for : !SEMDeviceJjApplicationJjApplicationTemplate
2025-02-18 17:11:06,683 [INFO] Middleware:501 - instanceName : STMicroelectronics.X-CUBE-AI.8.0.1 bspName : COM Port check condition success for : !SEMDeviceJjApplicationJjApplicationTemplate
2025-02-18 17:11:06,683 [INFO] Middleware:501 - instanceName : STMicroelectronics.X-CUBE-AI.8.0.1 bspName : COM Port check condition success for : !SEMDeviceJjApplicationJjApplicationTemplate
2025-02-18 17:11:06,724 [INFO] Middleware:501 - instanceName : STMicroelectronics.X-CUBE-AI.8.0.1 bspName : COM Port check condition success for : !SEMDeviceJjApplicationJjApplicationTemplate
2025-02-18 17:11:06,724 [INFO] Middleware:501 - instanceName : STMicroelectronics.X-CUBE-AI.8.0.1 bspName : COM Port check condition success for : !SEMDeviceJjApplicationJjApplicationTemplate
2025-02-18 17:11:06,724 [INFO] Middleware:501 - instanceName : STMicroelectronics.X-CUBE-AI.8.0.1 bspName : COM Port check condition success for : !SEMDeviceJjApplicationJjApplicationTemplate
2025-02-18 17:11:06,971 [INFO] AIMainUI:1259 - Restoring parameters from IP...
2025-02-18 17:11:06,971 [INFO] AIMainUI:1378 - No old model detected
2025-02-18 17:11:06,971 [INFO] AI:946 - getUI adding AI com.st.microxplorer.plugins.ip.ai.AI@58e2bd29 on STMicroelectronics.X-CUBE-AI.8.0.1
2025-02-18 17:11:06,971 [INFO] Middleware:501 - instanceName : STMicroelectronics.X-CUBE-AI.8.0.1 bspName : COM Port check condition success for : !SEMDeviceJjApplicationJjApplicationTemplate
2025-02-18 17:11:06,971 [INFO] Middleware:501 - instanceName : STMicroelectronics.X-CUBE-AI.8.0.1 bspName : COM Port check condition success for : !SEMDeviceJjApplicationJjApplicationTemplate
2025-02-18 17:11:06,971 [INFO] Middleware:501 - instanceName : STMicroelectronics.X-CUBE-AI.8.0.1 bspName : COM Port check condition success for : !SEMDeviceJjApplicationJjApplicationTemplate
2025-02-18 17:11:07,910 [INFO] Middleware:501 - instanceName : STMicroelectronics.X-CUBE-AI.8.0.1 bspName : COM Port check condition success for : !SEMDeviceJjApplicationJjApplicationTemplate
2025-02-18 17:11:07,910 [INFO] Middleware:501 - instanceName : STMicroelectronics.X-CUBE-AI.8.0.1 bspName : COM Port check condition success for : !SEMDeviceJjApplicationJjApplicationTemplate
2025-02-18 17:11:07,910 [INFO] Middleware:501 - instanceName : STMicroelectronics.X-CUBE-AI.8.0.1 bspName : COM Port check condition success for : !SEMDeviceJjApplicationJjApplicationTemplate
2025-02-18 17:11:07,926 [INFO] AI:946 - getUI adding AI com.st.microxplorer.plugins.ip.ai.AI@58e2bd29 on STMicroelectronics.X-CUBE-AI.8.0.1
2025-02-18 17:11:07,926 [INFO] Middleware:501 - instanceName : STMicroelectronics.X-CUBE-AI.8.0.1 bspName : COM Port check condition success for : !SEMDeviceJjApplicationJjApplicationTemplate
2025-02-18 17:11:07,926 [INFO] Middleware:501 - instanceName : STMicroelectronics.X-CUBE-AI.8.0.1 bspName : COM Port check condition success for : !SEMDeviceJjApplicationJjApplicationTemplate
2025-02-18 17:11:07,926 [INFO] Middleware:501 - instanceName : STMicroelectronics.X-CUBE-AI.8.0.1 bspName : COM Port check condition success for : !SEMDeviceJjApplicationJjApplicationTemplate
2025-02-18 17:11:08,537 [INFO] BoardParameter:82 - Mode not set IP=RCC mode=BYPASS Clock Source
2025-02-18 17:11:09,119 [INFO] Middleware:501 - instanceName : STMicroelectronics.X-CUBE-AI.8.0.1 bspName : COM Port check condition success for : !SEMDeviceJjApplicationJjApplicationTemplate
2025-02-18 17:11:09,119 [INFO] Middleware:501 - instanceName : STMicroelectronics.X-CUBE-AI.8.0.1 bspName : COM Port check condition success for : !SEMDeviceJjApplicationJjApplicationTemplate
2025-02-18 17:11:09,119 [INFO] Middleware:501 - instanceName : STMicroelectronics.X-CUBE-AI.8.0.1 bspName : COM Port check condition success for : !SEMDeviceJjApplicationJjApplicationTemplate
2025-02-18 17:11:09,298 [INFO] AI:946 - getUI adding AI com.st.microxplorer.plugins.ip.ai.AI@58e2bd29 on STMicroelectronics.X-CUBE-AI.8.0.1
2025-02-18 17:11:09,298 [INFO] Middleware:501 - instanceName : STMicroelectronics.X-CUBE-AI.8.0.1 bspName : COM Port check condition success for : !SEMDeviceJjApplicationJjApplicationTemplate
2025-02-18 17:11:09,298 [INFO] Middleware:501 - instanceName : STMicroelectronics.X-CUBE-AI.8.0.1 bspName : COM Port check condition success for : !SEMDeviceJjApplicationJjApplicationTemplate
2025-02-18 17:11:09,298 [INFO] Middleware:501 - instanceName : STMicroelectronics.X-CUBE-AI.8.0.1 bspName : COM Port check condition success for : !SEMDeviceJjApplicationJjApplicationTemplate
2025-02-18 17:11:09,734 [INFO] Middleware:501 - instanceName : STMicroelectronics.X-CUBE-AI.8.0.1 bspName : COM Port check condition success for : !SEMDeviceJjApplicationJjApplicationTemplate
2025-02-18 17:11:09,734 [INFO] Middleware:501 - instanceName : STMicroelectronics.X-CUBE-AI.8.0.1 bspName : COM Port check condition success for : !SEMDeviceJjApplicationJjApplicationTemplate
2025-02-18 17:11:09,734 [INFO] Middleware:501 - instanceName : STMicroelectronics.X-CUBE-AI.8.0.1 bspName : COM Port check condition success for : !SEMDeviceJjApplicationJjApplicationTemplate
2025-02-18 17:11:12,433 [INFO] AInterface:109 - AInterface using toolDir: C:/Users/yh621/STM32Cube/Repository/Packs/STMicroelectronics/X-CUBE-AI/8.0.1/Utilities/windows
2025-02-18 17:11:12,478 [INFO] AIModelDetailledView:2080 - Analysis status: -
2025-02-18 17:11:12,478 [INFO] AIModelDetailledView:861 - Selected model: Keras
2025-02-18 17:11:16,075 [INFO] AIModelDetailledView:861 - Selected model: TFLite
2025-02-18 17:11:29,631 [INFO] AInterface:235 - ModelName:network; files:[F:\verified_model\yolov1_full_integer_quant.tflite]; type:TFLite; compression:None
2025-02-18 17:11:29,632 [INFO] AInterface:506 - workspaceTempDir: C:\Users\yh621\AppData\Local\Temp\mxAI_workspace481743863770015841469837028747199
2025-02-18 17:11:29,632 [INFO] AInterface:1042 - Setting Env: C:/Users/yh621/STM32Cube/Repository/Packs/STMicroelectronics/X-CUBE-AI/8.0.1/Utilities/windows
2025-02-18 17:11:30,046 [INFO] STM32CubeIDEBuilder:257 - Looking for gnu-tools-for-stm32 tools/bin/arm-none-eabi-gcc.exe in D:\STM32CubeIDE_1.6.1\STM32CubeIDE
2025-02-18 17:11:30,046 [INFO] STM32CubeIDEBuilder:283 - checking D:\STM32CubeIDE_1.6.1\STM32CubeIDE\plugins\com.st.stm32cube.ide.mcu.externaltools.gnu-tools-for-stm32.9-2020-q2-update.win32_1.5.0.202011040924\tools\bin\arm-none-eabi-gcc.exe
2025-02-18 17:11:30,046 [INFO] STM32CubeIDEBuilder:286 - ret=D:\STM32CubeIDE_1.6.1\STM32CubeIDE\plugins\com.st.stm32cube.ide.mcu.externaltools.gnu-tools-for-stm32.9-2020-q2-update.win32_1.5.0.202011040924\tools\bin\arm-none-eabi-gcc.exe
2025-02-18 17:11:30,046 [INFO] STM32CubeIDEBuilder:300 - returning D:\STM32CubeIDE_1.6.1\STM32CubeIDE\plugins\com.st.stm32cube.ide.mcu.externaltools.gnu-tools-for-stm32.9-2020-q2-update.win32_1.5.0.202011040924\tools\bin\arm-none-eabi-gcc.exe
2025-02-18 17:11:30,046 [INFO] AInterface:1099 - Custom PATH variable: C:/Users/yh621/STM32Cube/Repository/Packs/STMicroelectronics/X-CUBE-AI/8.0.1/Utilities/windows;C:/Users/yh621/STM32Cube/Repository/Packs/STMicroelectronics/X-CUBE-AI/8.0.1/Utilities/windows/mingw64/bin;C:/Users/yh621/STM32Cube/Repository/Packs/STMicroelectronics/X-CUBE-AI/8.0.1/Utilities/windows/mingw64/libexec/gcc/x86_64-w64-mingw32/7.3.0;C:/Users/yh621/STM32Cube/Repository/Packs/STMicroelectronics/X-CUBE-AI/8.0.1/Utilities/windows/node/bin;D:\STM32CubeIDE_1.6.1\STM32CubeIDE\plugins\com.st.stm32cube.ide.mcu.externaltools.gnu-tools-for-stm32.9-2020-q2-update.win32_1.5.0.202011040924\tools\bin
2025-02-18 17:11:30,046 [INFO] CmdLine:100 - Command: C:/Users/yh621/STM32Cube/Repository/Packs/STMicroelectronics/X-CUBE-AI/8.0.1/Utilities/windows/stm32ai analyze --name network -m F:/verified_model/yolov1_full_integer_quant.tflite --type tflite --compression none --verbosity 1 --workspace C:\Users\yh621\AppData\Local\Temp\mxAI_workspace481743863770015841469837028747199 --output C:\Users\yh621\.stm32cubemx\network_output --allocate-inputs --series stm32h7 --allocate-outputs 
2025-02-18 17:11:30,053 [INFO] AIModelDetailledView:2080 - Analysis status: pending
2025-02-18 17:11:39,034 [INFO] CmdLine:67 - Neural Network Tools for STM32AI v1.7.0 (STM.ai v8.0.1-19451)
2025-02-18 17:11:40,128 [INFO] CmdLine:67 - Applied 0 of 2 optimizations
2025-02-18 17:11:40,712 [INFO] CmdLine:67 -  
2025-02-18 17:11:40,712 [INFO] CmdLine:67 -  Exec/report summary (analyze)
2025-02-18 17:11:40,712 [INFO] CmdLine:67 -  -----------------------------------------------------------------------------------------------------------
2025-02-18 17:11:40,712 [INFO] CmdLine:67 -  model file         :   F:\verified_model\yolov1_full_integer_quant.tflite                                  
2025-02-18 17:11:40,712 [INFO] CmdLine:67 -  type               :   tflite                                                                              
2025-02-18 17:11:40,712 [INFO] CmdLine:67 -  c_name             :   network                                                                             
2025-02-18 17:11:40,712 [INFO] CmdLine:67 -  compression        :   none                                                                                
2025-02-18 17:11:40,712 [INFO] CmdLine:67 -  options            :   allocate-inputs, allocate-outputs                                                   
2025-02-18 17:11:40,712 [INFO] CmdLine:67 -  optimization       :   balanced                                                                            
2025-02-18 17:11:40,712 [INFO] CmdLine:67 -  target/series      :   stm32h7                                                                             
2025-02-18 17:11:40,727 [INFO] CmdLine:67 -  workspace dir      :   C:\Users\yh621\AppData\Local\Temp\mxAI_workspace481743863770015841469837028747199   
2025-02-18 17:11:40,727 [INFO] CmdLine:67 -  output dir         :   C:\Users\yh621\.stm32cubemx\network_output                                          
2025-02-18 17:11:40,727 [INFO] CmdLine:67 -  model_fmt          :   s/sa                                                                                
2025-02-18 17:11:40,727 [INFO] CmdLine:67 -  model_name         :   yolov1_full_integer_quant                                                           
2025-02-18 17:11:40,727 [INFO] CmdLine:67 -  model_hash         :   6512120751291046a9d1818e9080aff1                                                    
2025-02-18 17:11:40,727 [INFO] CmdLine:67 -  params #           :   40,748 items (41.09 KiB)                                                            
2025-02-18 17:11:40,727 [INFO] CmdLine:67 -  -----------------------------------------------------------------------------------------------------------
2025-02-18 17:11:40,727 [INFO] CmdLine:67 -  input 1/1          :   'serving_default_input0' (domain:activations/**default**)                           
2025-02-18 17:11:40,727 [INFO] CmdLine:67 -                     :   27648 items, 27.00 KiB, ai_i8, s=0.07236465, zp=18, (1,96,96,3)                     
2025-02-18 17:11:40,727 [INFO] CmdLine:67 -  output 1/3         :   'slice_23' (domain:activations/**default**)                                         
2025-02-18 17:11:40,727 [INFO] CmdLine:67 -                     :   288 items, 288 B, ai_i8, s=0.00212632, zp=-6, (1,12,12,2)                           
2025-02-18 17:11:40,727 [INFO] CmdLine:67 -  output 2/3         :   'slice_24' (domain:activations/**default**)                                         
2025-02-18 17:11:40,727 [INFO] CmdLine:67 -                     :   1440 items, 1.41 KiB, ai_i8, s=0.00212632, zp=-6, (1,12,12,10)                      
2025-02-18 17:11:40,727 [INFO] CmdLine:67 -  output 3/3         :   'conv2d_22' (domain:activations/**default**)                                        
2025-02-18 17:11:40,727 [INFO] CmdLine:67 -                     :   1728 items, 1.69 KiB, ai_i8, s=0.00212632, zp=-6, (1,12,12,12)                      
2025-02-18 17:11:40,727 [INFO] CmdLine:67 -  outputs (total)    :   3.38 KiB                                                                            
2025-02-18 17:11:40,727 [INFO] CmdLine:67 -  macc               :   21,427,644                                                                          
2025-02-18 17:11:40,727 [INFO] CmdLine:67 -  weights (ro)       :   42,080 B (41.09 KiB) (1 segment) / -120,912(-74.2%) vs float model                  
2025-02-18 17:11:40,727 [INFO] CmdLine:67 -  activations (rw)   :   44,448 B (43.41 KiB) (1 segment) *                                                  
2025-02-18 17:11:40,727 [INFO] CmdLine:67 -  ram (total)        :   44,448 B (43.41 KiB) = 44,448 + 0 + 0                                               
2025-02-18 17:11:40,727 [INFO] CmdLine:67 -  -----------------------------------------------------------------------------------------------------------
2025-02-18 17:11:40,727 [INFO] CmdLine:67 -  (*) 'input'/'output' buffers can be used from the activations buffer
2025-02-18 17:11:42,004 [INFO] CmdLine:67 -  Model name - yolov1_full_integer_quant ['serving_default_input0'] ['slice_23', 'slice_24', 'conv2d_22']
2025-02-18 17:11:42,004 [INFO] CmdLine:67 -  ------ --------------------------- ---------------------- ------------- ----------- ------------------------
2025-02-18 17:11:42,004 [INFO] CmdLine:67 -  m_id   layer (original)            oshape                 param/size           macc             connected to
2025-02-18 17:11:42,004 [INFO] CmdLine:67 -  ------ --------------------------- ---------------------- ------------- ----------- ------------------------
2025-02-18 17:11:42,004 [INFO] CmdLine:67 -  0      serving_default_input0 ()   [b:1,h:96,w:96,c:3]
2025-02-18 17:11:42,004 [INFO] CmdLine:67 -         conv2d_0 (CONV_2D)          [b:1,h:96,w:96,c:16]   448/496         3,981,328   serving_default_input0
2025-02-18 17:11:42,004 [INFO] CmdLine:67 -         nl_0_nl (CONV_2D)           [b:1,h:96,w:96,c:16]                     147,456                 conv2d_0
2025-02-18 17:11:42,008 [INFO] CmdLine:67 -  ------ --------------------------- ---------------------- ------------- ----------- ------------------------
2025-02-18 17:11:42,008 [INFO] CmdLine:67 -  1      pool_1 (MAX_POOL_2D)        [b:1,h:48,w:48,c:16]                     147,456                  nl_0_nl
2025-02-18 17:11:42,009 [INFO] CmdLine:67 -  ------ --------------------------- ---------------------- ------------- ----------- ------------------------
2025-02-18 17:11:42,009 [INFO] CmdLine:67 -  2      conv2d_2 (CONV_2D)          [b:1,h:48,w:48,c:16]   2,320/2,368     5,308,432                   pool_1
2025-02-18 17:11:42,009 [INFO] CmdLine:67 -         nl_2_nl (CONV_2D)           [b:1,h:48,w:48,c:16]                      36,864                 conv2d_2
2025-02-18 17:11:42,009 [INFO] CmdLine:67 -  ------ --------------------------- ---------------------- ------------- ----------- ------------------------
2025-02-18 17:11:42,009 [INFO] CmdLine:67 -  3      pool_3 (MAX_POOL_2D)        [b:1,h:24,w:24,c:16]                      36,864                  nl_2_nl
2025-02-18 17:11:42,009 [INFO] CmdLine:67 -  ------ --------------------------- ---------------------- ------------- ----------- ------------------------
2025-02-18 17:11:42,009 [INFO] CmdLine:67 -  4      conv2d_4 (CONV_2D)          [b:1,h:24,w:24,c:16]   272/320           147,472                   pool_3
2025-02-18 17:11:42,009 [INFO] CmdLine:67 -         nl_4_nl (CONV_2D)           [b:1,h:24,w:24,c:16]                       9,216                 conv2d_4
2025-02-18 17:11:42,009 [INFO] CmdLine:67 -  ------ --------------------------- ---------------------- ------------- ----------- ------------------------
2025-02-18 17:11:42,009 [INFO] CmdLine:67 -  5      conv2d_5 (CONV_2D)          [b:1,h:24,w:24,c:32]   4,640/4,736     2,654,240                  nl_4_nl
2025-02-18 17:11:42,009 [INFO] CmdLine:67 -         nl_5_nl (CONV_2D)           [b:1,h:24,w:24,c:32]                      18,432                 conv2d_5
2025-02-18 17:11:42,009 [INFO] CmdLine:67 -  ------ --------------------------- ---------------------- ------------- ----------- ------------------------
2025-02-18 17:11:42,013 [INFO] CmdLine:67 -  6      conv2d_6 (CONV_2D)          [b:1,h:24,w:24,c:16]   528/576           294,928                  nl_5_nl
2025-02-18 17:11:42,013 [INFO] CmdLine:67 -         nl_6_nl (CONV_2D)           [b:1,h:24,w:24,c:16]                       9,216                 conv2d_6
2025-02-18 17:11:42,013 [INFO] CmdLine:67 -  ------ --------------------------- ---------------------- ------------- ----------- ------------------------
2025-02-18 17:11:42,013 [INFO] CmdLine:67 -  7      conv2d_7 (CONV_2D)          [b:1,h:24,w:24,c:32]   4,640/4,736     2,654,240                  nl_6_nl
2025-02-18 17:11:42,013 [INFO] CmdLine:67 -         nl_7_nl (CONV_2D)           [b:1,h:24,w:24,c:32]                      18,432                 conv2d_7
2025-02-18 17:11:42,013 [INFO] CmdLine:67 -  ------ --------------------------- ---------------------- ------------- ----------- ------------------------
2025-02-18 17:11:42,013 [INFO] CmdLine:67 -  8      conv2d_8 (CONV_2D)          [b:1,h:24,w:24,c:16]   528/576           294,928                  nl_7_nl
2025-02-18 17:11:42,013 [INFO] CmdLine:67 -         nl_8_nl (CONV_2D)           [b:1,h:24,w:24,c:16]                       9,216                 conv2d_8
2025-02-18 17:11:42,013 [INFO] CmdLine:67 -  ------ --------------------------- ---------------------- ------------- ----------- ------------------------
2025-02-18 17:11:42,013 [INFO] CmdLine:67 -  9      conv2d_9 (CONV_2D)          [b:1,h:24,w:24,c:32]   4,640/4,736     2,654,240                  nl_8_nl
2025-02-18 17:11:42,013 [INFO] CmdLine:67 -         nl_9_nl (CONV_2D)           [b:1,h:24,w:24,c:32]                      18,432                 conv2d_9
2025-02-18 17:11:42,013 [INFO] CmdLine:67 -  ------ --------------------------- ---------------------- ------------- ----------- ------------------------
2025-02-18 17:11:42,013 [INFO] CmdLine:67 -  10     pool_10 (MAX_POOL_2D)       [b:1,h:12,w:12,c:32]                      18,432                  nl_9_nl
2025-02-18 17:11:42,013 [INFO] CmdLine:67 -  ------ --------------------------- ---------------------- ------------- ----------- ------------------------
2025-02-18 17:11:42,013 [INFO] CmdLine:67 -  11     conv2d_11 (CONV_2D)         [b:1,h:12,w:12,c:16]   528/576            73,744                  pool_10
2025-02-18 17:11:42,013 [INFO] CmdLine:67 -         nl_11_nl (CONV_2D)          [b:1,h:12,w:12,c:16]                       2,304                conv2d_11
2025-02-18 17:11:42,013 [INFO] CmdLine:67 -  ------ --------------------------- ---------------------- ------------- ----------- ------------------------
2025-02-18 17:11:42,013 [INFO] CmdLine:67 -  12     conv2d_12 (CONV_2D)         [b:1,h:12,w:12,c:32]   4,640/4,736       663,584                 nl_11_nl
2025-02-18 17:11:42,013 [INFO] CmdLine:67 -         nl_12_nl (CONV_2D)          [b:1,h:12,w:12,c:32]                       4,608                conv2d_12
2025-02-18 17:11:42,013 [INFO] CmdLine:67 -  ------ --------------------------- ---------------------- ------------- ----------- ------------------------
2025-02-18 17:11:42,013 [INFO] CmdLine:67 -  13     conv2d_13 (CONV_2D)         [b:1,h:12,w:12,c:16]   528/576            73,744                 nl_12_nl
2025-02-18 17:11:42,013 [INFO] CmdLine:67 -         nl_13_nl (CONV_2D)          [b:1,h:12,w:12,c:16]                       2,304                conv2d_13
2025-02-18 17:11:42,013 [INFO] CmdLine:67 -  ------ --------------------------- ---------------------- ------------- ----------- ------------------------
2025-02-18 17:11:42,013 [INFO] CmdLine:67 -  14     conv2d_14 (CONV_2D)         [b:1,h:12,w:12,c:32]   4,640/4,736       663,584                 nl_13_nl
2025-02-18 17:11:42,013 [INFO] CmdLine:67 -         nl_14_nl (CONV_2D)          [b:1,h:12,w:12,c:32]                       4,608                conv2d_14
2025-02-18 17:11:42,013 [INFO] CmdLine:67 -  ------ --------------------------- ---------------------- ------------- ----------- ------------------------
2025-02-18 17:11:42,013 [INFO] CmdLine:67 -  15     conv2d_15 (CONV_2D)         [b:1,h:12,w:12,c:16]   528/576            73,744                 nl_14_nl
2025-02-18 17:11:42,029 [INFO] CmdLine:67 -         nl_15_nl (CONV_2D)          [b:1,h:12,w:12,c:16]                       2,304                conv2d_15
2025-02-18 17:11:42,029 [INFO] CmdLine:67 -  ------ --------------------------- ---------------------- ------------- ----------- ------------------------
2025-02-18 17:11:42,029 [INFO] CmdLine:67 -  16     conv2d_16 (CONV_2D)         [b:1,h:12,w:12,c:32]   4,640/4,736       663,584                 nl_15_nl
2025-02-18 17:11:42,029 [INFO] CmdLine:67 -         nl_16_nl (CONV_2D)          [b:1,h:12,w:12,c:32]                       4,608                conv2d_16
2025-02-18 17:11:42,029 [INFO] CmdLine:67 -  ------ --------------------------- ---------------------- ------------- ----------- ------------------------
2025-02-18 17:11:42,029 [INFO] CmdLine:67 -  17     conv2d_17 (CONV_2D)         [b:1,h:12,w:12,c:16]   528/576            73,744                 nl_16_nl
2025-02-18 17:11:42,029 [INFO] CmdLine:67 -         nl_17_nl (CONV_2D)          [b:1,h:12,w:12,c:16]                       2,304                conv2d_17
2025-02-18 17:11:42,029 [INFO] CmdLine:67 -  ------ --------------------------- ---------------------- ------------- ----------- ------------------------
2025-02-18 17:11:42,029 [INFO] CmdLine:67 -  18     conv2d_18 (CONV_2D)         [b:1,h:12,w:12,c:32]   4,640/4,736       663,584                 nl_17_nl
2025-02-18 17:11:42,029 [INFO] CmdLine:67 -         nl_18_nl (CONV_2D)          [b:1,h:12,w:12,c:32]                       4,608                conv2d_18
2025-02-18 17:11:42,029 [INFO] CmdLine:67 -  ------ --------------------------- ---------------------- ------------- ----------- ------------------------
2025-02-18 17:11:42,029 [INFO] CmdLine:67 -  19     conv2d_19 (CONV_2D)         [b:1,h:12,w:12,c:32]   1,056/1,152       147,488                 nl_18_nl
2025-02-18 17:11:42,029 [INFO] CmdLine:67 -         nl_19_nl (CONV_2D)          [b:1,h:12,w:12,c:32]                       4,608                conv2d_19
2025-02-18 17:11:42,029 [INFO] CmdLine:67 -  ------ --------------------------- ---------------------- ------------- ----------- ------------------------
2025-02-18 17:11:42,029 [INFO] CmdLine:67 -  20     conv2d_20 (CONV_2D)         [b:1,h:12,w:12,c:16]   528/576            73,744                 nl_19_nl
2025-02-18 17:11:42,029 [INFO] CmdLine:67 -         nl_20_nl (CONV_2D)          [b:1,h:12,w:12,c:16]                       2,304                conv2d_20
2025-02-18 17:11:42,029 [INFO] CmdLine:67 -  ------ --------------------------- ---------------------- ------------- ----------- ------------------------
2025-02-18 17:11:42,029 [INFO] CmdLine:67 -  21     conv2d_21 (CONV_2D)         [b:1,h:12,w:12,c:16]   272/320            36,880                 nl_20_nl
2025-02-18 17:11:42,029 [INFO] CmdLine:67 -         nl_21_nl (CONV_2D)          [b:1,h:12,w:12,c:16]                       2,304                conv2d_21
2025-02-18 17:11:42,029 [INFO] CmdLine:67 -  ------ --------------------------- ---------------------- ------------- ----------- ------------------------
2025-02-18 17:11:42,029 [INFO] CmdLine:67 -  22     conv2d_22 (CONV_2D)         [b:1,h:12,w:12,c:12]   204/240            27,660                 nl_21_nl
2025-02-18 17:11:42,029 [INFO] CmdLine:67 -  ------ --------------------------- ---------------------- ------------- ----------- ------------------------
2025-02-18 17:11:42,029 [INFO] CmdLine:67 -  23     slice_23 (STRIDED_SLICE)    [b:1,h:12,w:12,c:2]                                             conv2d_22
2025-02-18 17:11:42,029 [INFO] CmdLine:67 -  ------ --------------------------- ---------------------- ------------- ----------- ------------------------
2025-02-18 17:11:42,029 [INFO] CmdLine:67 -  24     slice_24 (STRIDED_SLICE)    [b:1,h:12,w:12,c:10]                                            conv2d_22
2025-02-18 17:11:42,029 [INFO] CmdLine:67 -  ------ --------------------------- ---------------------- ------------- ----------- ------------------------
2025-02-18 17:11:42,029 [INFO] CmdLine:67 -  model/c-model: macc=21,731,772/21,427,644 -304,128(-1.4%) weights=42,080/42,080  activations=--/44,448 io=--/0
2025-02-18 17:11:42,029 [INFO] CmdLine:67 -  Number of operations per c-layer
2025-02-18 17:11:42,029 [INFO] CmdLine:67 -  ------- ------ ----------------------------- ------------ ------------
2025-02-18 17:11:42,029 [INFO] CmdLine:67 -  c_id    m_id   name (type)                            #op         type
2025-02-18 17:11:42,029 [INFO] CmdLine:67 -  ------- ------ ----------------------------- ------------ ------------
2025-02-18 17:11:42,029 [INFO] CmdLine:67 -  0       1      conv2d_0 (optimized_conv2d)      4,128,784   smul_s8_s8
2025-02-18 17:11:42,029 [INFO] CmdLine:67 -  1       3      conv2d_2 (optimized_conv2d)      5,345,296   smul_s8_s8
2025-02-18 17:11:42,029 [INFO] CmdLine:67 -  2       4      conv2d_4 (conv2d)                  147,472   smul_s8_s8
2025-02-18 17:11:42,029 [INFO] CmdLine:67 -  3       5      conv2d_5 (conv2d)                2,654,240   smul_s8_s8
2025-02-18 17:11:42,029 [INFO] CmdLine:67 -  4       6      conv2d_6 (conv2d)                  294,928   smul_s8_s8
2025-02-18 17:11:42,029 [INFO] CmdLine:67 -  5       7      conv2d_7 (conv2d)                2,654,240   smul_s8_s8
2025-02-18 17:11:42,029 [INFO] CmdLine:67 -  6       8      conv2d_8 (conv2d)                  294,928   smul_s8_s8
2025-02-18 17:11:42,029 [INFO] CmdLine:67 -  7       10     conv2d_9 (optimized_conv2d)      2,672,672   smul_s8_s8
2025-02-18 17:11:42,029 [INFO] CmdLine:67 -  8       11     conv2d_11 (conv2d)                  73,744   smul_s8_s8
2025-02-18 17:11:42,029 [INFO] CmdLine:67 -  9       12     conv2d_12 (conv2d)                 663,584   smul_s8_s8
2025-02-18 17:11:42,029 [INFO] CmdLine:67 -  10      13     conv2d_13 (conv2d)                  73,744   smul_s8_s8
2025-02-18 17:11:42,029 [INFO] CmdLine:67 -  11      14     conv2d_14 (conv2d)                 663,584   smul_s8_s8
2025-02-18 17:11:42,029 [INFO] CmdLine:67 -  12      15     conv2d_15 (conv2d)                  73,744   smul_s8_s8
2025-02-18 17:11:42,029 [INFO] CmdLine:67 -  13      16     conv2d_16 (conv2d)                 663,584   smul_s8_s8
2025-02-18 17:11:42,029 [INFO] CmdLine:67 -  14      17     conv2d_17 (conv2d)                  73,744   smul_s8_s8
2025-02-18 17:11:42,029 [INFO] CmdLine:67 -  15      18     conv2d_18 (conv2d)                 663,584   smul_s8_s8
2025-02-18 17:11:42,029 [INFO] CmdLine:67 -  16      19     conv2d_19 (conv2d)                 147,488   smul_s8_s8
2025-02-18 17:11:42,029 [INFO] CmdLine:67 -  17      20     conv2d_20 (conv2d)                  73,744   smul_s8_s8
2025-02-18 17:11:42,029 [INFO] CmdLine:67 -  18      21     conv2d_21 (conv2d)                  36,880   smul_s8_s8
2025-02-18 17:11:42,045 [INFO] CmdLine:67 -  19      22     conv2d_22 (conv2d)                  27,660   smul_s8_s8
2025-02-18 17:11:42,046 [INFO] CmdLine:67 -  20      24     slice_24 (slice)                         0   smul_s8_s8
2025-02-18 17:11:42,046 [INFO] CmdLine:67 -  21      23     slice_23 (slice)                         0   smul_s8_s8
2025-02-18 17:11:42,046 [INFO] CmdLine:67 -  ------- ------ ----------------------------- ------------ ------------
2025-02-18 17:11:42,046 [INFO] CmdLine:67 -  total                                          21,427,644
2025-02-18 17:11:42,046 [INFO] CmdLine:67 -  Number of operation types
2025-02-18 17:11:42,046 [INFO] CmdLine:67 -  ---------------- ------------ -----------
2025-02-18 17:11:42,046 [INFO] CmdLine:67 -  operation type              #           %
2025-02-18 17:11:42,046 [INFO] CmdLine:67 -  ---------------- ------------ -----------
2025-02-18 17:11:42,046 [INFO] CmdLine:67 -  smul_s8_s8         21,427,644      100.0%
2025-02-18 17:11:42,046 [INFO] CmdLine:67 -  Complexity report (model)
2025-02-18 17:11:42,046 [INFO] CmdLine:67 -  ------ ----------- ------------------------- ------------------------- ------
2025-02-18 17:11:42,046 [INFO] CmdLine:67 -  m_id   name        c_macc                    c_rom                     c_id
2025-02-18 17:11:42,046 [INFO] CmdLine:67 -  ------ ----------- ------------------------- ------------------------- ------
2025-02-18 17:11:42,046 [INFO] CmdLine:67 -  1      pool_1      ||||||||||||      19.3%   ||                 1.2%   [0]
2025-02-18 17:11:42,046 [INFO] CmdLine:67 -  3      pool_3      ||||||||||||||||  24.9%   ||||||||           5.6%   [1]
2025-02-18 17:11:42,046 [INFO] CmdLine:67 -  4      conv2d_4    |                  0.7%   ||                 0.8%   [2]
2025-02-18 17:11:42,046 [INFO] CmdLine:67 -  5      conv2d_5    ||||||||          12.4%   ||||||||||||||||  11.3%   [3]
2025-02-18 17:11:42,046 [INFO] CmdLine:67 -  6      conv2d_6    |                  1.4%   ||                 1.4%   [4]
2025-02-18 17:11:42,046 [INFO] CmdLine:67 -  7      conv2d_7    ||||||||          12.4%   ||||||||||||||||  11.3%   [5]
2025-02-18 17:11:42,046 [INFO] CmdLine:67 -  8      conv2d_8    |                  1.4%   ||                 1.4%   [6]
2025-02-18 17:11:42,046 [INFO] CmdLine:67 -  10     pool_10     ||||||||          12.5%   ||||||||||||||||  11.3%   [7]
2025-02-18 17:11:42,046 [INFO] CmdLine:67 -  11     conv2d_11   |                  0.3%   ||                 1.4%   [8]
2025-02-18 17:11:42,046 [INFO] CmdLine:67 -  12     conv2d_12   ||                 3.1%   ||||||||||||||||  11.3%   [9]
2025-02-18 17:11:42,046 [INFO] CmdLine:67 -  13     conv2d_13   |                  0.3%   ||                 1.4%   [10]
2025-02-18 17:11:42,046 [INFO] CmdLine:67 -  14     conv2d_14   ||                 3.1%   ||||||||||||||||  11.3%   [11]
2025-02-18 17:11:42,046 [INFO] CmdLine:67 -  15     conv2d_15   |                  0.3%   ||                 1.4%   [12]
2025-02-18 17:11:42,046 [INFO] CmdLine:67 -  16     conv2d_16   ||                 3.1%   ||||||||||||||||  11.3%   [13]
2025-02-18 17:11:42,046 [INFO] CmdLine:67 -  17     conv2d_17   |                  0.3%   ||                 1.4%   [14]
2025-02-18 17:11:42,046 [INFO] CmdLine:67 -  18     conv2d_18   ||                 3.1%   ||||||||||||||||  11.3%   [15]
2025-02-18 17:11:42,046 [INFO] CmdLine:67 -  19     conv2d_19   |                  0.7%   ||||               2.7%   [16]
2025-02-18 17:11:42,046 [INFO] CmdLine:67 -  20     conv2d_20   |                  0.3%   ||                 1.4%   [17]
2025-02-18 17:11:42,046 [INFO] CmdLine:67 -  21     conv2d_21   |                  0.2%   ||                 0.8%   [18]
2025-02-18 17:11:42,046 [INFO] CmdLine:67 -  22     conv2d_22   |                  0.1%   |                  0.6%   [19]
2025-02-18 17:11:42,046 [INFO] CmdLine:67 -  23     slice_23    |                  0.0%   |                  0.0%   [21]
2025-02-18 17:11:42,046 [INFO] CmdLine:67 -  24     slice_24    |                  0.0%   |                  0.0%   [20]
2025-02-18 17:11:42,046 [INFO] CmdLine:67 -  ------ ----------- ------------------------- ------------------------- ------
2025-02-18 17:11:42,046 [INFO] CmdLine:67 -  macc=21,427,644 weights=42,080 act=44,448 ram_io=0
2025-02-18 17:11:42,046 [INFO] CmdLine:67 -  Requested memory size per segment ("stm32h7" series)
2025-02-18 17:11:42,046 [INFO] CmdLine:67 -  ----------------------------- -------- -------- -------- --------
2025-02-18 17:11:42,046 [INFO] CmdLine:67 -  module                            text   rodata     data      bss
2025-02-18 17:11:42,046 [INFO] CmdLine:67 -  ----------------------------- -------- -------- -------- --------
2025-02-18 17:11:42,046 [INFO] CmdLine:67 -  NetworkRuntime801_CM7_GCC.a     29,756        0        0        0
2025-02-18 17:11:42,046 [INFO] CmdLine:67 -  network.o                        1,852    1,248    9,916      456
2025-02-18 17:11:42,046 [INFO] CmdLine:67 -  network_data.o                      52       16       88        0
2025-02-18 17:11:42,046 [INFO] CmdLine:67 -  lib (toolchain)*                   104        0        0        0
2025-02-18 17:11:42,046 [INFO] CmdLine:67 -  ----------------------------- -------- -------- -------- --------
2025-02-18 17:11:42,046 [INFO] CmdLine:67 -  RT total**                      31,764    1,264   10,004      456
2025-02-18 17:11:42,046 [INFO] CmdLine:67 -  ----------------------------- -------- -------- -------- --------
2025-02-18 17:11:42,046 [INFO] CmdLine:67 -  *weights*                            0   42,080        0        0
2025-02-18 17:11:42,046 [INFO] CmdLine:67 -  *activations*                        0        0        0   44,448
2025-02-18 17:11:42,046 [INFO] CmdLine:67 -  *io*                                 0        0        0        0
2025-02-18 17:11:42,046 [INFO] CmdLine:67 -  ----------------------------- -------- -------- -------- --------
2025-02-18 17:11:42,046 [INFO] CmdLine:67 -  TOTAL                           31,764   43,344   10,004   44,904
2025-02-18 17:11:42,046 [INFO] CmdLine:67 -  ----------------------------- -------- -------- -------- --------
2025-02-18 17:11:42,046 [INFO] CmdLine:67 -  *  toolchain objects (libm/libgcc*)
2025-02-18 17:11:42,046 [INFO] CmdLine:67 -  ** RT - AI runtime objects (kernels+infrastructure)
2025-02-18 17:11:42,046 [INFO] CmdLine:67 -   Summary per memory device type
2025-02-18 17:11:42,046 [INFO] CmdLine:67 -   ---------------------------------------------
2025-02-18 17:11:42,046 [INFO] CmdLine:67 -   .\device      FLASH       %      RAM       %
2025-02-18 17:11:42,067 [INFO] CmdLine:67 -   ---------------------------------------------
2025-02-18 17:11:42,068 [INFO] CmdLine:67 -   RT total     43,032   50.6%   10,460   19.1%
2025-02-18 17:11:42,068 [INFO] CmdLine:67 -   ---------------------------------------------
2025-02-18 17:11:42,069 [INFO] CmdLine:67 -   TOTAL        85,112           54,908
2025-02-18 17:11:42,069 [INFO] CmdLine:67 -   ---------------------------------------------
2025-02-18 17:11:42,069 [INFO] CmdLine:67 - Creating txt report file C:\Users\yh621\.stm32cubemx\network_output\network_analyze_report.txt
2025-02-18 17:11:43,443 [INFO] CmdLine:67 - elapsed time (analyze): 4.426s
2025-02-18 17:11:43,920 [INFO] CmdLine:132 - stm32ai exit with status: 0
2025-02-18 17:11:43,951 [INFO] AInterface:594 - Successfully load: network
2025-02-18 17:11:43,982 [INFO] AIModelDetailledView:1055 - Model file:      yolov1_full_integer_quant.tflite
2025-02-18 17:11:43,982 [INFO] AIModelDetailledView:1055 - Total Flash:     85112 B (83.12 KiB)
2025-02-18 17:11:43,982 [INFO] AIModelDetailledView:1055 -     Weights:     42080 B (41.09 KiB)
2025-02-18 17:11:43,982 [INFO] AIModelDetailledView:1055 -     Library:     43032 B (42.02 KiB)
2025-02-18 17:11:43,982 [INFO] AIModelDetailledView:1055 - Total Ram:       54908 B (53.62 KiB)
2025-02-18 17:11:43,982 [INFO] AIModelDetailledView:1055 -     Activations: 44448 B (43.41 KiB)
2025-02-18 17:11:43,982 [INFO] AIModelDetailledView:1055 -     Library:     10460 B (10.21 KiB)
2025-02-18 17:11:43,982 [INFO] AIModelDetailledView:1055 -     Input:       27649 B (27.00 KiB included in Activations)
2025-02-18 17:11:43,982 [INFO] AIModelDetailledView:1055 -     Output:      1728 B (1.69 KiB included in Activations)
2025-02-18 17:11:43,982 [INFO] AIModelDetailledView:1055 - Done
2025-02-18 17:11:43,982 [INFO] AIModelDetailledView:2409 - Analyze complete on AI model
2025-02-18 17:11:44,315 [INFO] AIModelDetailledView:2080 - Analysis status: done
2025-02-18 17:11:47,493 [INFO] AInterface:506 - workspaceTempDir: C:\Users\yh621\AppData\Local\Temp\mxAI_workspace48353035572003546816113517484856
2025-02-18 17:11:47,493 [INFO] AInterface:1042 - Setting Env: C:/Users/yh621/STM32Cube/Repository/Packs/STMicroelectronics/X-CUBE-AI/8.0.1/Utilities/windows
2025-02-18 17:11:47,493 [INFO] AInterface:1099 - Custom PATH variable: C:/Users/yh621/STM32Cube/Repository/Packs/STMicroelectronics/X-CUBE-AI/8.0.1/Utilities/windows;C:/Users/yh621/STM32Cube/Repository/Packs/STMicroelectronics/X-CUBE-AI/8.0.1/Utilities/windows/mingw64/bin;C:/Users/yh621/STM32Cube/Repository/Packs/STMicroelectronics/X-CUBE-AI/8.0.1/Utilities/windows/mingw64/libexec/gcc/x86_64-w64-mingw32/7.3.0;C:/Users/yh621/STM32Cube/Repository/Packs/STMicroelectronics/X-CUBE-AI/8.0.1/Utilities/windows/node/bin
2025-02-18 17:11:47,493 [INFO] CmdLine:100 - Command: C:/Users/yh621/STM32Cube/Repository/Packs/STMicroelectronics/X-CUBE-AI/8.0.1/Utilities/windows/stm32ai validate --name network -m F:/verified_model/yolov1_full_integer_quant.tflite --type tflite --compression none --verbosity 1 --workspace C:\Users\yh621\AppData\Local\Temp\mxAI_workspace48353035572003546816113517484856 --output C:\Users\yh621\.stm32cubemx\network_output --allocate-inputs --allocate-outputs 
2025-02-18 17:11:52,729 [INFO] CmdLine:67 - Neural Network Tools for STM32AI v1.7.0 (STM.ai v8.0.1-19451)
2025-02-18 17:11:53,765 [INFO] CmdLine:67 - Applied 0 of 2 optimizations
2025-02-18 17:11:54,309 [INFO] CmdLine:67 - Copying the AI runtime files to the user workspace: C:\Users\yh621\AppData\Local\Temp\mxAI_workspace48353035572003546816113517484856\inspector_network\workspace
2025-02-18 17:11:56,400 [INFO] CmdLine:67 -  
2025-02-18 17:11:56,400 [INFO] CmdLine:67 -  Exec/report summary (validate)
2025-02-18 17:11:56,400 [INFO] CmdLine:67 -  ----------------------------------------------------------------------------------------------------------
2025-02-18 17:11:56,400 [INFO] CmdLine:67 -  model file         :   F:\verified_model\yolov1_full_integer_quant.tflite                                 
2025-02-18 17:11:56,400 [INFO] CmdLine:67 -  type               :   tflite                                                                             
2025-02-18 17:11:56,400 [INFO] CmdLine:67 -  c_name             :   network                                                                            
2025-02-18 17:11:56,400 [INFO] CmdLine:67 -  compression        :   none                                                                               
2025-02-18 17:11:56,400 [INFO] CmdLine:67 -  options            :   allocate-inputs, allocate-outputs                                                  
2025-02-18 17:11:56,400 [INFO] CmdLine:67 -  optimization       :   balanced                                                                           
2025-02-18 17:11:56,400 [INFO] CmdLine:67 -  target/series      :   generic                                                                            
2025-02-18 17:11:56,400 [INFO] CmdLine:67 -  workspace dir      :   C:\Users\yh621\AppData\Local\Temp\mxAI_workspace48353035572003546816113517484856   
2025-02-18 17:11:56,400 [INFO] CmdLine:67 -  output dir         :   C:\Users\yh621\.stm32cubemx\network_output                                         
2025-02-18 17:11:56,400 [INFO] CmdLine:67 -  model_fmt          :   s/sa                                                                               
2025-02-18 17:11:56,400 [INFO] CmdLine:67 -  model_name         :   yolov1_full_integer_quant                                                          
2025-02-18 17:11:56,400 [INFO] CmdLine:67 -  model_hash         :   6512120751291046a9d1818e9080aff1                                                   
2025-02-18 17:11:56,400 [INFO] CmdLine:67 -  params #           :   40,748 items (41.09 KiB)                                                           
2025-02-18 17:11:56,400 [INFO] CmdLine:67 -  ----------------------------------------------------------------------------------------------------------
2025-02-18 17:11:56,400 [INFO] CmdLine:67 -  input 1/1          :   'serving_default_input0' (domain:activations/**default**)                          
2025-02-18 17:11:56,400 [INFO] CmdLine:67 -                     :   27648 items, 27.00 KiB, ai_i8, s=0.07236465, zp=18, (1,96,96,3)                    
2025-02-18 17:11:56,400 [INFO] CmdLine:67 -  output 1/3         :   'slice_23' (domain:activations/**default**)                                        
2025-02-18 17:11:56,400 [INFO] CmdLine:67 -                     :   288 items, 288 B, ai_i8, s=0.00212632, zp=-6, (1,12,12,2)                          
2025-02-18 17:11:56,400 [INFO] CmdLine:67 -  output 2/3         :   'slice_24' (domain:activations/**default**)                                        
2025-02-18 17:11:56,400 [INFO] CmdLine:67 -                     :   1440 items, 1.41 KiB, ai_i8, s=0.00212632, zp=-6, (1,12,12,10)                     
2025-02-18 17:11:56,400 [INFO] CmdLine:67 -  output 3/3         :   'conv2d_22' (domain:activations/**default**)                                       
2025-02-18 17:11:56,400 [INFO] CmdLine:67 -                     :   1728 items, 1.69 KiB, ai_i8, s=0.00212632, zp=-6, (1,12,12,12)                     
2025-02-18 17:11:56,400 [INFO] CmdLine:67 -  outputs (total)    :   3.38 KiB                                                                           
2025-02-18 17:11:56,400 [INFO] CmdLine:67 -  macc               :   21,427,644                                                                         
2025-02-18 17:11:56,400 [INFO] CmdLine:67 -  weights (ro)       :   42,080 B (41.09 KiB) (1 segment) / -120,912(-74.2%) vs float model                 
2025-02-18 17:11:56,400 [INFO] CmdLine:67 -  activations (rw)   :   44,448 B (43.41 KiB) (1 segment) *                                                 
2025-02-18 17:11:56,400 [INFO] CmdLine:67 -  ram (total)        :   44,448 B (43.41 KiB) = 44,448 + 0 + 0                                              
2025-02-18 17:11:56,400 [INFO] CmdLine:67 -  ----------------------------------------------------------------------------------------------------------
2025-02-18 17:11:56,400 [INFO] CmdLine:67 -  (*) 'input'/'output' buffers can be used from the activations buffer
2025-02-18 17:11:56,421 [INFO] CmdLine:67 - Setting validation data...
2025-02-18 17:11:56,421 [INFO] CmdLine:67 -  generating random data, size=10, seed=42, range=(0, 1)
2025-02-18 17:11:56,453 [INFO] CmdLine:67 -  I[1]: (10, 96, 96, 3)/int8, min/max=[-128, 127], mean/std=[-0.338, 73.596], scale=0.07236465 zp=18, serving_default_input0
2025-02-18 17:11:56,453 [INFO] CmdLine:67 -  No output/reference samples are provided
2025-02-18 17:11:56,484 [INFO] CmdLine:67 - Running the STM AI c-model (AI RUNNER)...(name=network, mode=x86)
2025-02-18 17:11:56,816 [INFO] CmdLine:67 -  X86 shared lib (C:\Users\yh621\AppData\Local\Temp\mxAI_workspace48353035572003546816113517484856\inspector_network\workspace\lib\libai_network.dll) ['network']
2025-02-18 17:11:56,822 [INFO] CmdLine:67 -   Summary "network" - ['network']
2025-02-18 17:11:56,822 [INFO] CmdLine:67 -   ----------------------------------------------------------------------------------------------------------------
2025-02-18 17:11:56,822 [INFO] CmdLine:67 -   inputs/ouputs      :   1/3
2025-02-18 17:11:56,822 [INFO] CmdLine:67 -   input_1            :   input_1, (1,96,96,3), int8, 27,648 bytes, S:0.07236465 O:18 SA, in activations buffer
2025-02-18 17:11:56,822 [INFO] CmdLine:67 -   output_1           :   output_1, (1,12,12,2), int8, 288 bytes, S:0.00212632 O:-6 SA, in activations buffer
2025-02-18 17:11:56,822 [INFO] CmdLine:67 -   output_2           :   output_2, (1,12,12,10), int8, 1,440 bytes, S:0.00212632 O:-6 SA, in activations buffer
2025-02-18 17:11:56,822 [INFO] CmdLine:67 -   output_3           :   output_3, (1,12,12,12), int8, 1,728 bytes, S:0.00212632 O:-6 SA, in activations buffer
2025-02-18 17:11:56,822 [INFO] CmdLine:67 -   n_nodes            :   22
2025-02-18 17:11:56,822 [INFO] CmdLine:67 -   compile_datetime   :   Feb 18 2025 17:11:55
2025-02-18 17:11:56,822 [INFO] CmdLine:67 -   activations        :   44448
2025-02-18 17:11:56,822 [INFO] CmdLine:67 -   weights            :   42080
2025-02-18 17:11:56,822 [INFO] CmdLine:67 -   macc               :   21427644
2025-02-18 17:11:56,822 [INFO] CmdLine:67 -   ----------------------------------------------------------------------------------------------------------------
2025-02-18 17:11:56,822 [INFO] CmdLine:67 -   runtime            :   STM.AI 8.0.0 (Tools 8.0.1)
2025-02-18 17:11:56,822 [INFO] CmdLine:67 -   capabilities       :   IO_ONLY, PER_LAYER, PER_LAYER_WITH_DATA
2025-02-18 17:11:56,822 [INFO] CmdLine:67 -   device             :   AMD64 Intel64 Family 6 Model 140 Stepping 1, GenuineIntel (Windows)
2025-02-18 17:11:56,968 [INFO] CmdLine:67 -  NOTE: duration and exec time per layer is just an indication. They are dependent of the HOST-machine work-load.
2025-02-18 17:11:56,968 [INFO] CmdLine:67 -   STM.AI Profiling results v1.2 - network
2025-02-18 17:11:56,968 [INFO] CmdLine:67 -   ---------------------------------------------------------------
2025-02-18 17:11:56,968 [INFO] CmdLine:67 -   nb sample(s)    :   10
2025-02-18 17:11:56,968 [INFO] CmdLine:67 -   duration        :   12.020ms by sample (10.036/17.012/2.815)
2025-02-18 17:11:56,968 [INFO] CmdLine:67 -   macc            :   21427644
2025-02-18 17:11:56,968 [INFO] CmdLine:67 -   ---------------------------------------------------------------
2025-02-18 17:11:56,968 [INFO] CmdLine:67 -   HOST duration   :   0.144s (total)
2025-02-18 17:11:56,968 [INFO] CmdLine:67 -   ---------------------------------------------------------------
2025-02-18 17:11:56,968 [INFO] CmdLine:67 -    Inference time per node
2025-02-18 17:11:56,968 [INFO] CmdLine:67 -    ---------------------------------------------------------------------------
2025-02-18 17:11:56,968 [INFO] CmdLine:67 -    c_id    m_id   type                 dur (ms)     %            name
2025-02-18 17:11:56,968 [INFO] CmdLine:67 -    ---------------------------------------------------------------------------
2025-02-18 17:11:56,968 [INFO] CmdLine:67 -    0       1      Conv2dPool (0x109)        2.826     23.5%      ai_node_0
2025-02-18 17:11:56,968 [INFO] CmdLine:67 -    1       3      Conv2dPool (0x109)        2.846     23.7%      ai_node_1
2025-02-18 17:11:56,968 [INFO] CmdLine:67 -    2       4      Conv2D (0x103)            0.099      0.8%      ai_node_2
2025-02-18 17:11:56,968 [INFO] CmdLine:67 -    3       5      Conv2D (0x103)            1.395     11.6%      ai_node_3
2025-02-18 17:11:56,968 [INFO] CmdLine:67 -    4       6      Conv2D (0x103)            0.159      1.3%      ai_node_4
2025-02-18 17:11:56,968 [INFO] CmdLine:67 -    5       7      Conv2D (0x103)            1.335     11.1%      ai_node_5
2025-02-18 17:11:56,968 [INFO] CmdLine:67 -    6       8      Conv2D (0x103)            0.153      1.3%      ai_node_6
2025-02-18 17:11:56,968 [INFO] CmdLine:67 -    7       10     Conv2dPool (0x109)        1.407     11.7%      ai_node_7
2025-02-18 17:11:56,968 [INFO] CmdLine:67 -    8       11     Conv2D (0x103)            0.042      0.4%      ai_node_8
2025-02-18 17:11:56,968 [INFO] CmdLine:67 -    9       12     Conv2D (0x103)            0.350      2.9%      ai_node_9
2025-02-18 17:11:56,968 [INFO] CmdLine:67 -    10      13     Conv2D (0x103)            0.043      0.4%      ai_node_10
2025-02-18 17:11:56,968 [INFO] CmdLine:67 -    11      14     Conv2D (0x103)            0.362      3.0%      ai_node_11
2025-02-18 17:11:56,968 [INFO] CmdLine:67 -    12      15     Conv2D (0x103)            0.042      0.3%      ai_node_12
2025-02-18 17:11:56,980 [INFO] CmdLine:67 -    13      16     Conv2D (0x103)            0.373      3.1%      ai_node_13
2025-02-18 17:11:56,981 [INFO] CmdLine:67 -    14      17     Conv2D (0x103)            0.043      0.4%      ai_node_14
2025-02-18 17:11:56,981 [INFO] CmdLine:67 -    15      18     Conv2D (0x103)            0.357      3.0%      ai_node_15
2025-02-18 17:11:56,981 [INFO] CmdLine:67 -    16      19     Conv2D (0x103)            0.085      0.7%      ai_node_16
2025-02-18 17:11:56,981 [INFO] CmdLine:67 -    17      20     Conv2D (0x103)            0.043      0.4%      ai_node_17
2025-02-18 17:11:56,981 [INFO] CmdLine:67 -    18      21     Conv2D (0x103)            0.024      0.2%      ai_node_18
2025-02-18 17:11:56,981 [INFO] CmdLine:67 -    19      22     Conv2D (0x103)            0.018      0.1%      ai_node_19
2025-02-18 17:11:56,981 [INFO] CmdLine:67 -    20      24     Slice (0x117)             0.012      0.1%      ai_node_20
2025-02-18 17:11:56,981 [INFO] CmdLine:67 -    21      23     Slice (0x117)             0.002      0.0%      ai_node_21
2025-02-18 17:11:56,981 [INFO] CmdLine:67 -    ---------------------------------------------------------------------------
2025-02-18 17:11:56,981 [INFO] CmdLine:67 -    total                                   12.015
2025-02-18 17:11:56,981 [INFO] CmdLine:67 -    ---------------------------------------------------------------------------
2025-02-18 17:11:56,981 [INFO] CmdLine:67 -    Statistic per tensor
2025-02-18 17:11:56,981 [INFO] CmdLine:67 -    ------------------------------------------------------------------------
2025-02-18 17:11:56,981 [INFO] CmdLine:67 -    tensor   shape/type             min   max      mean      std name
2025-02-18 17:11:56,981 [INFO] CmdLine:67 -    ------------------------------------------------------------------------
2025-02-18 17:11:56,981 [INFO] CmdLine:67 -    I.0      (1,96,96,3)/int8      -128   127    -0.338   73.596 input_1
2025-02-18 17:11:56,981 [INFO] CmdLine:67 -    O.0      (1,12,12,2)/int8      -128   -24   -75.535   51.536 output_1
2025-02-18 17:11:56,981 [INFO] CmdLine:67 -    O.1      (1,12,12,10)/int8     -111   127   -17.999   70.191 output_2
2025-02-18 17:11:56,981 [INFO] CmdLine:67 -    O.2      (1,12,12,12)/int8     -128   127   -27.588   70.768 output_3
2025-02-18 17:11:56,981 [INFO] CmdLine:67 -    ------------------------------------------------------------------------
2025-02-18 17:11:57,307 [INFO] CmdLine:67 - Running the TFlite model...
2025-02-18 17:11:57,336 [ERROR] CmdLine:53 - INFO: Created TensorFlow Lite XNNPACK delegate for CPU.
2025-02-18 17:11:57,406 [INFO] CmdLine:67 - Saving validation data...
2025-02-18 17:11:57,406 [INFO] CmdLine:67 -  output directory: C:\Users\yh621\.stm32cubemx\network_output
2025-02-18 17:11:57,408 [INFO] CmdLine:67 -  creating C:\Users\yh621\.stm32cubemx\network_output\network_val_io.npz
2025-02-18 17:11:57,418 [INFO] CmdLine:67 -  m_outputs_1: (10, 12, 12, 2)/int8, min/max=[-128, -24], mean/std=[-75.535, 51.536], slice_23
2025-02-18 17:11:57,427 [INFO] CmdLine:67 -  m_outputs_2: (10, 12, 12, 10)/int8, min/max=[-111, 127], mean/std=[-17.999, 70.191], slice_24
2025-02-18 17:11:57,431 [INFO] CmdLine:67 -  m_outputs_3: (10, 12, 12, 12)/int8, min/max=[-128, 127], mean/std=[-27.588, 70.768], conv2d_22
2025-02-18 17:11:57,442 [INFO] CmdLine:67 -  c_outputs_1: (10, 12, 12, 2)/int8, min/max=[-128, -24], mean/std=[-75.535, 51.536], scale=0.00212632 zp=-6, slice_23
2025-02-18 17:11:57,444 [INFO] CmdLine:67 -  c_outputs_2: (10, 12, 12, 10)/int8, min/max=[-111, 127], mean/std=[-17.999, 70.191], scale=0.00212632 zp=-6, slice_24
2025-02-18 17:11:57,451 [INFO] CmdLine:67 -  c_outputs_3: (10, 12, 12, 12)/int8, min/max=[-128, 127], mean/std=[-27.588, 70.768], scale=0.00212632 zp=-6, conv2d_22
2025-02-18 17:11:57,489 [INFO] CmdLine:67 - Computing the metrics...
2025-02-18 17:11:57,497 [INFO] CmdLine:67 -  Cross accuracy report #1 (reference vs C-model)
2025-02-18 17:11:57,499 [INFO] CmdLine:67 -  ----------------------------------------------------------------------------------------------------
2025-02-18 17:11:57,499 [INFO] CmdLine:67 -  notes: - r/int8 data are dequantized with s=0.002126 zp=-6
2025-02-18 17:11:57,499 [INFO] CmdLine:67 -         - p/int8 data are dequantized with s=0.002126 zp=-6
2025-02-18 17:11:57,499 [INFO] CmdLine:67 -         - ACC metric is not computed ("--classifier" option can be used to force it)
2025-02-18 17:11:57,499 [INFO] CmdLine:67 -         - the output of the reference model is used as ground truth/reference value
2025-02-18 17:11:57,499 [INFO] CmdLine:67 -         - 10 samples (288 items per sample)
2025-02-18 17:11:57,499 [INFO] CmdLine:67 -   acc=n.a., rmse=0.000000000, mae=0.000000000, l2r=0.000000000, nse=100.00%
2025-02-18 17:11:57,499 [INFO] CmdLine:67 -  Cross accuracy report #2 (reference vs C-model)
2025-02-18 17:11:57,499 [INFO] CmdLine:67 -  ----------------------------------------------------------------------------------------------------
2025-02-18 17:11:57,499 [INFO] CmdLine:67 -  notes: - r/int8 data are dequantized with s=0.002126 zp=-6
2025-02-18 17:11:57,499 [INFO] CmdLine:67 -         - p/int8 data are dequantized with s=0.002126 zp=-6
2025-02-18 17:11:57,499 [INFO] CmdLine:67 -         - ACC metric is not computed ("--classifier" option can be used to force it)
2025-02-18 17:11:57,499 [INFO] CmdLine:67 -         - the output of the reference model is used as ground truth/reference value
2025-02-18 17:11:57,499 [INFO] CmdLine:67 -         - 10 samples (1440 items per sample)
2025-02-18 17:11:57,499 [INFO] CmdLine:67 -   acc=n.a., rmse=0.000000000, mae=0.000000000, l2r=0.000000000, nse=100.00%
2025-02-18 17:11:57,499 [INFO] CmdLine:67 -  Cross accuracy report #3 (reference vs C-model)
2025-02-18 17:11:57,499 [INFO] CmdLine:67 -  ----------------------------------------------------------------------------------------------------
2025-02-18 17:11:57,499 [INFO] CmdLine:67 -  notes: - r/int8 data are dequantized with s=0.002126 zp=-6
2025-02-18 17:11:57,499 [INFO] CmdLine:67 -         - p/int8 data are dequantized with s=0.002126 zp=-6
2025-02-18 17:11:57,499 [INFO] CmdLine:67 -         - ACC metric is not computed ("--classifier" option can be used to force it)
2025-02-18 17:11:57,499 [INFO] CmdLine:67 -         - the output of the reference model is used as ground truth/reference value
2025-02-18 17:11:57,499 [INFO] CmdLine:67 -         - 10 samples (1728 items per sample)
2025-02-18 17:11:57,499 [INFO] CmdLine:67 -   acc=n.a., rmse=0.000000000, mae=0.000000000, l2r=0.000000000, nse=100.00%
2025-02-18 17:11:57,580 [INFO] CmdLine:67 -  Evaluation report (summary)
2025-02-18 17:11:57,580 [INFO] CmdLine:67 -  ----------------------------------------------------------------------------------------------------------------------------------------------------
2025-02-18 17:11:57,580 [INFO] CmdLine:67 -  Output       acc    rmse        mae         l2r         mean        std         nse         cos         tensor
2025-02-18 17:11:57,580 [INFO] CmdLine:67 -  ----------------------------------------------------------------------------------------------------------------------------------------------------
2025-02-18 17:11:57,580 [INFO] CmdLine:67 -  X-cross #1   n.a.   0.0000000   0.0000000   0.0000000   0.0000000   0.0000000   1.0000000   1.0000001   slice_23, ai_i8, (1,12,12,2), m_id=[23]
2025-02-18 17:11:57,588 [INFO] CmdLine:67 -  X-cross #2   n.a.   0.0000000   0.0000000   0.0000000   0.0000000   0.0000000   1.0000000   1.0000001   slice_24, ai_i8, (1,12,12,10), m_id=[24]
2025-02-18 17:11:57,589 [INFO] CmdLine:67 -  X-cross #3   n.a.   0.0000000   0.0000000   0.0000000   0.0000000   0.0000000   1.0000000   1.0000000   conv2d_22, ai_i8, (1,12,12,12), m_id=[22]
2025-02-18 17:11:57,589 [INFO] CmdLine:67 -  ----------------------------------------------------------------------------------------------------------------------------------------------------
2025-02-18 17:11:57,590 [INFO] CmdLine:67 -   acc  : Classification accuracy (all classes)
2025-02-18 17:11:57,590 [INFO] CmdLine:67 -   rmse : Root Mean Squared Error
2025-02-18 17:11:57,590 [INFO] CmdLine:67 -   mae  : Mean Absolute Error
2025-02-18 17:11:57,590 [INFO] CmdLine:67 -   l2r  : L2 relative error
…
2025-02-18 17:13:35,820 [INFO] Middleware:501 - instanceName : STMicroelectronics.X-CUBE-AI.8.0.1 bspName : COM Port check condition success for : !SEMDeviceJjApplicationJjApplicationTemplate
2025-02-18 17:13:42,263 [INFO] UtilMem:74 - End SaveConfig() Used Memory: 1020761592 Bytes (1073741824)
2025-02-18 17:13:42,418 [INFO] AIModelDetailledView:2080 - Analysis status: -
2025-02-18 17:13:42,418 [INFO] AInterface:235 - ModelName:network; files:[F:\verified_model\yolov1_full_integer_quant.tflite]; type:TFLite; compression:None
2025-02-18 17:13:42,418 [INFO] AInterface:506 - workspaceTempDir: C:\Users\yh621\AppData\Local\Temp\mxAI_workspace495023614790014801315415315015232
2025-02-18 17:13:42,418 [INFO] AInterface:1042 - Setting Env: C:/Users/yh621/STM32Cube/Repository/Packs/STMicroelectronics/X-CUBE-AI/8.0.1/Utilities/windows
2025-02-18 17:13:42,633 [INFO] STM32CubeIDEBuilder:257 - Looking for gnu-tools-for-stm32 tools/bin/arm-none-eabi-gcc.exe in D:\STM32CubeIDE_1.6.1\STM32CubeIDE
2025-02-18 17:13:42,633 [INFO] STM32CubeIDEBuilder:283 - checking D:\STM32CubeIDE_1.6.1\STM32CubeIDE\plugins\com.st.stm32cube.ide.mcu.externaltools.gnu-tools-for-stm32.9-2020-q2-update.win32_1.5.0.202011040924\tools\bin\arm-none-eabi-gcc.exe
2025-02-18 17:13:42,633 [INFO] STM32CubeIDEBuilder:286 - ret=D:\STM32CubeIDE_1.6.1\STM32CubeIDE\plugins\com.st.stm32cube.ide.mcu.externaltools.gnu-tools-for-stm32.9-2020-q2-update.win32_1.5.0.202011040924\tools\bin\arm-none-eabi-gcc.exe
2025-02-18 17:13:42,633 [INFO] STM32CubeIDEBuilder:300 - returning D:\STM32CubeIDE_1.6.1\STM32CubeIDE\plugins\com.st.stm32cube.ide.mcu.externaltools.gnu-tools-for-stm32.9-2020-q2-update.win32_1.5.0.202011040924\tools\bin\arm-none-eabi-gcc.exe
2025-02-18 17:13:42,633 [INFO] AInterface:1099 - Custom PATH variable: C:/Users/yh621/STM32Cube/Repository/Packs/STMicroelectronics/X-CUBE-AI/8.0.1/Utilities/windows;C:/Users/yh621/STM32Cube/Repository/Packs/STMicroelectronics/X-CUBE-AI/8.0.1/Utilities/windows/mingw64/bin;C:/Users/yh621/STM32Cube/Repository/Packs/STMicroelectronics/X-CUBE-AI/8.0.1/Utilities/windows/mingw64/libexec/gcc/x86_64-w64-mingw32/7.3.0;C:/Users/yh621/STM32Cube/Repository/Packs/STMicroelectronics/X-CUBE-AI/8.0.1/Utilities/windows/node/bin;D:\STM32CubeIDE_1.6.1\STM32CubeIDE\plugins\com.st.stm32cube.ide.mcu.externaltools.gnu-tools-for-stm32.9-2020-q2-update.win32_1.5.0.202011040924\tools\bin
2025-02-18 17:13:42,633 [INFO] CmdLine:100 - Command: C:/Users/yh621/STM32Cube/Repository/Packs/STMicroelectronics/X-CUBE-AI/8.0.1/Utilities/windows/stm32ai analyze --name network -m F:/verified_model/yolov1_full_integer_quant.tflite --type tflite --compression none --verbosity 1 --workspace C:\Users\yh621\AppData\Local\Temp\mxAI_workspace495023614790014801315415315015232 --output C:\Users\yh621\.stm32cubemx\network_output --allocate-inputs --series stm32h7 --allocate-outputs 
2025-02-18 17:13:42,633 [INFO] AIModelDetailledView:2080 - Analysis status: pending
2025-02-18 17:14:42,077 [INFO] CmdLine:67 - Neural Network Tools for STM32AI v1.7.0 (STM.ai v8.0.1-19451)
2025-02-18 17:14:43,089 [INFO] CmdLine:67 - Applied 0 of 2 optimizations
2025-02-18 17:14:43,775 [INFO] CmdLine:67 -  
2025-02-18 17:14:43,775 [INFO] CmdLine:67 -  Exec/report summary (analyze)
2025-02-18 17:14:43,775 [INFO] CmdLine:67 -  -----------------------------------------------------------------------------------------------------------
2025-02-18 17:14:43,775 [INFO] CmdLine:67 -  model file         :   F:\verified_model\yolov1_full_integer_quant.tflite                                  
2025-02-18 17:14:43,775 [INFO] CmdLine:67 -  type               :   tflite                                                                              
2025-02-18 17:14:43,775 [INFO] CmdLine:67 -  c_name             :   network                                                                             
2025-02-18 17:14:43,775 [INFO] CmdLine:67 -  compression        :   none                                                                                
2025-02-18 17:14:43,775 [INFO] CmdLine:67 -  options            :   allocate-inputs, allocate-outputs                                                   
2025-02-18 17:14:43,775 [INFO] CmdLine:67 -  optimization       :   balanced                                                                            
2025-02-18 17:14:43,775 [INFO] CmdLine:67 -  target/series      :   stm32h7                                                                             
2025-02-18 17:14:43,775 [INFO] CmdLine:67 -  workspace dir      :   C:\Users\yh621\AppData\Local\Temp\mxAI_workspace495023614790014801315415315015232   
2025-02-18 17:14:43,775 [INFO] CmdLine:67 -  output dir         :   C:\Users\yh621\.stm32cubemx\network_output                                          
2025-02-18 17:14:43,775 [INFO] CmdLine:67 -  model_fmt          :   s/sa                                                                                
2025-02-18 17:14:43,775 [INFO] CmdLine:67 -  model_name         :   yolov1_full_integer_quant                                                           
2025-02-18 17:14:43,775 [INFO] CmdLine:67 -  model_hash         :   6512120751291046a9d1818e9080aff1                                                    
2025-02-18 17:14:43,775 [INFO] CmdLine:67 -  params #           :   40,748 items (41.09 KiB)                                                            
2025-02-18 17:14:43,775 [INFO] CmdLine:67 -  -----------------------------------------------------------------------------------------------------------
2025-02-18 17:14:43,775 [INFO] CmdLine:67 -  input 1/1          :   'serving_default_input0' (domain:activations/**default**)                           
2025-02-18 17:14:43,775 [INFO] CmdLine:67 -                     :   27648 items, 27.00 KiB, ai_i8, s=0.07236465, zp=18, (1,96,96,3)                     
2025-02-18 17:14:43,775 [INFO] CmdLine:67 -  output 1/3         :   'slice_23' (domain:activations/**default**)                                         
2025-02-18 17:14:43,775 [INFO] CmdLine:67 -                     :   288 items, 288 B, ai_i8, s=0.00212632, zp=-6, (1,12,12,2)                           
2025-02-18 17:14:43,775 [INFO] CmdLine:67 -  output 2/3         :   'slice_24' (domain:activations/**default**)                                         
2025-02-18 17:14:43,775 [INFO] CmdLine:67 -                     :   1440 items, 1.41 KiB, ai_i8, s=0.00212632, zp=-6, (1,12,12,10)                      
2025-02-18 17:14:43,775 [INFO] CmdLine:67 -  output 3/3         :   'conv2d_22' (domain:activations/**default**)                                        
2025-02-18 17:14:43,775 [INFO] CmdLine:67 -                     :   1728 items, 1.69 KiB, ai_i8, s=0.00212632, zp=-6, (1,12,12,12)                      
2025-02-18 17:14:43,775 [INFO] CmdLine:67 -  outputs (total)    :   3.38 KiB                                                                            
2025-02-18 17:14:43,775 [INFO] CmdLine:67 -  macc               :   21,427,644                                                                          
2025-02-18 17:14:43,775 [INFO] CmdLine:67 -  weights (ro)       :   42,080 B (41.09 KiB) (1 segment) / -120,912(-74.2%) vs float model                  
2025-02-18 17:14:43,775 [INFO] CmdLine:67 -  activations (rw)   :   44,448 B (43.41 KiB) (1 segment) *                                                  
2025-02-18 17:14:43,775 [INFO] CmdLine:67 -  ram (total)        :   44,448 B (43.41 KiB) = 44,448 + 0 + 0                                               
2025-02-18 17:14:43,775 [INFO] CmdLine:67 -  -----------------------------------------------------------------------------------------------------------
2025-02-18 17:14:43,775 [INFO] CmdLine:67 -  (*) 'input'/'output' buffers can be used from the activations buffer
2025-02-18 17:14:47,200 [INFO] CmdLine:67 -  Model name - yolov1_full_integer_quant ['serving_default_input0'] ['slice_23', 'slice_24', 'conv2d_22']
2025-02-18 17:14:47,200 [INFO] CmdLine:67 -  ------ --------------------------- ---------------------- ------------- ----------- ------------------------
2025-02-18 17:14:47,200 [INFO] CmdLine:67 -  m_id   layer (original)            oshape                 param/size           macc             connected to
2025-02-18 17:14:47,200 [INFO] CmdLine:67 -  ------ --------------------------- ---------------------- ------------- ----------- ------------------------
2025-02-18 17:14:47,200 [INFO] CmdLine:67 -  0      serving_default_input0 ()   [b:1,h:96,w:96,c:3]
2025-02-18 17:14:47,200 [INFO] CmdLine:67 -         conv2d_0 (CONV_2D)          [b:1,h:96,w:96,c:16]   448/496         3,981,328   serving_default_input0
2025-02-18 17:14:47,200 [INFO] CmdLine:67 -         nl_0_nl (CONV_2D)           [b:1,h:96,w:96,c:16]                     147,456                 conv2d_0
2025-02-18 17:14:47,200 [INFO] CmdLine:67 -  ------ --------------------------- ---------------------- ------------- ----------- ------------------------
2025-02-18 17:14:47,200 [INFO] CmdLine:67 -  1      pool_1 (MAX_POOL_2D)        [b:1,h:48,w:48,c:16]                     147,456                  nl_0_nl
2025-02-18 17:14:47,200 [INFO] CmdLine:67 -  ------ --------------------------- ---------------------- ------------- ----------- ------------------------
2025-02-18 17:14:47,200 [INFO] CmdLine:67 -  2      conv2d_2 (CONV_2D)          [b:1,h:48,w:48,c:16]   2,320/2,368     5,308,432                   pool_1
2025-02-18 17:14:47,200 [INFO] CmdLine:67 -         nl_2_nl (CONV_2D)           [b:1,h:48,w:48,c:16]                      36,864                 conv2d_2
2025-02-18 17:14:47,200 [INFO] CmdLine:67 -  ------ --------------------------- ---------------------- ------------- ----------- ------------------------
2025-02-18 17:14:47,200 [INFO] CmdLine:67 -  3      pool_3 (MAX_POOL_2D)        [b:1,h:24,w:24,c:16]                      36,864                  nl_2_nl
2025-02-18 17:14:47,200 [INFO] CmdLine:67 -  ------ --------------------------- ---------------------- ------------- ----------- ------------------------
2025-02-18 17:14:47,200 [INFO] CmdLine:67 -  4      conv2d_4 (CONV_2D)          [b:1,h:24,w:24,c:16]   272/320           147,472                   pool_3
2025-02-18 17:14:47,200 [INFO] CmdLine:67 -         nl_4_nl (CONV_2D)           [b:1,h:24,w:24,c:16]                       9,216                 conv2d_4
2025-02-18 17:14:47,200 [INFO] CmdLine:67 -  ------ --------------------------- ---------------------- ------------- ----------- ------------------------
2025-02-18 17:14:47,200 [INFO] CmdLine:67 -  5      conv2d_5 (CONV_2D)          [b:1,h:24,w:24,c:32]   4,640/4,736     2,654,240                  nl_4_nl
2025-02-18 17:14:47,200 [INFO] CmdLine:67 -         nl_5_nl (CONV_2D)           [b:1,h:24,w:24,c:32]                      18,432                 conv2d_5
2025-02-18 17:14:47,200 [INFO] CmdLine:67 -  ------ --------------------------- ---------------------- ------------- ----------- ------------------------
2025-02-18 17:14:47,200 [INFO] CmdLine:67 -  6      conv2d_6 (CONV_2D)          [b:1,h:24,w:24,c:16]   528/576           294,928                  nl_5_nl
2025-02-18 17:14:47,200 [INFO] CmdLine:67 -         nl_6_nl (CONV_2D)           [b:1,h:24,w:24,c:16]                       9,216                 conv2d_6
2025-02-18 17:14:47,200 [INFO] CmdLine:67 -  ------ --------------------------- ---------------------- ------------- ----------- ------------------------
2025-02-18 17:14:47,200 [INFO] CmdLine:67 -  7      conv2d_7 (CONV_2D)          [b:1,h:24,w:24,c:32]   4,640/4,736     2,654,240                  nl_6_nl
2025-02-18 17:14:47,200 [INFO] CmdLine:67 -         nl_7_nl (CONV_2D)           [b:1,h:24,w:24,c:32]                      18,432                 conv2d_7
2025-02-18 17:14:47,200 [INFO] CmdLine:67 -  ------ --------------------------- ---------------------- ------------- ----------- ------------------------
2025-02-18 17:14:47,200 [INFO] CmdLine:67 -  8      conv2d_8 (CONV_2D)          [b:1,h:24,w:24,c:16]   528/576           294,928                  nl_7_nl
2025-02-18 17:14:47,200 [INFO] CmdLine:67 -         nl_8_nl (CONV_2D)           [b:1,h:24,w:24,c:16]                       9,216                 conv2d_8
2025-02-18 17:14:47,216 [INFO] CmdLine:67 -  ------ --------------------------- ---------------------- ------------- ----------- ------------------------
2025-02-18 17:14:47,216 [INFO] CmdLine:67 -  9      conv2d_9 (CONV_2D)          [b:1,h:24,w:24,c:32]   4,640/4,736     2,654,240                  nl_8_nl
2025-02-18 17:14:47,216 [INFO] CmdLine:67 -         nl_9_nl (CONV_2D)           [b:1,h:24,w:24,c:32]                      18,432                 conv2d_9
2025-02-18 17:14:47,216 [INFO] CmdLine:67 -  ------ --------------------------- ---------------------- ------------- ----------- ------------------------
2025-02-18 17:14:47,216 [INFO] CmdLine:67 -  10     pool_10 (MAX_POOL_2D)       [b:1,h:12,w:12,c:32]                      18,432                  nl_9_nl
2025-02-18 17:14:47,216 [INFO] CmdLine:67 -  ------ --------------------------- ---------------------- ------------- ----------- ------------------------
2025-02-18 17:14:47,216 [INFO] CmdLine:67 -  11     conv2d_11 (CONV_2D)         [b:1,h:12,w:12,c:16]   528/576            73,744                  pool_10
2025-02-18 17:14:47,216 [INFO] CmdLine:67 -         nl_11_nl (CONV_2D)          [b:1,h:12,w:12,c:16]                       2,304                conv2d_11
2025-02-18 17:14:47,216 [INFO] CmdLine:67 -  ------ --------------------------- ---------------------- ------------- ----------- ------------------------
2025-02-18 17:14:47,216 [INFO] CmdLine:67 -  12     conv2d_12 (CONV_2D)         [b:1,h:12,w:12,c:32]   4,640/4,736       663,584                 nl_11_nl
2025-02-18 17:14:47,216 [INFO] CmdLine:67 -         nl_12_nl (CONV_2D)          [b:1,h:12,w:12,c:32]                       4,608                conv2d_12
2025-02-18 17:14:47,216 [INFO] CmdLine:67 -  ------ --------------------------- ---------------------- ------------- ----------- ------------------------
2025-02-18 17:14:47,216 [INFO] CmdLine:67 -  13     conv2d_13 (CONV_2D)         [b:1,h:12,w:12,c:16]   528/576            73,744                 nl_12_nl
2025-02-18 17:14:47,216 [INFO] CmdLine:67 -         nl_13_nl (CONV_2D)          [b:1,h:12,w:12,c:16]                       2,304                conv2d_13
2025-02-18 17:14:47,216 [INFO] CmdLine:67 -  ------ --------------------------- ---------------------- ------------- ----------- ------------------------
2025-02-18 17:14:47,216 [INFO] CmdLine:67 -  14     conv2d_14 (CONV_2D)         [b:1,h:12,w:12,c:32]   4,640/4,736       663,584                 nl_13_nl
2025-02-18 17:14:47,216 [INFO] CmdLine:67 -         nl_14_nl (CONV_2D)          [b:1,h:12,w:12,c:32]                       4,608                conv2d_14
2025-02-18 17:14:47,216 [INFO] CmdLine:67 -  ------ --------------------------- ---------------------- ------------- ----------- ------------------------
2025-02-18 17:14:47,216 [INFO] CmdLine:67 -  15     conv2d_15 (CONV_2D)         [b:1,h:12,w:12,c:16]   528/576            73,744                 nl_14_nl
2025-02-18 17:14:47,216 [INFO] CmdLine:67 -         nl_15_nl (CONV_2D)          [b:1,h:12,w:12,c:16]                       2,304                conv2d_15
2025-02-18 17:14:47,216 [INFO] CmdLine:67 -  ------ --------------------------- ---------------------- ------------- ----------- ------------------------
2025-02-18 17:14:47,216 [INFO] CmdLine:67 -  16     conv2d_16 (CONV_2D)         [b:1,h:12,w:12,c:32]   4,640/4,736       663,584                 nl_15_nl
2025-02-18 17:14:47,216 [INFO] CmdLine:67 -         nl_16_nl (CONV_2D)          [b:1,h:12,w:12,c:32]                       4,608                conv2d_16
2025-02-18 17:14:47,216 [INFO] CmdLine:67 -  ------ --------------------------- ---------------------- ------------- ----------- ------------------------
2025-02-18 17:14:47,216 [INFO] CmdLine:67 -  17     conv2d_17 (CONV_2D)         [b:1,h:12,w:12,c:16]   528/576            73,744                 nl_16_nl
2025-02-18 17:14:47,216 [INFO] CmdLine:67 -         nl_17_nl (CONV_2D)          [b:1,h:12,w:12,c:16]                       2,304                conv2d_17
2025-02-18 17:14:47,216 [INFO] CmdLine:67 -  ------ --------------------------- ---------------------- ------------- ----------- ------------------------
2025-02-18 17:14:47,216 [INFO] CmdLine:67 -  18     conv2d_18 (CONV_2D)         [b:1,h:12,w:12,c:32]   4,640/4,736       663,584                 nl_17_nl
2025-02-18 17:14:47,216 [INFO] CmdLine:67 -         nl_18_nl (CONV_2D)          [b:1,h:12,w:12,c:32]                       4,608                conv2d_18
2025-02-18 17:14:47,216 [INFO] CmdLine:67 -  ------ --------------------------- ---------------------- ------------- ----------- ------------------------
2025-02-18 17:14:47,216 [INFO] CmdLine:67 -  19     conv2d_19 (CONV_2D)         [b:1,h:12,w:12,c:32]   1,056/1,152       147,488                 nl_18_nl
2025-02-18 17:14:47,216 [INFO] CmdLine:67 -         nl_19_nl (CONV_2D)          [b:1,h:12,w:12,c:32]                       4,608                conv2d_19
2025-02-18 17:14:47,216 [INFO] CmdLine:67 -  ------ --------------------------- ---------------------- ------------- ----------- ------------------------
2025-02-18 17:14:47,216 [INFO] CmdLine:67 -  20     conv2d_20 (CONV_2D)         [b:1,h:12,w:12,c:16]   528/576            73,744                 nl_19_nl
2025-02-18 17:14:47,216 [INFO] CmdLine:67 -         nl_20_nl (CONV_2D)          [b:1,h:12,w:12,c:16]                       2,304                conv2d_20
2025-02-18 17:14:47,216 [INFO] CmdLine:67 -  ------ --------------------------- ---------------------- ------------- ----------- ------------------------
2025-02-18 17:14:47,216 [INFO] CmdLine:67 -  21     conv2d_21 (CONV_2D)         [b:1,h:12,w:12,c:16]   272/320            36,880                 nl_20_nl
2025-02-18 17:14:47,216 [INFO] CmdLine:67 -         nl_21_nl (CONV_2D)          [b:1,h:12,w:12,c:16]                       2,304                conv2d_21
2025-02-18 17:14:47,216 [INFO] CmdLine:67 -  ------ --------------------------- ---------------------- ------------- ----------- ------------------------
2025-02-18 17:14:47,216 [INFO] CmdLine:67 -  22     conv2d_22 (CONV_2D)         [b:1,h:12,w:12,c:12]   204/240            27,660                 nl_21_nl
2025-02-18 17:14:47,216 [INFO] CmdLine:67 -  ------ --------------------------- ---------------------- ------------- ----------- ------------------------
2025-02-18 17:14:47,216 [INFO] CmdLine:67 -  23     slice_23 (STRIDED_SLICE)    [b:1,h:12,w:12,c:2]                                             conv2d_22
2025-02-18 17:14:47,216 [INFO] CmdLine:67 -  ------ --------------------------- ---------------------- ------------- ----------- ------------------------
2025-02-18 17:14:47,216 [INFO] CmdLine:67 -  24     slice_24 (STRIDED_SLICE)    [b:1,h:12,w:12,c:10]                                            conv2d_22
2025-02-18 17:14:47,216 [INFO] CmdLine:67 -  ------ --------------------------- ---------------------- ------------- ----------- ------------------------
2025-02-18 17:14:47,216 [INFO] CmdLine:67 -  model/c-model: macc=21,731,772/21,427,644 -304,128(-1.4%) weights=42,080/42,080  activations=--/44,448 io=--/0
2025-02-18 17:14:47,216 [INFO] CmdLine:67 -  Number of operations per c-layer
2025-02-18 17:14:47,216 [INFO] CmdLine:67 -  ------- ------ ----------------------------- ------------ ------------
2025-02-18 17:14:47,216 [INFO] CmdLine:67 -  c_id    m_id   name (type)                            #op         type
2025-02-18 17:14:47,216 [INFO] CmdLine:67 -  ------- ------ ----------------------------- ------------ ------------
2025-02-18 17:14:47,216 [INFO] CmdLine:67 -  0       1      conv2d_0 (optimized_conv2d)      4,128,784   smul_s8_s8
2025-02-18 17:14:47,216 [INFO] CmdLine:67 -  1       3      conv2d_2 (optimized_conv2d)      5,345,296   smul_s8_s8
2025-02-18 17:14:47,216 [INFO] CmdLine:67 -  2       4      conv2d_4 (conv2d)                  147,472   smul_s8_s8
2025-02-18 17:14:47,216 [INFO] CmdLine:67 -  3       5      conv2d_5 (conv2d)                2,654,240   smul_s8_s8
2025-02-18 17:14:47,216 [INFO] CmdLine:67 -  4       6      conv2d_6 (conv2d)                  294,928   smul_s8_s8
2025-02-18 17:14:47,216 [INFO] CmdLine:67 -  5       7      conv2d_7 (conv2d)                2,654,240   smul_s8_s8
2025-02-18 17:14:47,216 [INFO] CmdLine:67 -  6       8      conv2d_8 (conv2d)                  294,928   smul_s8_s8
2025-02-18 17:14:47,216 [INFO] CmdLine:67 -  7       10     conv2d_9 (optimized_conv2d)      2,672,672   smul_s8_s8
2025-02-18 17:14:47,216 [INFO] CmdLine:67 -  8       11     conv2d_11 (conv2d)                  73,744   smul_s8_s8
2025-02-18 17:14:47,216 [INFO] CmdLine:67 -  9       12     conv2d_12 (conv2d)                 663,584   smul_s8_s8
2025-02-18 17:14:47,216 [INFO] CmdLine:67 -  10      13     conv2d_13 (conv2d)                  73,744   smul_s8_s8
2025-02-18 17:14:47,216 [INFO] CmdLine:67 -  11      14     conv2d_14 (conv2d)                 663,584   smul_s8_s8
2025-02-18 17:14:47,216 [INFO] CmdLine:67 -  12      15     conv2d_15 (conv2d)                  73,744   smul_s8_s8
2025-02-18 17:14:47,216 [INFO] CmdLine:67 -  13      16     conv2d_16 (conv2d)                 663,584   smul_s8_s8
2025-02-18 17:14:47,216 [INFO] CmdLine:67 -  14      17     conv2d_17 (conv2d)                  73,744   smul_s8_s8
2025-02-18 17:14:47,216 [INFO] CmdLine:67 -  15      18     conv2d_18 (conv2d)                 663,584   smul_s8_s8
2025-02-18 17:14:47,216 [INFO] CmdLine:67 -  16      19     conv2d_19 (conv2d)                 147,488   smul_s8_s8
2025-02-18 17:14:47,216 [INFO] CmdLine:67 -  17      20     conv2d_20 (conv2d)                  73,744   smul_s8_s8
2025-02-18 17:14:47,216 [INFO] CmdLine:67 -  18      21     conv2d_21 (conv2d)                  36,880   smul_s8_s8
2025-02-18 17:14:47,216 [INFO] CmdLine:67 -  19      22     conv2d_22 (conv2d)                  27,660   smul_s8_s8
2025-02-18 17:14:47,216 [INFO] CmdLine:67 -  20      24     slice_24 (slice)                         0   smul_s8_s8
2025-02-18 17:14:47,216 [INFO] CmdLine:67 -  21      23     slice_23 (slice)                         0   smul_s8_s8
2025-02-18 17:14:47,216 [INFO] CmdLine:67 -  ------- ------ ----------------------------- ------------ ------------
2025-02-18 17:14:47,216 [INFO] CmdLine:67 -  total                                          21,427,644
2025-02-18 17:14:47,216 [INFO] CmdLine:67 -  Number of operation types
2025-02-18 17:14:47,216 [INFO] CmdLine:67 -  ---------------- ------------ -----------
2025-02-18 17:14:47,216 [INFO] CmdLine:67 -  operation type              #           %
2025-02-18 17:14:47,216 [INFO] CmdLine:67 -  ---------------- ------------ -----------
2025-02-18 17:14:47,216 [INFO] CmdLine:67 -  smul_s8_s8         21,427,644      100.0%
2025-02-18 17:14:47,216 [INFO] CmdLine:67 -  Complexity report (model)
2025-02-18 17:14:47,216 [INFO] CmdLine:67 -  ------ ----------- ------------------------- ------------------------- ------
2025-02-18 17:14:47,216 [INFO] CmdLine:67 -  m_id   name        c_macc                    c_rom                     c_id
2025-02-18 17:14:47,231 [INFO] CmdLine:67 -  ------ ----------- ------------------------- ------------------------- ------
2025-02-18 17:14:47,231 [INFO] CmdLine:67 -  1      pool_1      ||||||||||||      19.3%   ||                 1.2%   [0]
2025-02-18 17:14:47,231 [INFO] CmdLine:67 -  3      pool_3      ||||||||||||||||  24.9%   ||||||||           5.6%   [1]
2025-02-18 17:14:47,231 [INFO] CmdLine:67 -  4      conv2d_4    |                  0.7%   ||                 0.8%   [2]
2025-02-18 17:14:47,231 [INFO] CmdLine:67 -  5      conv2d_5    ||||||||          12.4%   ||||||||||||||||  11.3%   [3]
2025-02-18 17:14:47,231 [INFO] CmdLine:67 -  6      conv2d_6    |                  1.4%   ||                 1.4%   [4]
2025-02-18 17:14:47,231 [INFO] CmdLine:67 -  7      conv2d_7    ||||||||          12.4%   ||||||||||||||||  11.3%   [5]
2025-02-18 17:14:47,231 [INFO] CmdLine:67 -  8      conv2d_8    |                  1.4%   ||                 1.4%   [6]
2025-02-18 17:14:47,231 [INFO] CmdLine:67 -  10     pool_10     ||||||||          12.5%   ||||||||||||||||  11.3%   [7]
2025-02-18 17:14:47,231 [INFO] CmdLine:67 -  11     conv2d_11   |                  0.3%   ||                 1.4%   [8]
2025-02-18 17:14:47,231 [INFO] CmdLine:67 -  12     conv2d_12   ||                 3.1%   ||||||||||||||||  11.3%   [9]
2025-02-18 17:14:47,231 [INFO] CmdLine:67 -  13     conv2d_13   |                  0.3%   ||                 1.4%   [10]
2025-02-18 17:14:47,231 [INFO] CmdLine:67 -  14     conv2d_14   ||                 3.1%   ||||||||||||||||  11.3%   [11]
2025-02-18 17:14:47,231 [INFO] CmdLine:67 -  15     conv2d_15   |                  0.3%   ||                 1.4%   [12]
2025-02-18 17:14:47,231 [INFO] CmdLine:67 -  16     conv2d_16   ||                 3.1%   ||||||||||||||||  11.3%   [13]
2025-02-18 17:14:47,231 [INFO] CmdLine:67 -  17     conv2d_17   |                  0.3%   ||                 1.4%   [14]
2025-02-18 17:14:47,231 [INFO] CmdLine:67 -  18     conv2d_18   ||                 3.1%   ||||||||||||||||  11.3%   [15]
2025-02-18 17:14:47,231 [INFO] CmdLine:67 -  19     conv2d_19   |                  0.7%   ||||               2.7%   [16]
2025-02-18 17:14:47,231 [INFO] CmdLine:67 -  20     conv2d_20   |                  0.3%   ||                 1.4%   [17]
2025-02-18 17:14:47,231 [INFO] CmdLine:67 -  21     conv2d_21   |                  0.2%   ||                 0.8%   [18]
2025-02-18 17:14:47,231 [INFO] CmdLine:67 -  22     conv2d_22   |                  0.1%   |                  0.6%   [19]
2025-02-18 17:14:47,231 [INFO] CmdLine:67 -  23     slice_23    |                  0.0%   |                  0.0%   [21]
2025-02-18 17:14:47,231 [INFO] CmdLine:67 -  24     slice_24    |                  0.0%   |                  0.0%   [20]
2025-02-18 17:14:47,231 [INFO] CmdLine:67 -  ------ ----------- ------------------------- ------------------------- ------
2025-02-18 17:14:47,231 [INFO] CmdLine:67 -  macc=21,427,644 weights=42,080 act=44,448 ram_io=0
2025-02-18 17:14:47,231 [INFO] CmdLine:67 -  Requested memory size per segment ("stm32h7" series)
2025-02-18 17:14:47,231 [INFO] CmdLine:67 -  ----------------------------- -------- -------- -------- --------
2025-02-18 17:14:47,231 [INFO] CmdLine:67 -  module                            text   rodata     data      bss
2025-02-18 17:14:47,231 [INFO] CmdLine:67 -  ----------------------------- -------- -------- -------- --------
2025-02-18 17:14:47,231 [INFO] CmdLine:67 -  NetworkRuntime801_CM7_GCC.a     29,756        0        0        0
2025-02-18 17:14:47,231 [INFO] CmdLine:67 -  network.o                        1,852    1,248    9,916      456
2025-02-18 17:14:47,231 [INFO] CmdLine:67 -  network_data.o                      52       16       88        0
2025-02-18 17:14:47,231 [INFO] CmdLine:67 -  lib (toolchain)*                   104        0        0        0
2025-02-18 17:14:47,231 [INFO] CmdLine:67 -  ----------------------------- -------- -------- -------- --------
2025-02-18 17:14:47,231 [INFO] CmdLine:67 -  RT total**                      31,764    1,264   10,004      456
2025-02-18 17:14:47,231 [INFO] CmdLine:67 -  ----------------------------- -------- -------- -------- --------
2025-02-18 17:14:47,231 [INFO] CmdLine:67 -  *weights*                            0   42,080        0        0
2025-02-18 17:14:47,231 [INFO] CmdLine:67 -  *activations*                        0        0        0   44,448
2025-02-18 17:14:47,231 [INFO] CmdLine:67 -  *io*                                 0        0        0        0
2025-02-18 17:14:47,231 [INFO] CmdLine:67 -  ----------------------------- -------- -------- -------- --------
2025-02-18 17:14:47,231 [INFO] CmdLine:67 -  TOTAL                           31,764   43,344   10,004   44,904
2025-02-18 17:14:47,231 [INFO] CmdLine:67 -  ----------------------------- -------- -------- -------- --------
2025-02-18 17:14:47,231 [INFO] CmdLine:67 -  *  toolchain objects (libm/libgcc*)
2025-02-18 17:14:47,231 [INFO] CmdLine:67 -  ** RT - AI runtime objects (kernels+infrastructure)
2025-02-18 17:14:47,231 [INFO] CmdLine:67 -   Summary per memory device type
2025-02-18 17:14:47,231 [INFO] CmdLine:67 -   ---------------------------------------------
2025-02-18 17:14:47,231 [INFO] CmdLine:67 -   .\device      FLASH       %      RAM       %
2025-02-18 17:14:47,231 [INFO] CmdLine:67 -   ---------------------------------------------
2025-02-18 17:14:47,231 [INFO] CmdLine:67 -   RT total     43,032   50.6%   10,460   19.1%
2025-02-18 17:14:47,231 [INFO] CmdLine:67 -   ---------------------------------------------
2025-02-18 17:14:47,231 [INFO] CmdLine:67 -   TOTAL        85,112           54,908
2025-02-18 17:14:47,231 [INFO] CmdLine:67 -   ---------------------------------------------
2025-02-18 17:14:47,231 [INFO] CmdLine:67 - Creating txt report file C:\Users\yh621\.stm32cubemx\network_output\network_analyze_report.txt
2025-02-18 17:14:47,294 [INFO] CmdLine:67 - elapsed time (analyze): 5.217s
2025-02-18 17:14:47,720 [INFO] CmdLine:132 - stm32ai exit with status: 0
2025-02-18 17:14:47,744 [INFO] AInterface:594 - Successfully load: network
2025-02-18 17:14:47,801 [INFO] AIModelDetailledView:2409 - Analyze complete on AI model
2025-02-18 17:14:47,801 [INFO] AIModelDetailledView:2080 - Analysis status: done
2025-02-18 17:14:50,350 [INFO] UtilMem:74 - End SaveConfig() Used Memory: 1027849744 Bytes (1073741824)
2025-02-18 17:14:55,609 [INFO] UtilMem:74 - End SaveConfig() Used Memory: 997761416 Bytes (1073741824)
2025-02-18 17:14:55,995 [INFO] BlockDiagram:2735 - set Specific Code input for plugin: RCC
2025-02-18 17:14:55,995 [INFO] BlockDiagram:2735 - set Specific Code input for plugin: USART
2025-02-18 17:14:55,995 [INFO] BlockDiagram:2735 - set Specific Code input for plugin: SYS
2025-02-18 17:14:55,995 [INFO] BlockDiagram:2735 - set Specific Code input for plugin: STMicroelectronics.X-CUBE-AI.8.0.1
2025-02-18 17:14:55,995 [INFO] BlockDiagram:2735 - set Specific Code input for plugin: CRC
2025-02-18 17:14:55,995 [INFO] BlockDiagram:2735 - set Specific Code input for plugin: NVIC
2025-02-18 17:14:55,995 [INFO] BlockDiagram:2735 - set Specific Code input for plugin: GPIO
2025-02-18 17:14:55,995 [ERROR] ThirdPartyIpManager:536 - Invalid RefComponent liste
2025-02-18 17:14:55,995 [ERROR] ThirdPartyIpManager:536 - Invalid RefComponent liste
2025-02-18 17:14:55,995 [ERROR] ThirdPartyIpManager:536 - Invalid RefComponent liste
2025-02-18 17:14:55,995 [ERROR] ThirdPartyIpManager:536 - Invalid RefComponent liste
2025-02-18 17:14:55,995 [ERROR] ThirdPartyIpManager:536 - Invalid RefComponent liste
2025-02-18 17:14:55,995 [ERROR] ThirdPartyIpManager:536 - Invalid RefComponent liste
2025-02-18 17:14:55,995 [ERROR] ThirdPartyIpManager:536 - Invalid RefComponent liste
2025-02-18 17:14:55,995 [ERROR] ThirdPartyIpManager:536 - Invalid RefComponent liste
2025-02-18 17:14:55,995 [ERROR] ThirdPartyIpManager:536 - Invalid RefComponent liste
2025-02-18 17:14:55,995 [ERROR] ThirdPartyIpManager:536 - Invalid RefComponent liste
2025-02-18 17:14:55,995 [ERROR] ThirdPartyIpManager:536 - Invalid RefComponent liste
2025-02-18 17:14:55,995 [ERROR] ThirdPartyIpManager:536 - Invalid RefComponent liste
2025-02-18 17:14:55,995 [ERROR] ThirdPartyIpManager:536 - Invalid RefComponent liste
2025-02-18 17:14:55,995 [ERROR] ThirdPartyIpManager:536 - Invalid RefComponent liste
2025-02-18 17:14:55,995 [ERROR] ThirdPartyIpManager:536 - Invalid RefComponent liste
2025-02-18 17:14:55,995 [ERROR] ThirdPartyIpManager:536 - Invalid RefComponent liste
2025-02-18 17:14:55,995 [ERROR] ThirdPartyIpManager:536 - Invalid RefComponent liste
2025-02-18 17:14:55,995 [ERROR] ThirdPartyIpManager:536 - Invalid RefComponent liste
2025-02-18 17:14:55,995 [ERROR] ThirdPartyIpManager:536 - Invalid RefComponent liste
2025-02-18 17:14:55,995 [ERROR] ThirdPartyIpManager:536 - Invalid RefComponent liste
2025-02-18 17:14:55,995 [ERROR] ThirdPartyIpManager:536 - Invalid RefComponent liste
2025-02-18 17:14:55,995 [ERROR] ThirdPartyIpManager:536 - Invalid RefComponent liste
2025-02-18 17:14:56,002 [INFO] CodeGenerator:641 - code generatio: config db path: D:\STM32CubeIDE_1.6.1\STM32CubeIDE\plugins\com.st.stm32cube.common.mx_6.2.1.202103241236\\db\
2025-02-18 17:14:57,213 [INFO] IP:3321 - RTE Config file name : RTE_Component
2025-02-18 17:14:57,213 [INFO] IP:3339 - RTE template : RTE_Components.ftl
2025-02-18 17:14:57,244 [INFO] CodeEngine:229 - oldGeneratedFile, C:\Users\yh621\STM32CubeIDE\josh_yolo_stm32h\yolo_stm32h\MXTmpFiles\license.tmp_save
2025-02-18 17:14:57,367 [INFO] CodeEngine:247 - Generated code: C:\Users\yh621\STM32CubeIDE\josh_yolo_stm32h\yolo_stm32h\MXTmpFiles\license.tmp
2025-02-18 17:14:57,987 [INFO] CodeEngine:229 - oldGeneratedFile, C:\Users\yh621\STM32CubeIDE\josh_yolo_stm32h\yolo_stm32h\MXTmpFiles\gpio.tmp_save
2025-02-18 17:14:58,050 [INFO] CodeEngine:247 - Generated code: C:\Users\yh621\STM32CubeIDE\josh_yolo_stm32h\yolo_stm32h\MXTmpFiles\gpio.tmp
2025-02-18 17:14:58,372 [INFO] LogOutputStream:76 - [STDOUT_REDIRECT] Command line
2025-02-18 17:14:58,389 [INFO] CodeEngine:229 - oldGeneratedFile, C:\Users\yh621\STM32CubeIDE\josh_yolo_stm32h\yolo_stm32h\MXTmpFiles\cortex.tmp_save
2025-02-18 17:14:58,467 [INFO] CodeEngine:247 - Generated code: C:\Users\yh621\STM32CubeIDE\josh_yolo_stm32h\yolo_stm32h\MXTmpFiles\cortex.tmp
2025-02-18 17:14:58,470 [INFO] LogOutputStream:76 - [STDOUT_REDIRECT] Command line
2025-02-18 17:14:58,470 [INFO] LogOutputStream:76 - [STDOUT_REDIRECT] Command line
2025-02-18 17:14:58,470 [INFO] Middleware:1263 - No code input for Bsp Dependency
2025-02-18 17:14:58,470 [INFO] LogOutputStream:76 - [STDOUT_REDIRECT] Command line
2025-02-18 17:14:58,527 [INFO] CodeEngine:229 - oldGeneratedFile, C:\Users\yh621\STM32CubeIDE\josh_yolo_stm32h\yolo_stm32h\Core\Src\stm32h7xx_it.c_save
2025-02-18 17:14:58,692 [INFO] CodeEngine:247 - Generated code: C:\Users\yh621\STM32CubeIDE\josh_yolo_stm32h\yolo_stm32h\Core\Src\stm32h7xx_it.c
2025-02-18 17:14:58,721 [INFO] CodeEngine:229 - oldGeneratedFile, C:\Users\yh621\STM32CubeIDE\josh_yolo_stm32h\yolo_stm32h\Core\Inc\stm32h7xx_it.h_save
2025-02-18 17:14:58,840 [INFO] CodeEngine:247 - Generated code: C:\Users\yh621\STM32CubeIDE\josh_yolo_stm32h\yolo_stm32h\Core\Inc\stm32h7xx_it.h
2025-02-18 17:14:58,930 [INFO] CodeEngine:229 - oldGeneratedFile, C:\Users\yh621\STM32CubeIDE\josh_yolo_stm32h\yolo_stm32h\Core\Src\stm32h7xx_hal_msp.c_save
2025-02-18 17:14:59,091 [INFO] CodeEngine:247 - Generated code: C:\Users\yh621\STM32CubeIDE\josh_yolo_stm32h\yolo_stm32h\Core\Src\stm32h7xx_hal_msp.c
2025-02-18 17:14:59,103 [INFO] CodeEngine:229 - oldGeneratedFile, C:\Users\yh621\STM32CubeIDE\josh_yolo_stm32h\yolo_stm32h\MXTmpFiles\system.tmp_save
2025-02-18 17:14:59,160 [INFO] CodeEngine:247 - Generated code: C:\Users\yh621\STM32CubeIDE\josh_yolo_stm32h\yolo_stm32h\MXTmpFiles\system.tmp
2025-02-18 17:14:59,196 [INFO] CodeEngine:229 - oldGeneratedFile, C:\Users\yh621\STM32CubeIDE\josh_yolo_stm32h\yolo_stm32h\Core\Inc\stm32h7xx_hal_conf.h_save
2025-02-18 17:14:59,289 [INFO] CodeEngine:247 - Generated code: C:\Users\yh621\STM32CubeIDE\josh_yolo_stm32h\yolo_stm32h\Core\Inc\stm32h7xx_hal_conf.h
2025-02-18 17:14:59,390 [INFO] CodeEngine:229 - oldGeneratedFile, C:\Users\yh621\STM32CubeIDE\josh_yolo_stm32h\yolo_stm32h\Core\Inc\main.h_save
2025-02-18 17:14:59,474 [INFO] CodeEngine:247 - Generated code: C:\Users\yh621\STM32CubeIDE\josh_yolo_stm32h\yolo_stm32h\Core\Inc\main.h
2025-02-18 17:14:59,504 [INFO] CodeEngine:229 - oldGeneratedFile, C:\Users\yh621\STM32CubeIDE\josh_yolo_stm32h\yolo_stm32h\Core\Src\main.c_save
2025-02-18 17:14:59,669 [INFO] CodeEngine:247 - Generated code: C:\Users\yh621\STM32CubeIDE\josh_yolo_stm32h\yolo_stm32h\Core\Src\main.c
2025-02-18 17:15:00,602 [INFO] AInterface:298 - ModelName:network; files:[F:\verified_model\yolov1_full_integer_quant.tflite]; type:TFLite; compression:None
2025-02-18 17:15:00,602 [INFO] AInterface:506 - workspaceTempDir: C:\Users\yh621\AppData\Local\Temp\mxAI_workspace50284143184008354209524870057599
2025-02-18 17:15:00,602 [INFO] AInterface:1042 - Setting Env: C:/Users/yh621/STM32Cube/Repository/Packs/STMicroelectronics/X-CUBE-AI/8.0.1/Utilities/windows
2025-02-18 17:15:00,602 [INFO] AInterface:1099 - Custom PATH variable: C:/Users/yh621/STM32Cube/Repository/Packs/STMicroelectronics/X-CUBE-AI/8.0.1/Utilities/windows;C:/Users/yh621/STM32Cube/Repository/Packs/STMicroelectronics/X-CUBE-AI/8.0.1/Utilities/windows/mingw64/bin;C:/Users/yh621/STM32Cube/Repository/Packs/STMicroelectronics/X-CUBE-AI/8.0.1/Utilities/windows/mingw64/libexec/gcc/x86_64-w64-mingw32/7.3.0;C:/Users/yh621/STM32Cube/Repository/Packs/STMicroelectronics/X-CUBE-AI/8.0.1/Utilities/windows/node/bin
2025-02-18 17:15:00,602 [INFO] CmdLine:100 - Command: C:/Users/yh621/STM32Cube/Repository/Packs/STMicroelectronics/X-CUBE-AI/8.0.1/Utilities/windows/stm32ai generate --name network -m F:/verified_model/yolov1_full_integer_quant.tflite --type tflite --compression none --verbosity 1 --workspace C:\Users\yh621\AppData\Local\Temp\mxAI_workspace50284143184008354209524870057599 --output C:\Users\yh621\.stm32cubemx\network_output --allocate-inputs --series stm32h7 --allocate-outputs 
2025-02-18 17:15:00,602 [INFO] AIModelDetailledView:2080 - Analysis status: pending
2025-02-18 17:15:05,878 [INFO] CmdLine:67 - Neural Network Tools for STM32AI v1.7.0 (STM.ai v8.0.1-19451)
2025-02-18 17:15:06,908 [INFO] CmdLine:67 - Applied 0 of 2 optimizations
2025-02-18 17:15:07,503 [INFO] CmdLine:67 -  
2025-02-18 17:15:07,505 [INFO] CmdLine:67 -  Exec/report summary (generate)
2025-02-18 17:15:07,505 [INFO] CmdLine:67 -  ----------------------------------------------------------------------------------------------------------
2025-02-18 17:15:07,505 [INFO] CmdLine:67 -  model file         :   F:\verified_model\yolov1_full_integer_quant.tflite                                 
2025-02-18 17:15:07,505 [INFO] CmdLine:67 -  type               :   tflite                                                                             
2025-02-18 17:15:07,505 [INFO] CmdLine:67 -  c_name             :   network                                                                            
2025-02-18 17:15:07,505 [INFO] CmdLine:67 -  compression        :   none                                                                               
2025-02-18 17:15:07,505 [INFO] CmdLine:67 -  options            :   allocate-inputs, allocate-outputs                                                  
2025-02-18 17:15:07,505 [INFO] CmdLine:67 -  optimization       :   balanced                                                                           
2025-02-18 17:15:07,505 [INFO] CmdLine:67 -  target/series      :   stm32h7                                                                            
2025-02-18 17:15:07,505 [INFO] CmdLine:67 -  workspace dir      :   C:\Users\yh621\AppData\Local\Temp\mxAI_workspace50284143184008354209524870057599   
2025-02-18 17:15:07,505 [INFO] CmdLine:67 -  output dir         :   C:\Users\yh621\.stm32cubemx\network_output                                         
2025-02-18 17:15:07,505 [INFO] CmdLine:67 -  model_fmt          :   s/sa                                                                               
2025-02-18 17:15:07,505 [INFO] CmdLine:67 -  model_name         :   yolov1_full_integer_quant                                                          
2025-02-18 17:15:07,505 [INFO] CmdLine:67 -  model_hash         :   6512120751291046a9d1818e9080aff1                                                   
2025-02-18 17:15:07,505 [INFO] CmdLine:67 -  params #           :   40,748 items (41.09 KiB)                                                           
2025-02-18 17:15:07,505 [INFO] CmdLine:67 -  ----------------------------------------------------------------------------------------------------------
2025-02-18 17:15:07,505 [INFO] CmdLine:67 -  input 1/1          :   'serving_default_input0' (domain:activations/**default**)                          
2025-02-18 17:15:07,505 [INFO] CmdLine:67 -                     :   27648 items, 27.00 KiB, ai_i8, s=0.07236465, zp=18, (1,96,96,3)                    
2025-02-18 17:15:07,505 [INFO] CmdLine:67 -  output 1/3         :   'slice_23' (domain:activations/**default**)                                        
2025-02-18 17:15:07,505 [INFO] CmdLine:67 -                     :   288 items, 288 B, ai_i8, s=0.00212632, zp=-6, (1,12,12,2)                          
2025-02-18 17:15:07,505 [INFO] CmdLine:67 -  output 2/3         :   'slice_24' (domain:activations/**default**)                                        
2025-02-18 17:15:07,505 [INFO] CmdLine:67 -                     :   1440 items, 1.41 KiB, ai_i8, s=0.00212632, zp=-6, (1,12,12,10)                     
2025-02-18 17:15:07,505 [INFO] CmdLine:67 -  output 3/3         :   'conv2d_22' (domain:activations/**default**)                                       
2025-02-18 17:15:07,505 [INFO] CmdLine:67 -                     :   1728 items, 1.69 KiB, ai_i8, s=0.00212632, zp=-6, (1,12,12,12)                     
2025-02-18 17:15:07,505 [INFO] CmdLine:67 -  outputs (total)    :   3.38 KiB                                                                           
2025-02-18 17:15:07,505 [INFO] CmdLine:67 -  macc               :   21,427,644                                                                         
2025-02-18 17:15:07,505 [INFO] CmdLine:67 -  weights (ro)       :   42,080 B (41.09 KiB) (1 segment) / -120,912(-74.2%) vs float model                 
2025-02-18 17:15:07,505 [INFO] CmdLine:67 -  activations (rw)   :   44,448 B (43.41 KiB) (1 segment) *                                                 
2025-02-18 17:15:07,505 [INFO] CmdLine:67 -  ram (total)        :   44,448 B (43.41 KiB) = 44,448 + 0 + 0                                              
2025-02-18 17:15:07,505 [INFO] CmdLine:67 -  ----------------------------------------------------------------------------------------------------------
2025-02-18 17:15:07,505 [INFO] CmdLine:67 -  (*) 'input'/'output' buffers can be used from the activations buffer
2025-02-18 17:15:07,525 [INFO] CmdLine:67 -  Unable to evaluate the requested AI memory size.
2025-02-18 17:15:07,525 [INFO] CmdLine:67 -  -> Compiler "gcc:arm-none-eabi-gcc" is not supported/available..
2025-02-18 17:15:07,553 [INFO] CmdLine:67 -  Generated files (7)
2025-02-18 17:15:07,553 [INFO] CmdLine:67 -  ------------------------------------------------------------------
2025-02-18 17:15:07,553 [INFO] CmdLine:67 -  C:\Users\yh621\.stm32cubemx\network_output\network_config.h
2025-02-18 17:15:07,553 [INFO] CmdLine:67 -  C:\Users\yh621\.stm32cubemx\network_output\network.h
2025-02-18 17:15:07,553 [INFO] CmdLine:67 -  C:\Users\yh621\.stm32cubemx\network_output\network.c
2025-02-18 17:15:07,553 [INFO] CmdLine:67 -  C:\Users\yh621\.stm32cubemx\network_output\network_data_params.h
2025-02-18 17:15:07,555 [INFO] CmdLine:67 -  C:\Users\yh621\.stm32cubemx\network_output\network_data_params.c
2025-02-18 17:15:07,555 [INFO] CmdLine:67 -  C:\Users\yh621\.stm32cubemx\network_output\network_data.h
2025-02-18 17:15:07,555 [INFO] CmdLine:67 -  C:\Users\yh621\.stm32cubemx\network_output\network_data.c
2025-02-18 17:15:07,555 [INFO] CmdLine:67 - Creating txt report file C:\Users\yh621\.stm32cubemx\network_output\network_generate_report.txt
2025-02-18 17:15:07,915 [INFO] CmdLine:67 - elapsed time (generate): 2.038s
2025-02-18 17:15:08,322 [INFO] CmdLine:132 - stm32ai exit with status: 0
2025-02-18 17:15:08,341 [INFO] AInterface:594 - Successfully load: network
2025-02-18 17:15:08,372 [INFO] AIModelDetailledView:2080 - Analysis status: done
2025-02-18 17:15:09,998 [INFO] ProjectBuilder:2460 - Time for Copy HAL[1] : 109mS.
2025-02-18 17:15:09,998 [ERROR] Middleware:2942 - Invalid RefComponent liste
2025-02-18 17:15:09,998 [ERROR] Middleware:2942 - Invalid RefComponent liste
2025-02-18 17:15:09,998 [ERROR] Middleware:2942 - Invalid RefComponent liste
2025-02-18 17:15:09,998 [ERROR] Middleware:2942 - Invalid RefComponent liste
2025-02-18 17:15:09,998 [ERROR] Middleware:2942 - Invalid RefComponent liste
2025-02-18 17:15:09,998 [ERROR] Middleware:2942 - Invalid RefComponent liste
2025-02-18 17:15:09,998 [ERROR] Middleware:2942 - Invalid RefComponent liste
2025-02-18 17:15:09,998 [ERROR] Middleware:2942 - Invalid RefComponent liste
2025-02-18 17:15:09,998 [ERROR] Middleware:2942 - Invalid RefComponent liste
2025-02-18 17:15:09,998 [ERROR] Middleware:2942 - Invalid RefComponent liste
2025-02-18 17:15:09,998 [ERROR] Middleware:2942 - Invalid RefComponent liste
2025-02-18 17:15:09,998 [ERROR] Middleware:2942 - Invalid RefComponent liste
2025-02-18 17:15:09,998 [ERROR] Middleware:2942 - Invalid RefComponent liste
2025-02-18 17:15:09,998 [ERROR] Middleware:2942 - Invalid RefComponent liste
2025-02-18 17:15:09,998 [ERROR] Middleware:2942 - Invalid RefComponent liste
2025-02-18 17:15:09,998 [ERROR] Middleware:2942 - Invalid RefComponent liste
2025-02-18 17:15:09,998 [ERROR] Middleware:2942 - Invalid RefComponent liste
2025-02-18 17:15:09,998 [ERROR] Middleware:2942 - Invalid RefComponent liste
2025-02-18 17:15:09,998 [ERROR] Middleware:2942 - Invalid RefComponent liste
2025-02-18 17:15:09,998 [ERROR] Middleware:2942 - Invalid RefComponent liste
2025-02-18 17:15:09,998 [ERROR] Middleware:2942 - Invalid RefComponent liste
2025-02-18 17:15:09,998 [ERROR] Middleware:2942 - Invalid RefComponent liste
2025-02-18 17:15:09,998 [ERROR] Middleware:2942 - Invalid RefComponent liste
2025-02-18 17:15:09,998 [ERROR] Middleware:2942 - Invalid RefComponent liste
2025-02-18 17:15:09,998 [ERROR] Middleware:2942 - Invalid RefComponent liste
2025-02-18 17:15:09,998 [ERROR] Middleware:2942 - Invalid RefComponent liste
2025-02-18 17:15:09,998 [ERROR] Middleware:2942 - Invalid RefComponent liste
2025-02-18 17:15:09,998 [ERROR] Middleware:2942 - Invalid RefComponent liste
2025-02-18 17:15:09,998 [ERROR] Middleware:2942 - Invalid RefComponent liste
2025-02-18 17:15:09,998 [ERROR] Middleware:2942 - Invalid RefComponent liste
2025-02-18 17:15:09,998 [ERROR] Middleware:2942 - Invalid RefComponent liste
2025-02-18 17:15:09,998 [ERROR] Middleware:2942 - Invalid RefComponent liste
2025-02-18 17:15:09,998 [ERROR] Middleware:2942 - Invalid RefComponent liste
2025-02-18 17:15:09,998 [ERROR] Middleware:2942 - Invalid RefComponent liste
2025-02-18 17:15:09,998 [ERROR] Middleware:2942 - Invalid RefComponent liste
2025-02-18 17:15:09,998 [ERROR] Middleware:2942 - Invalid RefComponent liste
2025-02-18 17:15:09,998 [ERROR] Middleware:2942 - Invalid RefComponent liste
2025-02-18 17:15:09,998 [ERROR] Middleware:2942 - Invalid RefComponent liste
2025-02-18 17:15:09,998 [ERROR] Middleware:2942 - Invalid RefComponent liste
2025-02-18 17:15:09,998 [ERROR] Middleware:2942 - Invalid RefComponent liste
2025-02-18 17:15:09,998 [ERROR] Middleware:2942 - Invalid RefComponent liste
2025-02-18 17:15:09,998 [ERROR] Middleware:2942 - Invalid RefComponent liste
2025-02-18 17:15:09,998 [ERROR] Middleware:2942 - Invalid RefComponent liste
2025-02-18 17:15:09,998 [ERROR] Middleware:2942 - Invalid RefComponent liste
2025-02-18 17:15:09,998 [ERROR] ThirdPartyIpManager:536 - Invalid RefComponent liste
2025-02-18 17:15:09,998 [ERROR] ThirdPartyIpManager:536 - Invalid RefComponent liste
2025-02-18 17:15:09,998 [ERROR] ThirdPartyIpManager:536 - Invalid RefComponent liste
2025-02-18 17:15:09,998 [ERROR] ThirdPartyIpManager:536 - Invalid RefComponent liste
2025-02-18 17:15:09,998 [ERROR] ThirdPartyIpManager:536 - Invalid RefComponent liste
2025-02-18 17:15:09,998 [ERROR] ThirdPartyIpManager:536 - Invalid RefComponent liste
2025-02-18 17:15:09,998 [ERROR] ThirdPartyIpManager:536 - Invalid RefComponent liste
2025-02-18 17:15:09,998 [ERROR] ThirdPartyIpManager:536 - Invalid RefComponent liste
2025-02-18 17:15:09,998 [ERROR] ThirdPartyIpManager:536 - Invalid RefComponent liste
2025-02-18 17:15:09,998 [ERROR] ThirdPartyIpManager:536 - Invalid RefComponent liste
2025-02-18 17:15:09,998 [ERROR] ThirdPartyIpManager:536 - Invalid RefComponent liste
2025-02-18 17:15:09,998 [ERROR] ThirdPartyIpManager:536 - Invalid RefComponent liste
2025-02-18 17:15:09,998 [ERROR] ThirdPartyIpManager:536 - Invalid RefComponent liste
2025-02-18 17:15:09,998 [ERROR] ThirdPartyIpManager:536 - Invalid RefComponent liste
2025-02-18 17:15:09,998 [ERROR] ThirdPartyIpManager:536 - Invalid RefComponent liste
2025-02-18 17:15:09,998 [ERROR] ThirdPartyIpManager:536 - Invalid RefComponent liste
2025-02-18 17:15:09,998 [ERROR] ThirdPartyIpManager:536 - Invalid RefComponent liste
2025-02-18 17:15:09,998 [ERROR] ThirdPartyIpManager:536 - Invalid RefComponent liste
2025-02-18 17:15:09,998 [ERROR] ThirdPartyIpManager:536 - Invalid RefComponent liste
2025-02-18 17:15:09,998 [ERROR] ThirdPartyIpManager:536 - Invalid RefComponent liste
2025-02-18 17:15:09,998 [ERROR] ThirdPartyIpManager:536 - Invalid RefComponent liste
2025-02-18 17:15:09,998 [ERROR] ThirdPartyIpManager:536 - Invalid RefComponent liste
2025-02-18 17:15:10,014 [INFO] ProjectBuilder:3418 - Project Generator version: 3.13.0-B3
2025-02-18 17:15:10,794 [INFO] ConfigFileManager:1242 - The Die is : DIE480
2025-02-18 17:15:16,562 [INFO] ProjectBuilder:3584 - Time for Generating toolchain IDE Files: 6548mS.
2025-02-18 17:15:16,562 [INFO] ProjectBuilder:2339 - Time for Copy CMSIS : 0mS.
2025-02-18 17:15:16,562 [INFO] ProjectBuilder:2339 - Time for Copy CMSIS : 0mS.
2025-02-18 17:22:50,863 [INFO] Activator:170 - 


2025-02-18 17:22:50,863 [INFO] Activator:171 - !SESSION log4j initialized
